models/mnist-relaxed1E/classifier_7269980700541562054.pt (torch_old, 1917 bytes, 4 tensors)

default.classifier.0.to_hidden.weight f4 [9, 10]
00000000: 37ef a13e 6cf7 803e 5db7 4f3e 2674 c83e
00000010: 291c e9bd 4a45 103e bf64 f03d 0558 b0be
00000020: cb1e bc3e b20a b8bd d81c 38be dcf4 023f
00000030: 442e 14be 740e d4bb 3972 8a3e 7060 5dbe
00000040: d190 da3e 25ac 8b3e 5e65 653e c0bd 6dbd
00000050: d0af 67bd b1ff 053f 4e57 ac3e e1ad 173e
00000060: 1d31 b7bd a118 dabc 23da 96be cd95 2d3c
00000070: 0aa4 9cbd e3cd 0bbd 67bd d9be 3926 a7bd
00000080: 8e90 d0bd 9213 9a3e 4138 d6be 1db9 033f
00000090: 2821 acbc 238c 26be cfb8 113c 68e1 dbbe
000000a0: 4eda 83bd d227 93be 75d3 063f 314d 91bc
000000b0: ed66 cebe f791 31be b3d1 34be 2c93 873e
000000c0: 8801 cabe 3911 a1bd 20cb 423e be7e 8bbe
000000d0: 0934 57be d216 d73e 1428 b5bd f574 10be
000000e0: c0e8 debe fad2 71be dbc1 92be 4b8c d73c
000000f0: 70aa b7be 304c 653e 7491 1fbe a9cf b0be
00000100: af4b 56be 5e14 a43e fa7e 85be 3c12 f73b
00000110: 612c 27be ba8e 8abd a3ee fbbd 4e56 b13e
00000120: ac41 ff3e d953 363e eb3e 2a3e 4257 59be
00000130: 4d6a 52be eed3 62be 73cf be3e 9200 11be
00000140: f770 a83e b161 2bbe 9aa6 ff3d ba5e 95be
00000150: a1fe 933e 1893 e9be ee69 e13e a880 40be
00000160: f38d d53d 48fc 823e
0.3162782 0.25188768 0.20284791 0.39151114 -0.11382324 0.14088932 0.11737966 -0.34442154
0.36742243 -0.08986415 -0.17979753 0.51154876 -0.14470774 -0.0064714495 0.2704027 -0.21618819
0.4268861 0.27279773 0.2240195 -0.058042288 -0.056564152 0.5234328 0.33660358 0.14812423
-0.089449145 -0.026623072 -0.294633 0.010594797 -0.076484755 -0.034131896 -0.42527315 -0.08161587
-0.101838216 0.30093056 -0.41839793 0.51454335 -0.021011904 -0.16264395 0.008894159 -0.4294541
-0.06438123 -0.28741318 0.5266641 -0.017737003 -0.403129 -0.17340837 -0.17658119 0.2647947
-0.39454293 -0.07864613 0.19022799 -0.27245134 -0.21015944 0.42009598 -0.08845535 -0.14107116
-0.4353695 -0.23615637 -0.28663525 0.026312014 -0.3587222 0.22392344 -0.1558283 -0.34533432
-0.20927308 0.3204679 -0.26073438 0.0075400155 -0.16325523 -0.06765504 -0.12301376 0.34636158
0.4985479 0.17805423 0.16625564 -0.21224692 -0.20548363 -0.22151157 0.37267646 -0.14160374
0.32898685 -0.16736485 0.124829486 -0.29173833 0.28905204 -0.45620036 0.4402613 -0.18799078
0.10427465 0.255831

default.classifier.0.to_hidden.bias f4 [9]
00000000: 4cd2 73be 3d3e 323d cf15 86be efdc d33e
00000010: 12de 963e f82f 893e eecd 7a3c f0f1 623e
00000020: afab a9be
-0.2381069 0.043516386 -0.26188514 0.41379496 0.294663 0.2679441 0.0153078865 0.22162604
-0.33138797

default.classifier.0.to_out.weight f4 [9, 9]
00000000: 712b f3be a779 02bf 4c2e f6be 441d 60be
00000010: e3a0 893e edef 90be be25 6c3d 7f0b 87be
00000020: c6f8 ec3e 7c19 edbe cd27 6c3e b9a6 b13e
00000030: 586a a03e 8509 9ebe 5e08 9bbe 343f fa3e
00000040: 8a5a 673e cc68 6bbe 338d cd3d 95c2 10bf
00000050: e3ee be3e 9138 f03e 2a79 c43e 4e75 01bc
00000060: 7c37 733e 6afa 833e ef9b 83bd b185 22bf
00000070: 1994 39be a725 1bbf 75ca 073f ea5f 29bd
00000080: 9af9 833e 391f f83e 32aa 09bf 3ca3 0bbf
00000090: 286d 963d 9e24 dfbd cd4d e33d 62f6 00be
000000a0: 87a7 91be c982 ddbe 6efb 13be 1629 cc3e
000000b0: 11b2 a13e 4f9e c9be 959d c23e 289e c0bd
000000c0: 3406 cfbe 02f0 abbe dc35 bbbd 5aea f1bd
000000d0: 5a34 ecbe 3f9b 7d3e 49af dcbd 5ccd 9a3d
000000e0: 3376 8e3c 8502 c5bd 2c5e 96bd ef4a 1e3f
000000f0: da78 0abf 6ed7 393e fb48 803d 80b2 e7be
00000100: 2203 bdbd 469b dfbd a8ea 92bd 9093 07be
00000110: 4ff5 02be eb52 0d3e d2ee 2cbe 19f6 cbbd
00000120: bc80 da3e d959 173e cb06 08bf 0137 f83e
00000130: e4f4 85be 508d 67be f70f a8bd fbbe 0dbf
00000140: 9833 c9be
-0.4749408 -0.50966877 -0.48082197 -0.21886164 0.2688056 -0.2830805 0.05765318 -0.26375958
0.4628355 -0.46308506 0.23062058 0.34697512 0.31331134 -0.30866638 -0.3027982 0.48876345
0.22593132 -0.22989196 0.10036697 -0.5654691 0.3729163 0.46918157 0.3837369 -0.007901503
0.23751634 0.25776988 -0.06426226 -0.63485247 -0.18122901 -0.6060433 0.530433 -0.041351236
0.25776368 0.4846132 -0.5377532 -0.5454595 0.07345039 -0.10895656 0.11098824 -0.12593988
-0.28448126 -0.43263844 -0.14451382 0.39875096 0.31581166 -0.39378592 0.3801085 -0.09405166
-0.4043442 -0.3358155 -0.09141132 -0.11812277 -0.4613369 0.24766253 -0.107756205 0.075587004
0.017390346 -0.09619621 -0.073421806 0.6183309 -0.54090655 0.18148586 0.0626392 -0.45253372
-0.09229113 -0.10918288 -0.071736634 -0.13239884 -0.1278889 0.13801162 -0.16887978 -0.09959049
0.42676342 0.14780368 -0.53135365 0.48479465 -0.261634 -0.226125 -0.0820617 -0.5536954
-0.39297175

default.classifier.0.to_out.bias f4 [9]
00000000: f76c 303d 5cd8 db3d b1ea 2abc 7edb 80bc
00000010: d6d9 5f3e d17f 3f3e 93c7 bc3e 436a 333d
00000020: a8f2 ae3e
0.043072667 0.10734627 -0.010431931 -0.015729662 0.21860442 0.18701102 0.36871013 0.04380251
0.34169507
