models/mnist-relaxed1E/classifier_-6713969356749851805.pt (torch_old, 1917 bytes, 4 tensors)

default.classifier.0.to_hidden.weight f4 [9, 10]
00000000: 22d5 36bf e8aa e6be ee6a b8bd 00e0 eebe
00000010: 9c03 593e c081 95bd ac24 80be 2e93 3dbe
00000020: 441b cfbd dc75 8abe a104 3bbd 49f6 e9be
00000030: 0cca b33e 558f 68be 7b34 b33e 83f4 95be
00000040: eb26 b2be 74ec 25be 025a 1d3e 833b d3be
00000050: e86c a83d af11 1f3e e7ea 71be 5bde a63d
00000060: efc3 7f3b fc55 893e 64a8 b33e e7fe 223f
00000070: 471f 283e 0c66 07bf 757c 9a3d feb8 c93c
00000080: 619f 483e 392e be3e e8a7 d9be 2048 04bf
00000090: 0f5c 65bd a14a 88be e15b e5be 466c fd3e
000000a0: ef97 253e 4d18 943e d10d ffbe 1e3e 8abd
000000b0: 2fe8 0e3f b65a 9e3e 3cc9 9f3c 01ad e2be
000000c0: 5cb8 70be 9807 983e 149e cfbe cfd0 f2bd
000000d0: 5e37 113e 1a27 d6be d858 1cbf c935 603d
000000e0: 9263 a1be ce5f bfbe dc5c 2fbe ba5b 263e
000000f0: b1cb 593d ad86 54bd 53ac 1b3f 8ca3 8b3e
00000100: e30d 0b3d 277a 9fbd e36e 953e 8dc1 69bd
00000110: dddb 313f 6ba2 c03e a2a1 a4be cde9 55be
00000120: b85b 5a3d 9437 8d3e 7661 593e 5b66 dd3e
00000130: 4b13 8a3e 4751 1f3f 6114 1a3e 2033 3abd
00000140: 2deb 0a3f 1853 2b3f d36d f43d ba0c f0be
00000150: debe 35bf c3b6 153e 5e8c 7bbd a7dc 823d
00000160: c394 053f dded 1dbe
-0.71418965 -0.45052266 -0.0900477 -0.46655273 0.21192783 -0.073001385 -0.25027978 -0.18513176
-0.101126224 -0.27043045 -0.04565871 -0.45695713 0.35115087 -0.22710927 0.35000977 -0.2928811
-0.34795317 -0.16203481 0.15366367 -0.4125634 0.08223897 0.1553409 -0.23624764 0.0814788
0.0039026698 0.26823413 0.3508941 0.636702 0.16418181 -0.52890086 0.075432695 0.024624344
0.19592048 0.3714464 -0.42510915 -0.51672554 -0.055995997 -0.26619437 -0.4479666 0.4949667
0.1617124 0.2892479 -0.4981523 -0.06750129 0.55823034 0.30928582 0.019505136 -0.44272617
-0.23507828 0.29693294 -0.40550292 -0.11856233 0.14181277 -0.41826707 -0.61073065 0.054738794
-0.3152128 -0.3737778 -0.17125267 0.16245928 0.05317277 -0.05188625 0.6080982 0.27273214
0.03394879 -0.077869706 0.29186162 -0.05706935 0.6947611 0.37623915 -0.32154566 -0.20889969
0.053310126 0.27581465 0.21228585 0.43242154 0.26967844 0.62233394 0.15046836 -0.045458913
0.542651 0.66923666 0.1193501 -0.4688471 -0.70994365 0.146205 -0.06141316 0.06389742
0.5218012 -0.15422769

default.classifier.0.to_hidden.bias f4 [9]
00000000: 0457 a4bd 5f68 be3e 7a22 003e 7a94 28bd
00000010: 9f9c 1f3e ac53 113e 627f e23e 612d d43e
00000020: 2e8c 233d
-0.080244094 0.37189004 0.12513152 -0.041157223 0.1558709 0.14192075 0.4423781 0.4144087
0.039928608

default.classifier.0.to_out.weight f4 [9, 9]
00000000: 872c 94be 1af9 5abf 382a e03e 0ea4 c3be
00000010: 5fa4 d03e 0208 edbe 69c0 47bf 003c 00bf
00000020: e94f a13e ced2 cc3e 9456 4cbe ab49 8cbe
00000030: 8784 ec3d 29cd e9be d31a 203f 0be0 7f3e
00000040: d8bc d93e 3e9f 5abf 26a2 f03e b83e 2c3e
00000050: 7cf0 12bf f786 fd3d c9b7 ef3e 9f29 e83e
00000060: 7553 8abf 4fa2 3abf e4a5 87be c217 e53e
00000070: a769 eb3e b5f4 e93e a8f8 4cbe 2ca8 9cbe
00000080: 82ba dbbe 9059 24bf 5851 9f3e 77ad 30bf
00000090: df0e 3dbf 5a2a 2ebd bb92 33bf f7d0 0b3f
000000a0: 6623 863e 01b6 9abe 544d c23e 6e59 09bf
000000b0: 332a e6be d26e 15bf 0366 c8bd f1e2 023f
000000c0: 9100 41be 25f8 6dbf deaa b9be c6bc 113e
000000d0: e2f8 c93e acff 843e eb2a 27bf 41f4 1cbf
000000e0: 6f7b 0bbe b774 183f 4477 0dbf ccd4 173f
000000f0: ba10 e1bd 4200 1dbf 7668 8e3e ca0c f2bd
00000100: 8cac a0be 1cdd 413e ec90 c2be 53ab 223f
00000110: ef7f 0cbf fb8e c23d b7f2 373f 832b 4ebf
00000120: 4486 643e f5dc ed3e 7fe1 49bd 60ad 2fbf
00000130: 4573 4ebe 7409 3e3e 084d a23e bb4d 1dbf
00000140: 926e 473e
-0.28940222 -0.8553635 0.4378221 -0.382111 0.40750405 -0.46295172 -0.7802797 -0.5009155
0.3150628 0.4000458 -0.19954902 -0.27399954 0.11548715 -0.45664337 0.6254093 0.2498781
0.4252689 -0.85399234 0.4699871 0.168208 -0.573982 0.12379258 0.46819904 0.45344254
-1.0806719 -0.72903913 -0.26493752 0.44744688 0.45979044 0.4569451 -0.2001673 -0.30597055
-0.42915732 -0.6419916 0.31116748 -0.69014686 -0.73850816 -0.04252086 -0.7014577 0.5461573
0.26198882 -0.30216983 0.37949622 -0.53652084 -0.4495407 -0.58372223 -0.09785082 0.51127535
-0.18847872 -0.92956764 -0.36263174 0.14232168 0.39447695 0.25976312 -0.6529986 -0.613102
-0.13621305 0.5955309 -0.5526011 0.5930908 -0.109895185 -0.6132852 0.27814072 -0.118188456
-0.31381643 0.18932003 -0.38001192 0.6354267 -0.5488271 0.094999276 0.7185473 -0.80535144
0.22316843 0.4645764 -0.049287315 -0.68623924 -0.2016116 0.18558294 0.31699395 -0.6144673
0.19475773

default.classifier.0.to_out.bias f4 [9]
00000000: 8853 a8bd 3af8 6a3e 0fc6 523e e9a9 893e
00000010: d023 5e3e a45c 123e 985e 08be 2f07 2abd
00000020: 875e 923e
-0.08219057 0.22946253 0.20583366 0.26887444 0.21693349 0.14293152 -0.13317335 -0.041510757
0.28587744
