models/mnist-relaxed1E/classifier_-1634483658035301170.pt (torch_old, 1917 bytes, 4 tensors)

default.classifier.0.to_hidden.weight f4 [9, 10]
0	0xbd9b721c	-0.07590124
1	0x3edfd9ab	0.43720755
2	0xbe4800fa	-0.19531623
3	0xbdefae8c	-0.11703214
4	0xbf5c766b	-0.8611819
5	0x3ec46fe5	0.3836662
6	0x3eadae85	0.3392221
7	0x3eb57f3c	0.35448635
8	0x3e237e1b	0.15966074
9	0x3d9ccc81	0.076561935
10	0x3f2ba289	0.67044884
11	0x3e824090	0.25439882
12	0xbe57c8b7	-0.2107266
13	0x3ee1cf3a	0.44103414
14	0xbf00a768	-0.5025544
15	0xbe4590fd	-0.1929359
16	0x3ee15cb0	0.44016027
17	0xbdcd8ba2	-0.100363985
18	0x3e0f9d09	0.14024748
19	0x3da082f7	0.078374796
20	0xbbecf63c	-0.007231502
21	0xbe0f64e3	-0.14003329
22	0xbee0eb33	-0.43929443
23	0xbe0389d8	-0.12845552
24	0xbdbd01f7	-0.092288904
25	0x3c6c338d	0.014416588
26	0x3daf9ee6	0.08575229
27	0x3f37d52b	0.71809644
28	0xbd806c97	-0.06270712
29	0xbf06bd22	-0.52632344
30	0xbcb0e1df	-0.021592079
31	0x3ec19a79	0.37813166
32	0xbf378999	-0.7169433
33	0x3d1ba5f7	0.038000073
34	0x3ef88d9e	0.48545545
35	0x3db52c67	0.0884636
36	0x3e23c593	0.15993337
37	0x3e0a66cc	0.13515776
38	0xbe9a0bee	-0.30087227
39	0x3daa92af	0.08328759
40	0x3f0289fe	0.5099181
41	0xbd09d93a	-0.03365443
42	0x3f204c29	0.6261621
43	0x3e3f2ec8	0.1867019
44	0xbe7bcd04	-0.24589926
45	0xbeea83c8	-0.45803666
46	0xbc187e80	-0.009307504
47	0x3d809999	0.062792964
48	0x3ef364fe	0.47537988
49	0x3da28404	0.07935336
50	0xbeda9465	-0.4269134
51	0xbe9e8380	-0.30959702
52	0x3ea7ecd1	0.32797864
53	0x3d68f349	0.05687264
54	0x3e8d2125	0.2756435
55	0x3e198cd3	0.14995126
56	0x3e4f19c8	0.20224679
57	0x3f39b253	0.72537726
58	0x3ec09c78	0.37619376
59	0xbeb3ee04	-0.3514253
60	0x3daf1e8e	0.0855075
61	0x3dd93335	0.1060547
62	0x3e4c3029	0.19940247
63	0xbcfafe3e	-0.03063881
64	0xbf2dc326	-0.678759
65	0xbd648bbc	-0.055797324
66	0xbe80922c	-0.2511152
67	0x3e8ae9b8	0.27131438
68	0xbed02c74	-0.40658915
69	0xbb93edec	-0.0045144465
70	0xbebc94cf	-0.36832282
71	0x3d2241cb	0.039613526
72	0xbe13c695	-0.14431222
73	0xbdf09601	-0.11747361
74	0xbeca2131	-0.39478448
75	0xbe918ab3	-0.28426132
76	0xbe82a4f9	-0.2551649
77	0xbedb44c0	-0.4282589
78	0xbe6e16e1	-0.23250915
79	0x3f15f372	0.58574593
80	0xbd47a5e4	-0.04874219
81	0x3d6178b6	0.05504676
82	0xbc8f7412	-0.017511401
83	0x3ee6df90	0.4509244
84	0x3e560c04	0.20903021
85	0x3ef4e085	0.47827545
86	0x3f00d66c	0.5032718
87	0x3c4fddf5	0.012687196
88	0x3e7b2daa	0.24529138
89	0x3f4a3557	0.7898764

default.classifier.0.to_hidden.bias f4 [9]
0	0xbe167391	-0.14692523
1	0xbeccee67	-0.40025637
2	0x3d809050	0.062775254
3	0x3dbe2e3d	0.09286163
4	0x3dd6870a	0.104749754
5	0xbb02422f	-0.0019875874
6	0x3ef5f49f	0.48038194
7	0xbe5cd6f4	-0.21566373
8	0xbe90351f	-0.28165528

default.classifier.0.to_out.weight f4 [9, 9]
0	0x3ed84170	0.42237425
1	0x3f11feff	0.5702972
2	0x3ec12bcc	0.37728727
3	0x3e96f12f	0.29480883
4	0xbf1b6d51	-0.6071368
5	0xbf3c080d	-0.73449785
6	0xbe25c8df	-0.16189907
7	0xbeda243d	-0.42605773
8	0xbe8b7e20	-0.27244663
9	0x3ea073b2	0.3133827
10	0xbeef4546	-0.4673254
11	0xbf02b59e	-0.51058376
12	0xbf68f038	-0.90991545
13	0xbf34e254	-0.7065785
14	0x3eb79372	0.3585468
15	0xbd29bdde	-0.041440837
16	0x3ee03bf2	0.43795735
17	0x3e8c58a3	0.27411374
18	0xbf4ff67a	-0.8123547
19	0xbf14d871	-0.58142763
20	0xbeb531f7	-0.35389683
21	0x3e9dfc6a	0.3085664
22	0xbf2fefc8	-0.6872525
23	0xbf72c668	-0.94833994
24	0x3e84f4c4	0.2596799
25	0x3f0ece11	0.5578318
26	0xbf448a3a	-0.76773417
27	0xbf2dcc78	-0.6789012
28	0xbf007439	-0.5017734
29	0x3f1fe368	0.6245637
30	0xbd4ba64c	-0.04971914
31	0xbef7ed86	-0.48423404
32	0x3f00dbba	0.50335276
33	0xbe41b66c	-0.18917245
34	0xbf145aca	-0.57951033
35	0xbf42781d	-0.7596453
36	0xbf5ae5ee	-0.85507095
37	0x3ef49d47	0.47776243
38	0xbe99c3c5	-0.30032173
39	0xbe541269	-0.20710148
40	0x3f0ee0d5	0.55811816
41	0xbf3c032a	-0.7344233
42	0xbf05b923	-0.5223562
43	0x3e8f4db0	0.27988958
44	0x3eb8f827	0.36126825
45	0x3ec2e0a2	0.38062006
46	0x3ed25575	0.41080824
47	0x3ec6d79c	0.38836372
48	0xbe37c3f6	-0.17945847
49	0x3f00c61e	0.503023
50	0x3eedea6b	0.4646791
51	0x3eb39f8b	0.3508266
52	0xbf4bd91b	-0.7962815
53	0xbd5cbea5	-0.05389275
54	0x3e72b5d1	0.2370217
55	0x3f06fea1	0.5273228
56	0xbecedfc8	-0.40405107
57	0xbf172983	-0.59047717
58	0x3ea1a4b1	0.31570962
59	0xbefe71dd	-0.49696246
60	0x3f3ea8fc	0.744766
61	0x3ea5aacb	0.32356867
62	0xbf18d39c	-0.5969789
63	0xbf1eeed7	-0.6208319
64	0xbd116237	-0.035494056
65	0xbe6057e9	-0.21908535
66	0x3ec82fb0	0.39098883
67	0xbf065f57	-0.5248923
68	0x3e50baef	0.2038381
69	0xbe995bf0	-0.29952955
70	0xbf4441b4	-0.76662755
71	0x3ef435ab	0.47697195
72	0xbf338df5	-0.70138484
73	0xbf23a047	-0.6391644
74	0xbf472489	-0.77790123
75	0xbf9b308a	-1.2124188
76	0x3f161fc3	0.58642215
77	0x3e8535c8	0.26017594
78	0xbf236fb3	-0.63842314
79	0xbf2a5711	-0.665391
80	0xbef15b34	-0.47139895

default.classifier.0.to_out.bias f4 [9]
0	0x3d954c55	0.0728995
1	0x3d0d1175	0.034440476
2	0x3e88270b	0.26592287
3	0x3d6a3446	0.057178758
4	0xbeca5221	-0.39515784
5	0x3e1d3286	0.15351304
6	0xbb8405c6	-0.0040290086
7	0xbe6e21d3	-0.2325509
8	0x3ebde20e	0.3708653
