models/mnist-relaxed1E/classifier_-4105537841436810383.pt (torch_old, 1917 bytes, 4 tensors)

default.classifier.0.to_hidden.weight f4 [9, 10]
-0.051558036 0.029592734 0.5951614 0.06254543 -0.61149865 -0.40840083 -0.07540946 -0.22400025
0.31287742 0.4447529 0.28993902 0.31876907 0.13744003 -0.24542366 -0.34446055 0.049755447
0.04476462 0.34745222 0.51721793 -0.5524302 0.2324917 0.44890144 -0.08163467 -0.23932867
-0.31042364 -0.2891407 -0.20289487 -0.6283482 -0.11481456 0.20254941 0.62209433 0.065432884
0.6131182 0.21467723 -0.16923815 -0.35448146 0.0864198 -0.19335517 0.5942431 0.14193414
0.35554454 -0.023548776 0.09273661 0.28375712 -0.5443585 -0.26978874 -0.013728359 0.44389257
-0.06763083 -0.20802984 -0.060321677 -0.28427416 0.3037329 0.5465957 0.4606738 0.109375015
0.45165336 -0.079797514 0.46402 0.50440675 -0.18586212 -0.4783639 0.4749595 -0.188558
0.03658457 -0.030469162 -0.06282593 0.36338374 0.5013778 -0.4863248 -0.3456949 -0.14993827
0.27852046 0.12625077 -0.74598473 0.2016114 0.30282468 0.5285063 0.0183391 0.08974931
0.48168686 0.42305866 -0.3012611 0.2754272 0.016798379 0.525747 0.41849738 0.30343187
0.32783613 0.119395494
00000000: 852e 53bd 766c f23c 7f5c 183f d217 803d
00000010: 2d8b 1cbf ea19 d1be 4670 9abd 5260 65be
00000020: 7831 a03e a7b6 e33e e372 943e b335 a33e
00000030: 14bd 0c3e 5750 7bbe 225d b0be 5ecc 4b3d
00000040: 1b5b 373d 42e5 b13e 6568 043f 116c 0dbf
00000050: 4e12 6e3e 69d6 e53e 1430 a7bd 9312 75be
00000060: d9ef 9ebe 400a 94be acc3 4fbe 6ddb 20bf
00000070: e523 ebbd 1d69 4f3e 9341 1f3f ad01 863d
00000080: 50f5 1c3f 59d4 5b3e c44c 2dbe 987e b5be
00000090: ddfc b03d e6fe 45be 5120 183f 2f57 113e
000000a0: ef09 b63e 5de9 c0bc b1ec bd3d 9d48 913e
000000b0: 145b 0bbf c021 8abe e9ec 60bc e345 e33e
000000c0: 0882 8abd c605 55be dd13 77bd 628c 91be
000000d0: e182 9b3e b2ed 0b3f 70dd eb3e 0200 e03d
000000e0: 1c3f e73e e16c a3bd 0894 ed3e cd20 013f
000000f0: a452 3ebe 1dec f4be e42d f33e 5915 41be
00000100: b4d9 153d 779a f9bc e2aa 80bd 6f0d ba3e
00000110: 4c5a 003f 90ff f8be ecfe b0be 6b89 19be
00000120: 3c9a 8e3e e247 013e dbf8 3ebf 3873 4e3e
00000130: d60b 9b3e 304c 073f e13b 963c 7cce b73d
00000140: a99f f63e 259b d83e e53e 9abe cb04 8d3e
00000150: c19c 893c 5b97 063f 4a45 d63e 6c5b 9b3e
00000160: 23da a73e a085 f43d

default.classifier.0.to_hidden.bias f4 [9]
0.26534402 0.114804685 -0.14017545 -0.41580105 0.6703549 0.15142028 0.28158242 -0.19142334
-0.27949968
00000000: 2cdb 873e b81e eb3d 278a 0fbe e0e3 d4be
00000010: 619c 2b3f eb0d 1b3e 922b 903e 7b04 44be
00000020: 951a 8fbe

default.classifier.0.to_out.weight f4 [9, 9]
-0.5342877 0.5884159 0.38275203 -0.20837685 0.07595073 -0.40940362 -0.7165846 -0.26325205
0.83783376 0.35296574 -0.53937024 -0.436012 -0.36628014 -0.40023288 0.33854532 0.2398422
0.63789517 -0.42580405 -0.46858963 -0.51611704 0.55825555 -0.47327372 -0.62484264 -0.5106759
-0.36153406 -0.7814248 -0.93990433 -1.1039313 0.30884224 -1.0783606 -0.89328086 0.5096485
-0.087224714 0.6319336 -0.19184227 -0.7548878 0.2647367 -0.7465792 0.29389352 0.5982646
0.12010313 0.43872234 -0.6349516 -0.24405932 0.13251609 -0.051330622 0.51219594 -0.4398074
0.35058632 0.87316203 0.12564208 0.40437305 0.37969458 0.7740985 0.38999107 0.21230832
0.5015756 0.2826041 0.9203021 -0.3920526 -0.6010842 0.3531824 -0.2749761 -0.9025184
-0.7660421 -0.7889264 -0.053864636 -0.49190733 0.5113223 -0.43047082 -0.44828528 0.7489506
0.14721918 0.4557893 0.2584549 0.51931566 -0.3744029 0.14083119 0.51694965 -0.40584606
-0.2778372
00000000: 14c7 08bf 6da2 163f 13f8 c33e be60 55be
00000010: 0e8c 9b3d 5a9d d1be 1772 37bf f9c8 86be
00000020: 467c 563f edb7 b43e 2b14 0abf f73c dfbe
00000030: 1289 bbbe 53eb ccbe d055 ad3e 3299 753e
00000040: 194d 233f fd02 dabe fbea efbe 3f20 04bf
00000050: d6e9 0e3f ef50 f2be b0f5 1fbf a8bb 02bf
00000060: fe1a b9be 750b 48bf 929d 70bf 9f4d 8dbf
00000070: 9220 9e3e b807 8abf 0eae 64bf 5378 023f
00000080: dfa2 b2bd 67c6 213f 4d72 44be 5440 41bf
00000090: 928b 873e d01f 3fbf 3679 963e de27 193f
000000a0: a1f8 f53d 37a0 e03e 308c 22bf b0ea 79be
000000b0: 4cb2 073e 0f40 52bd 461f 033f 6f2e e1be
000000c0: 0d80 b33e 8c87 5f3f 51a8 003e fc09 cf3e
000000d0: 5467 c23e 522b 463f e9ac c73e 5a67 593e
000000e0: 4267 003f 7cb1 903e eb98 6b3f 1ebb c8be
000000f0: a7e0 19bf 53d4 b43e abc9 8cbe 720b 67bf
00000100: 561b 44bf 15f7 49bf 2aa1 5cbd 47db fbbe
00000110: 05e6 023f ac66 dcbe a685 e5be 3abb 3f3f
00000120: a0c0 163e 375d e93e 3354 843e dff1 043f
00000130: bdb1 bfbe 0d36 103e d056 043f 0ecb cfbe
00000140: ad40 8ebe

default.classifier.0.to_out.bias f4 [9]
0.087204 -0.058876697 0.13324457 0.27523205 -0.4133609 -0.11296075 -0.5383819 0.035176426
-0.14258224
00000000: 0398 b23d b128 71bd 4471 083e 37eb 8c3e
00000010: 0aa4 d3be f757 e7bd 65d3 09bf 2815 103d
00000020: 1401 12be
