models/mnist-relaxed1E/classifier_-3763521829053186460.pt (torch_old, 1917 bytes, 4 tensors)

default.classifier.0.to_hidden.weight f4 [9, 10]
00000000: 3fdb 8cbd f562 34bd 382c 55bf b570 7d3d
00000010: fdf2 cbbe 6374 3bbd 3dfd 283d 86f2 41bf
00000020: c83e e5bd 324b 373e 70f0 d3be 3ebb 96bc
00000030: 97ed 84be 4a2f 8f3d 8cbf da3c bcce c73e
00000040: e731 513f bd14 e73c 71d6 23be 042c 72bb
00000050: 5ff1 43bf 26a5 49be f6b9 65be 8f56 a73e
00000060: 2eac 283e 33d9 68be 9e5c 23bf 60e6 9bbe
00000070: 74b7 3cbe 22a1 c33d 0457 d8be 3ba7 723c
00000080: 3354 2cbe a5f8 b03e ecb9 48be 4b46 89bf
00000090: 47c1 973d 3a6a b3bd 942e f73d dbde c0bd
000000a0: 13ec d2bd 7694 f83e c2fe 4a3d 15b4 3cbe
000000b0: 3dcd 833d a9d8 213e f5df 5f3e 30d6 373f
000000c0: c5e8 a63e 5c25 5e3e e430 293e 6835 123f
000000d0: e74f 93be 07fd 5ebe 55ff 183d b331 8a3e
000000e0: 1b1f 16bf 4090 afbe d814 04be 51ea bd3e
000000f0: 1d60 cc3e e598 f23e e16c b7be 1aa6 ca3e
00000100: e5dd dd3e e7f0 5bbe b911 82be ba46 0e3f
00000110: 4439 da3d f776 9c3d 2caa 5cbf 0ff2 19bf
00000120: 4460 c23e 4e6a 853e 4556 013f af10 603d
00000130: d0aa 86be 21d6 ec3d 9dc2 17be 8b69 76bd
00000140: 5597 fdbe 622c 2cbe 0ac8 00bf 7f87 003f
00000150: f1ed 613f 1119 7e3d 8c54 383e a5bc c03d
00000160: 1baf dabd 92fa 1cbd
-0.068777554 -0.044039685 -0.832706 0.061875064 -0.39833823 -0.045765292 0.04125713 -0.75760686
-0.11193615 0.17899778 -0.41394377 -0.01839983 -0.25962517 0.069914415 0.026702665 0.39024913
0.8171677 0.028208131 -0.15999772 -0.0036952505 -0.7654018 -0.19691905 -0.2243422 0.32683226
0.16471931 -0.22739105 -0.638132 -0.304492 -0.18429357 0.09552218 -0.42253888 0.014810379
-0.16828994 0.345647 -0.19602174 -1.0724577 0.074099116 -0.087604955 0.12069431 -0.09417506
-0.10298934 0.48550767 0.049559362 -0.18428071 0.064356305 0.15805306 0.21862777 0.718112
0.32599464 0.21693939 0.16522557 0.5711274 -0.28771898 -0.2177621 0.03735288 0.26991042
-0.58641213 -0.34289742 -0.12898576 0.37092832 0.3991708 0.47382274 -0.35825256 0.3957985
0.43333355 -0.21478616 -0.25404146 0.5557667 0.10655454 0.07639878 -0.8619716 -0.6013498
0.3796407 0.26057667 0.5052226 0.05470341 -0.26302195 0.11564279 -0.14820333 -0.060159247
-0.4952952 -0.16813806 -0.50305235 0.5020675 0.88253695 0.062035624 0.18001002 0.09410981
-0.1067793 -0.0383249

default.classifier.0.to_hidden.bias f4 [9]
00000000: 42a4 043f 3b2f d03e 33b3 72be 2b18 ca3e
00000010: f422 edbd 1ab1 cf3d f770 dbbe 86da 16be
00000020: c96c 67be
0.5181314 0.40661034 -0.23701172 0.39471564 -0.115789324 0.10141201 -0.42859623 -0.14731798
-0.22600092

default.classifier.0.to_out.weight f4 [9, 9]
00000000: f660 c93e 4d1c db3e 5596 aa3e 2c43 d93e
00000010: 8e4b 6cbe 508b 24be d40a 55bf dd56 b23e
00000020: 4c27 383e e3d0 09bf 47e3 18bf 9ce3 2ebf
00000030: b696 0f3f 2a35 50bf 7851 05bf fad1 e33e
00000040: bfe8 09bf 8229 cdbe 8bea 1cbf b35c 213f
00000050: 2c62 3fbf 97e5 25bf 380a e93e ed9b 3cbf
00000060: 15f0 36bf b0e7 413c 1c96 edbe 1599 f3be
00000070: db85 22bf 5be7 e6be 06ec 1ebf edb8 053f
00000080: ca6f c93e 9255 e53e ca7b a0be a65b f1be
00000090: 6182 d13e 8dab f23e a064 c2bc 7648 57be
000000a0: f755 0e3e 7403 c03e afa1 d93e 1abd edbe
000000b0: b3dd b83e 94b3 be3e e3f6 07bf 7ca6 b33e
000000c0: 69e5 0f3f 4107 9d3d ab2e f73e a4a7 553d
000000d0: 8596 46be 00dc 1bbf 8de1 103f 2473 9e3e
000000e0: 5d77 e7be aae6 05bf 1a85 eabe 85bd f13e
000000f0: 8f05 60bf d5ba 27bf 5120 2ebf cc73 1ebf
00000100: c6cb e73e d251 94bd 4fa0 883e 2711 9d3e
00000110: f43f 12bf 27b3 b83e 7cfe 8a3e 2306 d33e
00000120: d908 11bf 3fdc 05bf 929e c23e ece9 24bf
00000130: c922 f0be 1156 cb3e 4eb3 cd3d de08 f33e
00000140: d157 723d
0.39331788 0.4279503 0.3331782 0.4243406 -0.23075697 -0.16068769 -0.8321965 0.34831896
0.1798374 -0.5383436 -0.597218 -0.68316054 0.5608934 -0.8133112 -0.52077436 0.44496137
-0.5387077 -0.4007073 -0.61295384 0.6303207 -0.74759173 -0.6480345 0.4551561 -0.73675424
-0.71460086 0.011835024 -0.46403587 -0.4757773 -0.634855 -0.45098385 -0.62078893 0.522353
0.393431 0.44791847 -0.31344444 -0.47140235 0.40919784 0.47396508 -0.023729622 -0.21023735
0.1389998 0.37502635 0.42506167 -0.46433336 0.36106643 0.37246382 -0.53111094 0.35087955
0.5620943 0.07667399 0.48277792 0.052161828 -0.19393356 -0.6088257 0.56594163 0.3094722
-0.45208254 -0.5230509 -0.45804673 0.47214904 -0.8750848 -0.6551946 -0.6801806 -0.6189544
0.45272654 -0.072421685 0.26684806 0.3067715 -0.57128835 0.36074182 0.2714728 0.4121562
-0.56654125 -0.52289194 0.38011605 -0.64419436 -0.4690154 0.397141 0.10043965 0.47467703
0.05916578

default.classifier.0.to_out.bias f4 [9]
00000000: 9d03 bfbe 4688 8a3b 9897 3f3e 5b59 a8bc
00000010: 9662 10bf 5ed5 5e3e a5d1 003c c685 e9be
00000020: 058c 8d3e
-0.37307444 0.004227671 0.18710172 -0.02055042 -0.5640043 0.2176108 0.007862483 -0.45609874
0.2764589
