models/mnist-relaxed1E/classifier_9138812618953800544.pt (torch_old, 5059 bytes, 12 tensors)

CUBO.classifier.0.to_hidden.weight f4 [9, 10]
-0.2949855 -0.0544109 0.5942843 -0.03934917 -0.36042285 -0.31212217 -0.07906067 0.60978395
-0.05522022 -0.29964086 0.2814678 0.15443939 0.9694189 0.3654622 -0.121556185 0.3287771
-0.06501881 -0.1951429 0.28048548 0.07931808 -0.22176038 0.042098995 0.34829918 -0.21551307
0.6216803 -0.40700832 -0.19047168 0.3483616 -0.3973493 -0.435775 -0.19006328 -0.36569864
0.10927022 0.20414844 0.5043873 0.52203804 0.27960926 0.03649724 0.35391667 -0.30744517
-0.5219832 0.057103343 -0.08756759 0.4007859 0.66317976 -0.068069294 0.07768966 -0.075645104
-0.758776 0.15470864 -0.21247965 0.35169125 0.3564855 0.26095718 -0.314994 0.2793958
-0.19773877 -0.294459 -0.59037703 0.30192432 0.55564666 0.6028884 0.0815042 -0.17367227
-0.049905077 -0.16832545 -0.1161317 -0.6591071 0.29046902 -0.056588534 -0.14049378 -0.47231123
0.17030267 0.38819236 0.46408913 0.12747687 0.45969853 -0.2416342 0.50136554 0.56576014
0.02451748 -0.06803492 -0.028904555 0.018022966 0.24160573 -0.7747645 0.13919517 0.27218685
0.05468873 0.6100084
00000000: 5708 97be f7dd 5ebd 0423 183f 982c 21bd
00000010: 5889 b8be 7ace 9fbe 90ea a1bd cd1a 1c3f
00000020: 992e 62bd 876a 99be 8c1c 903e 5c25 1e3e
00000030: d62b 783f dd1d bb3e 73f2 f8bd 7955 a83e
00000040: 9528 85bd 8ad3 47be cb9b 8f3e 8471 a23d
00000050: 2715 63be ff6f 2c3d 4554 b23e 75af 5cbe
00000060: 7126 1f3f 6563 d0be 020b 43be 745c b23e
00000070: 5e71 cbbe e71d dfbe f39f 42be da3c bbbe
00000080: 11c9 df3d 4a0c 513e 871f 013f 49a4 053f
00000090: f228 8f3e 217e 153d 9134 b53e 7469 9dbe
000000a0: b1a0 05bf 32e5 693d a356 b3bd cf33 cd3e
000000b0: 26c6 293f ea67 8bbd c21b 9f3d d2eb 9abd
000000c0: 253f 42bf f16b 1e3e 4494 59be e010 b43e
000000d0: 4485 b63e 2e9c 853e e546 a1be f70c 8f3e
000000e0: 087c 4abe 54c3 96be f322 17bf d395 9a3e
000000f0: dc3e 0e3f e556 1a3f adeb a63d 25d7 31be
00000100: 4469 4cbd 825d 2cbe 75d6 edbd 3ebb 28bf
00000110: 5bb8 943e 61c9 67bd 9add 0fbe c7d2 f1be
00000120: d363 2e3e 26c1 c63e 179d ed3e 4c89 023e
00000130: 9b5d eb3e f56e 77be 7e59 003f a8d5 103f
00000140: e2d8 c83c e455 8bbd 3fc9 ecbc e6a4 933c
00000150: 7e67 773e f756 46bf 2e89 0e3e 135c 8b3e
00000160: 4a01 603d 8329 1c3f

CUBO.classifier.0.to_hidden.bias f4 [9]
0.681521 0.22171251 0.020216035 -0.08168412 0.28168178 0.4164319 0.207184 0.19250314
0.031131603
00000000: 2978 2e3f 9b08 633e 199c a53c 014a a7bd
00000010: 9838 903e 9036 d53e 0b28 543e 8b1f 453e
00000020: b407 ff3c

CUBO.classifier.0.to_out.weight f4 [9, 9]
-0.85299677 -0.6423634 -0.5723171 -0.075746685 -0.7613731 -0.7485583 0.41880456 -0.5839603
-0.55129045 0.3851285 0.37153256 -0.6192348 0.27653468 0.03686613 0.40120474 -0.99797076
0.2553038 -0.3008865 -0.21203876 -0.39237472 0.39380008 -0.32386908 0.39035147 0.5149298
0.25874928 -0.6313556 -0.20823705 0.44293934 -0.5090232 0.49384332 0.31307232 0.18351175
-0.5977417 -0.7432226 -0.5051219 -0.41254333 -0.6967785 0.38486937 -0.63651675 -0.19182439
0.16440752 0.27093363 0.23581788 0.22665241 0.59179366 0.56702 -0.20339215 0.39690328
-0.39514348 -0.8262894 -0.7579708 0.16844416 -0.39197153 0.72472364 0.29008538 0.47210816
-0.690306 -0.64283216 -0.70630455 0.5081968 0.2899157 -0.6360998 -0.11677494 -0.703746
-0.4493308 0.23370643 0.3839266 0.3548511 -0.4464653 -0.23650728 0.2832774 0.41959697
0.03438069 0.50199556 0.35211265 0.4753016 -0.23289137 -0.5808838 0.3740025 0.058579434
-0.37320763
00000000: ff5d 5abf ee71 24bf 6083 12bf 1421 9bbd
00000010: 59e9 42bf 84a1 3fbf 8d6d d63e 6c7e 15bf
00000020: 5f21 0dbf 902f c53e 8439 be3e 2c86 1ebf
00000030: f495 8d3e f000 173d b56a cd3e 037b 7fbf
00000040: 2eb7 823e cc0d 9abe b020 59be 57e5 c8be
00000050: 2aa0 c93e 2bd2 a5be 26dc c73e 70d2 033f
00000060: c97a 843e 85a0 21bf 183c 55be f2c8 e23e
00000070: 584f 02bf 08d9 fc3e 044b a03e 81ea 3b3e
00000080: 9a05 19bf d643 3ebf ab4f 01bf e138 d3be
00000090: 1360 32bf 990d c53e c3f2 22bf 9d6d 44be
000000a0: 725a 283e d0b7 8a3e 3e7a 713e 9217 683e
000000b0: ca7f 173f 3928 113f 0846 50be e836 cb3e
000000c0: 3f50 cabe b487 53bf 600a 42bf a07c 2c3e
000000d0: 7eb0 c8be 7d87 393f 1286 943e 29b8 f13e
000000e0: e5b7 30bf a690 24bf 60d0 34bf 2f19 023f
000000f0: d56f 943e 70d7 22bf b327 efbd b328 34bf
00000100: b00e e6be bd50 6f3e 0792 c43e 0baf b53e
00000110: 1a97 e4be f72e 72be bc09 913e 6ad5 d63e
00000120: c4d2 0c3d c882 003f 1c48 b43e bb5a f33e
00000130: 137b 6ebe cdb4 14bf 417d bf3e fdf0 6f3d
00000140: 1215 bfbe

CUBO.classifier.0.to_out.bias f4 [9]
0.6877714 -0.048187267 0.2965013 -0.05766689 0.1942357 0.07619925 0.10385787 -0.031645562
-0.15810369
00000000: c911 303f 0360 45bd 05cf 973e 1e34 6cbd
00000010: b9e5 463e 5a0e 9c3d 6fb3 d43d c79e 01bd
00000020: efe5 21be

IWELBO.classifier.0.to_hidden.weight f4 [9, 10]
-0.03085594 0.4071154 -0.58478075 -0.21443684 -0.24240482 0.084604494 -0.1434632 -0.26286188
-0.52856696 0.14972125 -0.14737864 -0.040680088 0.56771684 -0.22614373 -0.71125126 -0.079960585
-0.119075984 0.26955536 0.44059944 -0.012836277 -0.48104292 -0.25312752 0.2097077 -0.124485016
0.28029588 0.13448077 -0.008515556 0.28974497 0.2034146 -0.3981563 -0.60337776 -0.3730385
0.18315253 -0.28063008 0.7703155 -0.25902626 -0.2015707 -0.4501176 -0.04491317 0.008648677
0.1234263 -0.19364202 0.37706745 0.49329075 -0.65458894 -0.414748 0.23439954 0.020824539
0.13217086 0.38983977 0.23233572 0.46200746 0.16573748 -0.4315742 -0.35784072 0.18221086
-0.21269953 -0.08634216 0.15585345 -0.10877974 0.30503964 0.32853162 -0.10601221 0.33554715
0.49967703 -0.0900051 0.4970653 0.39345533 0.6045913 -0.36148533 -0.54059285 -0.64793074
-0.07142457 0.11156019 0.05904937 0.002212337 0.04503647 0.30570954 -0.26368827 -0.19136685
-0.2963033 0.101986565 0.17057195 -0.22077893 -0.06516194 -0.22725572 -0.20666337 -0.7167298
-0.10072197 0.31068113
00000000: 99c5 fcbc 6e71 d03e 31b4 15bf 5595 5bbe
00000010: f838 78be 1f45 ad3d 04e8 12be d595 86be
00000020: 2a50 07bf 8750 193e 6dea 16be 2aa0 26bd
00000030: e455 113f 3992 67be 9014 36bf 60c2 a3bd
00000040: 1cde f3bd 2903 8a3e 4096 e13e 3f4f 52bc
00000050: 424b f6be ee99 81be 9ebd 563e 00f2 febd
00000060: f182 8f3e 54b5 093e d584 0bbc 7459 943e
00000070: eb4b 503e 24db cbbe f776 1abf e7fe bebe
00000080: 568c 3b3e bfae 8fbe 6633 453f 179f 84be
00000090: 8d68 4ebe d075 e6be dff6 37bd 2eb3 0d3c
000000a0: eec6 fc3d 184a 46be fc0e c13e 9b90 fc3e
000000b0: 2493 27bf da59 d4be 6f06 703e 3998 aa3c
000000c0: cc57 073e 1499 c73e 6ae9 6d3e 3e8c ec3e
000000d0: 16b7 293e 4bf7 dcbe e636 b7be 7c95 3a3e
000000e0: e8cd 59be 29d4 b0bd 0c98 1f3e eac7 debd
000000f0: 282e 9c3e 4c35 a83e ee1c d9bd d6cc ab3e
00000100: abd5 ff3e 9854 b8bd 587f fe3e fa72 c93e
00000110: 7fc6 1a3f 9b14 b9be 4b64 0abf cade 25bf
00000120: 0c47 92bd ab79 e43d c1dd 713d dbfc 103b
00000130: 2978 383d f685 9c3e 2602 87be acf5 43be
00000140: 11b5 97be 55de d03d 6aaa 2e3e df13 62be
00000150: a073 85bd b9b5 68be 909f 53be 9b7b 37bf
00000160: 5247 cebd 9911 9f3e

IWELBO.classifier.0.to_hidden.bias f4 [9]
-0.075864404 0.021016935 0.1843532 0.48540768 0.3836927 -0.11051947 0.23125765 0.30403888
-0.21643586
00000000: cc5e 9bbd b52b ac3c 16c7 3c3e 5b87 f83e
00000010: 5f73 c43e 0858 e2bd cece 6c3e fcaa 9b3e
00000020: 5da1 5dbe

IWELBO.classifier.0.to_out.weight f4 [9, 9]
0.50842196 -0.66378844 -0.498143 -0.51955855 -0.6676823 0.32172295 0.44061616 -0.3864305
-0.4052764 -0.21894784 0.33328906 0.27876362 0.2923248 0.40292147 -0.6793136 -0.6866891
0.555477 0.13025829 0.5566669 -0.5955288 -0.03771606 0.46867856 -0.7854221 -0.11041178
-0.39702675 -0.11026595 0.19573037 -0.34941417 -0.5879864 0.4638071 0.2800899 -0.515569
-0.7384715 0.29858503 0.52620727 -0.68556374 -0.14262159 -0.6556687 -0.76607466 0.30860907
0.676402 -0.6252205 0.21819122 -0.5412718 0.15890244 -0.77319914 0.44256505 0.26825625
-0.82535225 0.26255354 -0.03701627 0.38702965 -0.30819446 -1.2848614 0.4246639 0.3940433
-0.6858593 -0.6049518 0.52501464 0.24756502 -0.29777125 -0.26549575 0.10997816 -0.2264015
-0.24609815 -0.21090314 -0.19278772 0.023424014 -0.07149096 -0.33585787 0.24713945 -0.19560431
-0.6688402 0.28095073 0.25882587 0.29507762 -0.40748867 0.2445581 0.19926824 -0.65211797
-0.040993378
00000000: f127 023f 0aee 29bf 990c ffbe ca01 05bf
00000010: 3aed 2abf dfb8 a43e 7198 e13e 38da c5be
00000020: 6380 cfbe dd33 60be dda4 aa3e 1bba 8e3e
00000030: 99ab 953e b94b ce3e 7fe7 2dbf dbca 2fbf
00000040: be33 0e3f 6e62 053e b981 0e3f 9374 18bf
00000050: 287c 1abd a3f6 ef3e 6c11 49bf 921f e2bd
00000060: 1747 cbbe 1dd3 e1bd 8b6d 483e 6ae6 b2be
00000070: 4786 16bf 2078 ed3e f267 8f3e 54fc 03bf
00000080: 780c 3dbf 23e0 983e 85b5 063f 1b81 2fbf
00000090: 650b 12be e7d9 27bf 781d 44bf 0202 9e3e
000000a0: ae28 2d3f 730e 20bf 856d 5f3e ca90 0abf
000000b0: 52b7 223e 61f0 45bf e397 e23e e258 893e
000000c0: 494a 53bf 6b6d 863e 5f9e 17bd c028 c63e
000000d0: aacb 9dbe 5776 a4bf 8c6d d93e 0bc0 c93e
000000e0: 7a94 2fbf 1fde 1abf 5c67 063f af81 7d3e
000000f0: 7975 98be 0fef 87be 3b3c e13d cbd5 67be
00000100: 2701 7cbe fef6 57be 256a 45be b8e3 bf3c
00000110: da69 92bd 90f5 abbe 2012 7d3e 7f4c 48be
00000120: 1d39 2bbf c6d8 8f3e d384 843e 6a14 973e
00000130: 5ba2 d0be 706d 7a3e f90c 4c3e 34f1 26bf
00000140: ace8 27bd

IWELBO.classifier.0.to_out.bias f4 [9]
-0.12972082 -0.30876568 -0.23905142 0.07404827 0.26130307 0.34277412 -0.3855693 -0.36576375
0.19396938
00000000: 89d5 04be 8916 9ebe e5c9 74be 9fa6 973d
00000010: 84c9 853e 1780 af3e 5769 c5be 6345 bbbe
00000020: e99f 463e

REVKL.classifier.0.to_hidden.weight f4 [9, 10]
0.13713835 0.035839237 0.06840435 0.08135725 0.8400132 -0.26632127 0.05039759 -0.08427172
0.18348691 0.0150272 0.16197556 -0.087815 -0.3243045 0.08456011 -0.150326 0.12796578
0.24495254 0.78725886 0.015290731 -0.6425195 0.42699596 0.23899838 -0.43197927 0.44405907
0.22059835 0.30432138 0.56062406 0.18152048 0.23318541 0.24294221 0.048631277 0.14133497
-0.06239048 -0.4464947 0.3493127 0.40140048 -0.074460685 -0.063153304 0.39457723 -0.264089
-0.056135975 -0.5529716 0.09203682 0.532864 0.19010496 0.015639491 0.4279955 -0.17520799
-0.08989298 0.53183615 -0.46152607 -0.28777465 -0.085041456 0.29674008 0.4484287 0.4426693
0.057909004 0.18905413 -0.38200536 -0.15841772 0.06552884 -0.12920286 0.79577166 0.29601797
-0.448496 -0.29207197 0.12400563 0.036092184 0.41111815 -0.053051393 0.51511145 0.5927848
-0.017611424 0.22162916 -0.17330813 -0.25221902 0.34759146 0.17694296 0.41010708 0.19853882
-0.32157168 -0.42537352 0.33676976 0.15401866 0.2719063 0.14746918 0.31614268 0.53856266
0.37270078 -0.47623894
00000000: ff6d 0c3e 2acc 123d 9417 8c3d a19e a63d
00000010: 1b0b 573f 435b 88be b46d 4e3d a796 acbd
00000020: fee3 3b3e a534 763c ecdc 253e 5ad8 b3bd
00000030: 3d0b a6be da2d ad3d 0fef 19be 7609 033e
00000040: d7d4 7a3e cc89 493f f985 7a3c 287c 24bf
00000050: 379f da3e febb 743e 632c ddbe b65b e33e
00000060: 89e4 613e 03d0 9b3e 0f85 0f3f 81e0 393e
00000070: 28c8 6e3e d8c5 783e 9731 473d 1dba 103e
00000080: 298d 7fbd f49a e4be 1dd9 b23e 5d84 cd3e
00000090: d87e 98bd 8556 81bd 0706 ca3e ac36 87be
000000a0: d6ee 65bd 8c8f 0dbf cd7d bc3d c669 083f
000000b0: e0aa 423e 641e 803c 3a22 db3e b969 33be
000000c0: d019 b8bd 6a26 083f 254d ecbe 3357 93be
000000d0: 372a aebd 51ee 973e 7298 e53e 8da5 e23e
000000e0: fe31 6d3d 6897 413e 3596 c3be 4138 22be
000000f0: fc33 863d c14d 04be b1b7 4b3f ab8f 973e
00000100: 45a1 e5be 758a 95be aaf6 fd3d 66d5 133d
00000110: 147e d23e 6b4c 59bd 58de 033f bfc0 173f
00000120: d545 90bc c1f2 623e b077 31be da22 81be
00000130: 82f7 b13e 8930 353e 8ef9 d13e c34d 4b3e
00000140: 0ba5 a4be 8fca d9be 166d ac3e 11b7 1d3e
00000150: 4d37 8b3e 2902 173e 74dd a13e 3edf 093f
00000160: a3d2 be3e 97d5 f3be

REVKL.classifier.0.to_hidden.bias f4 [9]
-0.32900938 0.051453784 0.061610885 0.34599078 0.07703525 -0.07701767 0.29045016 -0.33084366
0.049029633
00000000: eb73 a8be 34c1 523d b25b 7c3d b425 b13e
00000010: a8c4 9d3d 71bb 9dbd e2b5 943e 5764 a9be
00000020: 4cd3 483d

REVKL.classifier.0.to_out.weight f4 [9, 9]
-0.051793896 0.4747257 0.4011137 0.31355163 -0.2762006 -0.4772619 -1.0039322 0.3564646
-0.64180773 -0.83467454 -0.65085304 -0.5009659 -0.41834307 0.65091145 0.34003115 0.35670725
-0.9923376 0.49196368 -0.08971486 -0.7634748 -0.83769965 0.42122176 -0.5406299 0.039714515
-1.1911503 -1.1108439 -1.0428904 0.24684344 0.6466502 -0.54317427 0.025280353 -0.5747075
0.48914132 -0.21155237 -0.7726173 0.57707816 0.34974363 -0.41998366 0.31503564 -0.674851
0.63564277 -0.18674959 0.3431007 0.31655508 -0.4781193 -0.42303437 0.6754218 0.2358692
0.18230823 -0.020639546 -0.31083685 0.46743757 0.3299585 0.4566972 -0.83704954 -0.33970505
-0.6414144 -1.0208701 -0.573041 -0.43967137 0.45005924 0.38599792 -0.65670323 0.3245685
-0.24845335 0.6029243 0.08092903 0.3923766 0.651519 -0.6167979 0.040931396 0.2826001
0.34259298 -0.36585435 -0.7179731 0.4803823 -0.4124487 -0.5421221 0.4248404 7.448427e-05
0.24019201
00000000: d625 54bd 3f0f f33e c65e cd3e d789 a03e
00000010: 2a6a 8dbe ac5b f4be da80 80bf 8782 b63e
00000020: 834d 24bf 3bad 55bf 4e9e 26bf 4d3f 00bf
00000030: 1031 d6be 22a2 263f 9018 ae3e 55a2 b63e
00000040: d609 7ebf aae2 fb3e 6dbc b7bd 1673 43bf
00000050: 7c73 56bf 61aa d73e b966 0abf b0ab 223d
00000060: 9d77 98bf 2230 8ebf 6f7d 85bf 87c4 7c3e
00000070: de8a 253f 780d 0bbf be18 cf3c 0820 13bf
00000080: bb70 fa3e 2fa1 58be 3fca 45bf 65bb 133f
00000090: 9911 b33e 1908 d7be 5a4c a13e 09c3 2cbf
000000a0: 7cb9 223f 493b 3fbe e5aa af3e 8213 a23e
000000b0: 0ecc f4be f697 d8be 71e8 2c3f b287 713e
000000c0: 02af 3a3e 4414 a9bc 0226 9fbe fa53 ef3e
000000d0: 52f0 a83e 37d4 e93e e148 56bf d2ed adbe
000000e0: bc33 24bf dfab 82bf d1b2 12bf 9b1c e1be
000000f0: 2a6e e63e 85a1 c53e b41d 28bf d82d a63e
00000100: 8e6a 7ebe 3f59 1a3f 1fbe a53d 96e5 c83e
00000110: f3c9 263f 78e6 1dbf aea7 273d f6b0 903e
00000120: 5968 af3e 4351 bbbe 16cd 37bf abf4 f53e
00000130: 7a2c d3be 84c8 0abf ae84 d93e 7034 9c38
00000140: e5f4 753e

REVKL.classifier.0.to_out.bias f4 [9]
0.12836413 0.22780927 0.6456856 -0.21096012 -0.3141206 -0.4335417 -0.1670068 -0.09992227
-0.2779089
00000000: e371 033e d546 693e a74b 253f ee05 58be
00000010: 6ad4 a0be 2df9 ddbe d503 2bbe 0ca4 ccbd
00000020: 134a 8ebe
