models/mnist-relaxed1E/classifier_-5715881879979088570.pt (torch_old, 1917 bytes, 4 tensors)

default.classifier.0.to_hidden.weight f4 [9, 10]
000000 04 6f be bd fe 38 d6 3e 14 ff 88 be b0 23 f0 bd
       -0.09298518 0.41840357 -0.2675711 -0.11725557
000010 d4 0f bd be 20 91 7c be 64 35 a3 bd 0c cf 02 bf
       -0.36926138 -0.24664736 -0.07969168 -0.5109718
000020 d0 de ba be eb d9 c5 3e 0e 43 67 3e 0f 74 69 be
       -0.36498117 0.3864282 0.22584173 -0.22798179
000030 d7 6a 94 3e 4f 62 94 3e 5a da 36 be 94 88 1c bf
       0.28987762 0.28981254 -0.17856732 -0.611459
000040 3c 6f 7d 3d 67 1e 95 3e 85 f1 04 bd 01 4f df be
       0.06187366 0.29124758 -0.032456893 -0.43614963
000050 1a 9a a5 3e 84 44 66 bd e3 3d 3b 3f 89 06 7a 3d
       0.32344133 -0.056217685 0.73141307 0.06104139
000060 1a 67 eb be 0d b8 a5 be 6c c7 12 bd 64 be c8 bd
       -0.45977098 -0.32366982 -0.035834715 -0.09801939
000070 10 d4 09 3f 38 19 17 3e db ce 75 3e 0c 6d 9b 3c
       0.53839207 0.14755714 0.2400469 0.018972896
000080 88 dc 93 be 5c e3 9b 3d 21 59 6b 3f 9c b0 0e be
       -0.2887919 0.07611725 0.91932875 -0.13934559
000090 09 3f 81 3d 3d 68 ea be b7 c9 ee bd fa 68 07 be
       0.06310851 -0.45782652 -0.11659568 -0.13223639
0000a0 9c 10 bf 3e 5c 74 fe 3e 35 d7 66 be fa c1 18 3d
       0.3731736 0.4969815 -0.22543032 0.037294365
0000b0 d6 3b 4e bf 18 9e 24 3e 0f 31 bf 3d 3c b4 00 3f
       -0.8056005 0.16075933 0.09335529 0.50275016
0000c0 d1 b3 aa bd c4 ef 26 be 3a a2 4a 3e 9f 71 e1 3e
       -0.083350785 -0.16302401 0.19788447 0.44032
0000d0 08 48 2d bd 57 b1 10 bf 7c 0e 98 be 8a 60 d1 bc
       -0.042305022 -0.565206 -0.2969855 -0.025558729
0000e0 18 94 bc be f0 cd bf be 85 3a ed bc e3 5c 69 be
       -0.36831737 -0.37461805 -0.028958568 -0.2278934
0000f0 a8 ce 1b be 3c 34 8b 3e e9 26 5f bd 9e 4a 88 bc
       -0.15215552 0.2718829 -0.054480467 -0.016637143
000100 09 ef 8d bc 77 8b eb 3e 65 a9 c7 3e 32 18 a9 3e
       -0.017325895 0.4600484 0.38996425 0.33026272
000110 0c 0a 04 3f 27 92 c7 3d 46 e7 0b bf d8 cb 02 bf
       0.5157783 0.09744673 -0.5464977 -0.5109229
000120 b8 fe 01 3e 75 24 b8 be e1 63 75 3c 26 39 53 be
       0.12694824 -0.35965315 0.014977426 -0.20627269
000130 13 1d 89 be 69 a8 a1 bd 6c b0 01 be 62 3b e4 be
       -0.26779994 -0.0789345 -0.12664956 -0.44576555
000140 a5 e1 49 3e 36 04 8a 3e ee a8 39 bd f8 b7 34 be
       0.19714983 0.26956338 -0.04532712 -0.17648304
000150 53 43 90 3e 9c e6 a2 3e cd 94 cb 3d 6b bb c7 3e
       0.28176364 0.31816566 0.09940491 0.39010176
000160 ba cc de 3e 06 8e e7 be
       0.4351557 -0.45225543

default.classifier.0.to_hidden.bias f4 [9]
000000 c9 ff c9 3c 43 9d 06 3f 8e 7e d2 3e 53 01 05 3e
       0.0246581 0.5258371 0.4111218 0.12988786
000010 59 0a 01 3e 0c 27 aa be a9 2b 4c 3d bf 0e e3 3e
       0.12601604 -0.33232915 0.049846325 0.44347188
000020 c2 66 3a bd
       -0.045508154

default.classifier.0.to_out.weight f4 [9, 9]
000000 4a 88 a4 3e 43 e7 62 be 83 bf 10 bf 22 e2 c8 3d
       0.3213523 -0.22158532 -0.56542224 0.098087564
000010 34 c7 07 3f b0 e7 c7 3e 4e 12 28 3e 95 bb 23 bf
       0.53038335 0.3904395 0.16413233 -0.639581
000020 19 8e e3 3e 7d 46 7b 3e ab 85 23 bf b2 7a fa 3d
       0.4444435 0.24538608 -0.63875836 0.122304335
000030 94 0e 46 bf a4 2e 93 be c1 4d 44 bf c3 82 ba 3e
       -0.77365994 -0.2874652 -0.76681143 0.36427888
000040 8c d8 2e 3f 4d bb 81 bf a8 52 d1 3e 56 3e 47 bf
       0.68299174 -1.0135285 0.40883374 -0.7782949
000050 01 9f 31 bf c8 13 88 3e 7f 8f a9 be 33 21 a5 3e
       -0.69383246 0.26577592 -0.3311729 0.32251891
000060 6b 96 82 bf 7a 90 e6 3e 89 5c 90 be 89 e9 6d bf
       -1.0202154 0.45032102 -0.281956 -0.9293447
000070 c8 bd 1c 3f c7 0c 4a bf dc 8d 4e 3e 85 2c ce bc
       0.61227083 -0.78925747 0.20171303 -0.025167713
000080 5f ea ad be fb 01 ae be 37 e0 26 3f 3f 13 94 3e
       -0.33967873 -0.33985886 0.65185875 0.28920934
000090 e4 93 cc 3e d4 e8 76 3e b9 ed 11 3f e0 17 bd 3e
       0.39956582 0.24112254 0.5700336 0.36932278
0000a0 79 93 25 bf 40 4a bf be 65 46 93 be f1 d1 5b bf
       -0.6467815 -0.37361336 -0.28764644 -0.8586722
0000b0 7a 6c 57 bf b7 3b 34 bf 87 97 06 3f 15 38 ba 3e
       -0.841499 -0.7040362 0.5257496 0.36370912
0000c0 0f bc f2 be 0d 6b 05 3f 6c 85 2d be a9 07 ad 3e
       -0.47409102 0.5211647 -0.16945428 0.33794907
0000d0 27 9c 80 be fe a3 02 3f e6 83 01 3f c0 85 b8 3e
       -0.25119135 0.5103148 0.50591886 0.36039543
0000e0 01 01 e3 3e 41 2c 26 bf b7 19 03 3f 96 ab b6 3e
       0.44336703 -0.64911276 0.5121111 0.35677785
0000f0 81 90 f5 be 08 7f dc be 9d 88 17 bf 1c a7 25 bf
       -0.4796181 -0.43065667 -0.5919283 -0.64708114
000100 75 54 37 bf 70 40 74 bf c0 17 c3 3e c9 b7 02 bf
       -0.71613246 -0.95410824 0.38104057 -0.51061684
000110 08 c3 5e bf 1e b3 8c 3e 5e 5d 13 bf d2 db 23 3e
       -0.87016344 0.27480406 -0.5756434 0.16001824
000120 86 da b9 be f3 71 1f bd d1 b1 1c 3f fc 37 d2 3d
       -0.36299533 -0.03892703 0.61208826 0.102645844
000130 a8 3e 40 bf 3d f5 e4 3e c9 2a 03 3e 10 20 9b 3e
       -0.75095606 0.44718352 0.1280929 0.302979
000140 b8 05 e0 3e
       0.43754363

default.classifier.0.to_out.bias f4 [9]
000000 84 d3 95 be 50 22 1e 3f 92 22 36 3e bd fc ab 3e
       -0.29262936 0.61771107 0.17786625 0.33591262
000010 7d 5a 94 3e 5d 8e 1c be b2 39 ad be 51 aa 7a 3e
       0.28975287 -0.15288682 -0.3383308 0.24479033
000020 4d df 53 be
       -0.20690651
