models/mnist-relaxed1E/classifier_-2028092783849733043.pt (torch_old, 1917 bytes, 4 tensors)

default.classifier.0.to_hidden.weight f4 [9, 10]
-0.40066177 -0.38090295 0.34007332 0.21232037 0.046481147 -0.04047207 0.50617945 0.84991837
0.26835454 0.08505354 -0.07002734 -0.36955383 -0.068167545 0.07245305 0.15638462 0.6326388
0.11816865 -0.36247435 -0.26544005 0.4461625 -0.5703174 0.044669874 -0.8249248 0.38553944
0.13276799 -0.1872239 -0.15091103 -0.043985695 0.032743234 -0.18477559 -0.43960634 -2.5049812e-06
-0.0072315712 -0.112386234 -0.5524063 -0.74896604 -0.29698366 0.01604031 0.12148921 0.49517313
0.71278435 0.40685403 -0.6183362 -0.22798233 -0.054888994 0.17099342 0.2856999 -0.3455285
0.0008550908 -0.08154737 0.27531576 0.044666342 0.42276198 -0.021892672 -0.24215838 -0.29341775
-0.6797965 -0.26254869 -0.08650225 0.3386668 -0.205457 -0.18489802 -0.312916 0.22362408
-0.028048642 -0.49288684 0.23973407 -0.40460986 -0.033709574 0.3331434 0.1444004 -0.3422394
-0.12226354 -0.3913902 -0.18825373 0.111864075 0.6534363 -0.039547622 0.09295058 0.7407013
0.06790493 -0.02591269 0.0009050241 0.12926391 0.47377503 -0.90002334 0.23762915 0.26479486
0.20768791 -0.34137243
00000000: 8a23 cdbe b605 c3be 171e ae3e 836a 593e
00000010: 0463 3e3d 0bc6 25bd fa94 013f 4094 593f
00000020: c465 893e 8d30 ae3d 7e6a 8fbd 2936 bdbe
00000030: 6d9b 8bbd 4462 943d 4a23 203e 9ef4 213f
00000040: 6802 f23d 3d96 b9be c2e7 87be 696f e43e
00000050: 5200 12bf c2f7 363d 462e 53bf 6d65 c53e
00000060: 55f4 073e 9fb7 3fbe 6c88 1abe 582a 34bd
00000070: c51d 063d d035 3dbe 1514 e1be 401b 28b6
00000080: d1f6 ecbb c12a e6bd 806a 0dbf 3dbc 3fbf
00000090: 3e0e 98be f866 833c 56cf f83d 5587 fd3e
000000a0: 0979 363f 2c4f d03e 484b 1ebf 3374 69be
000000b0: 48d3 60bd e618 2f3e 4247 923e 1de9 b0be
000000c0: 2c28 603a 4f02 a7bd 30f6 8c3e 0ef4 363d
000000d0: 4274 d83e 4358 b3bc 5ef8 77be da3a 96be
000000e0: 2507 2ebf c86c 86be 1728 b1bd bc65 ad3e
000000f0: 5263 52be e855 3dbe 8736 a0be b6fd 643e
00000100: 44c6 e5bc aa5b fcbe d97c 753e 0629 cfbe
00000110: 0d13 0abd c691 aa3e b3dd 133e 013a afbe
00000120: 4f65 fabd 4c64 c8be 96c5 40be fe18 e53d
00000130: 9a47 273f b0fc 21bd e05c be3d 9a9e 3d3f
00000140: bd11 8b3d da46 d4bc 243f 6d3a c25d 043e
00000150: a492 f23e ee67 66bf 0e55 733e 3193 873e
00000160: 24ac 543e 5ec8 aebe

default.classifier.0.to_hidden.bias f4 [9]
0.2899342 0.13316049 0.6082424 0.20874476 0.00694175 0.13485144 0.58013546 -0.09893825
0.33245003
00000000: 4172 943e 395b 083e c6b5 1b3f 30c1 553e
00000010: 9f77 e33b 7f16 0a3e c283 143f 23a0 cabd
00000020: e436 aa3e

default.classifier.0.to_out.weight f4 [9, 9]
0.11716332 0.33789062 0.38613093 0.2915585 -0.570996 -0.21177337 0.38206485 0.4036764
-0.3248883 -0.5727648 -0.532832 -0.74083644 -0.836728 0.3696629 0.2814767 0.21424516
-0.47978237 0.47633094 0.29594678 0.26489675 -0.7228379 -0.9546767 -0.3372462 -0.14573705
-0.69887006 0.38325682 -0.42750958 0.23175414 -1.1630182 -0.39720547 0.35631838 -0.84522355
0.2597254 -0.7473025 -0.36973143 -0.010539726 -0.3908475 0.1887646 0.67984277 -0.78250974
0.47695908 -0.7869479 -0.46504056 -0.25486428 -0.5822191 -1.0446091 -0.2699123 0.5703549
0.44549692 -0.32958177 0.23920904 0.33455536 -0.39064652 -0.037333824 -0.63834316 0.33040196
-0.41957575 0.028202267 0.5921764 0.07729543 0.27863958 0.6411766 -0.32183564 0.29857916
-0.18953605 0.5596323 -0.37028036 -0.75714946 -1.0277034 0.20564324 -0.54108083 0.5331105
-0.94384414 0.38504973 -0.26300064 -0.24914144 -0.6234848 0.35571784 -0.7304267 -0.8105115
-0.7242672
00000000: 53f3 ef3d 0000 ad3e f4b2 c53e 2847 953e
00000010: cb2c 12bf 1edb 58be 019e c33e acae ce3e
00000020: c257 a6be b7a0 12bf ae67 08bf 75a7 3dbf
00000030: ce33 56bf 7544 bd3e b71d 903e 1563 5b3e
00000040: 09a6 f5be a6e1 f33e 5686 973e 8ca0 873e
00000050: e80b 39bf b165 74bf 89ab acbe 183c 15be
00000060: 26e9 32bf 3d3a c43e 89e2 dabe f550 6d3e
00000070: c8dd 94bf 845e cbbe 5d6f b63e 9260 58bf
00000080: bafa 843e 374f 3fbf 704d bdbe d1ae 2cbc
00000090: 2a1d c8be 824b 413e 2d0a 2e3f 8f52 48bf
000000a0: fb33 f43e 6b75 49bf cc19 eebe 927d 82be
000000b0: 500c 15bf c0b5 85bf f231 8abe c702 123f
000000c0: 2c18 e43e f1be a8be 37f3 743e d74a ab3e
000000d0: d202 c8be 5aeb 18bd 756a 23bf 722a a93e
000000e0: a2d2 d6be 7108 e73c df98 173f 114d 9e3d
000000f0: d9a9 8e3e 2624 243f a4c7 a4be 5edf 983e
00000100: bd15 42be 1044 0f3f 6395 bdbe 8cd4 41bf
00000110: c98b 83bf 2494 523e 4684 0abf ee79 083f
00000120: c59f 71bf 3d25 c53e 05a8 86be ef1e 7fbe
00000130: b39c 1fbf a620 b63e 3ffd 3abf af7d 4fbf
00000140: 9369 39bf

default.classifier.0.to_out.bias f4 [9]
-0.18816838 0.15068302 0.42531332 0.22148521 0.56806546 0.04090555 -0.55442363 0.17835012
0.019169182
00000000: 36af 40be a64c 1a3e abc2 d93e 05cd 623e
00000010: bd6c 113f 948c 273d b5ee 0dbf 6aa1 363e
00000020: b008 9d3c
