models/mnist-relaxed1E/classifier_-5626122139460126378.pt (torch_old, 1917 bytes, 4 tensors)

default.classifier.0.to_hidden.weight f4 [9, 10]
0	0x3d33258c	0.04373698
1	0xbe5dcf65	-0.21661146
2	0x3f4835da	0.7820717
3	0x3df6e988	0.12056261
4	0x3e56171f	0.20907257
5	0xbc8823af	-0.016618578
6	0x3e051123	0.12994818
7	0x3f25d1f0	0.64773464
8	0x3dbb8e13	0.09157958
9	0x3de165dd	0.11005757
10	0xbf24c60a	-0.64364684
11	0xbefdf94b	-0.49604258
12	0xbe4fb51c	-0.20283931
13	0x3e92907a	0.28625852
14	0x3ec47c64	0.38376153
15	0xbe8883aa	-0.26662952
16	0x3f33969f	0.70151705
17	0x3e2e0ad0	0.16996312
18	0x3dbfc2e6	0.09363346
19	0x3ea6b80e	0.32562298
20	0x3eb29af6	0.3488385
21	0xbecda70a	-0.40166503
22	0x3ede1422	0.43374735
23	0x3c4a6570	0.012353286
24	0x3edf001b	0.43554768
25	0xbcbc4b39	-0.022985088
26	0x3f338c1c	0.70135665
27	0x3ed64195	0.4184691
28	0x3e28a56d	0.16469355
29	0xbe415387	-0.1887952
30	0x3ca31cf3	0.019911265
31	0x3e39ff99	0.18163909
32	0xbf22c8de	-0.6358775
33	0x3ed96619	0.42460707
34	0x3f378fd8	0.71703863
35	0xbdae4a02	-0.085102096
36	0x3eb3e25f	0.35133645
37	0x3e0b0d16	0.1357921
38	0x3c56aa67	0.0131021505
39	0xbf185c02	-0.5951539
40	0xbf12628a	-0.5718161
41	0xbe1d5812	-0.15365627
42	0xbe7efe03	-0.24901585
43	0x3c872af2	0.01649997
44	0xbe945122	-0.2896815
45	0xbf4c38e5	-0.79774314
46	0xbe5fed28	-0.21867812
47	0xbcfc6e46	-0.030814301
48	0x3e054a6b	0.1301667
49	0x3ebad6bb	0.3649195
50	0x3eb6746f	0.35635707
51	0xbdbc2dc2	-0.09188415
52	0x3e390b91	0.18070818
53	0xbe45815d	-0.1928763
54	0x3e4559c4	0.19272524
55	0xbe4407b5	-0.19143565
56	0xbf053f69	-0.5204988
57	0xbf4689d1	-0.7755404
58	0xbe70cd97	-0.23515926
59	0x3e65817f	0.2241268
60	0x3f18da2b	0.597079
61	0x3db4c51a	0.08826657
62	0xbe402d80	-0.18767357
63	0xbed77385	-0.42080322
64	0xbe0ca5dd	-0.13735147
65	0xbeaf9249	-0.34291294
66	0x3ebcc707	0.36870596
67	0xbef83df1	-0.48484758
68	0x3d4a21d2	0.04934866
69	0x3e899371	0.268703
70	0xbe07cf22	-0.13262609
71	0xbf121108	-0.5705724
72	0x3eaba34e	0.3352303
73	0xbdf2152b	-0.11820444
74	0x3d96aef9	0.07357592
75	0x3f0657de	0.52477825
76	0x3e2ba381	0.1676159
77	0xbe876cac	-0.26450098
78	0xbe86ec1f	-0.2635202
79	0x3f0cec6c	0.5504825
80	0x3f02d571	0.51106936
81	0xbd96f177	-0.073702745
82	0xbebd2590	-0.3694272
83	0xbdf6742e	-0.12033878
84	0xbd5be05a	-0.053680755
85	0x3f08af09	0.5339208
86	0x3f127163	0.57204264
87	0xbd126d08	-0.03574851
88	0xbd8183ef	-0.063239925
89	0x3f09bb89	0.5380178

default.classifier.0.to_hidden.bias f4 [9]
0	0xbe4ddd9e	-0.20104071
1	0xbee87ca3	-0.4540759
2	0xbe07a1f4	-0.13245374
3	0xbe92f031	-0.28698877
4	0xbcbe7087	-0.023247017
5	0xbd8085a9	-0.06275494
6	0x3ea26ecd	0.3172516
7	0xbe51844c	-0.20460624
8	0xbd59feef	-0.05322164

default.classifier.0.to_out.weight f4 [9, 9]
0	0xbd59aef3	-0.05314536
1	0x3f009cc6	0.5023922
2	0xbed6a3e6	-0.4192192
3	0xbe74e4f7	-0.23915468
4	0x3ef52295	0.47877946
5	0xbe756983	-0.23966031
6	0xbe26799d	-0.1625733
7	0x3ecdc703	0.40190896
8	0x3e90ad8a	0.282574
9	0x3e2ed02c	0.17071599
10	0xbec73167	-0.38904878
11	0x3f149fe9	0.58056504
12	0x3ea87630	0.3290267
13	0xbf0c5738	-0.54820585
14	0x3f18cc33	0.59686583
15	0x3f31ef43	0.6950571
16	0xbf5f454f	-0.8721513
17	0x3dd86ebf	0.10567998
18	0x3eb8d814	0.36102355
19	0x3cbe5c73	0.023237443
20	0x3f075f82	0.5288011
21	0xbeb0eee5	-0.34557262
22	0xbf089f6a	-0.53368247
23	0xbe5a897e	-0.21341512
24	0xbe0cb619	-0.1374134
25	0x3eb34687	0.35014746
26	0x3ec23c0e	0.37936443
27	0x3f18b142	0.59645474
28	0xbef3d6e6	-0.47624892
29	0xbe956d2d	-0.29184857
30	0xbea35861	-0.31903365
31	0x3e9bcba0	0.3042879
32	0xbf3739cd	-0.7157257
33	0xbe9f1cbc	-0.3107661
34	0xbef585b7	-0.4795358
35	0xbf845291	-1.0337697
36	0xbf60e3d5	-0.87847644
37	0xbef43c37	-0.4770219
38	0xbf0cb5da	-0.54964983
39	0x3f1523fd	0.5825804
40	0xbf241ba1	-0.6410466
41	0xbf1a6844	-0.60315347
42	0xbf048525	-0.5176566
43	0xbedfd280	-0.43715286
44	0x3f0c3dbb	0.54781693
45	0xbf763e4c	-0.9618881
46	0xbee5f48e	-0.44913143
47	0xbf0e2b3b	-0.55534714
48	0xbdcad8b3	-0.09904613
49	0x3f3cbbe0	0.73724174
50	0x3f2f03ec	0.6836536
51	0x3d857c82	0.065178886
52	0xbeba5bdc	-0.36398208
53	0xbedabca8	-0.42722058
54	0xbf5c6fa8	-0.86107874
55	0x3d04fb85	0.03246643
56	0xbe9314c9	-0.28726795
57	0xbeff6b9d	-0.4988679
58	0xbe660c01	-0.22465517
59	0x3ea3d7f6	0.32000703
60	0x3f6cf2e8	0.92558146
61	0x3e215b07	0.1575738
62	0x3f164bda	0.5870949
63	0x3e2a34c3	0.1662169
64	0x3f1a538b	0.60283726
65	0x3ed9f2b2	0.42567974
66	0x3f2139df	0.6297893
67	0x3e208bee	0.15678379
68	0xbef6fcd8	-0.4823978
69	0xbe95f9a9	-0.29292038
70	0xbee6e71a	-0.45098191
71	0xbf4dd322	-0.8040029
72	0x3d95a4b5	0.07306806
73	0xbf1a0d8c	-0.6017692
74	0xbf1915da	-0.5979897
75	0xbebf3454	-0.3734461
76	0xbed80907	-0.42194387
77	0x3f2880bc	0.65821433
78	0xbf14867b	-0.580177
79	0x3ed13279	0.4085882
80	0xbe7215f2	-0.23641184

default.classifier.0.to_out.bias f4 [9]
0	0xbf01fb06	-0.50773656
1	0xbd4fc420	-0.05072415
2	0xbf0559b7	-0.5209002
3	0x3ea5f59e	0.32413954
4	0x3db49fdd	0.08819554
5	0x3e7b6679	0.24550809
6	0x3d993a34	0.074818045
7	0x3d89eae7	0.06734257
8	0x3e43a997	0.19107662
