models/mnist-relaxed1E/encoder_z1_-822312541480728785.pt (torch_old, 516863 bytes, 15 tensors)

default.encoder_cv.0.weight f4 [32, 1, 3, 3]
0.30064538 -0.03266458 0.008531445 0.24764189 0.06989493 -0.35297778 -0.36702383 -0.45886406
-0.41126546 0.19015752 -0.11099029 0.00173349 0.38488832 -0.025283022 -0.19973533 0.3624162
-0.21337682 -0.32910243 0.3275321 -0.3660283 0.16676442 -0.24536495 -0.28185487 -0.033425022
0.11753127 -0.038892385 0.39461845 -0.2220379 -0.18332586 -0.11638998 0.02393639 -0.40264595
-0.29118535 0.060662106 -0.25608456 0.26990792 0.10195311 -0.12445313 0.218572 -0.3311155
0.22105356 0.2873889 0.24187684 -0.15575786 0.139673 -0.34734276 -0.29095262 -0.27194044
-0.11519974 -0.24851681 0.10507174 0.357808 0.34474868 0.276321 -0.3507451 0.12612021
0.25668657 -0.2167451 -0.21855193 -0.052891035 -0.05362635 -0.308405 0.1405376 -0.13663438
0.084192544 -0.02664395 0.07766209 0.09791975 0.3889467 0.093219645 -0.06945671 -0.13854766
0.41931224 0.2062794 0.03038806 0.13530128 -0.20347549 -0.33848137 -0.1416099 -0.0879309
-0.39799127 0.16143428 -0.14204085 -0.3799841 0.2074032 0.38599148 0.011697603 -0.22367772
0.23964022 -0.062005192 -0.35287297 0.13738836 -0.33620587 -0.41072997 -0.41906607 0.014232792
0.33212832 0.31247494 -0.10466814 -0.13038328 0.061999865 -0.123052545 0.07028141 0.26239288
0.16644464 0.22874956 0.2106599 -0.35892272 -0.42702043 -0.0042580552 0.1992115 -0.10607756
0.38158646 -0.2779054 0.34649873 0.040177546 -0.066573 0.032873467 -0.35595217 0.10683492
-0.055063594 0.07336121 0.36367062 -0.10687846 -0.04694979 0.24582094 0.07702577 -0.029475499
0.06863662 0.22670074 0.21528329 0.31962243 -0.022434069 -0.267738 0.2655247 0.15914862
0.37114838 0.23761307 -0.26730794 -0.23209122 0.2585954 -0.076136254 -0.32664692 -0.43838373
0.19535375 0.13597788 0.088141374 -0.20104755 0.11478196 -0.14168549 -0.15967803 0.23396689
0.05097977 0.11051167 -0.09358173 0.15869524 0.15651625 -0.21119334 0.36158147 0.31354192
-0.24407159 -0.37981525 -0.087141395 0.2904409 0.16178578 0.17561898 0.28574705 -0.16506797
0.16720532 -0.33026278 -0.46427733 0.064464 0.15006423 0.007282902 -0.019974848 0.19514889
0.28519934 -0.25308895 -0.3006095 -0.11378333 -0.18160838 0.20769493 0.14520097 0.262612
-0.21361344 -0.12659393 0.2809543 0.15388769 -0.13156798 -0.27665588 -0.3260559 -0.3179369
-0.42084154 0.070791535 0.33591956 -0.013667022 0.21144813 0.2569006 -0.19876474 0.47946128
0.2074983 -0.23865178 -0.19841866 -0.1742352 -0.264032 -0.45432237 -0.015610516 0.10403837
0.13318025 -0.2773346 0.0340927 0.12535949 -0.19805317 0.06914804 0.102338634 -0.010489701
-0.46194628 0.21747193 0.3394426 -0.31346306 -0.22402473 0.3884576 -0.2266355 0.17552774
0.12751044 0.50357515 0.43356058 -0.35576883 -0.07585692 -0.21010125 -0.34397405 0.13325863
-0.44354713 -0.29592866 -0.2185506 -0.066959396 -0.09083934 -0.14470635 -0.31012243 -0.010010547
-0.0071141487 0.10364195 -0.34644538 -0.23556949 0.1975605 0.37623933 -0.02788491 -0.203551
0.27337274 0.13757822 -0.22062738 -0.19224694 -0.008977882 -0.18486716 0.037820194 0.46107626
00000000: 31ee 993e 4bcb 05bd 79c7 0b3c d695 7d3e
00000010: 1325 8f3d 81b9 b4be 8cea bbbe 3bf0 eabe
00000020: 6391 d2be a7b8 423e e14e e3bd 4636 e33a
00000030: 1510 c53e 571e cfbc 6b87 4cbe 9e8e b93e
00000040: 747f 5abe 1d80 a8be 4ab2 a73e 1068 bbbe
00000050: 4bc4 2a3e f340 7bbe 484f 90be ade8 08bd
00000060: 3cb4 f03d 9f4d 1fbd 6e0b ca3e e75d 63be
00000070: c6b9 3bbe df5d eebd 4016 c43c 9c27 cebe
00000080: 3f16 95be d478 783d 841d 83be 5f31 8a3e
00000090: cbcc d03d 48e1 febd 57d1 5f3e f987 a9be
000000a0: dd5b 623e a324 933e 90ae 773e fd7e 1fbe
000000b0: 7006 0f3e e9d6 b1be bef7 94be c73b 8bbe
000000c0: d7ed ebbd 317b 7ebe da2f d73d 9c32 b73e
000000d0: e682 b03e f279 8d3e dd94 b3be a825 013e
000000e0: 6c6c 833e 6df2 5dbe 14cc 5fbe 45a4 58bd
000000f0: 4ea7 5bbd 43e7 9dbe 17e9 0f3e e2e9 0bbe
00000100: 246d ac3d 6a44 dabc 4d0d 9f3d 268a c83d
00000110: 0624 c73e f1e9 be3d 523f 8ebd 70df 0dbe
00000120: 18b0 d63e e83a 533e 61f0 f83c 6b8c 0a3e
00000130: e15b 50be 6e4d adbe 3002 11be 1e15 b4bd
00000140: 83c5 cbbe 074f 253e 2873 11be 478d c2be
00000150: 8161 543e ada0 c53e 4ea7 3f3c c60b 65be
00000160: 3f64 753e 28f9 7dbd c4ab b4be 89af 0c3e
00000170: 2d23 acbe 334b d2be d48f d6be a830 693c
00000180: b90c aa3e b7fc 9f3e 405c d6bd 3283 05be
00000190: 92f3 7d3d f902 fcbd b3ef 8f3d 5c58 863e
000001a0: 7770 2a3e 533d 6a3e 3bb7 573e b8c4 b7be
000001b0: 6ca2 dabe 2887 8bbb 19fe 4b3e 313f d9bd
000001c0: 4d5f c33e 9e49 8ebe 4868 b13e 3691 243d
000001d0: 6d57 88bd 54a6 063d 5d3f b6be 44cc da3d
000001e0: 5d8a 61bd 673e 963d 0933 ba3e 18e3 dabd
000001f0: 6c4e 40bd 7cb8 7b3e b0bf 9d3d 9a76 f1bc
00000200: 5b91 8c3d 3d24 683e 3973 5c3e 8da5 a33e
00000210: a7c7 b7bc f514 89be daf2 873e dbf7 223e
00000220: 2907 be3e d750 733e 96dc 88be 52a9 6dbe
00000230: 9e66 843e 53ed 9bbd 443e a7be d573 e0be
00000240: d00a 483e c93d 0b3e 7783 b43d 69df 4dbe
00000250: ce12 eb3d 0016 11be a382 23be 0495 6f3e
00000260: 2ad0 503d f153 e23d c7a7 bfbd 0181 223e
00000270: cc45 203e 1143 58be 3521 b93e 9188 a03e
00000280: e7ed 79be 2577 c2be 3077 b2bd abb4 943e
00000290: 2cab 253e 76d5 333e 704d 923e 9407 29be
000002a0: df37 2b3e 3418 a9be c2b5 edbe b405 843d
000002b0: 70aa 193e 69a5 ee3b 4ba2 a3bc 1cd5 473e
000002c0: a605 923e e094 81be 7de9 99be 3c07 e9bd
000002d0: 8cf7 39be fbad 543e 90af 143e 1475 863e
000002e0: 7bbd 5abe d7a1 01be 3ed9 8f3e bc94 1d3e
000002f0: c2b9 06be d7a5 8dbe cdf0 a6be a0c8 a2be
00000300: 8b78 d7be 27fb 903d a6fd ab3e a5eb 5fbc
00000310: dc85 583e 7a88 833e fc88 4bbe f37b f53e
00000320: 6f7a 543e 2261 74be 432e 4bbe b66a 32be
00000330: 342f 87be f19c e8be 40c3 7fbc 1212 d53d
00000340: 6760 083e cdfe 8dbe c9a4 0b3d 3d5e 003e
00000350: 73ce 4abe 7d9d 8d3d eb96 d13d ffdc 2bbc
00000360: 3984 ecbe f6b0 5e3e 6ccb ad3e 3b7e a0be
00000370: bd66 65be eae3 c63e 2313 68be 8bbd 333e
00000380: 1992 023e 4dea 003f a7fb dd3e 5527 b6be
00000390: df5a 9bbd c824 57be 5e1d b0be f374 083e
000003a0: 9c18 e3be f683 97be bacb 5fbe 0222 89bd
000003b0: fa09 babd e72d 14be 5ec8 9ebe 4703 24bc
000003c0: ce1d e9bb 3b42 d43d 4a61 b1be 2139 71be
000003d0: 4d4d 4a3e 71a2 c03e e56e e4bc ac6f 50be
000003e0: 83f7 8b3e 4ee1 0c3e 25ec 61be 62dc 44be
000003f0: f717 13bc d14d 3dbe 59e9 1a3d 3012 ec3e

default.encoder_cv.0.bias f4 [32]
0.04812033 0.18000722 -0.21071997 0.106418535 -0.31764996 -0.038204867 0.17740934 -0.16660865
-0.18155682 -0.0083331 0.027752113 -0.023932476 -0.22628856 -0.05041902 -0.34726012 0.03818683
-0.11679842 0.050966058 0.15191558 0.072467856 0.0024688295 -0.18854958 -0.051241312 0.064645335
-0.27280703 -0.15890859 0.16423447 0.05069802 -0.018790511 0.053315148 -0.055710144 0.023793923
00000000: d319 453d d053 383e fac6 57be f6f1 d93d
00000010: 04a3 a2be b57c 1cbd cbaa 353e 759b 2abe
00000020: 08ea 39be 8e87 08bc 6658 e33c 0a0e c4bc
00000030: 30b8 67be 2d84 4ebd 14cc b1be cb69 1c3d
00000040: 0334 efbd c9c1 503d c28f 1b3e 076a 943d
00000050: 16cc 213b 2413 41be 69e2 51bd c664 843d
00000060: 5dad 8bbe efb8 22be 152d 283e baa8 4f3d
00000070: 8fee 99bc fc60 5a3d 5230 64bd 79eb c23c

default.encoder_cv.4.weight f4 [64, 32, 3, 3]
0.011217237 0.048189312 0.13207601 -0.043374293 0.11307248 -0.035150137 0.2336413 0.3275813
-0.044606846 0.032238577 0.03347608 -0.033679947 0.06263708 0.03411133 -0.040887225 0.060250703
-0.008166502 -0.11666041 -0.023600765 -0.048147317 -0.01818635 0.013814261 0.00171774 0.06639995
-0.07754418 0.009687504 -0.03421185 0.023698201 0.07095045 0.14735828 -0.0970865 0.1803415
0.16521214 -0.16291268 0.047033433 0.006777487 0.048411272 -0.033287864 -0.021982854 -0.00913192
-0.0154457735 0.04098641 0.0702282 -0.11454762 0.02907661 -0.05406358 -0.1529577 -0.034479715
0.040046122 -0.057442345 -0.046978705 -0.22278133 -0.06877254 0.006490636 0.025606304 0.01855601
0.08132077 -0.10744506 0.074934274 0.108797245 -0.09594306 -0.027989 0.020185662 0.03626359
-0.018152619 -0.05604996 0.0476381 -0.037610367 -0.07088073 0.064132944 -0.05088757 0.007464537
0.05529016 0.021192092 0.0100305425 0.04671126 0.046533935 -0.021265732 0.11461285 0.08068001
-0.08403053 0.04750591 -0.09629453 -0.16267908 0.04608105 -0.031652085 -0.12896377 -0.019418517
-0.11360307 -0.15973891 0.027649235 -0.061899845 0.057956897 -0.044360578 -0.088495724 0.058739517
-0.1463698 -0.04955573 -0.10910656 0.040705852 -0.06621439 -0.15900901 0.08733249 -0.080176555
-0.12593484 0.041158527 -0.1066453 -0.043336924 0.027404778 -0.037809692 -0.0652983 0.022462562
-0.07964769 -0.021995373 0.0043821665 -0.09305313 -0.025379421 -0.022271488 -0.039762653 -0.08891279
0.0009170808 -0.0603451 -0.032728214 -0.083684236 -0.103815295 -0.064321615 0.039948806 -0.043383922
-0.034574423 0.0026358606 -0.012120582 -0.05631059 0.037480876 -0.062405977 -0.020196322 0.0025828558
0.006154653 0.022186793 -0.17087689 0.007689198 -0.06587885 -0.0045681647 0.03937315 -0.012481256
0.037052676 -0.043983754 -0.1367683 0.025313154 -0.0792347 -0.060453966 0.015481951 -0.051355176
-0.07684746 0.0775951 -0.012031231 0.0039092274 0.043844514 -0.04860121 -0.08440637 0.028077241
-0.007107576 -0.053085737 -0.028642498 -0.03219666 -0.03859434 0.038654312 0.0072001955 -0.13173872
0.08143677 0.02425043 -0.041525066 0.0010076497 -0.032381993 -0.102568366 -0.079922594 -0.023057023
-0.06505187 -0.03854476 0.044789977 -0.07553151 0.09329551 0.022377832 -0.05792474 0.054910168
0.044178255 -0.08032459 0.06274446 -0.065086104 -0.09173856 0.016081791 -0.041017633 0.019417029
-0.014085624 0.014919611 0.033843115 -0.06536006 0.063383594 -0.06412377 0.0029774213 0.04106084
0.11825372 -0.09645114 0.08384571 -0.036175527 -0.12223324 0.027812934 -0.0046064667 0.050750297
-0.0015723382 -0.014845942 0.0696092 -0.006751003 -0.08601662 0.058208987 -0.07029633 -0.07322373
-0.004567541 -0.0624343 -0.017593423 -0.016576307 -0.06223301 0.025966844 -0.04172757 -0.019327233
0.03091373 0.070132844 0.041812062 0.07657852 0.015449733 0.06155843 -0.007774711 0.13432246
0.050955355 -0.07853541 0.020039205 0.060513534 0.12850532 -0.037553858 0.03970858 0.02784978
-0.074668 0.10104621 -0.026027814 0.023400053 0.022892706 -0.0049143634 -0.06595988 -0.09047297
-0.012262229 -0.04648747 -0.023942178 -0.0046387753 0.008898617 0.029579267 0.041808717 -0.03917979
00000000: 81c8 373c 2862 453d ef3e 073e 3ea9 31bd
00000010: 8b92 e73d 97f9 0fbd aa3f 6f3e bcb8 a73e
00000020: abb5 36bd 990c 043d 371e 093d fcf3 09bd
00000030: df47 803d 52b8 0b3d 5d79 27bd 71c9 763d
00000040: cbcc 05bc a7eb eebd 6456 c1bc 1f36 45bd
00000050: 8afb 94bc 3655 623c ca25 e13a b2fc 873d
00000060: 7ccf 9ebd 56b8 1e3c ba21 0cbd bb22 c23c
00000070: 784e 913d 17e5 163e 49d5 c6bd 71ab 383e
00000080: 5f2d 293e 95d2 26be 21a6 403d af15 de3b
00000090: e64a 463d db58 08bd 6315 b4bc 0c9e 15bc
000000a0: 4510 7dbc 5ee1 273d cdd3 8f3d f197 eabd
000000b0: 1232 ee3c c671 5dbd f1a0 1cbe 9a3a 0dbd
000000c0: 6707 243d aa48 6bbd be6c 40bd ca20 64be
000000d0: 9ed8 8cbd 67af d43b 50c4 d13c c602 983c
000000e0: 818b a63d 280c dcbd 2477 993d 17d1 de3d
000000f0: cc7d c4bd 3049 e5bc 675c a53c 2189 143d
00000100: cdb4 94bc a594 65bd 2b20 433d 540d 1abd
00000110: eb29 91bd 2258 833d 7c6f 50bd 1399 f43b
00000120: ef77 623d 0a9b ad3c 2557 243c 4e54 3f3d
00000130: 5e9a 3e3d 7935 aebc 24ba ea3d 903b a53d
00000140: 3318 acbd 8f95 423d 1136 c5bd 5895 26be
00000150: 7cbf 3c3d 9ea5 01bd 140f 04be 9513 9fbc
00000160: baa8 e8bd 9992 23be a680 e23c b18a 7dbd
00000170: 3664 6d3d 70b3 35bd 3f3d b5bd d998 703d
00000180: f7e1 15be f3fa 4abd 4373 dfbd 2ebb 263d
00000190: 699b 87bd 42d3 22be 60db b23d 9b33 a4bd
000001a0: 10f5 00be d895 283d da68 dabd 0f82 31bd
000001b0: fc7f e03c 56de 1abd 1dbb 85bd 6803 b83c
000001c0: 541e a3bd a42f b4bc 4798 8f3b a492 bebd
000001d0: 81e8 cfbc b272 b6bc 2ade 22bd e917 b6bd
000001e0: 4068 703a 6c2c 77bd 050e 06bd a462 abbd
000001f0: 1d9d d4bd 0dbb 83bd 5ca1 233d 57b3 31bd
00000200: e99d 0dbd 67be 2c3b 6895 46bc efa5 66bd
00000210: 8c85 193d 699d 7fbd c272 a5bc 2145 293b
00000220: f9ac c93b 14c1 b53c 5afa 2ebe abf5 fb3b
00000230: 7eeb 86bd 8bb0 95bb bd45 213d 2f7e 4cbc
00000240: 8cc4 173d 4f28 34bd fd0c 0cbe 885d cf3c
00000250: cd45 a2bd 949e 77bd 02a8 7d3c ce59 52bd
00000260: 3362 9dbd 2eea 9e3d a41e 45bc fa18 803b
00000270: 4e96 333d 1012 47bd 3fdd acbd 3e02 e63c
00000280: abe6 e8bb 6e70 59bd aca3 eabc a5e0 03bd
00000290: 1915 1ebd fc53 1e3d 9eef eb3b 84e6 06be
000002a0: 52c8 a63d d6a8 c63c 3016 2abd 1d13 843a
000002b0: fba2 04bd 5d0f d2bd 75ae a3bd 15e2 bcbc
000002c0: ea39 85bd 1ce1 1dbd b275 373d 44b0 9abd
000002d0: b711 bf3d b751 b73c 7e42 6dbd 7ce9 603d
000002e0: 42f4 343d 3881 a4bd 2b80 803d dd4b 85bd
000002f0: 6de1 bbbd f6bd 833c 1b02 28bd 7610 9f3c
00000300: 64c7 66bc 6271 743c 149f 0a3d 7fdb 85bd
00000310: 42cf 813d 5353 83bd d720 433b 692f 283d
00000320: 022f f23d 2d88 c5bd 4db7 ab3d ca2c 14bd
00000330: 6c55 fabd f3d7 e33c d8f1 96bb 8bdf 4f3d
00000340: ea16 ceba 653c 73bc 458f 8e3d 8537 ddbb
00000350: 7b29 b0bd 8c6c 6e3d 86f7 8fbd 53f6 95bd
00000360: 50ab 95bb 1cbb 7fbd 1520 90bc 09cb 87bc
00000370: 0ae8 7ebd 6bb8 d43c 87ea 2abd 2554 9ebc
00000380: ca3e fd3c cfa1 8f3d 2043 2b3d 33d5 9c3d
00000390: e020 7d3c b124 7c3d 01c3 febb d48b 093e
000003a0: 90b6 503d 2cd7 a0bd 4229 a43c 0add 773d
000003b0: e696 033e 13d2 19bd 77a5 223d 3925 e43c
000003c0: 89eb 98bd 51f1 ce3d 4838 d5bc 78b1 bf3c
000003d0: 7c89 bb3c ab08 a1bb f915 87bd e449 b9bd
000003e0: 84e7 48bc a569 3ebd 6322 c4bc de00 98bb
000003f0: 81cb 113c 3850 f23c 9e3f 2b3d fd7a 20bd

default.encoder_cv.4.bias f4 [64]
-0.029383345 0.0078836735 -0.04118718 -0.0943731 -0.007840772 0.04765534 -0.014324951 0.021173242
-0.079632975 0.01693492 -0.04178946 -0.038858365 -0.031665474 0.035877924 -0.027548166 -0.02245991
-0.040271178 -0.07307802 -0.06109045 -0.09372933 0.026718926 0.0015029251 -0.09031396 -0.015530825
-0.014936638 -0.0012520769 -0.08321297 0.03834497 0.039941236 0.03044501 -0.016033106 -0.0018304402
0.01982469 -0.009305346 -0.08314147 0.011024867 0.01757836 0.018579539 -0.024601704 -0.095493376
-0.043340717 -0.044856664 0.024082687 0.04186102 0.0011341196 0.020288324 -0.03727058 -0.030778479
0.039209507 -0.07664537 -0.021876661 0.019450648 0.009922736 0.024294093 0.0073409644 -0.032930035
-0.04039143 -0.058490854 0.031382784 -0.04086827 0.03956197 -0.093006745 0.0071008685 0.017255882
00000000: 57b5 f0bc 862a 013c e3b3 28bd af46 c1bd
00000010: 9576 00bc 3f32 433d 33b3 6abc 8273 ad3c
00000020: 9d16 a3bd 1abb 8a3c 6d2b 2bbd f329 1fbd
00000030: a8b3 01bd bbf4 123d b1ac e1bc d8fd b7bc
00000040: 64f3 24bd eea9 95bd fb39 7abd 2af5 bfbd
00000050: a6e1 da3c ccfd c43a 87f6 b8bd 0075 7ebc
00000060: cdb8 74bc bb1c a4ba 906b aabd 9e0f 1d3d
00000070: 6c99 233d d067 f93c dc57 83bc 62eb efba
00000080: 6367 a23c 7375 18bc 1346 aabd a5a1 343c
00000090: 7e00 903c 1e34 983c 8389 c9bc 0892 c3bd
000000a0: 0986 31bd 9fbb 37bd 0e49 c53c 7676 2b3d
000000b0: bda6 943a b333 a63c 09a9 18bd 2623 fcbc
000000c0: 269a 203d 3ff8 9cbd af36 b3bc f756 9f3c
000000d0: f992 223c 6804 c73c 798c f03b a5e1 06bd
000000e0: 7c71 25bd 1b94 6fbd 3c8b 003d 7d65 27bd
000000f0: bb0b 223d 527a bebd 67ae e83b 355c 8d3c

default.encoder_cv.8.weight f4 [128, 64, 3, 3]
-0.038339853 0.068652086 -0.10076068 0.025253844 0.076117456 -0.0877931 -0.0046455497 -0.037039194
-0.0010414622 -0.029672442 0.0078817485 0.029584466 0.028822426 0.055319723 0.044620525 0.065100096
0.076383814 0.06349454 0.04805426 -0.055785824 0.019213568 -0.018708583 -0.032106116 0.025942663
0.030415034 0.036067203 0.09584192 0.00060747255 -0.07983321 0.050872702 -0.00038711107 0.0064843004
0.016957086 0.024281517 0.011022491 -0.03329739 -0.04101317 -0.014687141 0.036740985 -0.016630912
-0.0009448595 -0.10722777 0.026891425 -0.011367547 -0.04711474 -0.034190837 0.035217736 0.007490999
0.007990643 0.065366454 0.084694535 -0.045948323 0.11914523 0.06904296 -0.009856069 -0.007843378
0.09929167 -0.017306697 0.13431583 0.049686115 0.08503089 -0.10878895 -0.023245627 -0.028794695
-0.03802032 -0.098277025 -0.020108692 -0.082111776 0.030148184 0.058779795 -0.035597783 -0.01953748
0.008954437 0.0052424986 0.13346845 0.044925384 -0.010598043 -0.023950128 0.00049838563 0.024526592
-0.028420947 -0.064146705 0.02643362 -0.0018129472 0.09767693 0.011424019 0.0059955204 -0.0005021297
-0.14802589 -0.017638776 -0.020730495 -0.041028388 0.009995819 -0.052069504 -0.080837555 -0.086726636
0.036861885 0.075504035 -0.03162592 -0.043142267 -0.017219415 -0.028148923 -0.031860515 -0.018754646
0.16552424 0.06463145 -0.05654066 -0.040803563 -0.04403587 -0.07560714 -0.18171243 0.08526293
0.025673034 -0.16440046 0.10978122 -0.1697147 -0.14094055 -0.04067727 -0.0044398354 0.050876085
-0.08217218 -0.064384244 0.007814503 0.01926004 -0.0073017217 -0.027667975 -0.039852943 -0.04148429
-0.048350573 0.05203656 -0.05223206 -0.002045509 0.09030673 -0.09020878 0.014603772 -0.027166305
-0.07819395 0.026092857 -0.02976383 -0.1325228 -0.0010652763 -0.045378834 0.0015497125 0.013138538
0.06412436 -0.04811287 0.060328815 -0.006540443 -0.09277858 0.018423678 -0.0775249 -0.010238087
0.107324 -0.031416498 0.012005039 0.13723382 3.528114e-05 -0.121419705 0.08736137 0.028912582
0.018493723 0.03130064 0.035003807 -0.010739182 -0.044720855 0.03780584 -0.0035372102 0.008308096
0.069111235 -0.08061474 -0.09680703 -0.032254227 0.057912275 0.040433712 -0.060603235 -0.020742804
-0.112225644 -0.041322585 -0.014878066 -0.024254872 0.06734555 0.040645026 0.010472699 -0.1292675
-0.06841295 -0.022870615 -0.0769551 0.0029468418 0.034533102 -0.00947289 0.11338616 -0.06824496
0.012326692 0.047581386 -0.005260679 -0.025349455 0.0021938505 0.026682058 0.05315412 0.041222904
-0.07230025 -0.032161422 0.066691265 -0.12831444 0.10784686 0.027581703 -0.08567421 -0.0276496
0.10146869 -0.12901081 0.00030889775 0.06561881 -0.13515668 0.0957009 -0.018494505 -0.010724549
-0.00023520188 0.07808514 0.07804476 -0.035103645 -0.07260657 0.04027532 -0.021779466 0.036055095
0.064677 0.026568463 -0.0117557235 0.089751944 -0.05665739 -0.054724008 0.043663237 -0.11382464
-0.040450823 0.0014038432 0.056371994 -0.025846515 0.07330155 0.043704484 -0.03904166 0.009016264
0.025188176 0.08603578 -0.009106682 -0.03468286 0.015008265 0.034807675 -0.028479636 -0.06970493
-0.09951537 -0.0990925 0.04784202 0.03856178 0.0011862094 -0.026997138 0.018600382 -0.011770763
00000000: 400a 1dbd 7799 8c3d 9e5b cebd 26e1 ce3c
00000010: 78e3 9b3d decc b3bd b239 98bb 69b6 17bd
00000020: ac81 88ba 9f13 f3bc 7322 013c 1f5b f23c
00000030: 021d ec3c ef96 623d 03c4 363d 3353 853d
00000040: 1e6f 9c3d 6d09 823d 8bd4 443d ad7f 64bd
00000050: c665 9d3c be42 99bc b481 03bd b585 d43c
00000060: f328 f93c 34bb 133d c548 c43d cb3e 1f3a
00000070: 987f a3bd e55f 503d 2bf5 cab9 417a d43b
00000080: 96e9 8a3c 08ea c63c ae97 343c d862 08bd
00000090: 6dfd 27bd 56a2 70bc b77d 163d 8d3d 88bc
000000a0: 73b0 77ba 3c9a dbbd 684b dc3c f33e 3abc
000000b0: 63fb 40bd b10b 0cbd 7940 103d 0e77 f53b
000000c0: 30eb 023c d9de 853d 5474 ad3d 4f34 3cbd
000000d0: 6a02 f43d 6566 8d3d 5a7b 21bc 8381 00bc
000000e0: 6e59 cb3d c6c6 8dbc 178a 093e ab83 4b3d
000000f0: ad24 ae3d becc debd 9d6d bebc dae2 ebbc
00000100: 32bb 1bbd 7745 c9bd fcba a4bc 382a a8bd
00000110: 53f9 f63c 15c3 703d fbce 11bd 110d a0bc
00000120: a2b5 123c 44c9 ab3b f4ab 083e ae03 383d
00000130: 6aa3 2dbc 0f33 c4bc 18a6 023a feeb c83c
00000140: 0cd3 e8bc 595f 83bd 528b d83c 6aa0 edba
00000150: d80a c83d cf2b 3b3c 1276 c43b 5ba1 03ba
00000160: 1994 17be 327f 90bc 00d3 a9bc 620d 28bd
00000170: 81c5 233c d546 55bd 298e a5bd bc9d b1bd
00000180: 7dfc 163d dca1 9a3d 2e8a 01bd f2b5 30bd
00000190: bb0f 8dbc 9298 e6bc 2c80 02bd 58a3 99bc
000001a0: 307f 293e 7e5d 843d 2e97 67bd a321 27bd
000001b0: f55e 34bd ebd7 9abd d312 3abe 559e ae3d
000001c0: 4150 d23c 9858 28be fad4 e03d b1c9 2dbe
000001d0: b852 10be 369d 26bd 0a7c 91bb 7163 503d
000001e0: e349 a8bd e3db 83bd 6708 003c 3bc7 9d3c
000001f0: 4843 efbb f3a7 e2bc d73c 23bd 6eeb 29bd
00000200: 400b 46bd 4a24 553d 49f1 55bd f20d 06bb
00000210: bcf2 b83d 61bf b8bd a944 6f3c df8b debc
00000220: 2624 a0bd b0c0 d53c 47d3 f3bc 0fb4 07be
00000230: bea0 8bba 28df 39bd b91f cb3a 0643 573c
00000240: a253 833d 0012 45bd 591b 773d 3651 d6bb
00000250: b202 bebd 41ed 963c 60c5 9ebd a6bd 27bc
00000260: afcc db3d 96ae 00bd c8b0 443c 0687 0c3e
00000270: d6fa 1338 e5aa f8bd 85ea b23d 14da ec3c
00000280: 2680 973c 1a35 003d 2760 0f3d 65f3 2fbc
00000290: 372d 37bd 4cda 1a3d 8ad0 67bb ae1e 083c
000002a0: 318a 8d3d 5719 a5bd c442 c6bd 021d 04bd
000002b0: 6c35 6d3d d29d 253d 193b 78bd d0ec a9bc
000002c0: 8fd6 e5bd df41 29bd 22c3 73bc 27b2 c6bc
000002d0: 77ec 893d 667b 263d af95 2b3c b35e 04be
000002e0: 171c 8cbd 285b bbbc a39a 9dbd cd1f 413b
000002f0: 9572 0d3d 2e34 1bbc 0137 e83d 03c4 8bbd
00000300: e5f5 493c b3e4 423d c661 acbb a9a9 cfbc
00000310: b4c6 0f3b 5594 da3c 22b8 593d 59d9 283d
00000320: 2712 94bd b2bb 03bd 6e95 883d dc64 03be
00000330: d1de dc3d 06f3 e13c f675 afbd 6a81 e2bc
00000340: d1ce cf3d 691b 04be 8ef3 a139 2863 863d
00000350: 8366 0abe d5fe c33d ca81 97bc 05b6 2fbc
00000360: 86a0 76b9 1aeb 9f3d eed5 9f3d d7c8 0fbd
00000370: c1b2 94bd bcf7 243d da6a b2bc 82ae 133d
00000380: 6075 843d 1ba6 d93c 149b 40bc decf b73d
00000390: 9411 68bd 4826 60bd 39d8 323d e51c e9bd
000003a0: c3af 25bd 2901 b83a 52e6 663d 12bc d3bc
000003b0: 1f1f 963d 7903 333d 26ea 1fbd f4b8 133c
000003c0: 6f57 ce3c 8733 b03d 3134 15bc 9d0f 0ebd
000003d0: 3ae5 753c 7e92 0e3d 204e e9bc 75c1 8ebd
000003e0: b7ce cbbd 02f1 cabd fef5 433d f5f2 1d3d
000003f0: 957a 9b3a 1a29 ddbc d45f 983c 29da 40bc

default.encoder_cv.8.bias f4 [128]
-0.04189698 -0.01789204 -0.03353951 -0.028848164 -0.03458899 -0.036534302 -0.04309549 -0.037160695
-0.050673414 -0.045900766 -0.03681927 -0.035511427 0.00079848507 -0.043301497 -0.0759981 -0.037999753
-0.035887793 -0.021492869 -0.016524157 -0.099016406 -0.105196066 -0.027356857 -0.08042498 -0.07885119
-0.054153234 0.01673366 -0.091301344 -0.0066018817 -0.07469368 -0.007290867 -0.046631698 -0.013429647
-0.05270065 -0.04877643 -0.02749139 -0.0417078 -0.0020623761 -0.078187354 -0.016123796 -0.083143234
0.008568641 0.027630908 -0.09447993 -0.06444516 -0.061164655 -0.020023404 -0.011147097 -0.033766743
-0.051092193 -0.029183881 -0.037524965 0.02239915 -0.070615165 -0.05408373 -0.046410825 -0.010055738
-0.0575767 -0.09357401 0.0069478606 0.01848687 -0.020820713 -0.017687293 -0.08286609 0.012948979
-0.060690936 -0.042169724 -0.017640077 -0.055147998 -0.089466855 -0.032102786 0.017230429 -0.04614252
-0.030501472 -0.018701687 -0.047198553 -0.033278473 -0.041660238 -0.054513596 -0.0017931816 -0.025534844
-0.035690483 -0.0069973725 -0.0012767469 -0.01591742 -0.064898774 -0.08980156 -0.06187868 -0.006734149
-0.050566833 -0.0497797 -0.029836116 -0.027145684 -0.024742734 -0.0877803 -0.012263135 -0.025414167
0.0019649076 0.0061257402 -0.07940471 -0.057166256 -0.040109944 -0.038175385 -0.014889543 0.041994873
-0.10520914 -0.017412566 -0.06836589 -0.05865445 -0.039534055 -0.029211715 -0.026519217 -0.059058808
-0.011147759 -0.07815051 -0.019662768 -0.015304379 0.0035165607 -0.036839273 0.03362194 -0.061171357
-0.030348627 -0.07751165 -0.04069686 -0.050856784 0.019856816 -0.0361324 -0.08335503 -0.07480795
00000000: 2b9c 2bbd 5492 92bc ba60 09bd fc52 ecbc
00000010: 2fad 0dbd fea4 15bd e684 30bd d035 18bd
00000020: ed8e 4fbd 7102 3cbd cecf 16bd 6e74 11bd
00000030: 6d51 513a e95c 31bd e4a4 9bbd a1a5 1bbd
00000040: 14ff 12bd d011 b0bc ab5d 87bc 1dc9 cabd
00000050: 0971 d7bd 7d1b e0bc dab5 a4bd bc7c a1bd
00000060: c8cf 5dbd 0715 893c 33fc babd 9954 d8bb
00000070: 00f9 98bd 3ae8 eebb e100 3fbd 0608 5cbc
00000080: a3dc 57bd cbc9 47bd a035 e1bc ccd5 2abd
00000090: ee28 07bb b120 a0bd 0d16 84bc 0047 aabd
000000a0: 7c63 0c3c 375a e23c b27e c1bd d3fb 83bd
000000b0: ca87 7abd 1f08 a4bc 50a2 36bc ff4e 0abd
000000c0: 0c46 51bd 0913 efbc c7b3 19bd 6c7e b73c
000000d0: af9e 90bd e786 5dbd 4719 3ebd d2c0 24bc
000000e0: 8cd5 6bbd bba3 bfbd e1aa e33b c771 973c
000000f0: 3390 aabc f1e4 90bc b2b5 a9bd f427 543c
00000100: 0f97 78bd 29ba 2cbd ec81 90bc dee2 61bd
00000110: 663a b7bd 367e 03bd d426 8d3c f0ff 3cbd
00000120: 39de f9bc 4834 99bc 4553 41bd 024f 08bd
00000130: eda3 2abd a649 5fbd 3109 ebba 732e d1bc
00000140: 2f30 12bd 374a e5bb 8458 a7ba 4065 82bc
00000150: a6e9 84bd e1e9 b7bd 8074 7dbd 23aa dcbb
00000160: 2b1f 4fbd cce5 4bbd df6a f4bc a060 debc
00000170: 46b1 cabc 28c6 b3bd 51eb 48bc 5f31 d0bc
00000180: aec5 003b 6fba c83b f09e a2bd 2a27 6abd
00000190: 534a 24bd cb5d 1cbd 45f3 73bc d102 2c3d
000001a0: e477 d7bd cca4 8ebc 6a03 8cbd a63f 70bd
000001b0: 76ee 21bd 684d efbc d43e d9bc a6e7 71bd
000001c0: 17a5 36bc 600d a0bd d013 a1bc 38bf 7abc
000001d0: 1976 663b c7e4 16bd 29b7 093d d18e 7abd
000001e0: af9d f8bc 6ebe 9ebd c0b1 26bd 344f 50bd
000001f0: c3aa a23c 91ff 13bd 0bb6 aabd e934 99bd

default.encoder_fc.0.weight f4 [128, 128]
0.0790884 0.0035448968 0.04424303 -0.039002504 0.088306464 -0.012979649 0.032944717 0.07193159
-0.08279959 0.06484821 -0.08358781 0.0010894462 0.046236195 -0.019827425 -0.052765157 0.077852584
-0.019463733 0.040054254 -0.026784025 0.030993804 -0.07955283 -0.04348007 -0.06852451 0.016783379
-0.036802955 -0.08011562 0.050885133 0.01592505 0.00027909875 -0.0053293854 0.0689717 -0.056961
0.0029524192 0.019035742 0.069552295 -0.08178952 0.013567954 0.06918398 0.01030419 -0.0068126246
0.07320853 -0.042937618 -0.05058292 0.03188698 -0.026900806 -0.08056815 -0.08154212 -0.05024844
-0.06492468 0.03407927 0.013127781 0.07259544 0.05971741 0.0049126074 -0.058284506 -0.06495431
-0.04696281 0.062425293 0.030323558 -0.047536146 -0.07910329 -0.07553169 0.08052007 -0.029687587
-0.027826045 0.08111521 -0.051985744 -0.07540651 -0.012120463 -0.037696466 -0.060102172 0.010225698
-0.034677435 0.07625363 0.0045019686 -0.06817113 -0.003376387 -0.054685883 0.05861532 -0.020323709
-0.0809965 5.4597855e-05 0.081511386 0.03146126 -0.02971571 -0.023620464 0.048676603 -0.022926956
0.06169557 0.0057050735 -0.01862529 0.026736066 0.054998733 0.08534365 0.023775354 -0.014590532
-0.020008154 -0.03151321 -0.0070000663 0.05587601 0.031828858 0.053496934 0.012265906 -0.068469495
0.025042266 0.08717876 0.079573534 -0.007513821 0.027647503 -0.008160621 0.06506976 -0.063610986
-0.047929544 0.027432635 -0.021714985 -0.02418968 0.023037098 0.039628796 -0.014384359 -0.054945685
0.08432295 0.026783362 -0.05593052 -0.0025674477 -0.047458615 0.05234606 -0.030529596 -0.012038112
0.003558077 -0.02206824 0.01899448 -0.031611905 0.06941717 -0.06571992 -0.007471353 -0.0733684
0.062452503 -0.029161982 -0.026020978 -0.03326145 -0.049775448 -0.08475821 0.03242024 -0.030714665
-0.047638983 -0.040394794 -0.031919587 -0.04475578 0.02892796 0.07065468 -0.081231825 0.07269896
-0.049860794 -0.0687907 -0.0025889054 -0.045898043 0.008007027 -0.06305732 0.025727555 -0.000533998
-0.05325074 0.022709131 -0.069763675 -0.026730236 -0.027058423 -0.07214911 -0.076990366 0.046324514
-0.04936066 0.048298143 0.013802387 0.07006449 0.023997769 -0.08169004 -0.03281286 -0.026344214
0.01418861 0.048076563 0.045774885 0.01567106 0.0682543 -0.066653565 -0.0022639632 -0.054965727
0.042909525 -0.018652849 -0.024892978 0.044180162 0.08605022 0.011711143 -0.029080652 0.047036253
0.06420956 -0.041527446 0.030643806 -0.071553074 -0.06290832 -0.08375819 -0.036374923 0.02760955
-0.027959164 -0.07762798 0.04812283 -0.07130017 -0.010600984 -0.025983807 -0.037388828 0.03196145
-0.0079903975 -0.001673229 -0.02769639 0.0018961653 0.006447375 0.06355726 -0.081764735 0.025332846
0.0825051 -0.00018148124 0.016140535 0.02294445 -0.07728338 -0.06157446 0.05666163 -0.08364945
0.070603706 -0.030117832 -0.060973782 -0.005689077 0.021956086 0.060689233 -0.06017295 0.012021251
0.08378511 0.013027519 0.052439608 -0.04205183 -0.07281017 0.0663727 0.025362454 0.06662289
0.08211111 0.0009789988 0.035762243 0.07196825 0.03606546 0.07508982 0.07665404 0.07897165
0.033179 -0.021374196 -0.06299782 0.03251195 -0.026918054 -0.003813833 -0.010988578 -0.08838595
00000000: 19f9 a13d 8051 683b 2e38 353d 17c1 1fbd
00000010: 05da b43d 98a8 54bc 0af1 063d df50 933d
00000020: d592 a9bd 23cf 843d 1630 abbd c0cb 8e3a
00000030: 2a62 3d3d 206d a2bc 4720 58bd 2d71 9f3d
00000040: 6872 9fbc ee0f 243d 2c6a dbbc b8e6 fd3c
00000050: 98ec a2bd 2818 32bd 9456 8cbd 4c7d 893c
00000060: b2be 16bd a813 a4bd ee6c 503d 4075 823c
00000070: 0054 9239 20a2 aebb 0941 8d3d f04f 69bd
00000080: 607d 413b d8f0 9b3c 6f71 8e3d 4481 a7bd
00000090: 204c 5e3c 55b0 8d3d e8d2 283c 703c dfbb
000000a0: 5bee 953d 5bdf 2fbd 0930 4fbd ec9b 023d
000000b0: 145f dcbc ea00 a5bd 8eff a6bd 4fd1 4dbd
000000c0: 3bf7 84bd b496 0b3d e815 573c ebac 943d
000000d0: 3e9a 743d f0f9 a03b bcbb 6ebd c406 85bd
000000e0: 135c 40bd aab1 7f3d 1c69 f83c 43b5 42bd
000000f0: e800 a2bd 5cb0 9abd b5e7 a43d 6233 f3bc
00000100: 72f3 e3bc bb1f a63d 01ef 54bd ba6e 9abd
00000110: e894 46bc 9c67 1abd b22d 76bd b089 273c
00000120: ed09 0ebd dd2a 9c3d 4085 933b 4e9d 8bbd
00000130: 6046 5dbb 4efe 5fbd 9e16 703d e87d a6bc
00000140: 7ee1 a5bd 0000 6538 71ef a63d 86dd 003d
00000150: 5c6e f3bc b47f c1bc 1e61 473d 50d1 bbbc
00000160: 7eb4 7c3d a0f1 ba3b 1094 98bc 9805 db3c
00000170: 5a46 613d a7c8 ae3d 88c4 c23c 200d 6fbc
00000180: 24e8 a3bc ff13 01bd d060 e5bb 3ede 643d
00000190: fa5e 023d 9a1f 5b3d f0f6 483c bc39 8cbd
000001a0: 7025 cd3c c78a b23d 73f7 a23d 8036 f6bb
000001b0: 047d e23c 20b4 05bc 4b43 853d 7a46 82bd
000001c0: c551 44bd 68ba e03c a0e3 b1bc 7029 c6bc
000001d0: 4cb8 bc3c ce51 223d 60ac 6bbc ba0e 61bd
000001e0: 83b1 ac3d c868 db3c 6717 65bd a042 28bb
000001f0: f763 42bd d268 563d 3419 fabc 803b 45bc
00000200: a02e 693b 74c8 b4bc 509a 9b3c 7c7b 01bd
00000210: 972a 8e3d 2a98 86bd 40d2 f4bb 2c42 96bd
00000220: 32ce 7f3d 1ce5 eebc f229 d5bc 283d 08bd
00000230: 57e1 4bbd b695 adbd 16cb 043d 529d fbbc
00000240: 1821 43bd 0375 25bd 1dbe 02bd d651 37bd
00000250: 54fa ec3c 67b3 903d df5c a6bd 31e3 943d
00000260: d53a 4cbd 23e2 8cbd a0aa 29bb 96ff 3bbd
00000270: e82f 033c 3224 81bd 98c2 d23c 00fc 0bba
00000280: 731d 5abd 8008 ba3c 42e0 8ebd 5ef9 dabc
00000290: a0a9 ddbc eac2 93bd 20ad 9dbd c6be 3d3d
000002a0: 672e 4abd 46d4 453d 6823 623c f97d 8f3d
000002b0: f896 c43c 1c4d a7bd c766 06bd d2cf d7bc
000002c0: 5877 683c eeeb 443d 727e 3b3d 9860 803c
000002d0: e9c8 8b3d aa81 88bd 005f 14bb be23 61bd
000002e0: e6c1 2f3d dccd 98bc 5cec cbbc 42f6 343d
000002f0: 193b b03d 18e0 3f3c 8c3a eebc 16a9 403d
00000300: 4d80 833d af18 2abd b808 fb3c 6b8a 92bd
00000310: 14d6 80bd 6a89 abbd dffd 14bd 6c2d e23c
00000320: 9e0a e5bc 6bfb 9ebd 721c 453d d305 92bd
00000330: c0af 2dbc fedb d4bc 0725 19bd 02ea 023d
00000340: 28ea 02bc 4050 dbba 8ae3 e2bc c088 f83a
00000350: 8044 d33b 4f2a 823d 4574 a7bd d486 cf3c
00000360: 6ff8 a83d 004c 3eb9 2839 843c 00f6 bb3c
00000370: c046 9ebd 8035 7cbd 0616 683d 6750 abbd
00000380: ad98 903d acb9 f6bc a5bf 79bd 706b babb
00000390: 40dd b33c 4695 783d e977 76bd c8f4 443c
000003a0: 8797 ab3d 6071 553c eaca 563d 8a3e 2cbd
000003b0: 801d 95bd 69ee 873d ecc4 cf3c 9571 883d
000003c0: df29 a83d c051 803a 6e7b 123d 1764 933d
000003d0: 60b9 133d b1c8 993d cbfc 9c3d e3bb a13d
000003e0: b4e6 073d f018 afbc 0005 81bd 402b 053d
000003f0: 4083 dcbc 80f1 79bb 7009 34bc b103 b5bd

default.encoder_fc.0.bias f4 [128]
-0.08514937 0.03208901 -0.03528714 -0.052530978 0.06350913 -0.018394478 0.0806307 0.0023162141
-0.005649321 -0.06370379 -0.0019177422 -0.042953633 -0.04957586 0.04656019 0.059058093 0.037280627
-0.07278605 -0.0113199875 -0.06939693 -0.060956154 0.0039847717 0.026359491 -0.06839909 -0.028492343
-0.06782374 -0.05313274 0.015093334 -0.053868983 -0.07243985 0.081222676 0.04429824 0.0110214725
0.057810538 -0.08733132 -0.07632202 -0.061470892 0.036951162 -0.063350655 0.07011751 -0.017995514
0.0055325776 -0.003395833 -0.04262782 -0.06575827 -0.04531966 0.00821697 -0.027956698 -0.056345973
-0.08152726 0.06094434 -0.08635749 0.06948998 0.005871214 -0.0569217 -0.0876577 -0.054951522
0.011399828 -0.07485478 0.070341684 0.077679835 -0.032237925 0.031611286 -0.06302023 -0.0713669
-0.03462118 0.061116032 -0.019792214 0.04346765 0.028932728 0.06033414 0.05350665 -0.00508938
-0.087078 -0.07260603 -0.0062474236 -0.077014506 0.0005591959 -0.06749017 0.07167464 -0.04510458
0.018804818 0.07871748 0.003310591 0.081805356 0.086298935 0.08572369 0.078585185 9.789318e-05
0.04289625 0.068182565 0.082866944 -0.027069718 -0.08383542 0.08319568 -0.0028958395 -0.039678603
0.034057073 0.07807485 0.04439185 -0.033733115 -0.026833981 0.0800646 -0.059634894 -0.058740452
-0.08782207 -0.058027178 0.05103352 0.027923428 -0.0046116784 0.085933276 0.08352546 -0.023150481
-0.030763827 0.008561805 -0.00065039843 0.06826422 -0.009720072 0.0021941215 -0.037409794 0.088327505
0.08758665 -0.00070195645 -0.055031043 0.0071698725 0.06951139 0.043594576 -0.029474441 -0.07441814
00000000: cb62 aebd c46f 033d 4089 10bd b92a 57bd
00000010: 1311 823d 04b0 96bc b521 a53d a0cb 173b
00000020: f01d b9bb 2277 82bd c05c fbba 26f0 2fbd
00000030: 0f10 4bbd e6b5 3e3d e6e6 713d 92b3 183d
00000040: da10 95bd 7877 39bc fa1f 8ebd 29ad 79bd
00000050: b092 823b dcef d73c d214 8cbd c668 e9bc
00000060: 2ce7 8abd b7a1 59bd 084a 773c b9a5 5cbd
00000070: 585b 94bd 1358 a63d 1272 353d 6893 343c
00000080: beca 6c3d c3da b2bd b84e 9cbd e7c8 7bbd
00000090: 1a5a 173d fdbd 81bd c599 8f3d 546b 93bc
000000a0: a04a b53b a08c 5ebb 829a 2ebd 46ac 86bd
000000b0: 1ca1 39bd 78a0 063c 7205 e5bc 09cb 66bd
000000c0: c4f7 a6bd c6a0 793d 32dc b0bd c350 8e3d
000000d0: 5063 c03b ba26 69bd e185 b3bd d914 61bd
000000e0: 58c6 3a3c 774d 99bd 4d0f 903d 9b16 9f3d
000000f0: ea0b 04bd d67a 013d c010 81bd cf28 92bd
00000100: f0ce 0dbd ce54 7a3d 4823 a2bc 220b 323d
00000110: 5404 ed3c ee20 773d ca29 5b3d d0c4 a6bb
00000120: f355 b2bd 78b2 94bd 30b7 ccbb c8b9 9dbd
00000130: 0097 123a 4938 8abd 27ca 923d 94bf 38bd
00000140: 900c 9a3c a136 a13d 80f6 583b 9189 a73d
00000150: 7fbd b03d e78f af3d 45f1 a03d 004c cd38
00000160: fab3 2f3d 4da3 8b3d 25b6 a93d 50c1 ddbc
00000170: e8b1 abbd 7f62 aa3d 20c8 3dbb 0886 22bd
00000180: 6e7f 0b3d b5e5 9f3d 3ad4 353d bc2b 0abd
00000190: f0d2 dbbc e9f8 a33d b843 74bd d499 70bd
000001a0: 0fdc b3bd e8ad 6dbd 8608 513d acbf e43c
000001b0: 901d 97bb c9fd af3d 650f ab3d 14a6 bdbc
000001c0: 6c04 fcbc d046 0c3c 807f 2aba 1dce 8b3d
000001d0: f040 1fbc 40cb 0f3b 033b 19bd 0de5 b43d
000001e0: a160 b33d 8003 38ba 3b68 61bd 40f1 ea3b
000001f0: fd5b 8e3d 3a90 323d 6274 f1bc 8a68 98bd

default.encoder_fc.3.weight f4 [128, 128]
-0.008461632 0.072611265 0.05506245 -0.023150116 0.0093045905 0.007181272 -0.06897297 0.035610154
0.018988512 0.042196967 0.061584525 -0.02734026 0.034258567 0.050974585 -0.0865209 -0.052341107
0.081331305 0.014030926 0.08608719 -0.023055509 -0.058812417 0.08127705 0.051398255 -0.041888624
0.009089872 0.021552876 -0.031695683 0.00034478307 -0.039525483 -0.050907407 0.017110616 0.088094525
-0.009073302 0.00652685 -0.04749638 0.03460095 -0.022083536 -0.060766924 0.08115438 -0.017901681
0.052232392 -0.031459734 -0.04931314 0.06796829 -0.006979279 -0.057409264 -0.036432177 0.05840137
-0.03854045 -0.038384568 -0.019287713 -0.022909522 -0.0714664 -0.002305299 -0.0691363 -0.04342319
-0.06789227 0.028614715 0.02203612 0.026323318 0.08315442 -0.071008906 0.03209126 0.044391446
-0.08561231 -0.08225874 -0.015705906 0.08125114 0.0708138 -0.073839135 0.02606894 0.03291437
0.08110795 -0.04585247 0.070919506 -0.01895953 -0.071008444 -0.011764146 0.08305355 0.078288935
0.06572456 0.075997554 0.04983633 -0.007095024 -0.03603992 -0.04243231 -0.08465378 0.01526738
-0.016011916 0.014881134 0.05811546 -0.081659704 -0.044520054 0.042347185 -0.074834995 -0.01565653
0.014163241 0.032646 0.046420373 0.009269588 0.06325681 -0.047428574 -0.0749351 -0.051580798
-0.031818014 0.030390404 0.03770847 -0.0867125 0.04302057 0.06915551 -0.07696792 0.057328455
0.014123842 0.025393136 -0.060371585 0.0052421913 -0.08171083 0.06250628 -0.02159629 0.05084253
0.06352935 -0.07564488 -0.014731243 0.08234999 -0.06283425 -0.067585155 -0.039870106 0.041249804
0.06737108 0.047146834 -0.06248047 -0.0459704 0.0338844 -0.07945502 0.04910972 -0.041971758
0.084263496 -0.015117265 0.002869524 -0.037006766 0.043942593 -0.07175635 0.015381314 0.011764169
0.03161609 0.049049295 0.00903751 0.05352307 0.010177895 -0.01755976 0.001880616 0.07817834
-0.0008003786 -0.004040271 -0.040061843 0.016652219 0.0019884482 -0.039259326 -0.07307093 -0.055370167
-0.04137863 -0.07775193 -0.088234566 0.0029211864 0.019229487 0.006542824 0.043105356 -0.051541
0.08349294 -0.007187046 0.06285339 0.07187908 0.04542481 0.0037588552 -0.06191752 -0.013111882
0.018811494 -0.05348824 0.043161653 -0.020034619 -0.078423865 -0.028430842 0.06418822 -0.05119604
0.027930625 -0.046752464 0.0012704208 0.040665545 -0.07765677 0.06048327 -0.046055548 0.023368753
-0.07553512 0.024063535 -0.044580184 -0.043721475 0.087773986 0.050029673 -0.05025297 -0.012353495
0.022863358 -0.0039800853 0.0037068054 -0.079546295 0.059200086 0.03246308 -0.016727768 0.065766715
-0.08252669 0.062231638 0.0347509 0.03185597 0.030460201 -0.07882786 0.057241715 0.0012494624
0.0042660385 0.03866411 0.00028225034 0.04114593 0.016793303 -0.044788655 0.06356431 -0.07481968
0.05332584 -0.0038314983 0.050994776 -0.08770885 -0.019939475 -0.017515175 0.01898238 0.008939691
0.045545198 0.081093304 -0.071190745 0.051035397 0.0804433 -0.043291386 0.04440915 -0.027991366
0.04005537 0.061630033 -0.015129857 0.07172655 -0.008783005 0.06840574 0.041639067 -0.018861167
-0.06774722 -0.0113469735 0.02971536 0.07219017 -0.022520147 0.06373473 0.086369075 -0.055538945
00000000: a8a2 0abc 37b5 943d 2a89 613d 50a5 bdbc
00000010: 4872 183c e050 eb3b b341 8dbd f4db 113d
00000020: cc8d 9b3c bad6 2c3d 0e40 7c3d aef8 dfbc
00000030: b652 0c3d baca 503d df31 b1bd a163 56bd
00000040: 0791 a63d f8e1 653c 7b4e b03d e8de bcbc
00000050: 4ae5 70bd 9574 a63d fa86 523d 6893 2bbd
00000060: b0ed 143c a88f b03c 55d3 01bd 00c4 b439
00000070: 79e5 21bd 4984 50bd 902b 8c3c e76a b43d
00000080: 30a8 14bc 30df d53b 908b 42bd bab9 0d3d
00000090: 88e8 b4bc bde6 78bd 4534 a63d 8ca6 92bc
000000a0: a2f1 553d ecdb 00bd 93fc 49bd f532 8b3d
000000b0: 70b2 e4bb fa25 6bbd e839 15bd 4636 6f3d
000000c0: 97dc 1dbd 2339 1dbd 4401 9ebc c0ac bbbc
000000d0: fa5c 92bd 8014 17bb 5597 8dbd 84dc 31bd
000000e0: 1a0b 8bbd 6869 ea3c 1885 b43c 00a4 d73c
000000f0: dd4c aa3d 1e6d 91bd 2072 033d ced3 353d
00000100: 8255 afbd 4577 a8bd aca9 80bc ff66 a63d
00000110: d306 913d f938 97bd 888e d53c 38d1 063d
00000120: ed1b a63d cdcf 3bbd 3f3e 913d 0451 9bbc
00000130: e06c 91bd 68be 40bc fb17 aa3d f355 a03d
00000140: 999a 863d 9ba4 9b3d 2e21 4c3d 607d e8bb
00000150: 989e 13bd 80cd 2dbd f65e adbd 0824 7a3c
00000160: 6c2b 83bc 00d0 733c 7a0a 6e3d 343d a7bd
00000170: a95a 36bd 3e74 2d3d 1743 99bd 2042 80bc
00000180: f00c 683c d0b7 053d 4a23 3e3d 78df 173c
00000190: c98c 813d 7744 42bd 9377 99bd 6346 53bd
000001a0: 9b53 02bd 4cf5 f83c 3274 1a3d 5396 b1bd
000001b0: 5636 303d 67a1 8d3d 5ba1 9dbd 3ed1 6a3d
000001c0: b067 673c 4405 d03c 3248 77bd b0c6 ab3b
000001d0: 0258 a7bd 4b03 803d b4ea b0bc 4240 503d
000001e0: ad1b 823d b4eb 9abd 505b 71bc 1da7 a83d
000001f0: 3eaf 80bd 166a 8abd d64e 23bd 8ef5 283d
00000200: d9f9 893d 0a1d 413d 85eb 7fbd 754b 3cbd
00000210: 5eca 0a3d 50b9 a2bd 4627 493d 94ea 2bbd
00000220: 5792 ac3d 68ae 77bc a00e 3c3b 6894 17bd
00000230: 26fd 333d fef4 92bd e801 7c3c 80be 403c
00000240: e07f 013d eae7 483d 1012 143c 023b 5b3d
00000250: 30c1 263c 7cd9 8fbc 007f f63a f71b a03d
00000260: 80d0 51ba 4064 84bb e317 24bd 3c6a 883c
00000270: a050 023b 63ce 20bd 36a6 95bd d4cb 62bd
00000280: a37c 29bd 673c 9fbd 53b4 b4bd 6071 3f3b
00000290: 2887 9d3c 3065 d63b 3e8f 303d a81c 53bd
000002a0: 59fe aa3d 5081 ebbb 47b9 803d 5735 933d
000002b0: 5e0f 3a3d 2057 763b 3a9d 7dbd 38d3 56bc
000002c0: 901a 9a3c 7c16 5bbd 46ca 303d a41f a4bc
000002d0: b19c a0bd cce7 e8bc 1d75 833d f0b2 51bd
000002e0: c4ce e43c 837f 3fbd 4084 a63a ea90 263d
000002f0: 830a 9fbd 4ebd 773d bea4 3cbd d46f bf3c
00000300: 28b2 9abd e420 c53c b699 36bd 4a15 33bd
00000310: d9c2 b33d eaeb 4c3d 0fd6 4dbd 5066 4abc
00000320: f04b bb3c 606b 82bb e0ed 723b 2be9 a2bd
00000330: ca7b 723d 02f8 043d ac08 89bc b3b0 863d
00000340: c103 a9bd 9ae6 7e3d f656 0e3d 687b 023d
00000350: ac87 f93c 8070 a1bd 4a76 6a3d 00c5 a33a
00000360: 20ca 8b3b 425e 1e3d 00fb 9339 a288 283d
00000370: 1c92 893c 4f74 37bd 012e 823d 0f3b 99bd
00000380: 326c 5a3d e019 7bbb e6df 503d b3a0 b3bd
00000390: 1c58 a3bc fc7b 8fbc f080 9b3c c877 123c
000003a0: 9a8d 3a3d 3f14 a63d 74cc 91bd 7e0a 513d
000003b0: 75bf a43d 4f52 31bd 5ee6 353d 264e e5bc
000003c0: 1a11 243d c66f 7c3d 38e3 77bc 5fe5 923d
000003d0: 98e6 0fbc 4f18 8c3d ba8d 2a3d bc82 9abc
000003e0: 0ebf 8abd a8e8 39bc a06d f33c 71d8 933d
000003f0: 2c7c b8bc 5b87 823d 45e2 b03d ce7c 63bd

default.encoder_fc.3.bias f4 [128]
0.049801745 0.03579974 0.068834744 -0.049682695 -0.031783096 -0.016336277 0.04210084 0.08240738
-0.04628551 -0.043939207 0.0266302 -0.030722935 0.02027943 0.05072067 -0.08350998 -0.029394235
-0.0482022 -0.06617709 0.049963586 0.057537176 0.00052352995 0.02959872 -0.014323175 0.025114551
-0.024455085 0.016723566 -0.0857498 0.07968541 -0.0065821186 -0.0055604726 0.013519093 -0.07993104
0.03438974 0.081975065 -0.0005711615 0.053258218 -0.05906065 -0.05281688 -0.027947102 0.049722888
0.0050089955 -0.07714432 -0.056933384 -0.007929236 0.075459026 0.042852394 -0.072754614 -0.0068221763
-0.013707779 0.009743363 -0.020048842 -0.012889139 0.037435554 -0.035197213 -0.030978713 0.03227734
-0.0511002 -0.050803453 0.028053343 -0.06631763 0.05175426 -0.018575393 -0.08608896 -0.07622114
0.02846793 -0.067398645 0.058006085 -0.07354639 0.009879865 -0.02621045 0.0072172657 -0.06788962
0.028281242 0.04078334 -0.06495401 0.010121942 -0.023215577 0.018107243 0.04950247 0.021139309
-0.074092686 0.08287171 0.046560623 -0.017019719 0.0677881 -0.08505209 -0.055469878 0.019344844
0.030462138 0.049545847 0.0020919591 -0.083276026 -0.05176831 -0.06766957 0.05419617 -0.04250144
0.04647661 -0.07504554 0.015066065 0.07280687 -0.05301533 0.01813268 0.073619224 -0.0751151
0.02553939 0.064841025 0.059545763 0.045330204 -0.08205847 0.0038857907 0.0144008845 0.030210376
0.059055485 -0.03658021 -0.07644976 -0.06999626 -0.040627073 -0.04064506 -0.020896606 0.08419857
0.01101467 0.07038949 -0.08147614 0.022979602 0.032052487 0.050368138 0.054029323 -0.07361243
00000000: eafc 4b3d c0a2 123d 3bf9 8c3d 1580 4bbd
00000010: fe2e 02bd a8d3 85bc ee71 2c3d 33c5 a83d
00000020: e095 3dbd 99f9 33bd 9427 da3c aaae fbbc
00000030: 0c21 a63c 7ac0 4f3d 4807 abbd 2ecc f0bc
00000040: ac6f 45bd db87 87bd 9ea6 4c3d 1aac 6b3d
00000050: 803d 093a 0479 f23c c0ab 6abc 08bd cd3c
00000060: 0856 c8bc dcff 883c 979d afbd 1b32 a33d
00000070: d0ae d7bb a034 b6bb 307f 5d3c e3b2 a3bd
00000080: 42dc 0c3d 8be2 a73d 00ba 15ba 4a25 5a3d
00000090: 95e9 71bd 8356 58bd 52f1 e4bc 3aaa 4b3d
000000a0: 8022 a43b d7fd 9dbd fb32 69bd a0e9 01bc
000000b0: 438a 9a3d fe85 2f3d 5f00 95bd 908c dfbb
000000c0: 9896 60bc a0a2 1f3c 783d a4bc f82c 53bc
000000d0: 0656 193d f42a 10bd 12c7 fdbc 3e35 043d
000000e0: 714e 51bd 4817 50bd 20d0 e53c 8ad1 87bd
000000f0: 46fc 533d 6c2b 98bc 694f b0bd d419 9cbd
00000100: 9435 e93c 4d08 8abd ca97 6d3d 7d9f 96bd
00000110: 28df 213c 4cb7 d6bc d07e ec3b b709 8bbd
00000120: 10ae e73c 6e0c 273d 9c06 85bd 80d6 253c
00000130: 982e bebc a455 943c 1ac3 4a3d 582c ad3c
00000140: e8bd 97bd a5b8 a93d 5ab6 3e3d f06c 8bbc
00000150: 7dd4 8a3d ca2f aebd 6234 63bd 1479 9e3c
00000160: bc8b f93c 96f0 4a3d 4019 093b 9f8c aabd
00000170: 020b 54bd 5896 8abd cefc 5d3d fd15 2ebd
00000180: 425e 3e3d 7ab1 99bd a8d7 763c c51b 953d
00000190: 9a26 59bd fc8a 943c adc5 963d f2d5 99bd
000001a0: fc37 d13c 5fcb 843d 42e6 733d 2aac 393d
000001b0: 450e a8bd c0a8 7e3b b0f1 6b3c c07b f73c
000001c0: 2ae4 713d 21d5 15bd b191 9cbd 335a 8fbd
000001d0: 9368 26bd 6f7b 26bd 5c2f abbc 4d70 ac3d
000001e0: e076 343c 5d28 903d f6dc a6bd b83f bc3c
000001f0: 7849 033d d24e 4e3d da4d 5d3d 1dc2 96bd

default.mean_encoder.weight f4 [10, 128]
-0.05343888 0.012445838 -0.007981896 0.024679894 -0.010868177 -0.10763214 -0.013913529 0.09404574
0.026829211 -0.0815434 0.07690801 -0.042889953 -0.08524924 -0.048399787 0.108954236 0.02870707
-0.05763853 -0.04084265 -0.020318097 0.03227616 -0.08470264 -0.021031443 -0.083814405 0.0049298005
0.03698523 -0.026514044 0.0044856374 -0.1485 -0.080286466 0.07878021 0.059141856 -0.017737443
-0.0803133 0.04317433 0.019105207 0.084392294 -0.11725256 0.093533896 0.06850032 0.05273007
0.0100674 -0.044258054 -0.058052324 0.14013985 -0.07194547 -0.053492088 -0.000731358 -0.16285002
0.025160966 -0.123863764 -0.010116866 -0.1862985 -0.09103765 -0.08611773 0.011887624 0.077612355
-0.0040081805 -0.14454347 -0.08229447 -0.0084413355 -0.09801468 0.050589334 0.075549304 -0.005194737
-0.072259106 0.03812785 -0.015669037 0.1077263 0.06041613 0.06597969 0.047603805 0.14111356
-0.01817192 0.04118724 -0.045547098 -0.098043755 0.104710095 -0.06620259 0.015551208 -0.023855256
0.17211168 -0.053858638 -0.16593438 -0.18266286 0.11593761 -0.0062126135 -2.3028239e-05 -0.008173356
0.03525464 0.08961407 0.0602147 -0.08901589 -0.03571306 -0.24794483 0.07697283 -0.13328353
-0.07277499 0.09443814 -0.009478445 -0.039061848 -0.15210913 0.014042598 -0.024145337 -0.033770304
0.005162131 0.011943561 -0.008068337 0.022550136 0.0163328 0.026514942 0.033252582 0.046332527
-0.12188454 0.17422628 -0.043217532 -0.090653285 -0.015358438 0.031216955 0.026365716 -0.056759715
0.13226907 0.12805042 -0.101544835 0.06528287 -0.08138133 0.1442633 0.066546045 0.04410163
0.026179072 0.07196361 -0.084439225 0.16859642 -0.055619314 0.08811679 0.09708786 0.08742188
0.0594465 -0.011544326 0.0074018063 0.17399526 -0.024849728 0.057224017 -0.12556979 0.0009944465
-0.02163214 -0.09108661 0.049148027 -0.018578993 -0.07928724 -0.041436087 -0.16461495 0.0885921
-0.060811087 -0.056376614 -0.056094777 -0.01020491 0.03861081 -0.0028556348 -0.026844537 -0.0254208
0.0567804 0.011443383 -0.10472726 0.15213762 -0.001823187 0.0031575146 -0.0042083543 -0.008035615
0.15936579 0.029371543 0.006843694 -0.12810929 -0.03360948 -0.06842119 -0.06822478 0.10475437
0.04040836 0.11475978 0.05374109 0.019123051 0.0818772 -0.0069136093 -0.052136987 0.14242081
-0.14105143 -0.24049228 0.01774796 0.010567978 0.0659588 -0.13652623 -0.06807543 0.106580794
0.087806426 0.005295941 -0.08685512 0.10483209 -0.0015376791 0.12651438 -0.0052556274 -0.08519953
-0.016702883 0.14765428 0.05472374 0.042159796 0.20852593 0.08489383 0.08186254 -0.045548487
-0.080035076 -0.04037708 -0.11012075 0.11369518 0.009282842 0.03981145 0.010893473 0.02461607
0.18784891 0.028109452 -0.11931732 -0.07938699 0.09199331 -0.2126889 0.093285315 -0.049296074
0.061809696 0.12689368 0.012752475 -0.02456577 -0.00591998 0.06361951 -0.01396802 0.123719625
0.004779971 0.0011552415 -0.037699528 0.098087266 0.07263107 -0.15037753 0.014218121 0.066543005
-0.12934348 0.028134804 0.095993735 -0.059694342 0.017073134 -0.12823825 0.08798456 0.01614728
0.045495834 0.003502348 -0.07341992 0.06691275 -0.0075794933 0.07276597 0.052173104 -0.06440027
00000000: bae2 5abd a1e9 4b3c 80c6 02bc 7d2d ca3c
00000010: 7010 32bc 3d6e dcbd 92f5 63bc 0e9b c03d
00000020: efc8 db3c 3a00 a7bd f281 9d3d 60ad 2fbd
00000030: 2797 aebd db3e 46bd 6623 df3d 172b eb3c
00000040: 6116 6cbd 9f4a 27bd 2372 a6bc 0234 043d
00000050: 9478 adbd 224a acbc e3a6 abbd 2a8a a13b
00000060: d37d 173d fb33 d9bc 41fc 923b 6210 18be
00000070: 3b6d a4bd 8557 a13d bb3e 723d 1d4e 91bc
00000080: 4d7b a4bd 91d7 303d 8682 9c3c ded5 ac3d
00000090: 1c22 f0bd b38e bf3d e549 8c3d 7cfb 573d
000000a0: bcf1 243c ef47 35bd 46c8 6dbd d280 0f3e
000000b0: 2658 93bd 851a 5bbd 9bb8 3fba 28c2 26be
000000c0: 5f1e ce3c 49ac fdbd 36c1 25bc 09c5 3ebe
000000d0: f371 babd 7e5e b0bd 4fc4 423c 3af3 9e3d
000000e0: 0e57 83bb 3403 14be 018a a8bd 874d 0abc
000000f0: ecbb c8bd c336 4f3d 98b9 9a3d 9d38 aabb
00000100: 95fc 93bd f32b 1c3d 5a5c 80bc 9b9f dc3d
00000110: e776 773d 5c20 873d 35fc 423d 1380 103e
00000120: 47dd 94bc f4b3 283d 988f 3abd 2acb c8bd
00000130: 3f72 d63d 3995 87bd 7eca 7e3c 196c c3bc
00000140: 0b3e 303e e09a 5cbd b4ea 29be f90b 3bbe
00000150: b370 ed3d 2e93 cbbb c42c c1b7 8ae9 05bc
00000160: 2b67 103d 9587 b73d b0a3 763d f74d b6bd
00000170: dc47 12bd 40e5 7dbe eea3 9d3d 7a7b 08be
00000180: 0e0b 95bd c968 c13d 7b4b 1bbc 51ff 1fbd
00000190: 7fc2 1bbe ed12 663c 71cc c5bc bb52 0abd
000001a0: 1827 a93b edae 433c 0f31 04bc 10bb b83c
000001b0: 5dcc 853c dd35 d93c dc33 083d 2dc7 3d3d
000001c0: 9a9e f9bd 6068 323e de04 31bd 6ea8 b9bd
000001d0: f5a1 7bbc b3ba ff3c eafc d73c e07c 68bd
000001e0: 8b71 073e a61f 033e bdf6 cfbd 06b3 853d
000001f0: 41ab a6bd c2b9 133e 4b49 883d e9a3 343d
00000200: 7e75 d63c a861 933d 79ee acbd 8aa4 2c3e
00000210: 14d1 63bd 9376 b43d 00d6 c63d 3e0a b33d
00000220: 2c7e 733d 6a24 3dbc da8a f23b d02b 323e
00000230: a891 cbbc bb63 6a3d 5e95 00be 1658 823a
00000240: e335 b1bc 9e8b babd 714f 493d f932 98bc
00000250: 5961 a2bd e3b8 29bd d290 28be c66f b53d
00000260: 0c15 79bd 2aeb 66bd a3c3 65bd 7f32 27bc
00000270: 5e26 1e3d 9a25 3bbb 13e9 dbbc 483f d0bc
00000280: 9192 683d 077d 3b3c 3f7b d6bd f7c9 1b3e
00000290: 01f8 eeba 4eee 4e3b 3ce6 89bb d0a7 03bc
000002a0: c930 233e 979c f03c 1141 e03b 152f 03be
000002b0: 18aa 09bd 6920 8cbd 6fb9 8bbd 7689 d63d
000002c0: 3d83 253d 2d07 eb3d 9e1f 5c3d f2a7 9c3c
000002d0: 3caf a73d 8f8b e2bb 988d 55bd c3d6 113e
000002e0: c96f 10be 9c43 76be 2b64 913c 5025 2d3c
000002f0: 6815 873d 88cd 0bbe 226b 8bbd 0847 da3d
00000300: dbd3 b33d 9389 ad3b 19e1 b1bd 35b2 d63d
00000310: f38b c9ba fc8c 013e 6637 acbb 177d aebd
00000320: 7cd4 88bc af32 173e 0026 603d c0af 2c3d
00000330: d287 553e d1dc ad3d 8ca7 a73d 0d91 3abd
00000340: 6ee9 a3bd 7062 25bd fd86 e1bd 05d9 e83d
00000350: 1017 183c 5511 233d 8a7a 323c a4a7 c93c
00000360: 775b 403e cb45 e63c a45c f4bd a595 a2bd
00000370: fd66 bc3d 1ecb 59be 5f0c bf3d aeea 49bd
00000380: 2a2c 7d3d 6bf0 013e c2ef 503c 273e c9bc
00000390: 64fc c1bb f24a 823d 1fda 64bc b760 fd3d
000003a0: 4ea1 9c3b 796b 973a d26a 1abd fae1 c83d
000003b0: 99bf 943d 91fc 19be 1ff3 683c b347 883d
000003c0: 9e72 04be f67a e63c 5d98 c43d 0e82 74bd
000003d0: f5dc 8b3c e350 03be 4031 b43d 4d47 843c
000003e0: d759 3a3d a687 653b 2f5d 96bd 8d09 893d
000003f0: 665d f8bb 5306 953d 77b3 553d 4ae4 83bd

default.mean_encoder.bias f4 [10]
-0.011268289 0.13138296 0.015899094 -0.0783733 0.1297773 -0.044126105 -0.016120246 -0.053124413
0.05479181 -0.14603774
00000000: a19e 38bc 4189 063e d13e 823c 2e82 a0bd
00000010: 57e4 043e 93bd 34bd 9b0e 84bc fc98 59bd
00000020: 616d 603d eb8a 15be
