models/mnist-relaxed1E/encoder_z2_z1_-1634483658035301170.pt (torch_old, 88270 bytes, 8 tensors)

default.encoder.to_hidden.weight f4 [128, 19]
00000000: bf08 2e3e 0e3b 503b 1838 ecbd ae27 0a3e
00000010: 6e42 243c b4ee a43d f2ae 05be 4d52 08be
00000020: e7ac fb3d c1d4 9fbc 3162 60bc e6bd e63d
00000030: 6734 09be 443a 383d 409b 3bbe f1b3 883e
00000040: 0dc0 65bd 9eca 6abc 421c 573e 1bf0 b13d
00000050: 28fe 553c e232 4dbe 53f1 5a3e 0a3f aebd
00000060: d13f f7bd 25c7 043d 868d cd3d 3f20 b43d
00000070: 4c92 c1bc 4585 003e fb5c 3e3e 9b68 b3bc
00000080: 4251 00be cfee f23d d3ad 01bd d0ec 11bd
00000090: 7f33 6abe be1a 3cbe 7a42 85bd c776 cb3d
000000a0: 937c 28bc bfbe 843d 8526 cb3d 11d8 6c3c
000000b0: df6f adbd dce2 fabd 19b4 89bd 143b b73d
000000c0: 53bf 83bd ac24 cdbd 8d9b 6e3d 4688 5ebe
000000d0: 9572 55be 9b12 e0bd 0df8 143e 7687 e63c
000000e0: ab61 66be 1bc6 3e3e 0891 fd3c 1f5e ce3d
000000f0: d14f 1c3d 1ab8 ff3d 0456 e13d d1f6 d33c
00000100: 55b3 c63b a88a f8bd d4d7 0abe cb74 79bc
00000110: 3a7b 51be 92d3 28be 36e4 2bbd a3d2 ea3d
00000120: b89e 193e 7085 823e e27f 8ebe 6439 6dbe
00000130: 95e3 2fbe a07a d03d 6766 c4bd 92b9 8b3d
00000140: 64d7 a8bd d101 36bd 23ff 52bd 27bc 623c
00000150: 3961 1cbd 3d8e f13c 00a8 e03e 4063 00bf
00000160: f727 39be eb98 f73d 00b1 4fbd 6ad8 95bc
00000170: 70d5 a33d 4efc 09be f590 9cbd 6838 14be
00000180: 7b8a 48be cc71 82bd 9d85 04be 2cf2 1f3d
00000190: d268 b53d 5142 e5bd 6ec3 6c3e 3cf5 1d3e
000001a0: 0f6e 233b 3468 89be e3af 263e 6fed bbbd
000001b0: d345 10bd 8b74 253e 7f25 40be 93c5 c9bc
000001c0: 7776 063e 443a 3abd 736e debc 0bf6 05bd
000001d0: f962 0c3e 4096 133d 235e 07be 5067 8b3d
000001e0: 9a28 f33d bc2e a4bc cb11 b33c 2314 163c
000001f0: 386b 563e d612 35bf ec8d 873e 1812 3d3e
00000200: 3e38 f43d 959d 2f3e 4011 d1bd 8386 ccbd
00000210: f141 91be f765 51bd 74c9 3bbe 22e1 0a3e
00000220: 18e1 da3a db3c 7bbd 3db4 32be fe05 0d3e
00000230: dacf 143d cb2c 73bd 3ec1 d13d af19 86bd
00000240: d9c0 febe e4a8 643e 0075 2d3e b95d 453d
00000250: 9500 79bc e91d 80bb d950 b63e 8b06 d93d
00000260: 95b3 96bd 52c9 5cbe 5a82 22be 3a2e b73c
00000270: 8355 21be fb19 51bd 8cc4 cd3d 7373 d8bd
00000280: 68f9 153e ffb3 94bc 0354 7abe 66bb 00be
00000290: 9bb7 6e3d 3f08 413e d72a b5bd 7841 38bd
000002a0: 0e5d 69bd 8b16 d3bd edc1 f6bb f19b 053e
000002b0: 3a24 213d 88c0 4d3d 413a f7bd 42ac c2bd
000002c0: 53c7 f6bc 8e79 d6bd 3dda ea3b 770e 22bd
000002d0: 94c8 333d ab2b 02be 6165 153e a0de 023e
000002e0: 6c33 933e 464a abbd ccf8 f7bc 3326 02be
000002f0: 4c3a 9dbc 3725 b33d a60f 123d 9b0f 57bd
00000300: c6c7 173e c39d 94bd a3a4 24be 3887 453e
00000310: 929f 56bd abb7 f43c be8b 893d ee81 02bd
00000320: 3c58 78bc c312 e7bc 7868 113d f16f 38bc
00000330: ecea 943c a042 febd a2d4 083e 4e4c f639
00000340: 4122 033e 22dd c4bc ca5b c03b 7a42 c6bd
00000350: 5639 103e 03d3 ecbd 2a43 b13d bf8f b6bd
00000360: 538a 08bd ddc6 053e cfa6 e6bc 7067 433e
00000370: 57ae b93d 07e9 383d b87c 023d d076 f1bc
00000380: 9a89 003e 69f7 07be 4122 3d3c 5115 ab3d
00000390: 34c8 3fbd 70a8 cf3d 1a86 6b3d 1b77 05be
000003a0: 5069 99bd ff43 c5bd e4ac cabd fc5e 123e
000003b0: 36ec a5bc 2002 2a3e 7610 dcbd 430b b43e
000003c0: 3973 053e 7c52 a43e 9d02 de3d cba7 b43d
000003d0: 4a9b 38be c56d 823e 84ea ac3d abbd 243d
000003e0: 6c67 d8bd 9c05 d13d 401d c13d f73e e3bd
000003f0: 4521 babc ff6c e43c 14cc dabd 3fc8 56be
0.16995524 0.003177348 -0.115341365 0.13491699 0.010025604 0.080533415 -0.13055018 -0.13312645
0.12288838 -0.019510629 -0.013695286 0.11266689 -0.13398896 0.04497744 -0.18320942 0.26699784
-0.056091357 -0.014330534 0.21006873 0.086883746 0.013061084 -0.20038942 0.2138112 -0.085081175
-0.12072719 0.03241648 0.10036759 0.08795213 -0.02362933 0.12550838 0.18590157 -0.021900466
-0.12530997 0.118619554 -0.031659912 -0.035626233 -0.22871207 -0.18369576 -0.0650682 0.09934764
-0.010283607 0.064816944 0.099194564 0.014455811 -0.08468603 -0.12250301 -0.06723804 0.08946815
-0.064329766 -0.1001676 0.058253814 -0.21731672 -0.20844491 -0.10941049 0.14547749 0.028140765
-0.22498195 0.18630259 0.030952945 0.10076546 0.038162056 0.124862865 0.11002734 0.025874527
0.0060638585 -0.121358216 -0.13558894 -0.0152255995 -0.20457163 -0.16486958 -0.041965686 0.11465957
0.15001953 0.2549243 -0.27831942 -0.23166424 -0.1717666 0.10179639 -0.09589844 0.06822504
-0.082442075 -0.044435326 -0.05151285 0.013838804 -0.038178656 0.02948677 0.43878174 -0.50151443
-0.18081652 0.12089714 -0.05070591 -0.01829167 0.07999694 -0.13475153 -0.07644836 -0.14474642
-0.19584076 -0.06369361 -0.12941594 0.039049312 0.088578835 -0.111942895 0.23121426 0.1542558
0.0024937426 -0.26837313 0.16278033 -0.09176146 -0.03522284 0.16157739 -0.18764304 -0.024630344
0.13131128 -0.045465723 -0.027152276 -0.032705348 0.1370963 0.03603196 -0.13219504 0.06806815
0.118729785 -0.020041816 0.02185907 0.009160074 0.20939338 -0.70731866 0.26475465 0.18463933
0.1192479 0.17149957 -0.10208368 -0.099865936 -0.28370622 -0.051122632 -0.18338567 0.13562444
0.0016699163 -0.061337333 -0.17451568 0.13771817 0.036331035 -0.05936889 0.10241936 -0.065478675
-0.49756506 0.22330052 0.16939163 0.048185084 -0.015197893 -0.0039098156 0.35608557 0.10596951
-0.07358471 -0.21561173 -0.15870038 0.02236091 -0.15755276 -0.051050168 0.10047254 -0.10568895
0.14645922 -0.018152235 -0.2444611 -0.12571487 0.05828057 0.18850802 -0.08846062 -0.04498431
-0.05697351 -0.10307034 -0.007530442 0.13047768 0.03934119 0.05023244 -0.12071658 -0.09505512
-0.030124342 -0.104724035 0.0071671293 -0.039564576 0.043892458 -0.1271197 0.14589454 0.12780237
0.2875017 -0.08363776 -0.030270003 -0.12709884 -0.019192837 0.087473325 0.035659455 -0.052505117
0.14822301 -0.07256653 -0.16078429 0.19289863 -0.05239827 0.029872736 0.06716107 -0.03186219
-0.015157755 -0.028207188 0.03550002 -0.011257158 0.018178426 -0.124150515 0.13362363 0.00046977628
0.12806036 -0.024031226 0.005870317 -0.09680648 0.14084372 -0.11563685 0.08655389 -0.08914136
-0.03333504 0.13064142 -0.028155712 0.19082427 0.09066456 0.045144107 0.031857222 -0.0294756
0.12552491 -0.13277973 0.011543811 0.08353675 -0.046821788 0.10139549 0.057500936 -0.13033716
-0.0749079 -0.0963211 -0.098962575 0.14294046 -0.020254236 0.16602373 -0.10745327 0.35164842
0.13032235 0.3209418 0.10840342 0.088210665 -0.18027988 0.25474373 0.08443168 0.040219944
-0.10566601 0.10206148 0.09429407 -0.11095994 -0.022720942 0.027884005 -0.10683456 -0.20974825

default.encoder.to_hidden.bias f4 [128]
00000000: 1274 b13c c023 8dbe ea92 9b3d 4036 ccbd
00000010: 0e7a 83be 3be8 bfbd 6859 5cbe b390 36be
00000020: cfb2 3c3e dc6b 403e 46d8 c7bd 405d 793d
00000030: 32c7 b93c 3ada a03d 1016 fb37 253f f13c
00000040: 03cd 57be e5ea 64be f998 b63d fe47 5fbe
00000050: 84d2 45be dcc1 333e aaa2 c3bd a898 2bbc
00000060: 08e8 7cbc 03d4 373e 2de3 05be 5d46 a33c
00000070: 4ede b0bd 6b65 583e 4260 fa3d 077e 3abd
00000080: 260a 64bd 3095 8b3c a30e 20be f52a ff3d
00000090: 6343 1cbe d171 6e3e 718e 83be 39cb 203e
000000a0: 1f86 a0be 65dc 88bd 3cd6 563d 0dff 36be
000000b0: f40c 45be 0875 0d3e c1d4 9dbc 9c00 0a3e
000000c0: a4d3 453e 480e edbd c50a 18bc 18ed 613d
000000d0: d9fc 093d 1d04 063e 853e 783e 837a 40be
000000e0: b287 c0bd f06e 49be 85b9 cebd 4708 62bd
000000f0: f5b4 6d3e 8cce 43be ff4f 713d 1243 19be
00000100: 1d78 d03d 491b 2dbe d33f 51be e10b 3b3e
00000110: 5b3a 43be 6aa3 13be 9648 0dbe 99b8 29be
00000120: 92ba a33d 43b8 b2bd 60db b8bd bfa1 103e
00000130: 68c5 913c 05be 463d 053a 0e3d 8c41 393e
00000140: 84ec 3ebe f564 213b 56b3 89bd 85b4 8d3d
00000150: f5b3 093e fb3b 6f3e f1a7 23bd 66d4 e43d
00000160: c188 643e eb36 fa3d 693a 62be fa66 813e
00000170: 00e4 67be ac49 993d deca e0bd 20b7 933c
00000180: 62b3 fbbd e263 b53d 8add 83be 2de4 72be
00000190: 43a8 6d3d 6b12 81bd 87e4 22be 574f 2e3e
000001a0: e867 29bd 174e 77bd df85 85be 8d1f 89be
000001b0: 456e c53d 10ac 48be 3493 cebd 05fa 04be
000001c0: c29a 623d 796f 59be 4f43 f53c d796 873e
000001d0: e8f7 61be a7b5 163e 73cb 19bd 37fb da3d
000001e0: c6c1 5b3d 610b 73be eb69 cebc df6f 613d
000001f0: 94ae a8bb 2c03 7ebe a811 fc3d a631 64be
0.021661792 -0.27566338 0.07596381 -0.09971285 -0.25679058 -0.09370466 -0.21518481 -0.17828636
0.18427585 0.18791145 -0.09758048 0.060879946 0.022677992 0.078541234 2.9931805e-05 0.029449055
-0.210743 -0.2235523 0.08915896 -0.21804807 -0.19318587 0.1755442 -0.0955251 -0.010473408
-0.01543618 0.1795197 -0.13074942 0.019931013 -0.08636151 0.21132438 0.12225391 -0.045530345
-0.05567374 0.017038912 -0.15630583 0.12459365 -0.15260081 0.23285605 -0.25694612 0.15702523
-0.31352326 -0.06682662 0.052450404 -0.17870732 -0.19243222 0.13814175 -0.019266488 0.13476795
0.19319016 -0.115749896 -0.009279911 0.05515775 0.0336884 0.13087507 0.242426 -0.18796735
-0.09400882 -0.19671226 -0.10093979 -0.055183675 0.23213561 -0.1912176 0.05891418 -0.14966992
0.1017916 -0.1690494 -0.20434503 0.1826625 -0.1906523 -0.14417806 -0.1379722 -0.16574325
0.0799457 -0.087265514 -0.090262175 0.14124201 0.017794326 0.04852106 0.0347233 0.1809141
-0.18644911 0.0024626825 -0.06723659 0.06919197 0.13447554 0.23362724 -0.039955083 0.11173324
0.22317792 0.12217506 -0.22092594 0.25273877 -0.22645569 0.07484755 -0.10976194 0.018031657
-0.12290074 0.08856942 -0.25754958 -0.23719855 0.058021795 -0.06302341 -0.15907489 0.17022453
-0.04135886 -0.060377207 -0.26078698 -0.26781884 0.09640173 -0.19596887 -0.100866705 -0.12986
0.05532337 -0.2123393 0.029939322 0.2648227 -0.22067225 0.14717732 -0.03754754 0.10692447
0.053651594 -0.2373481 -0.02519699 0.05503833 -0.0051477645 -0.24805897 0.12308055 -0.22284564

default.encoder.to_out.weight f4 [128, 128]
00000000: f472 69bc e978 113d b34b fdbc 7a72 63bc
00000010: c5ec cabc a5b8 e23c 951d 983d 1834 113d
00000020: e612 99bd 1672 43bd b033 743d 865e 33bd
00000030: 8226 ed3c 2510 423d 7a63 33bd d3a3 d13c
00000040: d5fa e43a 2803 52bd aa7d 8a3d 129b 8f3c
00000050: 11e3 113d 5698 99bd 8d6d 8b3d c13e 69bd
00000060: 67f8 2cbd c94e 9dbd 4a40 dbbb 9503 923c
00000070: 5430 413d c826 643d 01db 6fbd 30de c5bc
00000080: e8be 02bd 62f3 9fbd a86d 973d 6aad 7b3d
00000090: 17de 493c 9d09 6ebd 4ae9 493d b91a c83d
000000a0: f8f0 4dbd f751 45bd 5bb7 3bbd 00ca 1bbc
000000b0: 2950 9bbd f180 e53c 2688 97bd 1b03 3d3b
000000c0: 5461 a9bd 9412 bdbc 09c0 b5bc 34cd 87bd
000000d0: 488c 92bc 2546 c73b 5bca 393c 41ac 02bd
000000e0: 64ba 813c 02a4 e83c aff9 a3bd 68b8 2e3a
000000f0: 3d7b 36bd e538 d63b 3fbd 903d d8d6 7c3d
00000100: 6291 8cbc edd4 d7bc 7671 e6bc a55a 11bd
00000110: f3a8 50bd 67f2 ad3d 7714 f1bc 3a93 44bd
00000120: 50c5 353c 8833 c53c a89d 773d 280d edbc
00000130: 0480 d0bb 4025 5fba 74ed 8c3d 0f79 1cba
00000140: c0d6 3bbd cb7d b83c 162d c3bb 6f33 c0bc
00000150: ae92 243d 680a 54bc 33ec 563d 4ae8 19bd
00000160: 003a e1bc a45f 1fba da10 9e3d 043b ea3c
00000170: a392 d83c 1c5c 223d 6fb6 58bc 1779 b6bb
00000180: aa9d b63a 2f8d 933d c1fd c63d 6351 f33c
00000190: f259 aebd 373a 2e3d a2df 97bd 46a6 043d
000001a0: f900 56bd 5e30 403d aa6c 2dbd 8356 01bd
000001b0: f31f 883d 870e a93c 8c64 4dbd 337d dabc
000001c0: aae8 24bc f2d8 83bd 9969 a93c 6904 98bd
000001d0: 2f9b c63b acb5 55bd a60f 6b3d 5da2 57bd
000001e0: e167 cb3c 3732 173d d957 3c3d f33a 9fba
000001f0: 8949 ecbb 5063 40bd dc46 81bd 8edc 3d3d
00000200: 30c4 6e3d 6d80 23bd e0c9 1dbd 8791 3a3d
00000210: 43b6 f5bb 2194 713c 8e21 383d 05be 883d
00000220: 3abb bebc 2133 113d 994e e2bc 9ec4 8e3c
00000230: 192d 7bbd 780d 17bd 026d 703a 98c3 793c
00000240: 1236 3d3d 3db1 56bd ef27 a13d 1f0e 263d
00000250: e0f9 e4bc df63 a13d db6e 493d 4883 5ebc
00000260: 4dfe ceba 049a 303d f02d 14bd 9578 f43c
00000270: 1a5f b9bc bf24 6f3d 00e6 85bd cf7f 9ebb
00000280: e696 903d 26e2 99bd 5b39 a63d 8cf5 663c
00000290: 9c0b fdbd 854a e03c c023 11bd 35c4 8b3c
000002a0: 27e9 e3bc bdf2 643c 1cd7 dc3c 87eb 6d3d
000002b0: ca37 3f3d b092 e7bc ec4d 983b 38d2 84bd
000002c0: 203b 22bd e52a c93c e22c 8f3d 14ee 8cbd
000002d0: dd41 c63c 4d51 843d b32b 4f3d e702 7fbd
000002e0: adf1 643d d338 9dbc 718c 313d b8f4 83bc
000002f0: b899 45bd 7518 1bbd 2c9c 3fbd e277 85bd
00000300: dc6c a23d e4fa 703c 2a98 03bd 9a09 a8bd
00000310: e281 6e3d acad 8d3c efd2 803c fc53 02bd
00000320: c9b8 8cbd ba8f 9dbd fd75 8abd fa52 20bc
00000330: 621a e83b 3066 12bd 9784 e9bc 02ea 21bd
00000340: 9210 943b bc86 963c 2e95 483d 81c9 1c3d
00000350: fb8d 15bd e761 883d ef54 a93d 3d99 80bd
00000360: 88e8 873c 0b22 1abc 2099 f1bc 7a2f b63d
00000370: 2239 043b 1c5b b03c 83ab 633d cc7a bb3d
00000380: 77f1 83bc 3823 603c e24f 14bd ae43 ab3d
00000390: 0103 a0bd a769 78bd 7b36 513d 463c 09bd
000003a0: c274 083c 6eb5 3f3d 03e0 c7bd 7b7b 953d
000003b0: be44 08bd 66b6 87bd 906b 763d 62dd cdbd
000003c0: 38d1 a63c a7ae a2bc 1414 2d3d 6c11 abbc
000003d0: 0fdb 8abd 4e93 6a3d 35cd 9c3d 29f4 9e3c
000003e0: b349 95bd f731 163d 5bc0 c9bc 54c3 8bbd
000003f0: 7209 71bc 84b7 a0bd c3fc 3b3b c6de a2bc
-0.014248598 0.0355157 -0.030919885 -0.013882274 -0.024771104 0.027675936 0.07427517 0.03545007
-0.07474308 -0.047716223 0.059619606 -0.043791316 0.028949026 0.047378678 -0.04379604 0.025590813
0.0017469773 -0.05127254 0.0676225 0.017529998 0.035616938 -0.07499759 0.068080045 -0.056944612
-0.042229082 -0.07681043 -0.0066910135 0.017823974 0.04716523 0.055701047 -0.058558468 -0.024153799
-0.031920344 -0.078100935 0.07393962 0.061444677 0.012321017 -0.058114637 0.049294747 0.09770722
-0.050278634 -0.04817387 -0.04582916 -0.00950861 -0.07583649 0.028015586 -0.07399015 0.0028840962
-0.08270517 -0.023080148 -0.022186296 -0.06630936 -0.017889157 0.00608136 0.011339749 -0.031902555
0.015835948 0.028398518 -0.08006608 0.0006665052 -0.044551123 0.006537544 0.07067346 0.06172833
-0.017159168 -0.026346648 -0.028130274 -0.035486836 -0.050942373 0.084935 -0.029428704 -0.04799197
0.011094406 0.024072424 0.060453087 -0.028936937 -0.006362917 -0.00085123256 0.06881228 -0.0005968967
-0.0458591 0.02252092 -0.0059563024 -0.023462025 0.040178947 -0.012941934 0.05247135 -0.037575044
-0.027493477 -0.000607962 0.07718058 0.028592594 0.02643711 0.039638624 -0.013227089 -0.0055686343
0.0013932486 0.07204663 0.097163685 0.029701894 -0.085132495 0.042535987 -0.074157014 0.032385133
-0.05224702 0.046921127 -0.04233996 -0.031576645 0.06646719 0.02063681 -0.050144717 -0.026671028
-0.010065237 -0.064378634 0.020680236 -0.07422716 0.00606098 -0.05217521 0.05738797 -0.052645076
0.024829807 0.036913123 0.045982216 -0.0012148306 -0.0072109145 -0.04696971 -0.063123435 0.046352915
0.058292568 -0.0399174 -0.0385226 0.045548942 -0.007498534 0.014744789 0.044953875 0.06676868
-0.023282636 0.03544915 -0.027625369 0.017427739 -0.061322305 -0.03687808 0.0009171517 0.015244387
0.046194144 -0.05241512 0.07868945 0.04054081 -0.027951181 0.07880377 0.049177986 -0.013581105
-0.001579234 0.04311563 -0.036176622 0.029842654 -0.022628356 0.058384653 -0.0653801 -0.0048370133
0.070600316 -0.075138375 0.081164084 0.014096629 -0.1235573 0.027379284 -0.035434484 0.017061332
-0.027821137 0.013973889 0.02695804 0.058085945 0.046684064 -0.028268188 0.004647961 -0.064854085
-0.039607167 0.024556587 0.069909826 -0.06881347 0.024201328 0.064608194 0.050578784 -0.062258627
0.055894542 -0.019192135 0.043346826 -0.016107902 -0.0482423 -0.03786512 -0.046779796 -0.065170065
0.079309195 0.0147082545 -0.032127537 -0.08204956 0.058229335 0.017294727 0.015725581 -0.031818375
-0.068711825 -0.07693429 -0.06760786 -0.009785408 0.007083223 -0.035741985 -0.028505607 -0.039529808
0.004518577 0.018374793 0.048970394 0.038278107 -0.036512356 0.066592984 0.08268153 -0.06279228
0.016590372 -0.009407531 -0.029491961 0.08895774 0.0020175655 0.02152782 0.05558349 0.09154281
-0.01610635 0.013680272 -0.036208995 0.08362518 -0.07813073 -0.060647633 0.051077347 -0.033504747
0.0083286185 0.046803884 -0.09759524 0.07298943 -0.033268683 -0.066265866 0.060161173 -0.10051991
0.020363435 -0.019858671 0.042255476 -0.02088233 -0.06780063 0.057269387 0.07656328 0.019403534
-0.07289448 0.036668744 -0.024627855 -0.06824365 -0.014711725 -0.07847503 0.0028684593 -0.019881617

default.encoder.to_out.bias f4 [128]
00000000: 7228 25be db2f 78bc aae0 02bd 534f 3bbb
00000010: bd5f 7e3b 92fc ba3d 9e5d 203d 7cca 303d
00000020: e674 923d 5f96 9b3d 3826 0abe bcfe 1d3d
00000030: 0f6f 853d 64c7 34bc 36aa eabc 01c3 233c
00000040: 619d 9e3c 0cc8 79bb ad0f 983d 495f 5f3d
00000050: 4cf5 d73c 27f0 d03d 21d6 3fbc 950d 85bd
00000060: c840 043e be6b a4ba 27ab b3bd f6a8 a53c
00000070: 9363 d2bd b05e ac3c b6bc 5f3d 1fc6 c13d
00000080: 6de6 74bd e2f3 73bd b7ba 153c ab30 cf3c
00000090: 7298 aabc 6eae 3e3c 3d4d 48bc 0b4f 103e
000000a0: 1027 3fbd 2b87 12bd 7ca7 903d def2 a43d
000000b0: 8cb0 38bc 225f e53c bcdb b4bd 306e fa3c
000000c0: 8a04 8abd c5bf 17bd 67fe 463e 9c3c a4bb
000000d0: aea4 a13c 6246 f8bc a1ad ba3d 6ab6 fbbd
000000e0: 022e f9bc 8f8c fcbc a4fc 70bd 6603 43bd
000000f0: 1c3d 0f3d 52c6 063e c8ad e13d 8566 de3d
00000100: 2167 00be adc6 fbbd 312a 1d3e b884 e73d
00000110: d6ff 3fbd e8b4 1e3b d49e 5bbd abff 1ebd
00000120: 6e73 28be 5a2a 05bd 9f4d 1abd 6d24 9b3c
00000130: 5dc0 e23d 76a7 c1bc 44df 1cbc 7830 8bbd
00000140: 6c7a 81bd 745d 533d f7ec 38bd 27f1 093d
00000150: 5a10 3fbd d392 b43d ab0e bcbd e88f 7d3d
00000160: 754f 783d 7fee febd 58a2 e03d 5e23 873d
00000170: a666 373c cab1 47ba 9557 3fbc 11e9 853a
00000180: 4b97 cdbd be19 8abb bed4 90bd f5fa 83bd
00000190: f932 873d 1ff6 1dbe d5b9 f8bc 723e 433c
000001a0: 4d71 83bb ca65 12bd 82ee c9bd 2a08 a7bd
000001b0: 872f 7fbd 6f53 8dbd c444 d4bd 44fc 063e
000001c0: 00a5 d23b c08e 09be 22ad 16bd fbba 61bd
000001d0: 628b e2bb dc7b 26bd e8fc b83c 82d8 273e
000001e0: 94d4 233d 8ca4 453c 141c cbbd cb78 a6bd
000001f0: 43e6 1cbe 758b a3bd 584f 553d 4f4e 03bd
-0.1612871 -0.015148128 -0.031952538 -0.0028581216 0.0038814389 0.09130205 0.03915178 0.043161854
0.07151203 0.075970404 -0.13491142 0.03857301 0.06515323 -0.011033867 -0.028645616 0.009995223
0.019362153 -0.0038113622 0.07424865 0.05453423 0.026362084 0.102020554 -0.011708767 -0.06496731
0.12915337 -0.0012544317 -0.08772879 0.020222168 -0.102728985 0.021041244 0.05462333 0.09461617
-0.059790064 -0.059558757 0.009138755 0.025291761 -0.020824645 0.011638267 -0.012225446 0.14092652
-0.046668112 -0.035773437 0.07063195 0.08054136 -0.011272561 0.027999464 -0.088309735 0.03057012
-0.06739147 -0.03704812 0.19432984 -0.005012108 0.019731846 -0.030306999 0.09115148 -0.12290652
-0.030417446 -0.030828742 -0.058834687 -0.047610663 0.034970388 0.1316159 0.11019474 0.10859398
-0.1253934 -0.12293754 0.15348126 0.11304611 -0.046874844 0.0024216715 -0.053618267 -0.038818043
-0.16450283 -0.032511093 -0.03767168 0.018938268 0.11071847 -0.023639422 -0.009574715 -0.06796354
-0.06322178 0.051602796 -0.045147862 0.033677246 -0.046646453 0.08817067 -0.09182485 0.061904818
0.06062265 -0.12447833 0.109684646 0.06598543 0.011193907 -0.000761774 -0.011678596 0.0010216554
-0.100386225 -0.0042144945 -0.07071827 -0.06444351 0.06601519 -0.15425919 -0.03036205 0.011916744
-0.0040113092 -0.035741605 -0.09859945 -0.08155854 -0.062301185 -0.06900679 -0.103646785 0.13182169
0.006428361 -0.13433361 -0.036786206 -0.05510996 -0.0069135884 -0.040645465 0.022581533 0.16391185
0.039997652 0.012063157 -0.09917465 -0.08128508 -0.15322213 -0.07985584 0.05207762 -0.032057103

default.mean_encoder.weight f4 [10, 128]
00000000: 4ff0 b93b bba0 543c f41c 513b 2a6a 0bbb
00000010: 25d1 983b 86cd 6b3b fd89 d1bc b054 28bb
00000020: 5c3b 333b fbf3 c4bc c005 0dbb f397 2fbc
00000030: 01b0 13bc 3ddc 24bc 92a7 3e3b 99b4 bb3a
00000040: 26d7 b1bc 386a 8eba 4045 92ba f77c 233c
00000050: 07b8 003c 7ca2 51bc 9476 32bb 49dd 443b
00000060: 1651 f03b fd7e 573b bc4f 03bb ac76 f7b9
00000070: e2e0 14bc 0f55 593b c023 9eb9 d21d 85bc
00000080: 1019 b73a 9b16 013c 0655 be3b 2991 283b
00000090: 9ef0 8dbb 4491 bf3c cfa4 ecb9 36a0 fb3b
000000a0: 96b1 0bbc e941 71bc bc6d 6c3c 631d 8abc
000000b0: 60ac 34bc 33df 3dbb cd87 89bb 1df3 cf3a
000000c0: ff21 263c 9bdf 1b3c f683 3f3c 7edc 0cbc
000000d0: aa1a 46bb 109f abbc a6b2 6abc f562 e2bb
000000e0: a78d 90b8 0b79 9abc a64d 00bc c009 bf3a
000000f0: 50e7 513c a2d4 babb 0f90 64bb daf2 1bbc
00000100: d92b 9abb 4db1 01bc 62fc 8b3c 766d 083c
00000110: 8c78 a2bc 842f 253c 1084 4cbc bf61 ad3b
00000120: 02ba 1d3c f4d9 943b 08b4 393a b22b 663c
00000130: 8f08 c3bb bbff aa3a 87aa 31bc 26fb 87ba
00000140: 423c 163c 7065 5f3b fada 3ebc 15b9 f7bb
00000150: 292e d1b9 a6f5 823b fd9d be3c 8f91 063a
00000160: 1948 323c 5889 f83a 2217 abbb 636b 2ebb
00000170: a4ea 85bb bbab b1ba e79f 883c 4326 b3ba
00000180: a312 e5bb d4d1 3d3b c8c3 573c aab3 ccbb
00000190: 8298 f9bb e24a 303c fc17 af3a 0280 ab3a
000001a0: d72c 7fba 644e a739 72e8 c83a 8e7e 8cbc
000001b0: 6ebb ebbb afa8 69bc f049 e0b8 d865 113c
000001c0: 00a0 443c 9459 cdbb 37e4 8d3a f083 7f39
000001d0: 0ddb 10bc 6656 363c 8398 203d 0c0b 063b
000001e0: e2e8 163c e7ac 653b 434e ff3b 78f9 4bbb
000001f0: b6c6 a1bb b519 a53c 70cf 86bc 1734 b239
00000200: e12a 493b 10c3 a33c 0ce5 1d3b 02c4 10bc
00000210: ea37 cfbb c5a7 503a ea18 6e3a dd95 72bc
00000220: 7103 cfb9 0bd9 563c ef5f 27bc 97f4 13bc
00000230: 844a a6bc 0cf8 e3bb 153d 20bc eff2 76bc
00000240: a395 103b 8873 293c 61b9 93bc dac9 103c
00000250: fc22 813c 800f 2bbc 4df6 d5ba d660 5d3c
00000260: dfc2 193c 4b0e 96bc 5ffe 0d3c c3c8 5039
00000270: 0282 69bb f633 25ba 72d6 be3b 049a b7bb
00000280: 5ecf 5cbc cee3 97ba 3044 ed3b 2a7f 553c
00000290: d301 82bc 6dbe a33c 303a 6cbb 2ca0 ebba
000002a0: 721d e139 1ea1 eabb 67e5 06ba 3f1f 19bc
000002b0: ceb0 b43c f49c 913c 605d 6538 46bc 89bc
000002c0: 79da 033b 3cf6 99bb 3da2 703c b50b 89bc
000002d0: b68c ba3b d59a 20bc d760 8bbc 3130 353b
000002e0: 0dde 3bbc 0382 a93b a414 723c cb86 093b
000002f0: 8f11 a6bc 2654 98bb 2edb e4ba baab df3b
00000300: 0e77 8d3b 930a 32bc 5040 25bc 67ae b93b
00000310: 94d6 35ba 1048 e83b 83bd db3a d03d 93bc
00000320: 3de2 f03b 534a d43b a274 84ba 7542 5d3c
00000330: 66aa 653c 53ce cf3a 00a2 c2bb ccfa ff39
00000340: 9ca4 a6bb e011 a2ba 5b4c 0a3c 3183 98bc
00000350: 41f0 34bc bc72 44bc e14c 49bc 5b55 b33b
00000360: 7e50 e5bb 9354 43bc 06b1 bf39 8248 cb3b
00000370: e0aa db3a 90b3 153c 44ca 3f3a 72c1 03bc
00000380: f2a4 c73b 050c b1bb 00ca 79ba b920 ef3b
00000390: b1d4 cb3b c1a9 23bc 442b 143b c61f 13bc
000003a0: 36a0 cc3a 6fba c9bb c0f4 82bb 416f 9abc
000003b0: 721c f0ba 039c 913c ae5f 53b9 964b 7fbb
000003c0: 6643 83bc 7a21 c5bb 1b7d edbb 1331 51bb
000003d0: 3d34 4cbb f574 463c ad31 d8bb ed1b 533b
000003e0: 17cf bbba b8a9 47bb d2d0 1eba 018e 663a
000003f0: 3a81 1cbb 144b 293a a326 2cba f452 5cbc
0.005674399 0.012977774 0.0031908127 -0.0021272996 0.004663604 0.0035980656 -0.025578493 -0.0025685243
0.0027348613 -0.02404212 -0.002151832 -0.01071738 -0.009014131 -0.0100622745 0.002909158 0.001432079
-0.021709036 -0.0010865396 -0.0011159554 0.009978524 0.007856376 -0.012795087 -0.0027231323 0.0030039123
0.007333885 0.0032882087 -0.002003654 -0.0004719993 -0.009086819 0.003316227 -0.00030162744 -0.016249571
0.0013969261 0.007878925 0.0058084754 0.0025721288 -0.0043316623 0.023384698 -0.0004513622 0.0076790107
-0.0085262265 -0.014725187 0.01443046 -0.016859716 -0.0110274255 -0.0028972148 -0.004197097 0.00158653
0.010139941 0.009513761 0.011689177 -0.008597491 -0.0030228295 -0.02094987 -0.01432482 -0.0069087693
-6.89284e-05 -0.018856546 -0.007831013 0.0014575049 0.012811497 -0.0057016173 -0.0034875905 -0.00951835
-0.004704934 -0.007915807 0.017088119 0.008326879 -0.019832872 0.010082129 -0.012482658 0.0052911933
0.009626867 0.0045425836 0.00070840167 0.014048504 -0.005951948 0.0013046184 -0.01084388 -0.0010374531
0.00916964 0.003408756 -0.011648888 -0.0075599053 -0.00039897978 0.0039965687 0.023268694 0.0005133384
0.010881447 0.001896183 -0.0052212635 -0.00266143 -0.0040868092 -0.0013555208 0.01667781 -0.0013668019
-0.006990747 0.0028964179 0.0131692365 -0.0062470036 -0.0076170573 0.010760041 0.0013358588 0.0013084414
-0.00097341597 0.00031911128 0.0015328063 -0.01715019 -0.007193974 -0.014261409 -0.00010694924 0.008874379
0.012001038 -0.006266782 0.001082546 0.00024367846 -0.008841288 0.011128997 0.039207947 0.0020453362
0.009210797 0.0035045685 0.007791312 -0.0031124037 -0.0049370183 0.02015386 -0.016456336 0.00033989616
0.0030695724 0.019990474 0.0024092821 -0.008835794 -0.006323804 0.000795957 0.0009082692 -0.014806238
-0.0003948468 0.0131132705 -0.010215743 -0.009030483 -0.020299204 -0.0069570597 -0.009780188 -0.015072568
0.0022061847 0.010342486 -0.018032731 0.008837188 0.015763752 -0.010440707 -0.0016324014 0.013511857
0.00938484 -0.018317362 0.008666604 0.00019911215 -0.003563047 -0.0006301993 0.0058239037 -0.005603077
-0.013477175 -0.0011588277 0.0072407946 0.013030807 -0.01587001 0.019988263 -0.0036045425 -0.0017976812
0.00042937283 -0.00716032 -0.0005145878 -0.009345829 0.022056963 0.017775036 5.4684817e-05 -0.016813409
0.0020119234 -0.004698543 0.014687118 -0.016729215 0.0056930436 -0.00980254 -0.01701395 0.0027647133
-0.011466515 0.0051729693 0.014775429 0.0020984884 -0.020272044 -0.004648703 -0.001746034 0.0068258913
0.004317171 -0.010866779 -0.010086134 0.0056665423 -0.00069365767 0.0070886686 0.0016764853 -0.01797381
0.0073511885 0.0064785867 -0.001010556 0.013504614 0.014017677 0.0015854336 -0.005939722 0.00048824248
-0.005085541 -0.0012364946 0.008441056 -0.018617244 -0.011043609 -0.011990245 -0.012286396 0.0054728216
-0.006998121 -0.0119220195 0.00036562252 0.006203712 0.0016759299 0.009137049 0.00073162117 -0.008041726
0.006092661 -0.005403044 -0.00095286965 0.007297602 0.006220423 -0.009989203 0.0022608796 -0.008979743
0.0015611711 -0.006156258 -0.0039964616 -0.018851878 -0.0018319024 0.017774587 -0.00020158172 -0.0038954965
-0.016023349 -0.0060159536 -0.0072475797 -0.003192012 -0.0031159066 0.012112846 -0.0065977187 0.003221269
-0.0014328685 -0.003046615 -0.00060583383 0.0008794964 -0.0023880736 0.0006458026 -0.00065670366 -0.013447512

default.mean_encoder.bias f4 [10]
00000000: 4d53 d53c a418 bebb 088f 8dbd ad55 8ebd
00000010: d881 7b3b caeb cfbc 5e37 50bd 3a31 3bbd
00000020: e1d9 44bc 7d21 14bd
0.026040697 -0.0058012772 -0.06912047 -0.06949935 0.0038376953 -0.025380988 -0.050834052 -0.045701243
-0.012014837 -0.03616475

default.var_encoder.weight f4 [10, 128]
00000000: 7c3b febb a295 9c3c c93d 843b a691 cfbb
00000010: 043c 84bb 982a 4b3a 801f 103b ed57 51bc
00000020: 66de 9c3c 8a55 4739 7b9f 40bc f7da f7bb
00000030: a567 213a efd7 a23b 4fd1 213c 26b9 823c
00000040: 5bbe ddbc 9824 123c db53 4e3b 0e63 5d3b
00000050: 1f21 8f3c 81c4 6d3a a0bf 583b fb35 7f3c
00000060: d232 7c3c d2e6 38bc 556d 85bc 58d2 cfbb
00000070: 7852 a03b d435 963c 1c68 163c 3ad2 d0bb
00000080: 092a 503d d4e1 99ba d9cc 34bc 886f 813c
00000090: d2d7 8fbb 88c9 823c 542b 9d3c 4597 423a
000000a0: d5f8 753c 3d28 00ba 2537 9eba 05aa b03b
000000b0: bee5 113c fbdf 663c 5b06 323c 5fa4 aebc
000000c0: 52b9 473b 7da8 8bbc 6454 61bb 4957 983b
000000d0: 4049 633a f7ff 453c d4b1 32bc 55f8 72bb
000000e0: dc19 be3b 2325 2abc 27fa 073c 2ed5 823c
000000f0: 1c7c 073c ba65 be3c f00c b13c 6119 24bc
00000100: 25eb 41bb 5975 1b3b 5fa1 9a3c e4b2 03bc
00000110: 1599 3a3b 95de 8d3a 7543 f03b 860c e3bc
00000120: bfd6 c53b e2e2 893a 7ad7 a1bb d5e7 2abc
00000130: c52e 3939 4fe6 5abc cca1 2bbc ec61 45bb
00000140: 6fd1 8fbc ac13 6d3b d51f 8dbb b257 6a3a
00000150: ac1a 593c ede7 75bb 18a3 c0bc e678 d03b
00000160: 5011 1ebc 6a7c 73b9 d939 e3bb 2aaa 303a
00000170: 0923 b73b 79d2 d73a 00e0 01bc dbe5 e1bb
00000180: 77cb c0bb 0804 b3bb a96a 08bc 6566 94bc
00000190: ca90 453b 22ef 4cbb b0b5 d4bc bc89 b83b
000001a0: e7f6 8d39 35b8 d73c 8046 6b3c bc4f ad3b
000001b0: 308a 51bc e125 a13c d240 09bc cebc 093c
000001c0: 6078 36bb 2215 06bc 5b37 b43a d537 613c
000001d0: 12dd 873c 12b1 31bc 64e8 023a 4fee f63b
000001e0: 3033 523b e657 3abc 119b 6aba d68a 943b
000001f0: 1b13 8c3b bc1a 553c b91b 5339 98d1 f43a
00000200: ad08 a73c c41f e8b8 9a83 843b 7034 303c
00000210: a88c 0d3c 8859 dc3b 8bb6 97bb 932e 843c
00000220: e3e0 7fbc 2737 69bc 704c cbbb d646 9abc
00000230: 94c9 82bc 3795 b9bb 4144 783b af3b 50bb
00000240: df2a 2b3c 9034 3e3c 9069 c3ba 356a 1ebb
00000250: 4745 883b 11d4 be3c 9799 4b3c f95a 1f3b
00000260: 4408 933c 9235 193c 9531 ab3b 5e72 293c
00000270: 0659 e13b b575 e9bc e58a 693c d108 a2bc
00000280: b3a0 d33c 5887 8f3b a4ca 8d3c e6d3 a53b
00000290: bc3b 093c 27ff b9bb 8aeb 7f3c 7a26 62bc
000002a0: 56cb 4b3b 083d 14bc b648 9cba 2fed 6bbc
000002b0: 9ee7 dfbc bf2b 59bc 5b50 a53c cd52 0dbc
000002c0: ac5a ef3b 5189 a73c 56c3 5d3c f4f8 1fbd
000002d0: 971b 3dbc 211f 7f3c 158a d5bc 641c 4a3c
000002e0: 22d7 aa3b 6c95 243c 753f 5a39 588c 6fbb
000002f0: b19c a53b 71b6 29bc 3a11 e0bb b03a 65bb
00000300: 0c03 88bb a97a 43bc 8d87 59bc cca9 2d3a
00000310: a7fe a2bb c8ee 2f3b 25a2 243c b097 283b
00000320: a33d 2bbc da1d 00bc dac7 abbc f4f9 6abc
00000330: 4e08 403a ee90 c8bb f276 f1bb 4911 91bc
00000340: 720a 9b3b e7c7 a33a 5e4e 403c ba58 78bb
00000350: 270f 693c 5f22 61bc b7ac ca3b ee15 b8bc
00000360: 8f72 1fbc 610d 2d3c 79c6 afb9 2553 093c
00000370: e9a9 8abb 59ad 80bc e395 703b 0943 46bc
00000380: 8d21 353c acb0 9abc d032 dfbb 39fd d43b
00000390: 850c 46ba c0ba 453c fec8 b93b 1a5d 643c
000003a0: 6f89 443c 7213 ffbc 7aee 543a fe66 6c3c
000003b0: c5f6 a4bc 47f1 d53b c86c 023b cd72 9fbc
000003c0: 4c50 cabb 4195 353b 6544 223c b56f b43c
000003d0: 03b2 5d3b 9ebe 103b a920 103d af9a d0bc
000003e0: 469f be3b 5e18 d83b de10 1c3b 35d9 58bb
000003f0: 070b 8c3a 9755 9dba c4bf 383b 74a4 063c
-0.007758556 0.01911432 0.0040356857 -0.0063345013 -0.0040354747 0.00077501824 0.0021991432 -0.012777311
0.019149017 0.00019009985 -0.011756773 -0.0075639444 0.0006157107 0.004969589 0.009876563 0.015957426
-0.027068308 0.008919857 0.0031483087 0.0033780965 0.017471848 0.0009070114 0.0033073202 0.015576835
0.015392976 -0.011285501 -0.016287485 -0.0063422136 0.0048926435 0.018336214 0.009180095 -0.006372717
0.050821338 -0.0011740276 -0.011035168 0.015800253 -0.0043897415 0.015965238 0.0191857 0.00074230536
0.015012939 -0.00048888085 -0.0012070878 0.0053913617 0.008904872 0.014091487 0.010865773 -0.021318613
0.003047545 -0.017048115 -0.0034382576 0.004649077 0.0008670278 0.012084953 -0.010906655 -0.0037074287
0.0058014225 -0.010384831 0.008299387 0.015970793 0.008269336 0.023241866 0.021612614 -0.010015816
-0.002958962 0.0023721068 0.018875776 -0.008038256 0.0028472592 0.0010823781 0.0073322603 -0.027715933
0.0060375626 0.0010519887 -0.004939017 -0.01043125 0.00017660398 -0.013360574 -0.010475587 -0.003011818
-0.01755592 0.0036175055 -0.004306773 0.0008939459 0.013250988 -0.0037522272 -0.02351527 0.0063620685
-0.009647682 -0.00023220634 -0.006934386 0.00067392236 0.0055888933 0.0016465924 -0.007926941 -0.006893856
-0.00588363 -0.005463127 -0.008326211 -0.018115232 0.0030146115 -0.0031270464 -0.025965542 0.0056316536
0.00027077572 0.026332954 0.01436007 0.005289046 -0.012789294 0.019671382 -0.008377271 0.008406831
-0.0027842745 -0.008183749 0.0013749407 0.013746222 0.016584907 -0.0108454395 0.00049937353 0.007535733
0.0032073967 -0.011373496 -0.00089494983 0.004533152 0.0042747385 0.013006862 0.00020132856 0.0018678186
0.02038988 -0.00011068539 0.0040440084 0.01075469 0.008639492 0.00672454 -0.004629915 0.01613549
-0.015617582 -0.014234341 -0.0062041804 -0.018832605 -0.01596526 -0.0056635397 0.003788248 -0.0031773855
0.010447233 0.011609212 -0.0014908779 -0.002417219 0.004158649 0.02329448 0.012426755 0.0024315699
0.017948277 0.009351151 0.0052244165 0.010342209 0.0068770675 -0.02849851 0.014254306 -0.019779595
0.025833463 0.004380148 0.01730854 0.0050606607 0.008376058 -0.0056761685 0.015620122 -0.013803119
0.003109654 -0.009047754 -0.0011923525 -0.014399811 -0.027332123 -0.013255059 0.020179918 -0.008625698
0.00730451 0.02045122 0.013535341 -0.03905578 -0.011542222 0.015571387 -0.02606682 0.01233587
0.005213634 0.010045391 0.0002081374 -0.0036552157 0.0050540795 -0.010358439 -0.006837991 -0.0034977607
-0.004150754 -0.0119311 -0.013276947 0.0006624728 -0.0049742046 0.0026845206 0.010048424 0.0025725178
-0.010451707 -0.007819617 -0.02096932 -0.01434182 0.0007325456 -0.0061207926 -0.0073689157 -0.017708438
0.00473147 0.0012495489 0.011737434 -0.0037894682 0.014224804 -0.013741105 0.00618514 -0.022471394
-0.009731903 0.010562272 -0.00033526475 0.00838164 -0.0042316807 -0.015707659 0.0036710433 -0.012100943
0.011055362 -0.018883072 -0.0068114772 0.006499913 -0.0007554966 0.01206845 0.005669712 0.013938213
0.011995657 -0.031137202 0.0008122694 0.014428852 -0.0201372 0.0065290066 0.0019901264 -0.019463921
-0.006174123 0.002770737 0.009904002 0.022025922 0.0033828027 0.0022086273 0.035187397 -0.025464384
0.0058173267 0.0065947017 0.0023813765 -0.003308845 0.0010684439 -0.0012003657 0.0028190473 0.00821792

default.var_encoder.bias f4 [10]
00000000: efc7 86bd 87cc 103d 5666 1cbe 89b0 25bd
00000010: 4002 22bd 2739 85be e9a5 02bb d33a 93bc
00000020: 5d0f b0ba 9cdf bc3c
-0.06581103 0.035351302 -0.15273413 -0.04045156 -0.039552927 -0.26020166 -0.0019935316 -0.017972386
-0.0013432313 0.023055844
