models/mnist-relaxed1E/encoder_z2_z1_-822312541480728785.pt (torch_old, 89061 bytes, 9 tensors)

default.df_val.weight f4 [1, 128]
00000000: 3497 283e 05d4 7b3e 68de 40bd 9eca d5bd
00000010: e835 6c3e 022d cdbd b6d0 79bd 1977 8e3d
00000020: 8b5e 3bbe d43b babc 900f 31be cfc4 49bd
00000030: e798 c8bd 3b08 fb3d eb15 b7bd 574a 33be
00000040: 2902 24be 1069 e13d cfb7 88bd dfba 00bd
00000050: 1f90 2d3c dc7b 203e 3b44 2e3e a4ad 8c3d
00000060: 733f b83a de23 c9bd 2bef 993d c90e 6f3c
00000070: 8f6f 84bd a519 353e 135a 013e 6873 223c
00000080: 2620 f53d a07d 463c 6b6a 4bbd 2021 1dbe
00000090: fff1 353e 6ea9 013e 8e88 0e3e e609 6b3d
000000a0: 4dc0 473d 0ee7 133d 6f08 36be acdf ffbd
000000b0: 4d41 1abe 14c6 9d3d c093 613e d533 06be
000000c0: 6280 363c e067 32be d15d 0c3e 14d6 20bd
000000d0: 6b69 243c e8bf 253e 71bc 903d 77c2 0e3e
000000e0: 019e 92bd 2c19 c9bd 6f4b 9fbd 8185 3f3e
000000f0: a668 063e ba40 5d3e c1c4 ff3d 7563 2f3e
00000100: cebd 09be cb8a 4b3d b547 e33b 8b1b ae3d
00000110: 1e0d 9b3d a2eb 5d3e 9e47 ae3d e6bf a83d
00000120: 0793 03be 5d96 c33d 1428 2a3d 18e4 38be
00000130: 8aba 49be bfa1 58be b220 ed3d c758 0cbe
00000140: bdcf c4bd 4496 f73d 65de fabb a644 bbbd
00000150: 6e1d e6bd bbaf 053e 21f4 873d eda8 493d
00000160: ea16 0d3e 7f7c cebd 324a 11be 4344 aebd
00000170: 3c8d 95bd 4bdc f4bd 600d d13d db16 9abd
00000180: 4a6d 1a3e 633b 1b3e 637e 9abd 4ced 0ebe
00000190: d4b9 f73d f058 9abe 5d01 0e3e e18e 35be
000001a0: 4b4e aebd fed7 a7bb 170a cf3d f815 143e
000001b0: 67b6 0fbe 37c6 6fbe 9123 473e 82eb 3b3d
000001c0: 87ef 3cbd 9fd5 083e c59b d83d 151c 33be
000001d0: 9c90 c13d b919 a4bd a6fc 37be 55e8 ee3d
000001e0: c3d5 663d 2215 623d 711c fd3d 9f12 103e
000001f0: 4e7b 1b3e 8b8d 51be 46d7 2bbd 75b0 a43d
0.1646393 0.24592598 -0.047087103 -0.10439037 0.23067439 -0.1001835 -0.060990058 0.0695631
-0.18297784 -0.022733606 -0.17291093 -0.049259957 -0.09794789 0.12257429 -0.089397274 -0.17508827
-0.16016449 0.11006367 -0.06675684 -0.031428214 0.010593443 0.15672249 0.17018215 0.06869057
0.0014056995 -0.09821294 0.07516321 0.014590927 -0.064665906 0.17685564 0.12632017 0.00991521
0.119690225 0.012114912 -0.049662035 -0.15344667 0.17768095 0.12662289 0.13919279 0.057382487
0.048767377 0.036109023 -0.17776655 -0.12493834 -0.15063973 0.07703796 0.22029018 -0.1310571
0.011139007 -0.17422438 0.13707663 -0.03926666 0.010034899 0.16186488 0.07067192 0.1394137
-0.07159043 -0.09819254 -0.0777806 0.18703271 0.13125858 0.21606722 0.124887 0.17127784
-0.13451311 0.04969291 0.0069360384 0.08501347 0.07570861 0.21671918 0.08509754 0.08239727
-0.12849055 0.09550164 0.041542128 -0.18055761 -0.19700065 -0.21155451 0.11578502 -0.13705741
-0.096099354 0.12089208 -0.007655906 -0.09143953 -0.11236082 0.13055317 0.06638361 0.049233366
0.13778272 -0.100823395 -0.1418846 -0.08509114 -0.07302329 -0.1195608 0.10207629 -0.075238906
0.15080753 0.15159373 -0.075436376 -0.13957709 0.12095991 -0.3014598 0.13867708 -0.17730285
-0.08511027 -0.005122184 0.10109346 0.14461505 -0.14034425 -0.23415457 0.19447161 0.045878895
-0.04612687 0.1336274 0.10576586 -0.17491181 0.0945141 -0.08012719 -0.17967471 0.116654076
0.056356203 0.055195935 0.123589404 0.14069603 0.15183756 -0.2046415 -0.041953348 0.08041469

default.encoder.to_hidden.weight f4 [128, 19]
00000000: b30c 5a3d b066 b5bd eae1 0a3d 0329 613d
00000010: 9ac0 5f3d e550 59bd 9389 16bb 1a4a b8bb
00000020: e9bc f43b e08e 99bd 8cbb bd3e d411 b63e
00000030: 2c81 e43d d99c 9abd f9f9 cb3d 12d2 953e
00000040: e740 893e 6269 d5bc 2a37 bbbe fb89 ea3d
00000050: 8ad9 c6bd d81a 88bd 153c c73d c495 88bb
00000060: 985d f7bd 6760 4cbb 142c b5bc f3fa a53d
00000070: 86f0 b9bd 3d35 0dbc e39b a43e 3c2d 71bd
00000080: 0b69 27be ed92 7fbe 69f6 ca3c ce0f 763e
00000090: 3650 4a3e 082e b8bd 79da 093b 792d 7e3c
000000a0: 7b6b bfbd 6fd7 293d b7ea a03d 034f 303e
000000b0: 109b 19be 237c 03be bbfd bfbc e3d5 7f3d
000000c0: 3239 62be 3daf 1f3e 3367 f83d 1a4a 26be
000000d0: 600a 90be f45f 263e c858 e43d decf 33bd
000000e0: ac2a 8a3e b6e0 c2bd 3dc6 f53c 9970 75bd
000000f0: 6d35 0bbe 8aa3 233d 596c 083e 2993 b63d
00000100: 355b e23b 366a 00bc f17d 41bd ce30 303e
00000110: c9b8 acbe 5670 9f3d fbd3 673e 0523 a53e
00000120: 7f22 f23d af03 273d 781c c83d 7e6f 7ebe
00000130: aeb1 7d3d 9723 c5bd 8635 22bd d114 7c3c
00000140: 7c5d a9bd 5d66 2cbd 14fd 973d 4a7c aabd
00000150: 9ee0 31bc ddb0 1e3e ecef 9c3d d08f 663e
00000160: e9a1 b8bd 132d c53e 06c6 ecbc 7d2f ec3d
00000170: 2bc3 563d fb81 453e f215 683e b791 6c3d
00000180: 06c8 16bc e0b1 783c e7a0 89bd e12d 983d
00000190: bca9 c8bd c98c a2bd e294 84bd 23a9 2dbd
000001a0: 61e8 d23d 750a a6bc 2ff4 f93d 507c 8dbe
000001b0: 2e0e 7e3e 12c7 a4bd 1649 023e 07b7 ee3d
000001c0: eb98 a73c 5507 2e3e e044 513e 2d27 0bbd
000001d0: 8426 2c3c c9a3 d4bd da62 8e3d b712 3e3e
000001e0: 641b 633d 4197 ccbd af69 fa3c 830c 92bd
000001f0: 0898 d3bd 6510 d83e 572d 16be 08c1 a43e
00000200: de4b dbbd 3258 1f3d 5764 00bd cb38 62be
00000210: 49b3 1c3e ffdc 9abd 0a10 d0bd a583 d23d
00000220: 0716 41bd a3bb 15bd 6445 c1bd c5c7 c23c
00000230: 46fd b0bd b456 99bd 8f0b 0abd db55 bbbd
00000240: d1fe a9bd aa66 33be 3d5e e03e fe5b 1f3e
00000250: c3ac 203e f064 6ebe e0e7 953d 6efc 1fba
00000260: 094d b7bc 15a3 2bbe 88c1 e13d da10 b6bd
00000270: b4ea 06be b056 ab3d da21 ed3d eeab 1b3e
00000280: 194f e43d ea40 d0bd cf7d 5a3e 310f 323e
00000290: fe2b f7bd 17e5 6cbd e873 f83d 9281 c33d
000002a0: 24b4 7f3e eb91 f5bd 99ec 363e 1967 8cbd
000002b0: 3053 ce3d 7ade 123c b548 513d d5cf ecbb
000002c0: a3bb 513d c5b4 02be 94b2 903d b49d 973c
000002d0: 6307 9f3c 56f0 62be cfca dd3e 19b6 ddbc
000002e0: 4949 ebbe 9b84 cdbd e839 0e3b aeb6 6f3e
000002f0: 84db 51bd 0265 32bd 0f26 643c 4713 993d
00000300: d05b 3dbd 779b c13d 0217 923c d6cc b13d
00000310: 2744 273c 8596 05bc a9b8 0abe 429f 313c
00000320: 53e3 01bd d943 6d3e ea72 453d 7b68 e0bc
00000330: 2d3b 28be f1ce 9e3d 3896 6dbe 2d52 243e
00000340: e442 8f3e aa6d cd3d f008 ab3d f689 1dbd
00000350: a45f 3a3d 0c2a a2bd 1c4b 10bb 1733 603c
00000360: fd99 2e3e d8ea 033d ea43 f63c 72eb a4be
00000370: 29a2 e83e 8eb1 7e3d 2cd0 ac3e 8388 2fbc
00000380: 3424 4e3e 0ba6 d83d 3b90 c4bd 96af a73e
00000390: aeda 6ebc 5b7c 113e 0628 623d 7481 4fbc
000003a0: 0d6d 9cbd 6c19 95bb 34d4 82bd 6d86 e33d
000003b0: 7d52 d63c 3452 d43d 20ad 9cbc 6acb e5be
000003c0: dcc1 30bd 7014 f1bc 17c7 c4bb 1a9d a4bc
000003d0: 3048 a2be 73a5 50be 3308 213e bca5 be3c
000003e0: be70 883d 8d11 d93d ba68 9ebd 3097 093b
000003f0: f6e7 393d d044 a4bc 5cfd 1ebd 65a5 9cbd
0.053234767 -0.08857477 0.033906855 0.054970752 0.05462704 -0.053055663 -0.0022970184 -0.005624068
0.007468809 -0.07497954 0.3705715 0.35560477 0.1115745 -0.075494476 0.09959788 0.29261833
0.2680733 -0.026051227 -0.36565524 0.11452099 -0.09709461 -0.06645745 0.097282566 -0.004168244
-0.120783985 -0.003118539 -0.022115745 0.081045054 -0.09079079 -0.00861865 0.32150182 -0.05888103
-0.16348664 -0.24958391 0.0247757 0.24029467 0.1975716 -0.08993155 0.002103476 0.015513771
-0.09346672 0.04146522 0.07857268 0.1721764 -0.15000558 -0.12840323 -0.023436418 0.062459838
-0.22092131 0.15594192 0.12129059 -0.16239205 -0.28132915 0.1624754 0.11149746 -0.04389941
0.2698568 -0.095155165 0.030001754 -0.059921835 -0.13594599 0.039950885 0.13322581 0.08914787
0.0069078454 -0.007837823 -0.047239248 0.17206118 -0.3373473 0.07785098 0.22639458 0.3225328
0.11822986 0.040774997 0.09771055 -0.24847218 0.061937027 -0.09625929 -0.039601825 0.015385822
-0.08269784 -0.04208981 0.07421318 -0.083244875 -0.010856776 0.15497155 0.07662949 0.22515798
-0.09015257 0.3851095 -0.028903019 0.11532495 0.05243222 0.19287865 0.22664621 0.057756152
-0.009202963 0.015179127 -0.06720143 0.07430626 -0.09797999 -0.07937009 -0.0647371 -0.04239763
0.10298229 -0.020268658 0.122047774 -0.27633905 0.24810097 -0.08045782 0.12723193 0.116560034
0.02045866 0.16994984 0.2043643 -0.033972908 0.01050723 -0.10382802 0.06952448 0.18561827
0.055446044 -0.09989787 0.030567972 -0.07131293 -0.10331732 0.42200008 -0.14665733 0.3217852
-0.1070783 0.03890247 -0.03134569 -0.22091977 0.15302767 -0.07561683 -0.10159309 0.102790155
-0.047140148 -0.036555897 -0.09437063 0.023776898 -0.08642058 -0.074872404 -0.03370243 -0.09147235
-0.083005555 -0.17519632 0.43821898 0.15562436 0.15690903 -0.23280692 0.07319617 -0.00061029836
-0.0223756 -0.1676143 0.11023241 -0.08889933 -0.1317547 0.08366144 0.11578722 0.15202305
0.11147899 -0.101686314 0.21337055 0.17388608 -0.12068938 -0.057835665 0.12131482 0.09546198
0.24971062 -0.11990722 0.17863692 -0.06855602 0.100744605 0.008964175 0.05109473 -0.007226924
0.051204335 -0.1276427 0.07065311 0.018507816 0.019412702 -0.22161993 0.43318793 -0.02706437
-0.4595435 -0.10035058 0.0021701995 0.2340953 -0.051234737 -0.04355336 0.0139250895 0.0747438
-0.046230137 0.09453481 0.017833237 0.086816475 0.01020912 -0.008153562 -0.13547005 0.010841193
-0.031710934 0.23170413 0.048205294 -0.02739357 -0.16428824 0.07754315 -0.23201835 0.16046973
0.2798072 0.100306824 0.08351314 -0.038461648 0.045501366 -0.07918176 -0.0022017425 0.013684056
0.1705093 0.032206386 0.03006168 -0.3221088 0.45436218 0.062181048 0.33752573 -0.010713699
0.20130998 0.10578545 -0.09597822 0.3275115 -0.0145785045 0.14207594 0.05521395 -0.012665141
-0.07637987 -0.0045501497 -0.06388131 0.11109624 0.02616238 0.103672415 -0.019125521 -0.44881755
-0.04315363 -0.02942869 -0.0060051787 -0.020094443 -0.316957 -0.20375614 0.15725784 0.023272388
0.06662129 0.10599051 -0.07734819 0.0020994656 0.04538723 -0.020052344 -0.03881584 -0.07648734

default.encoder.to_hidden.bias f4 [128]
00000000: a2c5 513a 80b8 883e b29f 14bd 2dc6 9abd
00000010: 57e8 883e cd56 27bd f342 a53a abf3 7cbd
00000020: f133 cdbd 2422 903d 89dc f2bc 7d64 653e
00000030: 2ab8 42be 577b babc 0490 5d3d 6438 4dbe
00000040: aa85 39be f30c ca3d 6a0f 973e fdcb e7bd
00000050: 2fe0 3f3d 4d5a 64bc f422 d2bd 55b2 aebd
00000060: 7df7 353e c219 1fbe a4bc 313e 146c 953e
00000070: 6d54 8ebe 3e72 0b3e 2043 9cbd cf5c 203d
00000080: b414 d6be c0e6 15bb 76df 403e 6519 923e
00000090: 5ece 883d 215e 983d 1a7d 51bd 2ded 63be
000000a0: b3e8 973e 29e4 57be 0221 8fbe ed69 793e
000000b0: 6181 b43e b18a 22be 3feb 98be 3c32 fa3d
000000c0: b57f d03d 5935 6b3d df47 02be 5d3e f7bd
000000d0: 7c5d 53be 733b 3e3e 7c7a 42be 82f4 12be
000000e0: d2a1 0cbe ef34 113e 19cd e13d 15a9 4a3d
000000f0: 520d 84bd c665 8cbb 0a7c d53c a523 87be
00000100: 44d6 1b3e 089f 983e 277d 483e ac33 c0bd
00000110: 1741 cf3c 9baa da3d 5129 d53d 858d dc3d
00000120: c0ca 8cbd 2c68 92be ce54 8d3e 981d 7bbd
00000130: 940e 3fbe 3e77 763d c7f2 d73b f37f be3d
00000140: e0b0 3ebe c9b1 4abe 2c5a 9ebb 2b02 16bd
00000150: 5dd6 503d acff 5f3e 1368 223e 0888 77be
00000160: cb25 9b3e 224e 7fbe ce77 c83d d8c4 afbe
00000170: e402 8dbe 389f 123e 7279 acbc 619f 6ebd
00000180: 2634 b4bd feaa 56bd 8441 18be 7afd 01be
00000190: 3649 94be bfd9 84bd 5a1d c1be 1caf 383e
000001a0: 52dd 013d 3ab2 8bbe 0d9c 813e d586 faba
000001b0: 407d eabd 0be3 7c3b 71de 523e e991 afbe
000001c0: 4f1a 4dbe 0f6f 533e 1142 48bd 4e73 5cbd
000001d0: eb27 543e 0ed4 15bd a8e0 76bd b4e1 bf3a
000001e0: 9f20 b8bd 9f32 543e d2ba 87bd ea92 8abe
000001f0: 85cc 783e 69af 5cbe 7db6 83be 4222 53be
0.0008002167 0.26703262 -0.03628511 -0.0755733 0.2673976 -0.040854264 0.0012608453 -0.061755817
-0.10019673 0.07037762 -0.029646175 0.22401614 -0.19015566 -0.022763891 0.054092422 -0.20041043
-0.18117395 0.09865751 0.29503947 -0.113182046 0.046844658 -0.013937545 -0.10260573 -0.08530108
0.1777019 -0.1553717 0.17357117 0.2918402 -0.27798787 0.13617799 -0.076299906 0.03915101
-0.4181267 -0.0022873133 0.18835244 0.28535 0.066799864 0.07439829 -0.051144697 -0.22258444
0.29669723 -0.2108313 -0.2795487 0.24356814 0.35254958 -0.15873219 -0.2986698 0.12216613
0.10180608 0.057423923 -0.12722729 -0.12072442 -0.2064113 0.18577366 -0.18992037 -0.14351085
-0.13733605 0.14180349 0.110254474 0.049477655 -0.06447853 -0.0042845933 0.026060123 -0.26394382
0.15218455 0.2980883 0.19578992 -0.09384856 0.025299592 0.10677072 0.10408271 0.1076918
-0.06874609 -0.28595102 0.27603763 -0.06130752 -0.18657905 0.060172312 0.0065902206 0.09301748
-0.1862216 -0.19794382 -0.0048325267 -0.03662316 0.050985683 0.21874875 0.15860014 -0.24172986
0.3030227 -0.24932149 0.09788476 -0.34329867 -0.27541268 0.1431855 -0.021054003 -0.058257464
-0.08799009 -0.052409165 -0.14868742 -0.1269435 -0.28962106 -0.06486844 -0.37717706 0.18035549
0.031705208 -0.27284414 0.2531437 -0.0019113669 -0.11449671 0.0038587477 0.20592667 -0.34291008
-0.20029567 0.20647834 -0.04889113 -0.0538209 0.20718352 -0.036579184 -0.060272843 0.0014639408
-0.08990597 0.20722435 -0.0662743 -0.27065212 0.24296768 -0.21551289 -0.25725165 -0.20618537

default.encoder.to_out.weight f4 [128, 128]
00000000: cb15 a1bc 22a7 103d d90b 623c 913c b33d
00000010: eb7a f4bb b7fa 1c3c ea5d 253c 90c8 343d
00000020: e9ec 863d db11 7fbd d2ac 8b3d 0361 91bc
00000030: 76e9 2fbd 1070 1a3d c08c c73c bbb7 5fbd
00000040: 091f 133d 9763 8bbc b096 7e3d 8834 4d3d
00000050: 4c6a 3bbd 0b5d 82bd 976b b73d ee59 d73c
00000060: 7da6 1ebd ce69 993c 16b1 7d3d 7ed7 8bbd
00000070: 4a01 b0bd ec74 59bb 7506 0f3d 84e2 a63d
00000080: c71b 9e3c 57b4 ee3c c737 37bd 7d79 a73d
00000090: 0419 1f3d b885 7d3d cd12 763d d19f 363d
000000a0: e8ea 31bd bdc2 77bc c4c3 723d 7be2 45bc
000000b0: 3f0c 803c c724 8d3d 53fd f5bc 4d60 363c
000000c0: aa01 293d f93b b3bc 157a 963d 7765 0a3b
000000d0: 87cd 823d 69d1 073c 987e fb3c 1398 b6bd
000000e0: dd6d d8bd 4705 15bc 63f4 59bd a440 65bb
000000f0: f959 cdbc df00 12bd 3f04 1dbd f477 7abd
00000100: 842f 96bd 8c5f 8a3d a137 99bd 7c62 0c3d
00000110: eacd 7bbc 0245 8b3d 689b 70bd 2be0 1d3d
00000120: 822f c33b 1497 1b3d 96e6 cd3b 4238 953d
00000130: 237a c8bc 7a41 56bd c790 463c a1da 7c3d
00000140: 4ccf 93bd 3724 ce3b e8b2 743a d901 9f3d
00000150: 37d8 443d d56c 5cbd 43a2 373d fd30 42bc
00000160: feb9 773d 4864 23bd 9c14 43bc 754b 7e3c
00000170: 729e c3bd 7f58 ad3d c319 96bd a42b 903d
00000180: 7d7c a73c 4b16 5cbd 3769 903d 8d7c 5d3d
00000190: 3247 8e3d 3f40 7cbc dcac a43c b3d6 023d
000001a0: 57b9 023d fb1b 103d 45df 1abc feb6 85bd
000001b0: 5e03 2c3c b882 783c 9c6c b3bc 4ade 1bbd
000001c0: d7ac 333d 685b 4e3c b99b 743d 0d41 8fbd
000001d0: 1225 b5bc c764 afbc 2df9 22bd b4fe 653d
000001e0: 3e0d 57bb 7729 6f3d 398a a1bd a40f f8bb
000001f0: 4e2c 053d 39b1 5d3c 52ca 40bb c945 9d3d
00000200: 588e 93bd 3a99 263d 646b 3c3d 1553 003b
00000210: 0603 243d 60f2 5dbd 1423 dcbb 1436 e83c
00000220: f342 7c3c b41a b4bd 424e a33b e3d1 bf3d
00000230: 8177 d4bd bf6c 853c fb36 ebbc 3012 e3bc
00000240: 32ff 87bc d907 a53c 0514 963c f19d 52bd
00000250: 7b43 893c f732 d8bd 3322 82bd 9ccf 8bbd
00000260: cfa0 c23d 9306 f73c 6fd0 f63c e58b af3c
00000270: 9446 78bd d6eb 4cbd 0d82 4dbd 5d65 87bd
00000280: 9067 323d b6c6 303d 028e 093c f6d6 883d
00000290: ee9e 593d 383b 6f3d 76b6 893d 6d42 00bd
000002a0: 0ea1 dd3d 3412 b3bd 79f7 a2bd 3c2f 26bb
000002b0: ce3b 053d 6613 443b 3376 e6bc baae 563d
000002c0: 5bd6 0a3d cab2 b93d eb55 1cbd 9e79 a83c
000002d0: f86e 913c 1d37 33bd c318 c03b 49a1 e23b
000002e0: 0f90 853d 168d 113d e6d3 41bd 5a7a ff3d
000002f0: 9c4c 95ba 3b7c 4abd 4133 783d e402 46bc
00000300: c1cb 4bbd 7875 363d 7b1c acba 3970 8d3d
00000310: 4d1c 6ebc 3b1d a93d b471 a23c 303f 2fbd
00000320: 1da7 84bc da21 83bd e032 19bc 0444 013b
00000330: de14 c03b a389 533d d3eb 633b e261 8b3d
00000340: fa49 c93c 7011 2e3d 9c28 9bbd 7f19 493d
00000350: 4e4d 903d 8280 b23c f67f 3b3c e87c 673d
00000360: d167 c63c 53a3 9bbd eef3 73bd ad6f b8bd
00000370: 8dda a4bb 0fba 863d 03d5 123d 70ee c73c
00000380: 6b4b 93bd 2c90 09bd 65a1 56bc ce6e 813d
00000390: 6c9d 0abe ddfb 26ba 3eb8 4cbd 46e4 a43c
000003a0: 1c93 52bd cac0 3ebd 3ad5 e53d 83aa 0fbb
000003b0: 3d5b 3d3d 8845 ceba c418 1e3d ba25 58bd
000003c0: 555d 863d 2cc3 153d 5849 0d3d 103d 96bd
000003d0: 8485 27bd 96a0 f93c 7413 9d3d 0fe5 a53c
000003e0: 4ce4 1839 6c2b ccbc a31f 26bd a15d 4ebd
000003f0: fb8e e33c 9f6a f83c 303a 103c 5f4a 85bd
-0.019663712 0.03531564 0.01379677 0.087517865 -0.007460942 0.009581259 0.010093192 0.044136584
0.06588156 -0.062272888 0.06820072 -0.017746454 -0.042947255 0.037704527 0.024359107 -0.05461858
0.03591827 -0.017015262 0.062155426 0.050098926 -0.04575567 -0.06365403 0.08956068 0.026287999
-0.038732994 0.01872721 0.06193646 -0.06828211 -0.08593996 -0.0033181263 0.034918267 0.08148673
0.019300355 0.029138727 -0.044730928 0.08177469 0.038842216 0.061895102 0.060076524 0.044586007
-0.043436915 -0.015122113 0.059268728 -0.012077923 0.01563084 0.0689178 -0.030028021 0.011131358
0.041261353 -0.021879183 0.07347504 0.0021117607 0.063868575 0.008289673 0.030700013 -0.089157246
-0.1056783 -0.0090954965 -0.05321158 -0.0034981156 -0.025067316 -0.035645362 -0.038334128 -0.061149552
-0.07333282 0.06756505 -0.074813135 0.03427361 -0.015368918 0.068002716 -0.058741957 0.03854386
0.005956591 0.037985876 0.0062835915 0.07286121 -0.024472302 -0.052308537 0.012119479 0.06173194
-0.07217273 0.0062909382 0.00093345204 0.07764024 0.04805776 -0.053814728 0.04483248 -0.0118525
0.06048011 -0.039890558 -0.011906769 0.01552092 -0.095517054 0.08464145 -0.073291324 0.07039574
0.020445103 -0.053732198 0.07051318 0.05407386 0.06947173 -0.015396177 0.020101957 0.031943034
0.031915035 0.035182934 -0.009452646 -0.065290436 0.01049885 0.0151678845 -0.021902375 -0.03805379
0.043866005 0.012595035 0.05971882 -0.06994829 -0.022112403 -0.02141036 -0.039788414 0.056151107
-0.003281429 0.058389153 -0.07887692 -0.007570224 0.032512955 0.013531023 -0.0029417467 0.07679326
-0.07204884 0.040673472 0.046000853 0.001958077 0.040041946 -0.054186225 -0.006718049 0.028346099
0.015396821 -0.08794156 0.0049836943 0.093662046 -0.10374356 0.016287206 -0.02871274 -0.027718633
-0.016601179 0.020145344 0.018320093 -0.051420156 0.01675581 -0.10556596 -0.06354179 -0.06826708
0.09503328 0.030154502 0.030128686 0.021429012 -0.060614184 -0.0500296 -0.050172854 -0.066111304
0.043555796 0.043158256 0.008395674 0.066816255 0.053130083 0.058406085 0.06724255 -0.03131335
0.10821734 -0.08743706 -0.07957358 -0.0025357744 0.032527737 0.002991879 -0.028132534 0.052412726
0.03389583 0.090673044 -0.038167875 0.020565804 0.01775311 -0.043753732 0.005862327 0.0069161993
0.065216176 0.03553494 -0.047321223 0.124745086 -0.0011390629 -0.04943488 0.060595755 -0.01208565
-0.04975486 0.04454562 -0.0013131046 0.069061704 -0.014533115 0.082575284 0.019829609 -0.04278487
-0.016192967 -0.06402941 -0.009350508 0.0019724378 0.0058618626 0.051644932 0.0034778013 0.06805779
0.024571408 0.0424971 -0.07576105 0.04909658 0.07045995 0.021789793 0.0114440825 0.056515604
0.024219425 -0.07599511 -0.0595588 -0.090056755 -0.005030936 0.065784566 0.035847675 0.024405688
-0.07192119 -0.03358476 -0.013100003 0.063199624 -0.13536614 -0.0006369928 -0.049980395 0.02012838
-0.051409826 -0.046570577 0.1122231 -0.0021921701 0.04622959 -0.0015737275 0.038597837 -0.052770354
0.065607704 0.036563084 0.034493774 -0.073358655 -0.040898815 0.030472081 0.07669726 0.020250825
0.00014580897 -0.024923049 -0.040557515 -0.05038226 0.02777814 0.030324278 0.0088029355 -0.06508326

default.encoder.to_out.bias f4 [128]
00000000: 7d58 e33d 2df4 483e 4508 753d d519 013d
00000010: dc9f 573d f97f debc b11c 26bc 466c b63d
00000020: 5559 33be d2d1 07bc a744 3cbc b857 b2bb
00000030: 0888 ccbd 26f5 443d dd47 d5bc c8fe 03be
00000040: c04c d0bd 42f7 7fbd 0a50 27bd 6663 4a3d
00000050: ecca b5bc 8c9e 4ebd fc80 0d3d 6db9 b6bc
00000060: 0804 a5bd 62d1 a3bd ae75 103e cf00 113c
00000070: 421a 5abd 1c37 7d3d b090 90bc afb7 623d
00000080: 5284 5b3c f52d 3f3c d175 cb3b 7f1e e7bb
00000090: 79cb 323d c684 ec3d aabc 9f3c 017a 16bd
000000a0: ec36 813d b9f7 f7bc decd 17be 28d5 bcbc
000000b0: 0cf3 c7ba d431 d7bc f746 fd3d 2bbc 02be
000000c0: 4a5b 48bd 65a5 0abe 7dc9 8c3d 6279 533d
000000d0: 1be3 71bc d04d c63d 0f99 373e 32bb 403e
000000e0: 3fc1 0c3d 004f 21be a7b4 48bc e01a 683d
000000f0: 12e9 a33d d34f 023e 280c a53b 526a 173d
00000100: 7e74 02be 1b0e d23c 3592 2a3d 0d48 babd
00000110: 6e67 b2bd 8eac 3b3e 89f3 dbbd d57e 453b
00000120: 364e fe3b 6f3e 0f3d 8155 6cbd 3f0c b3bd
00000130: 3097 0bbe bf16 c5bc 544e d23d ed7a 3cbe
00000140: e398 8b3b 3d3f 1b3e f2f6 023d c1a8 f4bc
00000150: 9b7a d5bc e574 0a3e fce8 9a3c 26af 8c3d
00000160: 5391 f13c fcea c2bd 46f2 2fbd f640 19be
00000170: fb53 dabd 5a24 88bd 283b 51bc e4bc 68bd
00000180: abe3 1d3e 0dd8 4d3d 24e4 f3bd a628 b1bd
00000190: 6814 ab3c 01b8 debd fd6f f2bd d3e0 92bd
000001a0: d037 bebd ec68 3d3c fb36 30bd 6fcb e23d
000001b0: 7582 4ebd 7928 72bd eeea 78bc 5413 233d
000001c0: 3c89 2bbd cddc 253c 5128 d23d a991 96bd
000001d0: cc90 963d 671d 41bd 46a4 20be b5c5 833d
000001e0: 1b97 9c3c 02c8 533d f984 91bd 6c9e bebd
000001f0: 9e81 133e 8d01 27be 77c8 71bb 5e55 babd
0.11100862 0.19624396 0.05982234 0.031518776 0.05264269 -0.027160631 -0.0101386765 0.0890737
-0.17514546 -0.008289771 -0.011490977 -0.005442586 -0.099868834 0.048085354 -0.026035244 -0.1289016
-0.10170889 -0.062491663 -0.040847816 0.0494112 -0.022191487 -0.05044417 0.034546837 -0.022305215
-0.080574095 -0.07998921 0.14107391 0.00885029 -0.053247698 0.061820135 -0.017647117 0.055350956
0.013398247 0.011668672 0.006209113 -0.007053196 0.043651078 0.11548762 0.019499142 -0.036737446
0.06309304 -0.03026949 -0.14824626 -0.02305086 -0.0015254929 -0.026268877 0.12367051 -0.12767093
-0.048915185 -0.13539656 0.06874368 0.05162943 -0.014763619 0.0968281 0.17929481 0.1882141
0.03436398 -0.15752792 -0.012250102 0.056666255 0.08003439 0.12725763 0.0050368495 0.03696663
-0.1273975 0.025641492 0.04164334 -0.09095774 -0.08711134 0.18327543 -0.1073981 0.0030135412
0.0077607883 0.03497165 -0.05769873 -0.0874257 -0.13631892 -0.024058698 0.10268846 -0.18406267
0.004260169 0.15160842 0.031973787 -0.029865624 -0.02605944 0.13521154 0.018909924 0.068693444
0.029488241 -0.09517476 -0.04295566 -0.14966187 -0.10660549 -0.066475585 -0.012770452 -0.056820765
0.1541888 0.05025487 -0.11908749 -0.08650331 0.020883754 -0.1087494 -0.11837766 -0.07171788
-0.09287989 0.01156066 -0.043021183 0.11073958 -0.050417382 -0.05912063 -0.01519273 0.039813355
-0.041878924 0.010123444 0.10261596 -0.07352001 0.073518366 -0.04714718 -0.15687665 0.06434194
0.019115021 0.051704414 -0.07105441 -0.0930756 0.14404914 -0.16309185 -0.0036893168 -0.09098314

default.mean_encoder.weight f4 [10, 128]
00000000: b9be 1cbd 35d0 08bc 2903 1fbc 15ef 33b9
00000010: f034 e43c e954 8ebb b2fc e3b9 aeb2 5d3b
00000020: f09f c1bc 35e2 473c 5daa c6bc cb12 1fbc
00000030: 60fd cdbb 1e7d 15bb cecc b63c 4d6a b83c
00000040: 614d 8cbc 3b67 15bc 2bdb 243c 43b1 213c
00000050: becd 953c b292 be3c e1c2 713c 7114 c8bb
00000060: 1320 1dba 1342 d4bc a96a 34bc 1945 0ebb
00000070: 68d5 08bb 177b b13c 1ac6 64bc e8dd d338
00000080: aa6b bc3b c4ae ac3c 30e3 8ebc 837d 8cbc
00000090: ff06 8dbc 49b2 a4bc 9adb 913c 2029 963b
000000a0: dded 17bc c310 47bc 9ef9 17bc ffe0 893a
000000b0: b96d a0ba 7564 02bc 6dcd dbbc edb6 1c3c
000000c0: 2218 3bbb bd61 d3bb 01f2 423d c7e1 9f3b
000000d0: 46ab 0abc 635d 173d 5723 58bc 0ad5 44bb
000000e0: f1d1 5dbc 978d c1bb 8cfc 08bd 7e55 e83c
000000f0: 6dad cdbc 3ac1 c5b9 3c78 1d3b 29b6 d0bc
00000100: d609 59bc 8c79 10bb 4e92 65ba d47a b5bb
00000110: c284 093d 181d fd3a ab73 b2ba 996a 63bc
00000120: 25d7 663c b7fe b33b 300a 923c a3e4 e2bc
00000130: 4734 79bc ca40 25bc be6c eebb 8b82 46bc
00000140: 5a77 cdbc e5c9 06bc 8515 083b 50f4 a03b
00000150: 613f 65bb f8c5 c23c f8b3 eeb9 b836 5ebb
00000160: aabf b1bb e449 023c a68e 623c ff09 383a
00000170: 844c 523c d959 01bd 708d 85bc d4c2 d4bc
00000180: e958 b9bc 4a51 073c d4d6 abbb 6352 8b3c
00000190: cf28 1fbc e53c 31bb 7f48 4abc 640b 4cbc
000001a0: 4ae3 1b3a e93b 943c 1484 afbc 2b0a 87bc
000001b0: b1f7 a2bb 04c8 c2bc 9e5a 85bc ab27 d63c
000001c0: a605 b6ba 4bd7 d5bc c079 2dbc b1b1 d83b
000001d0: f968 533c 4a4f a23a 1041 343b a68a 0c3a
000001e0: 63eb a7bc 6b18 8b3a e3da db3b 83df 383c
000001f0: b617 13bd 64e4 3e3c 6cd3 813c bd8d 8ebc
00000200: 2e52 71bb 4dad 54bb 890a 67bc d85f 0ebb
00000210: 408e 553b 31c6 353b 9c64 6f3c 81de dfb9
00000220: de45 3ebc ba9e 043c d4de 85bb 9dea 7d3b
00000230: e111 6f3b bd0d 183a 723e 053b dfce 233c
00000240: f240 07bd 67e5 133d 8033 a23c 9c04 0abc
00000250: 5ea8 5fbc d528 97bc 47eb 94bc eb77 b83c
00000260: d8d2 e6bb d0ad 7f3b 6888 f7bb 798b c2ba
00000270: 0b8b 643b 35bc 2d3c 998b 383d 9c4b 8abc
00000280: 4cdd 5a3b 0cb1 eeb8 e0ae 6d3c e062 e43b
00000290: 76b1 153d 3a5b c0bb a2fa eabc 53fa adbc
000002a0: 4ed1 873b 5614 c0bb 935c d1bc fca0 91bc
000002b0: 74e0 51bc c81b 1d3c 60bc fdbb ba49 b13c
000002c0: e207 c13c 00c7 6e3c 3494 8dbc a2c0 85bb
000002d0: ca4a f83b 3e6f 9d3c 2400 093c 01d4 993a
000002e0: 99e9 a1bb 67cf 89bc fb9f a43c b58b 863c
000002f0: f65a dcbc bec9 bb39 944b 7dbc 5e3b 593c
00000300: c673 bf3c 160c 5bbc 81c3 8abb 7487 af3b
00000310: 4ed3 1f3c 2bfa 00bd c2a4 e0bb 677f 9a3c
00000320: 081c 063c 3530 323b 9bc0 313c 3183 b1bc
00000330: acf8 9dbc f48f 373c 92c3 c43c 99a5 b13c
00000340: 2a82 11bb 8011 cf3b e3de 65bc 45cd bcba
00000350: 4df0 46bb 6fb1 0d3d ce50 f23b e00f 603c
00000360: ed64 2fbc 8816 b5bb 712c 41bb 7859 a5bc
00000370: 497d 173c 6003 c03b d51f f5bb 4bb6 893c
00000380: e24d 2d3c 500d ec3b e602 0f3c 08d0 2f3c
00000390: 4303 9339 5061 55bc 49d8 32bc 0f77 993c
000003a0: f042 493c 074e 633b 0d4c d4ba cd11 a93c
000003b0: d370 d1bc 2c79 ad3c 9fef b43c 48b5 e73b
000003c0: e12d be3b c6d3 e43c 28e2 94bb ac2f 453c
000003d0: 4bd7 8e3c 48ab 8cbb d509 323b c65d a5bc
000003e0: 6095 cebb 53c9 59bb 20aa 39bc 17a4 c5bb
000003f0: 2ec9 e73b b665 06bd 6818 8fba 94ae 29bc
-0.038267825 -0.008350422 -0.009705343 -0.00017159835 0.027857274 -0.004343618 -0.00043485087 0.0033828425
-0.023635834 0.012199928 -0.024251157 -0.00970907 -0.006286308 -0.0022810171 0.022314455 0.022511626
-0.01712674 -0.00911885 0.010062019 0.009868923 0.018286582 0.02326331 0.014755935 -0.0061059524
-0.0005993854 -0.025910413 -0.011011758 -0.0021708666 -0.0020879153 0.02166514 -0.013963247 0.00010102597
0.0057501392 0.021079428 -0.017442316 -0.017149692 -0.01721525 -0.020104544 0.01780491 0.004582539
-0.00927302 -0.012149992 -0.009275822 0.0010519325 -0.0012239731 -0.007958521 -0.026831353 0.009565097
-0.002854832 -0.0064508603 0.047594074 0.0048792097 -0.008463686 0.036954295 -0.013192019 -0.0030034208
-0.013538823 -0.0059067714 -0.033443972 0.028361078 -0.02510711 -0.00037718733 0.0024027964 -0.025477486
-0.013246974 -0.0022045104 -0.0008757458 -0.005538324 0.033573873 0.0019311039 -0.0013614794 -0.013880395
0.01408938 0.005493011 0.017827123 -0.027696913 -0.015210218 -0.010086248 -0.0072761467 -0.012116085
-0.025081325 -0.008226846 0.002076478 0.004911937 -0.0034980404 0.02377604 -0.00045528985 -0.0033907127
-0.0054244595 0.007952187 0.013827955 0.00070205325 0.012835626 -0.031579826 -0.016302794 -0.025971808
-0.022625403 0.008259127 -0.0052441154 0.017007058 -0.009714319 -0.0027044353 -0.012346386 -0.012453888
0.00059466495 0.018094974 -0.021425284 -0.01648434 -0.004973375 -0.023777016 -0.016278561 0.026141962
-0.0013887181 -0.026103636 -0.0105881095 0.0066129793 0.012903445 0.0012383249 0.00275046 0.00053612364
-0.020497983 0.0010612136 0.006709443 0.011283758 -0.035911284 0.011651132 0.015847884 -0.01740157
-0.0036822665 -0.0032451928 -0.014101633 -0.0021724608 0.0032586008 0.002773654 0.0146113895 -0.00042699653
-0.011613337 0.008094484 -0.004085401 0.0038744577 0.0036479163 0.0005800387 0.002033141 0.009998052
-0.03302092 0.036107447 0.019799948 -0.0084239505 -0.013650982 -0.018452087 -0.018178595 0.022518119
-0.0070441775 0.0039013512 -0.0075541027 -0.0014842591 0.0034872915 0.010603954 0.045055006 -0.016881756
0.0033396063 -0.00011381702 0.0145070255 0.0069697946 0.036546193 -0.00587025 -0.028683964 -0.021237528
0.004144824 -0.005861799 -0.025556838 -0.017776959 -0.012809861 0.009589143 -0.0077434033 0.0216416
0.02356333 0.0145738125 -0.017282583 -0.0040818015 0.007577275 0.019218083 0.00836185 0.0011736156
-0.004941177 -0.01682253 0.020095816 0.01642404 -0.026898842 0.0003581773 -0.015459914 0.013258783
0.023370635 -0.013369581 -0.0042347317 0.0053567234 0.009754969 -0.03148858 -0.006855578 0.018859578
0.008185394 0.0027189378 0.010849143 -0.021669002 -0.019283615 0.011203755 0.024019036 0.021685408
-0.0022202828 0.006319225 -0.014030191 -0.0014404437 -0.0030355633 0.034593042 0.0073948866 0.01367566
-0.010705215 -0.0055263676 -0.0029475952 -0.020184264 0.009246179 0.0058597773 -0.0074806013 0.016810557
0.010577651 0.0072037354 0.008728718 0.010730751 0.00028040455 -0.013023689 -0.010915824 0.01873353
0.012284026 0.003468396 -0.0016196981 0.02063837 -0.025566494 0.021175943 0.022086916 0.007071171
0.005803809 0.027933013 -0.0045435615 0.012035292 0.017436644 -0.0042928793 0.0027166505 -0.020186316
-0.006304428 -0.003323157 -0.011332065 -0.006031524 0.007073543 -0.032811843 -0.0010917308 -0.010356564

default.mean_encoder.bias f4 [10]
00000000: bbf1 3fbd f085 8cbd 1591 21bd 1fba fe3c
00000010: 4fb2 9c3c e735 69bd f73b 43bd 394b 123c
00000020: 8422 2e3d 2fe5 313d
-0.04686139 -0.06861484 -0.039445 0.031094609 0.019127993 -0.05693617 -0.04766461 0.008929067
0.042513385 0.043431457

default.var_encoder.weight f4 [10, 128]
00000000: 365a f1bc f752 02bc b17e d13b 8338 4f3c
00000010: f6a1 a33b 3fc2 a2bb 554f aa3c 377a 233c
00000020: b0d2 1cbb e754 a1bc 4438 0dbc dffc 85b9
00000030: d235 fabc d63a 0abd 19a9 9f3c 0c30 e33c
00000040: 1b78 fabc d3cb 3ebd 014e 313b 22e3 51ba
00000050: d044 92bc 91c3 df3c 8108 6c3c 5bb3 fe3b
00000060: 4a84 ecbb 69f6 7e38 4ea4 273c d059 973b
00000070: c050 21bb a274 a03c 39e8 9e3a d9ee 19bc
00000080: 2e4b dcbc f5a1 e93b 7cad f0bc a687 343d
00000090: 1406 e1bb 7d99 91bc 7b18 c4bb 4763 a23c
000000a0: 5bd5 d83b 4ae3 2abc 3746 f7bc cfae a3bb
000000b0: 9663 35bc f456 96bb 4a20 91bc c65c 0abd
000000c0: 011c adbc d430 8f3b b0da 1cbd 9ffe 9fba
000000d0: a5aa aabb 1cc8 74bb e038 8a3c 5110 13bc
000000e0: 4583 9c3c a232 863b 343b da3b 34f5 6cbc
000000f0: c7e8 59bc d5c4 813b 4977 0cbc 2185 1e3d
00000100: c897 20bc 65f6 563c 5f12 1339 8379 b03c
00000110: 59d0 393c bfe9 403c d873 02bc 6e60 903c
00000120: f570 b138 7720 b6bc b82c ae3c 27bb 823c
00000130: 4c02 91bc e32e eabc 729b 873c 33f2 b1bc
00000140: 9a3b 32bc d580 d4bb 0065 9b3b 5322 e13a
00000150: c1f1 a1bc 66ac 083d d119 0a3c 89be a03b
00000160: 48a9 ce3c b6ab 52bc a6b1 853c ec22 893c
00000170: d523 c7bb a4a1 58bb f8ba eeba 5f60 6ebb
00000180: 92d4 a9bb 316b 0d3c 8647 183a 63e4 cbbb
00000190: 2d93 973c e40e 74bc 6abb 583c b3e8 173d
000001a0: 8818 20b7 8480 083c abe5 993b 28cd b93c
000001b0: 9d9c c73c 4cc9 c8bc 7bdd 4f3c c6c7 243c
000001c0: 13d6 9fbc d163 4b3d 7300 e6b9 aa97 d03c
000001d0: d5b0 eb3b 70d3 903c cf03 bd3c 0146 4abd
000001e0: 559b 82bc 7c4e 5b3c 20ec 9cbb 554a 17bc
000001f0: 7eb8 0d3d 8d6b fd3b 20f9 723c b256 e43c
00000200: 8f0b f43c 6cb3 9bbc 05e3 0d3c bdf0 90bc
00000210: e4b0 9cba 27ec 1b3c e650 4f3c f5e9 04bc
00000220: c728 dfbc f5ee e6ba 53d3 33bc 694f be3b
00000230: 2c37 423c 9016 c9bc 0cb4 0cbb b4c7 a6bb
00000240: bbb8 0abd 58cd b7bc 1f57 813c 24c1 6fbc
00000250: fee2 91bb 40bf 8d3c 4e3f 8dbc 3d8b 49ba
00000260: 31c0 e63a 11c0 b93c c64a 9a3c e58b 483b
00000270: e59f dfbb eebf 853c 8382 1cbd fb69 a4bc
00000280: 0924 433c e131 a3ba 1ca9 de3b 12e8 e33c
00000290: 8f22 9fbc 2f8f d6bc e037 7b3c 7f1a 01bc
000002a0: 96ce 00bd 358e c93c 5274 e23a 5d25 963c
000002b0: c1ea a3ba d00c 413d fd65 0abb 3cfb f33b
000002c0: adb8 c03c 5f09 b03b faab 95bc 37a2 84bc
000002d0: 19d1 15bc d6ed 273b 006e 28b9 a5ce 0738
000002e0: 00bb 9cb9 f770 d5bc d2b4 babc bea2 ef3b
000002f0: 6239 af3b 2910 93bc 2cc2 c4ba 3572 cbbc
00000300: e890 bf3c c472 6c3c a951 25bc 9f82 abbc
00000310: 0aed 83bb 55e3 123d e0a4 a2bc a06b b8ba
00000320: 907d 1ebb 3bba 523a 84d4 8b3c 20e7 80bc
00000330: 8469 6b3c ac85 0b3d 7c9e 183c b8b8 753c
00000340: e8a3 c0bc 9f81 d9bc 59cc bc3b d798 61b9
00000350: 2d00 893c ccf3 92bc 7779 dd3b 3710 6cbc
00000360: 904f 2bbc cc03 643c 27ad ee3a d668 2c3a
00000370: 1fae 203c 710c dc3c 5238 a33c 8bc8 6b3b
00000380: d8f1 bdbc ac0f 023c 2182 043b 6d32 04bd
00000390: deae cf3b e238 8ebc b6e7 0dbc 40b1 50bc
000003a0: d440 dfbc fdc3 9dba b409 9fba b519 cd3c
000003b0: e728 4fbc 192c 113d 41d9 e63c b091 aa3c
000003c0: 3b5a eabb 715d 493c 9d34 aabb 0eb5 d9bb
000003d0: 13e0 fbbb bc41 a0bc a99a a53b f448 743c
000003e0: f718 5b3c a2a8 2f3c 9b05 f73c 533f 723c
000003f0: 19cb 47bd 9747 b0bb 2afd 0cbc 8aad 2f3b
-0.029461961 -0.007954351 0.0063932766 0.012647751 0.0049936725 -0.0049670036 0.020789782 0.009977869
-0.002392929 -0.019693805 -0.008619372 -0.0002555614 -0.030543242 -0.033747517 0.019489812 0.027732871
-0.030574849 -0.0465811 0.002705455 -0.0008006563 -0.017855078 0.027314933 0.014406324 0.0077728457
-0.0072179185 6.0787806e-05 0.010232044 0.004618861 -0.002461478 0.019586865 0.0012123651 -0.009395325
-0.026891317 0.0071299025 -0.029379599 0.044074677 -0.0068671796 -0.017773384 -0.0059843636 0.01982273
0.006617231 -0.0104301665 -0.030184848 -0.004995204 -0.011071106 -0.0045880023 -0.017715592 -0.033779882
-0.021131517 0.0043698344 -0.038294494 -0.001220662 -0.0052083307 -0.003735072 0.016872823 -0.008976058
0.019105563 0.0040953914 0.0066598896 -0.014462758 -0.013300127 0.003960232 -0.008573362 0.03870118
-0.0098018125 0.0131202685 0.00014025856 0.021542316 0.011341178 0.011774479 -0.00796219 0.017624106
8.4610576e-05 -0.022232277 0.021261558 0.015958382 -0.01770129 -0.02858681 0.016553614 -0.021721935
-0.010878468 -0.0064850845 0.0047422647 0.0017176367 -0.019768598 0.033367537 0.008429007 0.004905526
0.025227204 -0.012858322 0.016320061 0.016740285 -0.0060772696 -0.003305533 -0.001821368 -0.003637336
-0.005182811 0.008631513 0.00058089977 -0.006222294 0.018502796 -0.014896128 0.013228277 0.037087154
-9.542455e-06 0.008331422 0.004696568 0.022680834 0.024366671 -0.024510048 0.012687082 0.010057395
-0.019511258 0.04965574 -0.00043869353 0.025462944 0.007192711 0.017678946 0.023073105 -0.049383167
-0.015943209 0.013385411 -0.0047888905 -0.009234031 0.034599774 0.0077337683 0.014829904 0.02787337
0.029790668 -0.019006453 0.008660083 -0.017692918 -0.0011954573 0.009516752 0.012653565 -0.00811242
-0.027241124 -0.0017618822 -0.010975677 0.0058078063 0.011853974 -0.024546891 -0.002146962 -0.0050897244
-0.03386758 -0.022436783 0.015788613 -0.014633451 -0.0044521084 0.01730311 -0.0172421 -0.00076882896
0.0017604885 0.022674592 0.018834483 0.0030600962 -0.006824481 0.01632687 -0.038210403 -0.020070067
0.011910447 -0.0012450778 0.0067950618 0.02782062 -0.019425659 -0.026191322 0.015333146 -0.007879852
-0.031447016 0.024603942 0.0017277098 0.018328363 -0.0012505875 0.04713136 -0.0021117919 0.007445721
0.02352556 0.005372211 -0.018270481 -0.016190631 -0.009144091 0.002562394 -0.00016062707 3.237896e-05
-0.00029893965 -0.026054842 -0.0227913 0.0073131016 0.0053474167 -0.017952042 -0.0015011481 -0.024834732
0.023384526 0.014431659 -0.01009027 -0.020936308 -0.00402606 0.035861332 -0.01985401 -0.0014070161
-0.0024183728 0.0008038615 0.017069109 -0.015735209 0.014368419 0.034063026 0.009315129 0.014997654
-0.023515657 -0.026551066 0.005761665 -0.0002151461 0.016723717 -0.017938517 0.0067588645 -0.014408163
-0.010455981 0.013916921 0.0018209562 0.0006576901 0.009807139 0.026861401 0.019924317 0.0035977687
-0.02318661 0.007938307 0.0020219164 -0.032274652 0.0063379845 -0.017361108 -0.008661201 -0.012737572
-0.027252592 -0.0012036558 -0.0012133629 0.025036672 -0.012644029 0.035442445 0.028179767 0.020821422
-0.0071518696 0.012290345 -0.0051942603 -0.006643898 -0.007686624 -0.019562595 0.0050538373 0.0149099715
0.013372651 0.010721358 0.03015404 0.0147856055 -0.048777673 -0.005379628 -0.008605281 0.0026806318

default.var_encoder.bias f4 [10]
00000000: 39dd 05bd f634 003d 2131 abbd 1b9a 0b3d
00000010: 1335 aabd db67 2cbe d535 61bd 73c4 10bd
00000020: c96c 81bc ee5f dc3c
-0.032681677 0.031300507 -0.0835898 0.034082513 -0.08310904 -0.16836493 -0.05498298 -0.0353436
-0.015798943 0.026901212
