models/mnist-relaxed1E/encoder_z2_z1_-9007962256546906249.pt (torch_old, 88270 bytes, 8 tensors)

default.encoder.to_hidden.weight f4 [128, 19]
000000 c4 35 17 bd b0 bc 0e 3e af 29 bd 3d ec 4d 3c be
       -0.03691651 0.13939166 0.09236466 -0.183891
000010 8f 6b 3b 3e f7 e3 ff bd 07 e9 e1 3d 2e 10 e2 3d
       0.18302749 -0.12494653 0.110307746 0.11038242
000020 28 0b 9d 3d a7 f0 4c 3e f4 e5 ad be e2 f6 72 3e
       0.076681435 0.20013677 -0.33964503 0.23726991
000030 d0 ee dc bd 72 48 30 be 5b 20 76 be d9 d2 11 be
       -0.10787737 -0.17215136 -0.2403578 -0.14240588
000040 43 7b 9f be 2e 69 86 3e 54 0d 98 3d 59 ca 00 3e
       -0.3114873 0.2625212 0.07424417 0.1257719
000050 8b 88 90 3d 74 26 01 3e b8 14 8c 3d 00 bc af 3d
       0.070572935 0.12612325 0.06839889 0.0858078
000060 10 dd f1 3d 72 07 70 bd 44 c1 4c bd fb ad 4d 3e
       0.118097425 -0.05860085 -0.049989 0.200859
000070 2e 08 c0 bd 7f 38 a8 3e 56 5f 0e be b7 3c 2c 3e
       -0.0937656 0.32855603 -0.13903555 0.16820036
000080 38 13 e0 be d3 9b 53 3d 08 79 4b 3e 44 6b 81 3d
       -0.43764663 0.051662277 0.19870389 0.063192874
000090 65 1a 51 bd c3 9a 44 3d 27 d6 cc bd 07 b8 0b 3e
       -0.051050562 0.047999155 -0.10001784 0.1364442
0000a0 c9 c6 d7 3d d6 c5 f9 bd 4c 49 80 3c 0f f5 d2 3d
       0.10535962 -0.12195937 0.01565995 0.103006475
0000b0 4f 93 bf bd ed f6 36 be 69 55 e4 3d 9f f3 25 bc
       -0.09354269 -0.17867632 0.11149103 -0.010128885
0000c0 f8 7a 11 3d 0d 6a f2 3e 94 34 ab 3c 4f 04 ca 3d
       0.035517663 0.47346535 0.020899095 0.09864103
0000d0 02 53 ad 3c 4d 66 a6 3c a7 dd d0 3d a3 bb 68 3e
       0.021157745 0.020312453 0.10198527 0.22727828
0000e0 76 26 aa bc 99 bd 82 3c 42 bb a5 3d 65 55 c1 3c
       -0.020770293 0.015959548 0.08092357 0.02360029
0000f0 81 e7 c2 3d b2 74 ae 3d 36 a6 db bb 2c 4e a0 3b
       0.09516812 0.085183516 -0.0067031635 0.0048921313
000100 6b 18 af 3b 2a 75 8b 3d b8 0e be bb f2 5e 1a 3f
       0.005343487 0.06809457 -0.0058000945 0.60301125
000110 0d 12 6e bf 94 7d f1 3e 3b bf 17 3c 60 fe 9d be
       -0.92996293 0.4716612 0.0092619015 -0.30858135
000120 9b 63 17 3e 29 d2 82 3e c1 70 b4 bd 2e 32 12 bc
       0.1478409 0.25550964 -0.088105686 -0.008923097
000130 60 58 58 3c 60 1c e6 3d 0b 76 23 be 17 a5 ad bd
       0.013204664 0.11235881 -0.15962999 -0.08478754
000140 73 4e 1c 3d d5 ca 83 bd 9b b1 d9 3d 79 f4 37 bd
       0.038160753 -0.064351715 0.10629579 -0.04491088
000150 40 1a f7 bd 17 ff 3c 3c ef 53 10 be 16 f6 a3 3e
       -0.12065554 0.0115354275 -0.14094518 0.32023686
000160 aa 4e 59 bd e1 78 4d bd 01 69 a2 3d 3d f4 0a 3d
       -0.053053536 -0.050164107 0.07930184 0.03392433
000170 3e 25 5e be 3f 19 c0 3d c2 f0 4b bd af 01 11 3d
       -0.21693894 0.09379815 -0.04979015 0.035401996
000180 b3 e6 e2 bc 2c b8 f5 3c aa 24 a2 bb 5f 97 0a bd
       -0.027697897 0.029995047 -0.0049482184 -0.033835765
000190 e2 1b c6 3d 0a 01 4a bd ad 5a db bd 3c f2 81 bc
       0.09673287 -0.049317397 -0.107106544 -0.015862577
0001a0 a2 cd 13 3d 11 30 5f be a3 26 5b be 2c 8a 80 be
       0.03608478 -0.2179568 -0.21401457 -0.25105417
0001b0 a8 ce f6 3d f1 e9 41 3e 39 17 93 bc 07 57 e7 bd
       0.12051135 0.18936898 -0.01795541 -0.11295896
0001c0 8b c4 c4 3d c5 0c fa bd bc 32 5d bc f6 ea a4 3c
       0.096078 -0.12209467 -0.013500866 0.02013157
0001d0 4e 3b 5a 3d 84 75 da 3d 1c 12 ae bd 95 a2 b9 bc
       0.053279214 0.106669456 -0.08499548 -0.022660533
0001e0 e3 61 62 bc 22 03 63 bd e6 d7 59 3d f5 97 dc bc
       -0.013817283 -0.05542291 0.053184412 -0.026927928
0001f0 7f ca 0b 3e d1 e5 a1 bc 0d 18 eb 3d 27 03 55 be
       0.13651465 -0.019762905 0.11479197 -0.20801984
000200 ea f0 b4 3d 9d 69 37 be 4d e8 da 3d b0 95 47 3e
       0.08835013 -0.17911382 0.10688839 0.19490695
000210 3e 92 5a bd 1e 02 25 3e ad 7e 13 be e6 99 c8 3d
       -0.053362124 0.16114089 -0.14403792 0.09794979
000220 20 af 6e be 1d 8f 10 3e 81 6c 10 3c 46 63 44 39
       -0.23308992 0.14117093 0.008814932 0.00018728999
000230 27 50 88 3b b6 64 de bd 6f 48 d9 3d f6 5b e1 be
       0.0041599455 -0.10859053 0.10609519 -0.44015473
000240 65 c8 28 3e 66 45 02 be 7c 2a e4 bc fb 3f 37 3d
       0.16482694 -0.12721786 -0.02785229 0.04473875
000250 d7 8c 83 3e 53 6a 5d 3e bb ae da 3d bf 65 ed 3d
       0.2569339 0.2162259 0.106778584 0.11591672
000260 9a 04 e9 3d f4 89 a1 3d f0 99 82 3c 24 0a 86 3c
       0.11377831 0.078876406 0.015942544 0.016362257
000270 ce db 93 3d c1 3b 8a 3d 4d b6 b7 bd 42 c1 d6 bc
       0.07219659 0.067496784 -0.08970318 -0.0262152
000280 e8 ea c9 bc 28 9f d6 bd f9 12 cb 3e bf 4a 28 bf
       -0.024648145 -0.104795754 0.39662912 -0.65739053
000290 cb 2c bf 3e ef cd 77 3e 82 76 29 be 7e 1f 14 3e
       0.37338862 0.24199651 -0.16549113 0.14465138
0002a0 84 23 1d 3e 77 f6 8d 3d 6c 18 7c be 85 6e a0 3d
       0.1534558 0.06931775 -0.24618691 0.0783358
0002b0 2c 87 89 3d ca 56 2c bd bb 6f 27 bd 04 52 80 bc
       0.06715235 -0.042074956 -0.04087804 -0.015664108
0002c0 ae 66 f2 bd 03 fb 84 bd 2e 2a 08 be 84 19 26 3e
       -0.11835991 -0.06493189 -0.1329734 0.16220671
0002d0 47 bf e9 3d 77 6e e3 3d a4 18 37 3e 63 ce ec bd
       0.114134364 0.11105054 0.17880493 -0.11562803
0002e0 1b 57 28 be 5f 44 e9 bd 26 36 b8 3d 00 96 85 bd
       -0.16439478 -0.11389994 0.08994703 -0.06522751
0002f0 8e 21 5d bd 90 06 9d 3e 50 ed c7 bd 28 48 ca 3d
       -0.05398708 0.3066907 -0.09762061 0.09877044
000300 96 d6 68 3d 52 dc 23 bc e0 10 2b 3d 85 18 27 be
       0.05684527 -0.010001259 0.04176414 -0.16317947
000310 4b 58 3f 3e b2 3c 07 be 7e 53 21 3d f1 e5 ff 3d
       0.18686025 -0.13206747 0.039386265 0.1249503
000320 03 c1 b2 bd 40 40 9d 3d 2c b1 9b 3e df f0 f1 bd
       -0.0872822 0.0767827 0.3040861 -0.11813521
000330 d3 31 b3 3d 56 f3 54 3c 85 f2 6e bc 24 cd 29 3e
       0.087497376 0.012997469 -0.014584188 0.16582161
000340 04 f9 7e 3e 43 8e 38 be 2f f1 d9 bd 9f 00 50 be
       0.2489968 -0.18023019 -0.10641705 -0.20312737
000350 26 ba 02 be 2c 08 ba bd b0 40 24 be a2 6b aa 3d
       -0.12766322 -0.0908359 -0.16040301 0.083213106
000360 a5 70 60 be 30 0c e6 bd 38 2c 11 bd 5d 04 bb be
       -0.2191797 -0.11232793 -0.03544256 -0.36526766
000370 d7 2f 4b 3e 79 5f c1 bd f0 83 5a 3e 1d f2 02 3e
       0.19842468 -0.09442038 0.21339393 0.12787671
000380 6b 6d 4e 3e 18 db 84 3e 17 9d 11 3e 30 31 55 3e
       0.20158927 0.25948405 0.14220081 0.20819545
000390 8a 40 8f bd c6 ec 20 3d b4 4f 42 bb 3d 91 2e bd
       -0.06994732 0.039288305 -0.0029649558 -0.04261898
0003a0 69 93 f3 bd 6c 6c 95 bd f0 2a ed bb 14 bc 66 3d
       -0.11893351 -0.072960705 -0.0072377846 0.05633171
0003b0 4d 4a b7 bd 14 ea fe bb 48 7a e2 be 62 88 31 3f
       -0.089497186 -0.007779369 -0.44233918 0.6934873
0003c0 99 10 da bd 09 49 41 3e 5c a7 c4 3b 89 2b 3c be
       -0.10647697 0.18875517 0.006001396 -0.18375982
0003d0 b1 8d da bd e7 a7 80 bc 47 b1 52 be 30 8f 1f bc
       -0.10671557 -0.015705062 -0.20575438 -0.009738728
0003e0 bd 47 ed bd 02 bf df 3d 73 60 17 be 3d cf 82 3d
       -0.115859486 0.10925104 -0.14782886 0.06387184
0003f0 9d 95 21 be 0a 7b 18 be d6 75 db 3d b2 70 9e 3d
       -0.15779729 -0.14890686 0.10715835 0.07736339

default.encoder.to_hidden.bias f4 [128]
000000 e8 fa 2b be ff fe d4 3d 65 36 3c be 91 17 8a be
       -0.16794932 0.10400199 -0.18380125 -0.26971105
000010 a1 f8 74 3d 61 4a b5 3d 4d 57 06 3d 3d 96 77 3d
       0.059807424 0.08852077 0.0327981 0.060446013
000020 60 87 74 be 5b 16 48 3e af 1a cb bd 52 ef 60 bd
       -0.23879766 0.19539778 -0.09917199 -0.054915734
000030 2f b5 07 be 9c 95 3d 3d fe a5 43 3e 01 72 a8 be
       -0.1325271 0.046285257 0.1910629 -0.32899478
000040 0c 4d 4d 3e 97 e0 8c 3c b0 9d 74 bd d0 23 1a 3c
       0.20048922 0.017196937 -0.059720695 0.009407952
000050 42 8f 04 be 07 7d 8d be d2 0d 63 bc 62 70 40 3e
       -0.12945274 -0.2763445 -0.0138582755 0.1879287
000060 7a ee da bd d0 e3 b2 be 86 fb 3f 3e 3a a5 eb 3c
       -0.10690017 -0.34939432 0.18748292 0.02876531
000070 2a e4 b5 bd 9d 2f 78 3b 62 d7 27 3c 7f 75 1c be
       -0.088814095 0.0037870177 0.010244222 -0.15279196
000080 f1 fa 04 bd 0b 6b c7 3c 3f 73 28 bc e5 a3 12 be
       -0.03246588 0.024343034 -0.010281383 -0.14320333
000090 95 cc 63 3e 76 88 b9 3d 39 76 e0 bc aa 92 89 3d
       0.2224601 0.09059231 -0.027400123 0.06717427
0000a0 db a5 97 bd 94 5f 07 be b0 d3 89 3d 56 fb 31 be
       -0.07404681 -0.13220054 0.06729829 -0.17381033
0000b0 27 7d 75 bd c4 bc 1f 3c 6f 0d 80 3d ba dc 59 be
       -0.059933808 0.009749595 0.06252562 -0.21275607
0000c0 69 0e ff 3d 1a d6 83 be bc c8 a8 bd 0c 10 b2 3d
       0.124539204 -0.25749284 -0.08241412 0.08694467
0000d0 0b 35 9d be 40 43 c4 3c 1b 37 b6 bb 70 8f 9c 3e
       -0.3070453 0.023957849 -0.0055607683 0.30578184
0000e0 67 01 22 be ce 00 7d bd 94 78 a3 bd 85 71 14 be
       -0.15820847 -0.061768346 -0.07981983 -0.1449643
0000f0 e3 9f 6a 3e 4d 0f 11 be bb 6a f4 3d 2a bb 6c 3e
       0.22912554 -0.14165993 0.1193442 0.23118272
000100 70 e0 91 be eb 1f 65 bd 07 f5 60 3d c3 0d f6 bd
       -0.28491545 -0.055938642 0.054921176 -0.120143436
000110 cc e1 2f be ac 35 55 3c e2 da b7 3d eb f2 75 bb
       -0.17175978 0.013013285 0.089772955 -0.0037528824
000120 00 aa 30 be 0e 93 ef bd 97 4d f7 bc d3 2b 78 3e
       -0.1725235 -0.1169797 -0.030188365 0.24235468
000130 a3 49 90 be 0f e3 07 3e 41 7f 8d be 49 6f 67 3e
       -0.2818118 0.1327021 -0.2763615 0.22601046
000140 eb 70 24 be a2 9f 17 3d 73 fd 85 be a1 94 0d 3e
       -0.160587 0.037017472 -0.2616993 0.13826229
000150 04 17 98 bd e7 09 a9 bd ab b9 e4 bd 80 ed 66 bd
       -0.07426265 -0.08253842 -0.11168226 -0.05637884
000160 79 08 8d be 7d 37 cb bd bf 34 48 be 2c fe a5 bd
       -0.27545527 -0.09922693 -0.19551371 -0.0810512
000170 82 e2 b9 3d 43 94 2d 3e c8 d8 00 be 51 be 03 3d
       0.09076406 0.16951089 -0.12582695 0.03216392
000180 8a a7 12 3d d8 cb 83 be 3a ff 39 3e ce be 90 be
       0.03580431 -0.25741458 0.18163767 -0.28270572
000190 57 c0 c4 3d dc 9f 04 3e 8d e6 e5 bd 55 d4 0a bc
       0.096069984 0.12951607 -0.11225615 -0.008473475
0001a0 64 ee c5 3d f5 df 95 3e 8f d3 63 3c 0d b2 31 3e
       0.0966461 0.29272428 0.01390542 0.17353077
0001b0 8f 46 80 be 15 3d 50 bc 72 f2 85 be 70 a3 79 be
       -0.25053832 -0.012709876 -0.26161534 -0.24378753
0001c0 77 b8 98 bd a4 ad 36 be c7 06 b1 3d 03 b0 6e be
       -0.07457059 -0.17839676 0.08643871 -0.2330933
0001d0 d2 64 6b be 8a 28 37 3e 7c d5 e4 3d b9 02 ae be
       -0.22987679 0.17886558 0.111735314 -0.33986452
0001e0 fe 67 bc 3d 27 fd 0c bc 58 fb 33 be be ee f4 bd
       0.091995224 -0.008605278 -0.17576349 -0.11959599
0001f0 6f 2a 6d 3e e1 e2 e9 bd e5 bb 79 be 46 5c 46 3d
       0.23160718 -0.11420227 -0.24388082 0.048427843

default.encoder.to_out.weight f4 [128, 128]
000000 cd 96 3f bd fc 09 c9 3c be 63 9a bd 13 ab 34 3d
       -0.046774674 0.024540894 -0.075385556 0.04410846
000010 a2 88 46 bc 96 ea 36 3d 9d 54 35 3d e4 2d 41 3d
       -0.012117537 0.044657312 0.044270147 0.047162905
000020 37 ec 42 bd 4d 2e 60 bd d3 c4 9b 3d 4d ce f7 b9
       -0.047588553 -0.054731656 0.076059006 -0.00047265217
000030 c0 e8 83 3c b1 1b d0 bc a3 b3 75 bd db a3 33 3d
       0.016102195 -0.02540383 -0.059985768 0.043857437
000040 4d b2 48 3c 74 8d da 3c 09 9f 7c 3c e7 1e 7c bd
       0.0122495415 0.026678778 0.015418776 -0.06155291
000050 50 b4 13 bd f7 4f 59 3d 16 c7 4c bc 00 f1 9d b9
       -0.03606063 0.053054776 -0.012498638 -0.00030124933
000060 f8 96 58 3d df fd a3 3c 0e 08 99 bd df f8 0e bd
       0.05287835 0.020018516 -0.074722394 -0.03490531
000070 b2 d1 19 3c 64 ef bd bc 6a 3e fc 3c fa d6 ac 3c
       0.009388374 -0.02318544 0.03079148 0.021098603
000080 91 bd 8e bc 47 4e 22 3d 86 b0 d3 39 e5 4e 23 bd
       -0.017424377 0.039625432 0.00040376576 -0.03987016
000090 dd 3e 5c bd 0c 4d 6b 3c ed 4f 9c 3d 06 91 93 3c
       -0.05377089 0.014361631 0.07632432 0.018013489
0000a0 aa 3f 93 3d 43 9d 15 bd 6d 86 4e 3d 22 64 e4 3c
       0.07189877 -0.03652693 0.050421167 0.027879778
0000b0 92 bd 10 bd c6 0b 4c bd b0 f5 82 bc cf fc 5d 3c
       -0.03533704 -0.049815916 -0.015986294 0.013549044
0000c0 e6 03 ee 3c ef 36 ad 3d 02 b3 32 3d a3 ea 05 bd
       0.029054593 0.084577434 0.043627746 -0.03269447
0000d0 3a 7c b0 bd 56 22 2d bd 81 54 17 bd 72 d2 18 3a
       -0.08617444 -0.042269073 -0.036945824 0.00058296986
0000e0 09 26 6c 3d ca 18 a5 bc 40 68 e2 bb 56 31 8c 3d
       0.05765346 -0.020153422 -0.0069094 0.068453476
0000f0 27 f0 a2 bd fc 3a 99 ba 49 b1 bc 3b 94 d2 f2 bc
       -0.07955962 -0.0011690552 0.0057584387 -0.029641427
000100 45 51 83 bd da 8a ed 3c 58 c2 7c bd 78 42 31 bd
       -0.06411985 0.028996874 -0.06170878 -0.04327628
000110 6f 7d 6e bd 37 8b f6 bc a1 68 46 bb 58 5b 73 bd
       -0.05822509 -0.03009568 -0.0030274766 -0.059413284
000120 68 db 7c bd e2 33 37 3c 65 4e c7 3c b2 29 58 3d
       -0.06173268 0.011181803 0.024329374 0.05277414
000130 64 1f 57 bd c3 42 5f bd 77 5d 82 3c ba be 3b bd
       -0.05252017 -0.05450703 0.015913708 -0.045836188
000140 60 0a 9d 3c 94 00 44 bc 7c ea a0 3c 73 22 42 bc
       0.019169986 -0.011963028 0.01964306 -0.011849034
000150 4e 45 32 3d 85 0c 22 3d 28 93 95 3d 41 eb e4 3b
       0.043523125 0.03956272 0.073034585 0.0069860523
000160 a4 3b 0b bc 91 ca 5e bc 02 7d 76 3c e8 70 97 bd
       -0.008498106 -0.0135981 0.015044453 -0.07394582
000170 6c ba 41 bd 3e 22 02 bd c0 ed 6b 3d 16 1c 79 bd
       -0.047296926 -0.031770937 0.057599783 -0.0608178
000180 4b 58 24 3c 35 3a e1 3c 3c be 9a bc 37 72 29 bd
       0.010030816 0.027493576 -0.018889539 -0.04136869
000190 57 82 29 bd 74 52 a4 3d 81 2a 95 3b 6e b6 5f bd
       -0.041384067 0.08023539 0.004552186 -0.054617338
0001a0 8f 95 29 bd b1 9c 88 3d 9e 4e 03 bc 86 5f 7b bb
       -0.041402396 0.066705115 -0.008014349 -0.0038356497
0001b0 ee 01 02 bd 7c 02 90 3d d9 f0 40 bd de 2a 4d 3d
       -0.03174012 0.07031724 -0.04710469 0.05008971
0001c0 b0 c6 ad bd 1b 45 db 3c 52 a4 46 3c 4c 16 97 bd
       -0.08485162 0.02676635 0.012124138 -0.073773
0001d0 2e f2 a6 3d b8 06 50 bc 97 b2 0d bd 4d ba ae bd
       0.08151661 -0.012696914 -0.034594145 -0.08531628
0001e0 c3 1d 83 3d ef 10 95 bb 6d 4f 92 3d 2f 6d 38 bd
       0.06402161 -0.004549138 0.071440555 -0.045026
0001f0 97 10 ac bc af 3e 20 bd f0 b4 3d bd f8 18 ea bc
       -0.021004004 -0.03912228 -0.046315134 -0.02857636
000200 91 3a 62 bb 42 08 37 bd 0d ce ab 3d dd 50 92 bd
       -0.0034519772 -0.04468561 0.083889104 -0.0714433
000210 ea 55 8d 3d 9d 41 85 3d f1 9b 16 bc 49 e9 35 3d
       0.069011524 0.06506655 -0.009192453 0.04441193
000220 a1 51 5a bd 50 96 b4 3c 3f e0 f4 3b c4 2b 7f 3d
       -0.053300504 0.02204433 0.0074730213 0.062297598
000230 65 7a f9 3b 3a 86 82 bd 4f d7 74 bd 1f 91 30 3c
       0.0076134675 -0.06373258 -0.059775647 0.010776787
000240 8c 4a 8d bd 2b d1 a7 3c f4 94 17 3d 85 e8 e0 bc
       -0.06898984 0.020485481 0.037007287 -0.027454624
000250 43 96 3f 3d 42 f9 da 3c a1 a1 26 bd b4 a1 c4 bc
       0.04677416 0.026730184 -0.040681485 -0.024002887
000260 7a d4 59 3d fb 35 c6 3c 9b 13 6f 3d b5 bf ff bc
       0.05318115 0.024195662 0.058368307 -0.031219343
000270 4f c2 91 3b c1 bd d0 3d 26 ea ce 3c 36 57 d5 bc
       0.004448212 0.10192443 0.025258135 -0.026042562
000280 4c bc 3a bd bd 7a 6a 3d b0 9c 63 bd ea f9 a1 3b
       -0.04558973 0.05724596 -0.05556935 0.004943122
000290 95 51 b8 3c 78 cc 23 bd b5 b4 ba bd ad cf 7f 3d
       0.022499839 -0.03998992 -0.091164984 0.062453914
0002a0 27 91 e1 3c 47 5e 71 3d 67 26 b4 3a 3f 72 95 bd
       0.027535034 0.0589278 0.0013744355 -0.07297181
0002b0 f1 54 93 3c d0 a0 95 3d 6c e9 09 3d 9f 2b 9d 3d
       0.01798484 0.07306063 0.033669874 0.07674336
0002c0 65 f6 50 bd e2 d8 5e 3c 6b 56 09 3d d6 9c 0b 3d
       -0.05101623 0.013601514 0.03352968 0.034085117
0002d0 6d a0 1b 3d 33 54 6c bd 79 f7 d9 3c 14 a2 a5 bb
       0.03799479 -0.057697486 0.026607262 -0.0050547216
0002e0 bd 10 46 bd a8 0c 58 bd ca 98 0c 3d 39 ab 83 3d
       -0.048355807 -0.052746445 0.0343254 0.064291425
0002f0 2f e3 1b 3c d5 e8 2a bd d1 56 c0 bc de f9 66 bd
       0.009514614 -0.041725952 -0.023478897 -0.056390636
000300 05 a1 e7 bc f8 97 98 bc 15 86 f9 bc 9e 7f 42 bd
       -0.028275022 -0.018627152 -0.030459443 -0.047484986
000310 a7 74 a1 bc f8 f2 80 bd 15 a6 bb bd aa f0 9e 3d
       -0.019708944 -0.062963426 -0.09162537 0.07760747
000320 7e f4 93 3c da 66 30 bc b9 64 82 bd 1f 5c 85 3c
       0.018060919 -0.010766709 -0.063668676 0.016279278
000330 f5 eb 87 bd 6f 22 8f 3d df 57 4c bd c3 ca 09 bd
       -0.06636802 0.069889896 -0.049888488 -0.033640634
000340 7d fc a1 bd bc 99 80 3d 6f 2e c1 3c 8d 32 00 bd
       -0.079094864 0.062793225 0.023581712 -0.03129821
000350 cc b6 85 bd 2a 39 02 ba f1 3d ab 3d 77 9e 31 bd
       -0.06529006 -0.00049676246 0.08361424 -0.043364014
000360 11 65 43 bc ba 3f 33 bd 6d 16 b5 3c d9 9e 45 3d
       -0.011925952 -0.043761946 0.02210542 0.048247192
000370 08 1f 55 3d 43 f4 82 3d 26 54 86 bc e9 e4 ac 3d
       0.052031547 0.063942455 -0.016397547 0.08442099
000380 96 c6 11 3c 7d 31 33 3c 9a 61 83 3c d1 43 26 3d
       0.008897444 0.010937092 0.016037751 0.04059202
000390 c9 c3 33 bd 65 30 0c bb 77 3d 69 bc aa 33 95 3d
       -0.043887887 -0.002139115 -0.014235846 0.07285245
0003a0 b6 19 82 bd e0 ba f7 39 cc 66 5c bd 4a e2 ab 3d
       -0.0635256 0.00047250744 -0.053808972 0.083927706
0003b0 54 62 d9 bd 89 1a 6e bd 29 7b 59 3d 97 99 13 3d
       -0.10614458 -0.058130775 0.05309597 0.036035147
0003c0 42 25 81 3c 44 b1 7e 3d 55 42 14 3c b6 87 0c bd
       0.015764836 0.062180772 0.009049018 -0.03430911
0003d0 de 97 8a 3d 42 2f 78 3c e1 1a ba 3d f2 80 91 bd
       0.067672476 0.015147986 0.09087158 -0.071046725
0003e0 1d 29 86 3c dd b9 64 3d d2 0a 53 3d ad 65 a4 bd
       0.016377026 0.055841316 0.05152399 -0.080272056
0003f0 30 68 d7 bb 76 10 ec 3c 47 0a 45 bd a3 cb 21 bd
       -0.0065736994 0.028816443 -0.048105504 -0.039500844

default.encoder.to_out.bias f4 [128]
000000 b1 49 2f 3c c5 69 0f 3d fb 8e 5d bd 45 e4 a9 3d
       0.010698722 0.03501298 -0.054091435 0.08295492
000010 0d d7 e7 bd 1d 0a b9 bd ae 77 2d be 16 a0 b4 3c
       -0.113203146 -0.09035132 -0.16940185 0.022048991
000020 71 31 ac 3d d9 53 91 3d d2 65 60 3d d6 5d d4 bd
       0.08407868 0.07096071 0.054784603 -0.1036946
000030 f0 2c 92 bd 07 b8 67 3d 87 a8 98 3d 6d 2a c3 bd
       -0.071374774 0.056571987 0.07454019 -0.095295765
000040 2d 0a 54 bd 12 87 0c bc ad b2 c4 3d 2c 1e ff bd
       -0.051767517 -0.008577125 0.09604392 -0.12456927
000050 08 33 45 3e cf 83 53 bd f3 60 16 3e d0 7a 31 3d
       0.19257748 -0.051639374 0.1468542 0.043330014
000060 3e 66 85 3d 55 9d fa 3d 08 9e 50 bd 84 38 b9 bd
       0.06513642 0.1223704 -0.05093196 -0.090439826
000070 65 5d ce bd 84 aa 19 bd 4d 12 05 3e 29 32 24 3d
       -0.10076407 -0.037516132 0.12995262 0.0400869
000080 b2 89 e8 bc 10 17 52 3c 72 e9 e2 bc 55 59 a4 bd
       -0.02838597 0.012822881 -0.027699206 -0.08024851
000090 40 a0 67 3c 12 58 dd 3c b6 60 1f bd ce d9 36 3c
       0.014137328 0.027019534 -0.03891059 0.011160327
0000a0 19 48 a6 bd de d0 2a bd d4 7a a4 bd d5 58 0d be
       -0.0811922 -0.041703098 -0.0803124 -0.13803418
0000b0 03 ff bc bd 12 75 ac 3a 51 a3 14 3d 1c 49 87 3d
       -0.09228327 0.0013157448 0.036288563 0.066057414
0000c0 9b 0c 63 bc 9b 30 84 bd 5f 13 65 bd 3c 5d a8 bd
       -0.013857986 -0.06454583 -0.055926677 -0.08220908
0000d0 0c 47 32 be ae b1 0a be f8 93 e8 bb 7d 9f f4 3c
       -0.17409915 -0.13544342 -0.0070977174 0.029861206
0000e0 1b 52 45 3c 09 b3 99 bb cf 50 e8 3d 0b 31 30 bd
       0.012043501 -0.004690532 0.11343538 -0.04301552
0000f0 fc 74 08 bd 3e 92 c8 3c 4a 51 56 3c b0 f9 96 bd
       -0.03331469 0.024483796 0.013080904 -0.07371843
000100 08 d6 97 ba 36 d2 d5 bc 14 6d 0e 3e 67 70 61 3d
       -0.0011584172 -0.026101213 0.13908798 0.055038836
000110 95 3d f6 3b 7e 62 bf 3d 84 ea 94 bd 49 ca 0a be
       0.0075146654 0.09344958 -0.07271293 -0.13553728
000120 c6 b7 50 bc 7b 14 93 3d 56 7e e7 bc 1c 2c d9 bd
       -0.0127391275 0.07181641 -0.028258484 -0.10604116
000130 14 fe 15 bd 9e eb 15 be f4 b8 0c bd fa 4f 81 bc
       -0.03661926 -0.14640662 -0.034356073 -0.015785206
000140 32 9a cb 3c 70 e5 ac ba bb 31 f6 bc de 3d 3a be
       0.0248538 -0.0013190936 -0.03005301 -0.18187663
000150 c5 00 57 3c 2f c0 dd 3d 20 e4 42 3d 14 7a a5 3d
       0.013122742 0.10827672 0.04758084 0.08079925
000160 b8 34 34 bd e2 4d 1f 3d 6d ff ba bc ac 2d 82 3d
       -0.04399559 0.038892634 -0.022826875 0.063563675
000170 fc 3e 44 3e 00 5d 9e 3d 97 fc 18 bc 6b 20 14 3c
       0.19164652 0.07732582 -0.009337566 0.009040932
000180 13 ab bd 3d 45 a4 b4 3b 73 bf 51 3e 7d 29 15 bc
       0.092611454 0.0055127465 0.20483188 -0.00910413
000190 10 26 ca bc 09 bf cc 3d d2 9a 06 3d 42 c1 cf bd
       -0.024676353 0.099973746 0.032862492 -0.10144283
0001a0 4e 38 cd bd a7 43 41 3d 66 ce 3e 3d a5 00 45 3d
       -0.10020505 0.04718366 0.046583556 0.048096318
0001b0 56 7b 44 3d a9 8e 1f 3d 6a 6f 13 be cd e7 c1 bd
       0.047969185 0.03895441 -0.1439797 -0.094680406
0001c0 81 3f 4c 3b f9 5e bb 3d d3 d3 38 3d 1a b4 ac bd
       0.003116578 0.09148974 0.045123886 -0.08432789
0001d0 8e 90 1d bd ad 9f 00 bd 59 72 d2 3d 69 bf b6 3d
       -0.038467936 -0.03140228 0.10275716 0.08923227
0001e0 27 a6 bb 3c 6c dd e8 bd d5 a9 b7 bc 1e 36 e2 3c
       0.022906376 -0.11370358 -0.02241985 0.027613696
0001f0 c8 d4 14 3e 8c 75 ec bd 91 de 78 3b ad b4 f3 bd
       0.14534295 -0.11545858 0.0037974457 -0.118996955

default.mean_encoder.weight f4 [10, 128]
000000 e0 db 9b bb ed e4 12 3c ba e6 1f bb 0e 84 04 ba
       -0.0047564358 0.008965713 -0.0024398998 -0.0005055078
000010 18 76 16 bc be 21 22 3c 12 e6 64 3c 0f 34 a3 3b
       -0.009183429 0.00989574 0.013970869 0.004980571
000020 5e 0d 35 3c 34 56 e1 ba db 77 84 3b d7 cb d9 bc
       0.01105055 -0.0017191828 0.004042608 -0.026586456
000030 18 22 c1 ba df 85 a7 3b 33 37 5c bc ca fd 3b 3a
       -0.0014734892 0.005112394 -0.013440895 0.00071713014
000040 c1 ac d4 3b 56 d1 6d bc a9 69 cc 3b e4 9f 94 bc
       0.0064903204 -0.014515242 0.0062381816 -0.018142648
000050 1d bf 46 3c 0c 2b 3b bd ef 6e 0c 3c 19 0f 2b 3d
       0.012130526 -0.04569535 0.0085713705 0.041762445
000060 f1 51 45 3b 7d 88 b2 bc 1f 33 04 3d 00 93 46 bb
       0.0030108655 -0.021793598 0.032275315 -0.0030300021
000070 a3 0a 47 3c 82 73 dc 3c 52 9c 00 3c 0c c5 30 3d
       0.012148532 0.026910547 0.00784977 0.04315667
000080 e4 da 45 3c ac 3f ec bb da 41 5f bd 0f 74 43 bc
       0.012076113 -0.0072097387 -0.05450616 -0.011929526
000090 b2 2d 3b bc 0c a5 16 3d ab 3f e8 bb 4b 42 8c bb
       -0.011424469 0.036778495 -0.007087668 -0.0042803637
0000a0 75 6a 27 bc 07 ea a6 bc bf 4d 47 bc f0 93 89 3c
       -0.010218252 -0.020375265 -0.012164532 0.016794175
0000b0 b0 e5 a8 3a 55 86 92 3c 75 bd 80 bd 3c b5 73 3b
       0.0012885835 0.01788632 -0.06286136 0.0037186882
0000c0 a0 24 a1 bb e7 f4 81 bc d3 29 04 bb 8f 74 ab 3b
       -0.004917696 -0.015863849 -0.002016653 0.0052324007
0000d0 96 b2 76 ba 73 f3 89 3c 27 6d 91 3c 73 60 d0 ba
       -0.00094107667 0.016839718 0.017752243 -0.0015897885
0000e0 90 02 58 3c 0a 77 89 bb f6 0f c3 bc f9 2b 92 bb
       0.013184205 -0.0041950988 -0.023811322 -0.0044608084
0000f0 9f 97 ca 3b 5c ae f1 3a 3d 66 43 3d d4 58 15 bb
       0.0061826254 0.0018438804 0.047704924 -0.0022788541
000100 29 0b a8 3b 1d 19 73 3c 05 6c db bc ec e3 6b 3b
       0.0051282835 0.01483753 -0.026784906 0.0035994006
000110 76 f7 96 3c 23 4c 55 3d ff 6e d5 bc f9 47 74 bb
       0.018428545 0.052074563 -0.026053904 -0.0037274344
000120 bb 6b 01 bc 17 f2 6c 3d 43 24 a5 bb a4 0b a8 3c
       -0.00789922 0.057848062 -0.005039723 0.020513363
000130 29 5a c5 3c 9d 0e 82 3d e1 5a 90 bb 28 7f 31 bc
       0.024090843 0.063504435 -0.004405365 -0.010833539
000140 32 f8 3b 3d cd 91 ef bc 82 cf b1 bb 8f dd fa 3a
       0.045890994 -0.029244328 -0.005426348 0.0019139516
000150 5e 17 50 bb 66 47 4a bb d2 ff b7 3c c8 96 e1 3c
       -0.003175221 -0.003086531 0.022460852 0.027537718
000160 41 9f a8 ba 96 e5 20 bc e9 04 9e 3b 34 2f 21 3b
       -0.0012864844 -0.009820363 0.0048223627 0.0024594786
000170 85 4e 5c bd 45 ba ad 3d bb bd b9 bc db 17 61 3d
       -0.05378582 0.08482794 -0.022673478 0.05495439
000180 a5 c1 a9 bd 50 56 1a bc ef 0d 43 bc 0d cc 33 bb
       -0.08288888 -0.009419993 -0.0119051775 -0.0027434856
000190 3e 18 2f bc e0 2a 60 3c f6 ab f4 3c 2d ee 05 3b
       -0.010686932 0.013682097 0.029867154 0.0020436153
0001a0 ec 78 89 bc 70 b3 c2 3c ca 43 04 bd 38 55 25 3b
       -0.016781293 0.023767203 -0.03229121 0.0025227796
0001b0 d6 e4 e2 3a eb 5e ff 3b 5f 82 95 bd 0f fd 3e bd
       0.001731063 0.0077932975 -0.07300257 -0.046628054
0001c0 03 4b 5e bd f9 bc 88 3c da 10 2b bb bc b9 f7 3b
       -0.054270755 0.016691672 -0.0026102574 0.007559983
0001d0 79 b4 ab 3c 7f 83 9b bc 04 17 1f 3d 52 a6 b7 3c
       0.02096008 -0.0189836 0.03884031 0.022418175
0001e0 31 97 9f 3c 05 d9 8e bc 76 38 53 3b 6c 57 52 3c
       0.019481273 -0.017437467 0.0032229698 0.012838226
0001f0 13 eb e4 3c 52 f0 45 bb 8d bc df bc 52 32 19 bd
       0.027944123 -0.0030203057 -0.027311588 -0.037401505
000200 73 7b 63 bb d6 bd 68 bc df 5b 8a bb 69 f0 63 3c
       -0.0034711033 -0.014205417 -0.0042223777 0.013912299
000210 e5 36 72 3c 5d a1 d8 bc 76 94 03 bb 46 e5 44 bc
       0.014783596 -0.026444132 -0.0020077503 -0.012017554
000220 8f b0 38 3c fb 4e 93 bb f7 83 60 bc 5d 30 6e bb
       0.011272564 -0.004495499 -0.013703338 -0.0036344745
000230 af d6 a1 bc b4 ec 02 3c 0c 0b 44 bb 2f c7 d0 bb
       -0.01975569 0.007991005 -0.002991381 -0.006371401
000240 a5 0a 0f 3b ef 5a 32 bc 94 6d 79 3c d0 f5 88 3a
       0.0021826413 -0.010885938 0.015223879 0.0010449234
000250 14 b9 7e bc 57 1e 4d b9 c1 d8 76 3c 4f 65 66 bb
       -0.015547056 -0.00019561626 0.015066327 -0.00351556
000260 6a 31 8c bc f2 f6 a6 bb 25 58 61 3c cf 83 01 3c
       -0.017113406 -0.005095356 0.013753925 0.007904961
000270 6d da 54 3b 70 ba 62 3c 68 61 f3 bb 91 3e 3d 3c
       0.0032478825 0.0138383955 -0.007427383 0.0115505615
000280 3c c1 7f bb 40 f0 4d 3c 5f 71 04 3c 04 aa ee 3a
       -0.0039025089 0.012569487 0.00808367 0.0018208628
000290 ea 23 39 3c 75 33 46 3c ae 72 e5 bb c9 ff 00 bb
       0.0113000665 0.012097229 -0.0070021963 -0.001968371
0002a0 ed 70 13 bc 48 07 14 bb 3d 3a 79 bc f1 26 ec 3c
       -0.008999092 -0.0022587348 -0.015211639 0.028827162
0002b0 e8 49 5f bc bd da 41 3b e4 66 38 bc 7b 40 4f 3c
       -0.0136284605 0.002957984 -0.011255 0.012649651
0002c0 3f b7 86 3c 86 3e 27 3c 5c 8b 32 bb 29 c0 a0 ba
       0.0164448 0.010207778 -0.002724371 -0.00122643
0002d0 3f 30 bd 3c 8c 87 ec 3c 01 8c 0a 3c a7 d3 8e bc
       0.023094295 0.028873228 0.008456231 -0.017434908
0002e0 95 67 58 bb 8e 46 3d bc f1 2e b9 3c 69 9b 04 bc
       -0.0033020724 -0.011552466 0.022605391 -0.008093693
0002f0 ce 72 8b bc c7 62 80 bc 80 b4 8d 3b 12 3c 2f 3b
       -0.017022517 -0.0156721 0.004324496 0.0026738686
000300 91 b4 07 3b 1f c6 97 bb 90 b8 39 bb 55 46 21 bc
       0.0020706991 -0.004631772 -0.0028338768 -0.009843429
000310 f8 05 bf ba cc 48 af bb 1e d0 23 ba 33 2c 24 3c
       -0.0014573922 -0.0053492542 -0.00062489684 0.010020304
000320 66 0f 6b ba 63 8e ce bc e9 5f 32 3b ea b7 0b bb
       -0.0008966833 -0.02521438 0.0027217811 -0.0021319338
000330 18 0c 30 3b 21 e3 90 bc 15 fc bf ba 1a 49 ab 3c
       0.0026862677 -0.017686429 -0.001464727 0.020908881
000340 f6 0d d0 3a b5 dd 27 bc 7a 95 63 3c c0 72 ad ba
       0.0015873301 -0.01024573 0.013890618 -0.0013233051
000350 e1 7e 8d 3a aa e4 ce 3b 40 c3 24 bc c1 4f 3f ba
       0.0010795259 0.00631388 -0.010056317 -0.0007297956
000360 50 68 ff 3b 3a 53 01 3a b2 d0 db 3b 53 d8 99 bb
       0.0077944174 0.0004933361 0.006708228 -0.0046949773
000370 3a 1c 0c bc a1 ce b3 3b 82 6e 6e b9 5e 78 45 bc
       -0.008551652 0.0054872786 -0.00022738616 -0.012052624
000380 35 6a 47 3c 32 0f ce 3c c2 67 4d ba 5d fd 75 bb
       0.012171318 0.02515373 -0.00078355905 -0.003753505
000390 9f bd 83 3c 7b e6 0b bc ce f9 18 3b 9b 98 2e 3c
       0.01608163 -0.008538838 0.0023342255 0.010656501
0003a0 1a ae 97 3b 2f 92 b6 3b 5c f0 9d 3a 35 36 17 3b
       0.004628909 0.0055716257 0.0012049782 0.0023073081
0003b0 f7 2f 95 3c a3 c5 e0 3b c7 65 d0 3c 59 44 29 3c
       0.018211348 0.0068594976 0.025439156 0.010331237
0003c0 e6 c8 c5 bc fa f7 65 3b 63 37 d6 bc 9a 12 3e 3c
       -0.024143647 0.0035090433 -0.026149457 0.011601115
0003d0 c6 f9 62 3b 45 aa a3 3b 70 17 dd 3b f6 cb 4a bc
       0.003463374 0.004994663 0.0067471787 -0.01237773
0003e0 02 c1 fe 3b b1 3c d9 ba 50 c6 1e 3c 06 b7 f8 bb
       0.007774473 -0.0016573874 0.009690836 -0.0075901775
0003f0 98 06 a8 3c 49 7d 48 3c 2b 18 f3 bb ef 10 e7 3b
       0.020510957 0.012236902 -0.0074186525 0.007051579

default.mean_encoder.bias f4 [10]
000000 06 3c c1 3d ff 67 61 3d bf 69 1f 3d a2 5f 88 bb
       0.09435277 0.05503082 0.038919207 -0.004161791
000010 08 61 b8 bc d7 9b bd bc f6 56 c4 3b 59 c5 3a 3d
       -0.022507206 -0.0231456 0.005991812 0.04559836
000020 e1 c0 22 3d d5 a1 ef 3d
       0.039734725 0.11700789

default.var_encoder.weight f4 [10, 128]
000000 1e 61 50 bc bf 9e 3a bd 4b f0 91 bc 86 39 06 bc
       -0.012718467 -0.04556155 -0.017814776 -0.008192426
000010 a2 49 4c 3c 6c 4c 1f 3c fc f2 0b 3d 64 84 a4 bc
       0.012468727 0.00972281 0.034167275 -0.02008266
000020 ed ff 50 3b ab 01 17 3c 8e 36 a2 bc a9 90 55 3d
       0.0031890825 0.009216706 -0.019801404 0.05213991
000030 26 02 83 3c e1 79 93 bc 9a 3a 84 bb 6a 77 17 bb
       0.015992235 -0.018002452 -0.004035306 -0.0023111948
000040 d5 fd f9 3c d5 3c 15 3c 7a 07 cd bb 0f 24 95 3d
       0.030516544 0.009108742 -0.006256995 0.07282268
000050 4f 91 1a bd d8 bb cf 3c ca 91 5f bc 7a db ae bc
       -0.037736233 0.025358126 -0.013645599 -0.021344889
000060 d8 36 b7 bc 25 24 79 bc 3e ef a0 3c 17 5f d0 bb
       -0.022365019 -0.015206371 0.01964533 -0.006358992
000070 62 20 a8 3c 65 96 38 3d 66 7e d3 bc 37 da 3e 3d
       0.020523254 0.045065302 -0.025817107 0.046594825
000080 64 fb 5e 3c bb a2 5c 3c 92 a9 a3 bb 34 7b a3 3b
       0.013609741 0.013466532 -0.0049945796 0.004989052
000090 d2 88 c4 bc 5e 95 00 bc 4b 85 8e bc 95 99 18 3b
       -0.023991022 -0.007848112 -0.017397543 0.0023284901
0000a0 83 a1 bb 3c 5b 40 59 3c a4 2a 96 3b be da 5e 3d
       0.022904163 0.013259972 0.00458272 0.054407828
0000b0 b1 66 e2 bc e9 d0 9a 3c fc e0 3d 3d 07 05 69 3c
       -0.027636858 0.018898444 0.04635714 0.01422239
0000c0 45 44 c3 bc f1 61 1c 3d f1 5b 1b 3c ed 7b bf 3c
       -0.023836264 0.03817934 0.00948237 0.023374522
0000d0 c8 af 5e 3d 64 2c a8 3c bb e5 0e 3d 8e d5 ab bc
       0.054366857 0.02052898 0.034887057 -0.020975854
0000e0 c1 3b 3a 3b 4b c0 0a bc 39 71 94 bd 23 e5 c8 3b
       0.0028416964 -0.008468698 -0.07248158 0.006130831
0000f0 ae c4 77 3a 97 09 f0 3a 3c eb 32 bd 81 ac cb 3c
       0.000945161 0.0018313405 -0.04368137 0.02486253
000100 3d f2 8c 3c 14 55 0f 3d 4b 69 ed bd 7a aa 92 bc
       0.017205352 0.034993246 -0.11592349 -0.017903555
000110 63 4a de bb 4f 54 1c bc b6 e7 24 3c f0 85 51 3d
       -0.00678377 -0.009541585 0.01006501 0.051153123
000120 fd 08 5b 3b 66 08 99 bd b9 f3 d1 3b ec bf f0 3c
       0.0033422105 -0.07472305 0.006407228 0.02938839
000130 4b b3 27 bd b3 39 9c 3d 2a 45 62 bc 07 3e 8a 3c
       -0.04094247 0.07628193 -0.013810435 0.01687528
000140 72 cd 9c bc a1 1e 98 3c 36 c0 53 bc 7a 24 6c 3d
       -0.019140933 0.018569293 -0.012924245 0.057651974
000150 64 0c f6 bb 4b 95 56 3b fd 5a 64 bd ae cc 21 bd
       -0.0075088013 0.0032742794 -0.055750836 -0.03950184
000160 e3 f5 f7 3a df 07 83 bc d3 71 73 3c 89 f3 71 bc
       0.0018917884 -0.015994964 0.014858681 -0.014767536
000170 03 89 a0 bd a0 8c 42 3d c1 bf 64 3d 6b 47 cc 39
       -0.07838633 0.04749739 0.055846933 0.00038963123
000180 6d e1 06 bd 9b f2 da 3b a5 47 79 bd 0c a1 8b ba
       -0.032929827 0.006681753 -0.06085934 -0.0010652854
000190 d2 fd df b9 e3 2b 29 bd 9a 35 82 ba 56 ab df 3b
       -0.00042722985 -0.04130162 -0.0009934187 0.0068258448
0001a0 87 7b 52 3c 99 11 0d 3d 80 e7 cc bc 3c 4b 08 3d
       0.012846834 0.03444061 -0.025012732 0.033274874
0001b0 c6 33 03 bc 81 02 7f 3c 31 34 c4 3d ca 68 2d 3d
       -0.008007949 0.015564562 0.09580267 0.042336263
0001c0 a0 df 69 bc 95 d0 69 bc 78 c2 e6 bc 6b 53 bc 3c
       -0.014274508 -0.014270921 -0.028168902 0.022988996
0001d0 24 b5 08 3d 6a 61 ed 3c 8a 54 df ba 8f 87 38 3c
       0.033375874 0.028977115 -0.0017038744 0.011262788
0001e0 e5 60 14 bd fb 70 f7 3c 3c 4b ff ba 59 fc d1 bc
       -0.03622522 0.03020524 -0.0019477378 -0.025633024
0001f0 23 42 0c bd 73 2a 1a 3d 27 26 0b bd f0 a9 12 3d
       -0.03424276 0.03763814 -0.03397193 0.035806596
000200 c3 6f a5 3a ca 50 9c 3b 5e e1 f0 3b bd 54 c6 3b
       0.0012621809 0.004770373 0.0073510846 0.006052582
000210 38 30 95 bc 48 05 d0 bc dc a2 96 bb 7c 8b b7 3b
       -0.018211469 -0.025393143 -0.004597051 0.0056013446
000220 c5 4e 09 3c 9a fa 52 3c d8 24 44 bb c3 72 8f bb
       0.0083805965 0.012877131 -0.0029929187 -0.0043776943
000230 f9 d7 0b 3b a8 a4 b2 3b ff c3 e2 bb 5c 82 4a bc
       0.0021338447 0.0054517575 -0.006920337 -0.012360182
000240 fa 19 8f bc 47 d8 17 3c b6 41 60 3b e7 7c ca bb
       -0.017468441 0.009267873 0.0034218854 -0.0061794403
000250 3f c5 2a bc ae ec 63 bc f7 2d 81 ba 24 ef ac 3c
       -0.010423004 -0.013911409 -0.0009855618 0.021110125
000260 34 5e 4f 3c 0b b6 71 3a 65 b9 8f 3b cb 37 61 3c
       0.012656737 0.0009220547 0.0043861144 0.013746212
000270 78 82 c7 b9 57 3b 5d bc cf 13 65 bc 95 e4 9b 3c
       -0.00038053445 -0.013502917 -0.0139817735 0.019029895
000280 bf 9b a4 3b 9b 41 8e bc 59 2d b1 bc cc 67 35 bc
       0.005023449 -0.017365268 -0.021628069 -0.01107211
000290 0a 40 cf bc f1 54 42 3c 8e 80 26 bc 3e 3e b7 3b
       -0.02529909 0.011861072 -0.010162486 0.0055921366
0002a0 09 d9 b9 ba 15 67 07 3c 18 dd b6 bc e0 fd bf bc
       -0.0014179061 0.008264323 -0.022322223 -0.023436487
0002b0 8f 3f 5f 3a 6e b6 f3 bb ab 14 08 ba 62 3b 99 3b
       0.0008516246 -0.007437519 -0.0005191068 0.0046762684
0002c0 80 9e a3 3a 43 cf 8b bc 1f 2a 82 3b 51 00 67 3c
       0.001248315 -0.017066604 0.0039723064 0.0140991965
0002d0 aa 63 67 bc 2e 55 a3 bb 94 7d 3c bc 77 32 ed bb
       -0.014122883 -0.0049845194 -0.0115045495 -0.007238682
0002e0 99 65 d1 3b ec a4 d8 b8 27 c3 92 bc a2 11 9f 3b
       0.006390285 -0.00010330402 -0.017915322 0.004854397
0002f0 6f fa 8c 3a 99 d1 69 bb 7a 41 dc bc 67 42 04 3c
       0.0010755787 -0.0035677908 -0.02688669 0.008072472
000300 23 d1 37 bc 10 8a 1e bb dc a8 09 bd 30 95 bb bb
       -0.011219296 -0.0024191178 -0.033608302 -0.0057245716
000310 e1 5c 56 bc 05 65 5c 3c 63 2a a7 3c 6c 19 69 3b
       -0.0130836675 0.013451819 0.020405954 0.003556813
000320 a0 60 fb 3c 27 99 b0 3c ec b4 d0 b9 5b f8 1e bc
       0.030685723 0.021557404 -0.0003980765 -0.009702767
000330 4c 8f 33 3c c7 dc 59 bc b2 8e a9 3b 72 09 35 bc
       0.010959458 -0.013297266 0.0051744813 -0.011049615
000340 54 9d b4 3b 40 fa 65 bc cc 44 e8 bb 5f d7 35 bc
       0.005511919 -0.014036715 -0.0070882794 -0.011098712
000350 ac e5 90 bc 63 c7 93 bb 29 e7 60 3c 07 d4 ce bb
       -0.017687641 -0.0045098527 0.013726988 -0.0063118967
000360 8d d4 83 3c 9a ba d7 bb ab e8 d4 3c b0 db 26 3b
       0.016092563 -0.006583524 0.025989851 0.0025460534
000370 2d 06 f3 3c 7b d9 60 3c 0c e5 8e bc fa 3e 1f bb
       0.02966603 0.013723726 -0.017443202 -0.0024299012
000380 9c a9 5a bc 85 18 b4 bc 22 92 0f 3b 45 a1 af 3b
       -0.013346102 -0.021984348 0.002190717 0.005359801
000390 93 76 82 3c d3 b8 5d 3c 2e 84 f7 ba da c4 a0 bc
       0.015925681 0.013532835 -0.0018883997 -0.019625116
0003a0 a6 5d 10 bb ac 77 29 3c 5f 47 52 3b 5d 3c 2d 3c
       -0.0022028475 0.010343473 0.0032085998 0.010573474
0003b0 6d 51 f3 3b 66 c7 42 3b 0a 24 4d 3c a9 aa 93 3b
       0.007425478 0.0029720902 0.012520799 0.0045064283
0003c0 84 24 dd bc 90 ad c8 3c 5e 25 cc 3a 13 da 77 3c
       -0.026994951 0.024496824 0.0015575101 0.015127677
0003d0 e0 d5 1c bc 48 23 1b bc c9 6f 10 bc a4 c6 68 bc
       -0.009572476 -0.009468861 -0.008815714 -0.014207516
0003e0 e3 4d df b9 93 45 c9 3a 78 58 05 3c e0 47 11 bc
       -0.00042591905 0.0015355818 0.008138768 -0.008867234
0003f0 24 0f 7a 3c 93 14 4c bc 18 18 d0 bc 88 c3 4b bc
       0.015262399 -0.012456077 -0.025402114 -0.012436755

default.var_encoder.bias f4 [10]
000000 e1 63 6c be 26 67 58 bd 82 7d 1d bc 60 e0 f0 3c
       -0.23084976 -0.052832745 -0.009612443 0.029403865
000010 ad e9 04 bd 26 73 cb bc 2f 6a 90 3d db e8 8e bd
       -0.032449413 -0.02483518 0.07051503 -0.069780074
000020 2f 5c 17 3d 5a 76 35 be
       0.036953148 -0.17720929
