models/mnist-relaxed1E/encoder_z1_7269980700541562054.pt (torch_old, 516075 bytes, 14 tensors)

default.encoder_cv.0.weight f4 [32, 1, 3, 3]
0	0xbe821ea3	-0.25414
1	0x3de23c84	0.11046699
2	0xbea17b67	-0.3153946
3	0xbbe9d53b	-0.0071360148
4	0x3ddf1a20	0.10893655
5	0x3e86a21b	0.26295552
6	0x3d3e2140	0.04641843
7	0xbe835830	-0.2565322
8	0xbc4ab792	-0.012372868
9	0xbeae6462	-0.3406096
10	0xbe803c85	-0.25046173
11	0xbe8e998a	-0.27851516
12	0xbd924285	-0.07141594
13	0xbd80861f	-0.062755816
14	0xbe15024e	-0.1455166
15	0xbc787c3e	-0.01516634
16	0x3e40ca68	0.18827212
17	0xbe6feeff	-0.23431014
18	0xbe9ede9b	-0.3102921
19	0xbed66830	-0.41876364
20	0xbecf2be1	-0.40463164
21	0xbe6adf3b	-0.22936718
22	0xbe7ed5a7	-0.2488619
23	0xbe12fcc6	-0.14354238
24	0xbc992a54	-0.018696941
25	0x3e900776	0.28130692
26	0xbe42a5b0	-0.19008517
27	0x3d00cfb7	0.031448092
28	0x3e937cc1	0.28806117
29	0xbe26d269	-0.16291203
30	0x3dcc250b	0.09968003
31	0xbd80e79a	-0.062941745
32	0x3e3d7b43	0.18504052
33	0xbe9a4082	-0.3012734
34	0xbdeae534	-0.11469498
35	0x3e75b8f8	0.23996341
36	0xbe212793	-0.15737753
37	0xbe65373e	-0.22384354
38	0x3e30e6c3	0.17275529
39	0xbea1ff79	-0.31640223
40	0x3e8aa1ce	0.27076572
41	0xbe087b33	-0.13328247
42	0xbe99955e	-0.2999677
43	0xbe2da017	-0.169556
44	0xbe164e07	-0.14678203
45	0x3de00814	0.10939041
46	0x3ea95b15	0.33077303
47	0xbe08ca43	-0.13358407
48	0xbe81c51a	-0.2534569
49	0xbde12799	-0.10993881
50	0x3dfe7fc6	0.124267146
51	0x3e6e3daa	0.2326571
52	0xbe8c9624	-0.27458298
53	0xbeaa89ce	-0.33308262
54	0xbea979ff	-0.33100888
55	0x3d489df8	0.048978776
56	0x3e215a99	0.15757217
57	0xbe8dd9e0	-0.27705288
58	0x3e136301	0.14393236
59	0xbe073c77	-0.1320666
60	0x3e40d9e0	0.18833113
61	0xbe6952e2	-0.22785524
62	0xbe2ffab1	-0.17185475
63	0x3e2a561c	0.1663441
64	0x3aa7d080	0.0012803227
65	0x3e5c96de	0.21541926
66	0xbd020da5	-0.031751294
67	0x3e70f12f	0.23529504
68	0x3d8adf8d	0.0678092
69	0x3e0a3f44	0.13500696
70	0x3ebc4d42	0.36777693
71	0xbd3ad1ad	-0.04561012
72	0x3d15b367	0.036548045
73	0x3dc14034	0.09436074
74	0x3e1749ba	0.14774218
75	0x3d7f9ee1	0.062407378
76	0x3dc61929	0.09672768
77	0xbd83ce9d	-0.06435893
78	0xbe729087	-0.23687945
79	0xbe73f115	-0.23822434
80	0xbe884fa9	-0.26623276
81	0xbcba1aed	-0.022717917
82	0x3dc03b7e	0.09386347
83	0xbe7663ae	-0.24061462
84	0xbe6e94df	-0.23298977
85	0xbd751ed5	-0.059843857
86	0x3d7065f3	0.058690976
87	0x3e834c42	0.25644118
88	0x3ec03244	0.3753835
89	0x3da719f8	0.0815925
90	0x3d5fcaa6	0.05463662
91	0x3e26e143	0.16296868
92	0xbc0c9225	-0.008579765
93	0x3ce7c982	0.028294329
94	0xbd538043	-0.05163599
95	0xbe21b705	-0.15792473
96	0x3e4b18a1	0.19833614
97	0x3ec23f13	0.37938747
98	0x3d1540b0	0.036438644
99	0xbeb288bd	-0.34869948
100	0x3e105891	0.14096285
101	0xbd6eec3b	-0.058330756
102	0xbe9c661e	-0.3054666
103	0xbc2f66d4	-0.0107056685
104	0x3dc3459f	0.095347635
105	0xbe32ef95	-0.17474206
106	0xbe8d578f	-0.27605864
107	0x3eb3c329	0.35109833
108	0x3e6155f0	0.22005439
109	0xbd043048	-0.032272607
110	0x3e342204	0.17591101
111	0xbd4d2105	-0.050080318
112	0x3e8e45e6	0.27787703
113	0x3ed0cbe7	0.40780565
114	0x3e374ac7	0.17899619
115	0x3d5f2033	0.054474067
116	0xbe5b0509	-0.2138864
117	0xbe94105e	-0.28918737
118	0x3ed0ab58	0.40755725
119	0x3ea32d15	0.31870332
120	0x3e2b8d4d	0.1675312
121	0xbe55fe90	-0.20897889
122	0x3ed65d6f	0.4186816
123	0x3da1a21a	0.078922465
124	0x3ec0439e	0.37551588
125	0x3c85a364	0.016313262
126	0x3eb07458	0.34463763
127	0x3e81a5a3	0.25321683
128	0xbdb84400	-0.08997345
129	0x3b2ed446	0.0026676818
130	0xbe4d2961	-0.20035316
131	0x3cd62160	0.026138961
132	0xbda52eb7	-0.08065551
133	0x3ea20212	0.31642205
134	0x3ea8eb96	0.32992238
135	0xbe90748d	-0.2821392
136	0x3dd5cd81	0.104395874
137	0x3be3cd5e	0.006951972
138	0xbe2c2c12	-0.16813686
139	0x3e742198	0.2384094
140	0xbe966dcd	-0.29380646
141	0x3e2fa028	0.17150939
142	0xbe58de62	-0.21178582
143	0xbec46cce	-0.3836426
144	0xbc40f45a	-0.011777008
145	0x3cb70126	0.022339415
146	0x3e5f1fc8	0.21789467
147	0x3e12a57d	0.14320941
148	0xbe21cd33	-0.15800934
149	0xbe40ebe3	-0.18839984
150	0x3eb2eec6	0.34947795
151	0x3eac1afb	0.33614334
152	0x3e95edcf	0.29282996
153	0xbdb6e273	-0.089299105
154	0xbe8e1ea1	-0.27757743
155	0x3e806d81	0.25083545
156	0xbe8a1266	-0.26967162
157	0x3d534058	0.051575035
158	0x3e218530	0.15773463
159	0xbeb0de55	-0.34544626
160	0x3e8fc250	0.28077936
161	0x3e6ea592	0.23305348
162	0xbc211b7c	-0.009833213
163	0xbe9aebea	-0.30258113
164	0xbdb2dad3	-0.08733144
165	0x3cf71bbc	0.030164592
166	0x3e483814	0.19552642
167	0xbdef1dff	-0.11675643
168	0x3dc736b8	0.09727234
169	0xbe3108e8	-0.17288554
170	0xbea91a7a	-0.33028013
171	0x3d9cb460	0.07651591
172	0xbe06bd6e	-0.13158199
173	0xbe3687fb	-0.1782531
174	0x3d974899	0.07386894
175	0xbe9c9e7b	-0.3058966
176	0xbe120d79	-0.14262952
177	0x3c23ef73	0.01000582
178	0xbe600214	-0.21875793
179	0x3e994d93	0.29941997
180	0x3e9d7b03	0.30757913
181	0x3e30a1be	0.172492
182	0xbe82bc56	-0.25534314
183	0x3df3ff9f	0.1191399
184	0xbe363e70	-0.17797256
185	0x3df0c6a8	0.11756641
186	0xbeb50711	-0.35356954
187	0xbea426ee	-0.3206095
188	0xbe47e948	-0.19522583
189	0xbe898e8f	-0.26866576
190	0xbd166b6f	-0.03672355
191	0x3ec437d2	0.38323838
192	0x3df111af	0.11770951
193	0xbc8e1f68	-0.01734896
194	0x3ec64a59	0.38728598
195	0x3ea9dd46	0.3317663
196	0x3ea8649b	0.32889256
197	0xbe4a6cf4	-0.19768125
198	0xbe7c4196	-0.24634394
199	0xbd7c308f	-0.061569747
200	0xbcb0c5bd	-0.021578664
201	0x3d753df3	0.059873533
202	0x3c39d834	0.011343051
203	0xbe33779b	-0.17526095
204	0x3ce86526	0.028368544
205	0xbd739f03	-0.059477817
206	0x3d8a83cf	0.06763422
207	0x3e85da41	0.26143077
208	0xbe127218	-0.14301336
209	0x3e82266b	0.25419936
210	0x3ea6d8e3	0.32587346
211	0x3dfa884f	0.1223303
212	0x3e609807	0.21932994
213	0xbdc72ba5	-0.097251214
214	0xbdab48a5	-0.08363465
215	0x3ddc7446	0.10764365
216	0xbe6796c9	-0.22616114
217	0xbd79aaa1	-0.06095374
218	0xbeba8dd7	-0.3643634
219	0x3e1d1ec4	0.15343767
220	0x3e19ba0b	0.15012376
221	0xbe9bcbf6	-0.30429047
222	0xbebfcc72	-0.37460667
223	0xbd91c098	-0.071168125
224	0xbe182af0	-0.1486013
225	0xbe45d946	-0.19321164
226	0xbd9e0b70	-0.07717025
227	0xbe6d77d9	-0.2319025
228	0x3e8832b0	0.26601171
229	0xbce35d54	-0.027754463
230	0x3e357be6	0.17723045
231	0xbe94c0df	-0.290534
232	0xbe14c514	-0.14528304
233	0xbd0b5105	-0.034012813
234	0x3d3d9d6e	0.046292715
235	0x3e4a6c1f	0.19767807
236	0x3ea22166	0.31666106
237	0x3e3186f8	0.17336643
238	0x3e6c4e05	0.23076637
239	0x3e644902	0.22293475
240	0x3e434916	0.19070849
241	0x3e0f4afa	0.13993445
242	0xbe5f9e98	-0.21837842
243	0x3dae9f85	0.0852652
244	0x3e139b60	0.1441474
245	0x3e06ca2f	0.13163064
246	0x3e9b342d	0.30313244
247	0xbe520729	-0.20510544
248	0xbabf9b44	-0.0014618416
249	0x3e841c22	0.25802714
250	0xbd2d5283	-0.042315017
251	0xbeb33a87	-0.3500559
252	0xbdd03c75	-0.10167781
253	0x3da7054b	0.081553064
254	0xbe34c696	-0.1765388
255	0xbea56a0d	-0.32307473

default.encoder_cv.0.bias f4 [32]
0	0x3ea55e1f	0.3229837
1	0xbe87a1ad	-0.26490536
2	0x3e5daef2	0.21648768
3	0x3e4ccdcc	0.2000038
4	0xbe59de48	-0.212762
5	0x3e564cb5	0.20927699
6	0x3e630fed	0.22174044
7	0x3d49935c	0.0492128
8	0xbdfd6edf	-0.123746626
9	0x3e4ffdd2	0.20311669
10	0xbe12d48f	-0.14338897
11	0x3e18a152	0.14905289
12	0xbe95fbcf	-0.29293677
13	0xbe50b742	-0.20382407
14	0xbe448d71	-0.1919458
15	0x3d455c4e	0.04818373
16	0xbea2ae5c	-0.3177365
17	0x3e9aeb0d	0.30257455
18	0xbe14c0ad	-0.14526625
19	0x3e8eb9cb	0.27876124
20	0x3e09b6a5	0.1344858
21	0x3e06b912	0.13156536
22	0xbde89b64	-0.113577634
23	0x3d95132d	0.07279048
24	0x3e6b9ba9	0.23008598
25	0xbe506682	-0.20351604
26	0xbe8ef747	-0.27923033
27	0x3e0c074d	0.1367466
28	0x3e8df058	0.2772243
29	0x3e863ce8	0.26218343
30	0xbe239a35	-0.15976794
31	0x3e2fb93b	0.17160504

default.encoder_cv.4.weight f4 [64, 32, 3, 3]
0	0x3d0d3519	0.034474466
1	0xbc8ad3c7	-0.016946686
2	0x3ce846e4	0.028354116
3	0x3d363703	0.044486057
4	0xbcc03d6a	-0.023466785
5	0x3d84df85	0.064879455
6	0xbd467ad4	-0.04845698
7	0xbcf3d16f	-0.029762952
8	0x3d01239b	0.031528097
9	0xbd05362f	-0.032522377
10	0x3d1d91fd	0.038469303
11	0xbd642556	-0.05569967
12	0xbd80a8e6	-0.06282215
13	0xbd1753b0	-0.036945045
14	0xbcc9bec1	-0.024627091
15	0xbd245313	-0.04011829
16	0xbc86273a	-0.016376127
17	0x3d3be14b	0.045869153
18	0x3d306b76	0.043071233
19	0x3d860224	0.06543377
20	0x3ca16a84	0.01970411
21	0x3d52ae3d	0.051435698
22	0xbd05a43e	-0.032627337
23	0x3d040598	0.032231897
24	0x3d1552bb	0.03645585
25	0x3d67e4f3	0.056614827
26	0x3e01c193	0.12671499
27	0xbbf3df8f	-0.0074424217
28	0xbd3665ea	-0.044530787
29	0x3c802fd0	0.015647799
30	0x3d55250e	0.05203729
31	0x3cb1e3cd	0.02171507
32	0x3d5a5c8b	0.053310912
33	0x3d0549d7	0.032541122
34	0xbcd63af2	-0.026151154
35	0xbca5ac37	-0.02022372
36	0x3cd27e06	0.025694858
37	0x3d386689	0.04501966
38	0xbd5a0124	-0.053223744
39	0xbb93a816	-0.0045061214
40	0x3cdac8d6	0.026707094
41	0xbc68c2f1	-0.014206634
42	0xbcbfd413	-0.023416555
43	0xbc706291	-0.014671938
44	0x3d568057	0.05236849
45	0xbd43ada6	-0.047773026
46	0xbd0d59d4	-0.034509495
47	0xbc807b7f	-0.015683888
48	0xbd1f7f1c	-0.03893958
49	0x3d4b6be4	0.04966344
50	0x3d73b335	0.059497077
51	0x3c189cca	0.009314725
52	0x3c2b4571	0.010453568
53	0x3d081f60	0.033233047
54	0x3d43a13a	0.04776118
55	0x3cec9bae	0.028882828
56	0x3bd972c2	0.0066359947
57	0x3cd9703a	0.026542772
58	0xbd332644	-0.043737665
59	0xbd4e756a	-0.050404944
60	0x3d827850	0.06370604
61	0xbcfdd32a	-0.03098448
62	0xbcd1d9f6	-0.025616627
63	0x3c25314d	0.010082555
64	0xbd26e58c	-0.040746257
65	0xbbaeb316	-0.0053314073
66	0x3d05900b	0.032608073
67	0x3d6da73f	0.058020826
68	0xbc978524	-0.018496104
69	0xbc41530b	-0.011799584
70	0x3d28ca7b	0.041208725
71	0x3c1d90ca	0.00961704
72	0x3d160bbc	0.036632285
73	0x3d1574ee	0.036488466
74	0x3d1384df	0.036015388
75	0x3d29eaea	0.041483797
76	0x3cc71dd3	0.024306213
77	0xbc9dc428	-0.019258574
78	0x3d18b4fc	0.037281975
79	0x3d8a203b	0.06744429
80	0xbb0d9e0c	-0.0021609096
81	0xbd299ae7	-0.041407492
82	0xbd2476c9	-0.040152345
83	0xbc8d0d96	-0.017218392
84	0x3cd48e19	0.025946664
85	0xbd320a6c	-0.04346697
86	0x3d5b937c	0.05360745
87	0x3cda2b93	0.026632106
88	0x3d3aa12e	0.04556387
89	0x3d1f94f8	0.038960427
90	0x3cf181d4	0.029480852
91	0x3d3d0ff4	0.046157792
92	0x3cd9021d	0.026490266
93	0x3c6f5fae	0.014610214
94	0xbc843a6e	-0.016141143
95	0x3ce53698	0.027980134
96	0x3b4484d3	0.0029986396
97	0xbc1b28cc	-0.009470176
98	0xbd89bf46	-0.06725936
99	0xbc2924f9	-0.010323756
100	0x3d584870	0.052803457
101	0xbc959554	-0.018259682
102	0x3cdf74e8	0.027277425
103	0x3cdfe674	0.027331568
104	0x3c114fc3	0.008869114
105	0x3d587317	0.052844133
106	0x3d936787	0.07197481
107	0xbd0566eb	-0.032568853
108	0x3bbe1366	0.0058006523
109	0x3d0adac0	0.033900023
110	0x3c1eb113	0.0096857725
111	0x3d30bc37	0.043148246
112	0xbd55a2af	-0.0521571
113	0xbd000d2a	-0.031262554
114	0x3ccd97e1	0.025096836
115	0xbd85222e	-0.0650066
116	0xbda556d6	-0.08073203
117	0xbc914804	-0.017734535
118	0x3c3a9ee4	0.011390422
119	0x3b6f6152	0.0036526513
120	0x3d8acf4f	0.06777822
121	0x3cc666ea	0.024218995
122	0xbd8e1157	-0.06936901
123	0xbd5e86b5	-0.054327685
124	0xbd17513b	-0.0369427
125	0xbda16cf7	-0.078821115
126	0xbc1a91e5	-0.009434198
127	0x3d503f0e	0.050841384
128	0x3c472965	0.012155865
129	0xbd5ad042	-0.053421266
130	0xbd5a9aa8	-0.053370148
131	0xbcffda74	-0.031232096
132	0x3c81e896	0.015857976
133	0xbd857ae4	-0.0651758
134	0xbe0c3ea4	-0.1369577
135	0x3baabe55	0.0052106776
136	0xbd574368	-0.052554518
137	0xbd020223	-0.03174032
138	0x3bee3e56	0.0072706146
139	0x3c089cb0	0.008338138
140	0x3ae679de	0.0017583927
141	0x3d04b348	0.03239754
142	0x3dc2d0cb	0.0951248
143	0x3d7bb940	0.061455965
144	0x3d23a822	0.039955266
145	0x3d02c30d	0.031924296
146	0xbd34502b	-0.044021767
147	0xbd8030cf	-0.062593095
148	0x3d2237f2	0.039604135
149	0x3b73e27f	0.003721386
150	0xbd7d391a	-0.061822034
151	0xbc8cf833	-0.017208194
152	0xbd900eac	-0.070340484
153	0xbd48bdd2	-0.04900915
154	0x3d31f31a	0.04344473
155	0xbd5ab622	-0.05339635
156	0xbc328c8d	-0.010897768
157	0xbba90354	-0.0051578674
158	0x3d166098	0.036713213
159	0xbd132e41	-0.035932783
160	0xbc9251ed	-0.01786133
161	0xbccf963a	-0.025340188
162	0xbb8d4ae7	-0.0043119076
163	0xbcc6db02	-0.024274353
164	0x3d56a15e	0.052399985
165	0x3c64c2a6	0.013962423
166	0x3d17cc04	0.0370598
167	0xbd3cf654	-0.046133354
168	0x3c78746d	0.015164477
169	0xbc8c093c	-0.017094247
170	0x3c2b5c49	0.010459014
171	0x3c1b023a	0.00946098
172	0xbd409adc	-0.047022685
173	0xbcd5cbb1	-0.026098104
174	0xbd425768	-0.04744664
175	0xbc0f072e	-0.008729739
176	0x3d7a3f8e	0.061095767
177	0x3d55cfea	0.052200235
178	0x3d3dc166	0.046327017
179	0x3d811516	0.0630285
180	0x3d440451	0.04785568
181	0x39a257ce	0.00030964467
182	0x3d7bef6e	0.061507635
183	0x3d88ee4a	0.06686075
184	0x3d84fdc1	0.06493712
185	0xbc4ebc9b	-0.012618209
186	0x3c287e1f	0.010283976
187	0x3d850103	0.064943336
188	0x3da99aa6	0.0828145
189	0xbc19b8df	-0.009382456
190	0x3bdc2dbe	0.00671932
191	0xbd28fc41	-0.041256193
192	0x3c53233e	0.01288682
193	0x3be23aa6	0.006903964
194	0x3ce3c3a7	0.027803255
195	0xbca7ae4a	-0.02046885
196	0x3ac91ca2	0.0015343616
197	0xbcac12b9	-0.021005021
198	0x3d03b682	0.032156475
199	0x3cf19239	0.02948867
200	0xbcf89d0b	-0.030348321
201	0xbca0223d	-0.019547576
202	0x3cbdb3ca	0.02315702
203	0x3cbb1317	0.022836251
204	0xbd40200a	-0.046905555
205	0x3b1b159b	0.0023664
206	0xbd59c572	-0.053166814
207	0xbccb22e1	-0.024796905
208	0x3d3d6c2b	0.046245735
209	0xbc7ef8ad	-0.015562219
210	0x3d7ab56d	0.061208177
211	0xbd462cd1	-0.048382584
212	0x3d383511	0.044972483
213	0x3d048932	0.032357402
214	0xbd138564	-0.036015883
215	0xbcc7076e	-0.024295535
216	0x3d4cc99d	0.04999696
217	0xbd11564a	-0.035482682
218	0xbc98e3c4	-0.018663295
219	0x3d7653b1	0.060138408
220	0x3cea9f96	0.02864055
221	0xbd2c3821	-0.042045716
222	0xbca15c17	-0.019697232
223	0xbd058cb1	-0.032604877
224	0x3d92964e	0.071575746
225	0xbd15d63d	-0.036581267
226	0xbd2b3f66	-0.04180851
227	0xbd517f42	-0.051146753
228	0x3c70578a	0.014669308
229	0x3cd4a518	0.02595763
230	0x3d1d8dd9	0.038465355
231	0x3c85fe33	0.016356563
232	0xbd24a56f	-0.040196832
233	0xbd0b7f10	-0.034056723
234	0xbd522d3b	-0.051312666
235	0xbd0d0a3c	-0.03443359
236	0xbcfd7fec	-0.030944787
237	0xbd59963b	-0.053121787
238	0xbc5872e8	-0.01321099
239	0x3d2141b8	0.039369315
240	0xbd5cc87b	-0.05390213
241	0x3c0f1700	0.008733511
242	0xbdb8051f	-0.08985352
243	0xbd5fee7d	-0.0546708
244	0xbc175c97	-0.009238384
245	0x3d51fa9f	0.0512644
246	0xbccdd2ed	-0.025124991
247	0x3c72897e	0.0148032885
248	0x3d80f59a	0.06296845
249	0x3b6148eb	0.0034375738
250	0x3d3992a7	0.045305874
251	0x3c291356	0.010319551
252	0x3cbaa534	0.022783853
253	0xbbe07318	-0.0068496577
254	0x3c95195b	0.018200567
255	0x3cc3fb14	0.023923434

default.encoder_cv.4.bias f4 [64]
0	0x3d3abc3b	0.045589667
1	0x3d335bbc	0.043788657
2	0x3d041522	0.032246716
3	0xbc7490d8	-0.014927112
4	0xbcc3d2de	-0.02390426
5	0x3d0cbf0d	0.034361888
6	0xbd14136b	-0.03615133
7	0xbc6fb34b	-0.014630149
8	0xbd13b8f8	-0.03606507
9	0x3c76216d	0.015022618
10	0x3c91bcb3	0.017790174
11	0xbd385867	-0.045006182
12	0xbd09b35a	-0.03361831
13	0x3cf69978	0.030102476
14	0x3d0399a8	0.03212896
15	0xbd8a4e1f	-0.06753182
16	0xbd160473	-0.036625337
17	0x3d22aaca	0.03971366
18	0xbd82d6f8	-0.06388658
19	0xbd591421	-0.052997712
20	0x3c0a5ffe	0.008445738
21	0x3c91939e	0.017770585
22	0x3c818af3	0.015813326
23	0xbc9b2e25	-0.018942902
24	0xbd432145	-0.04763915
25	0x3d0f38b6	0.034966193
26	0x3d1df264	0.03856124
27	0x3d23202e	0.03982561
28	0xbbeec865	-0.0072870725
29	0xbc3ca4de	-0.011513917
30	0x3d11e7bd	0.035621393
31	0xbce3c886	-0.027805578
32	0xbd11e211	-0.035615984
33	0xbcb07e28	-0.021544531
34	0xbd6119fa	-0.054956414
35	0xbd80affa	-0.06283565
36	0x3cf7c69c	0.030246072
37	0xbc89d23d	-0.016823882
38	0x3d0a12b1	0.03370923
39	0xbd044b81	-0.03229857
40	0xbd2aa3ea	-0.041660227
41	0xbc0b2f84	-0.008495215
42	0xbce30fb4	-0.027717449
43	0x3ce7f97d	0.028317207
44	0x3c3c5d44	0.011496846
45	0x3ca6749c	0.020319276
46	0xbb888554	-0.0041662846
47	0x3caad32b	0.020852646
48	0xbd035d29	-0.032071266
49	0x3d3f26e8	0.046667963
50	0x3cdefcba	0.027220119
51	0x3cd10337	0.025514228
52	0xbd815c36	-0.06316416
53	0x3d117dd0	0.035520375
54	0x3d23853e	0.03992199
55	0xbd0fcc99	-0.03510723
56	0xbcf4382a	-0.029811937
57	0xbce9f69e	-0.028559979
58	0xbcd41b29	-0.025891857
59	0x3bdf5fc8	0.006816838
60	0x3c02c15e	0.007980673
61	0x3cdd9eac	0.0270532
62	0x3cf5a461	0.029985609
63	0x3aaaf097	0.0013041672

default.encoder_cv.8.weight f4 [128, 64, 3, 3]
0	0x3c65d8fe	0.014028786
1	0x3bf6188a	0.0075102495
2	0xbab7029a	-0.0013962567
3	0xbd04bc1b	-0.032405954
4	0x3d097063	0.033554446
5	0xbc3a4150	-0.011368111
6	0x3d634419	0.055484865
7	0x3d13ad1a	0.036053754
8	0x3d4d285a	0.05008731
9	0x3c993b53	0.018705046
10	0x3c9d0795	0.019168654
11	0x3cfd8672	0.030947898
12	0x3d03e9f4	0.032205537
13	0x3d33223d	0.043733824
14	0xbbb6deaf	-0.005580745
15	0x3d3b63ef	0.0457496
16	0x3d10e9c8	0.0353792
17	0xbcd10421	-0.025514664
18	0x3b863f87	0.0040969285
19	0xbc82eb1b	-0.015981248
20	0xbd572bd9	-0.05253205
21	0xbaae1b2c	-0.0013283244
22	0x3c8ad0ea	0.016945321
23	0xbcd8f8d9	-0.026485847
24	0xbc98cdcd	-0.018652821
25	0x3c871b33	0.016492462
26	0x3d4eb923	0.05046953
27	0x3cbdd6d9	0.023173736
28	0x3cf7b2eb	0.030236682
29	0x3d064b8a	0.032786883
30	0xbcefe9ad	-0.02928623
31	0xbcce2dd5	-0.025168339
32	0xbc9c23ff	-0.019060133
33	0xbc9fa0ad	-0.019485796
34	0xbd04aca4	-0.032391205
35	0xbc092123	-0.008369717
36	0x3cfa2092	0.030533109
37	0xbc9aec3f	-0.018911479
38	0x3cb2496f	0.021763531
39	0x3b947007	0.0045299563
40	0x3c89e517	0.016832871
41	0xbccc2970	-0.024922103
42	0x3d2d046b	0.04224054
43	0xba95b1be	-0.0011420769
44	0x3d058caa	0.03260485
45	0x3d5f738e	0.05455356
46	0x3d0cb70c	0.034354255
47	0xbc00350c	-0.007825147
48	0x3c272d68	0.010203697
49	0xbd115015	-0.035476763
50	0xbcf1f64f	-0.029536394
51	0x3d576ff8	0.052597016
52	0xbc9024d8	-0.017595693
53	0x3cd18593	0.025576388
54	0xbb29d6c5	-0.0025915366
55	0xbb34d7d6	-0.0027594469
56	0xbd93234d	-0.071844675
57	0xbd182ecf	-0.037154015
58	0xbd4e1704	-0.05031492
59	0xbd1355c1	-0.035970453
60	0xbc030b79	-0.007998341
61	0xbcb78c81	-0.022405865
62	0x3d1969ed	0.037454534
63	0x3d4a73af	0.04942673
64	0xbcc19132	-0.023628805
65	0x3d371e76	0.044706784
66	0xbcc1eaca	-0.023671526
67	0xbd0f41b4	-0.03497477
68	0xbc3292b2	-0.010899233
69	0x3b93f27b	0.00451499
70	0x3d060c87	0.03272679
71	0x3d154f21	0.036452416
72	0x3cd4b7a8	0.02596648
73	0x3d8b3324	0.06796864
74	0x3cfaa613	0.030596768
75	0x3c75b1d8	0.014996015
76	0x3cfbe2d1	0.030747803
77	0x3c55bae4	0.0130450465
78	0xbc19c3b6	-0.00938504
79	0xbcad1606	-0.021128666
80	0x3c381cf6	0.011237374
81	0xbc54036c	-0.012940269
82	0xbcd4d489	-0.02598025
83	0xbd36ff57	-0.044677105
84	0x3d24ba87	0.04021695
85	0xbd2d011c	-0.042237386
86	0x3bc41d7b	0.0059849597
87	0x3d128be0	0.035777926
88	0x3cf57063	0.029960817
89	0x3d561599	0.05226669
90	0xbd2ae7e4	-0.041725054
91	0x3cc330c8	0.023826972
92	0xbc5a0620	-0.013307124
93	0xbc00e95b	-0.007868136
94	0xbce22b43	-0.02760852
95	0xbd320e21	-0.043470506
96	0x3cc146eb	0.023593387
97	0x3c00cc3e	0.007861195
98	0xbc669956	-0.014074644
99	0xbcae199b	-0.021252444
100	0xbc8e64c8	-0.01738204
101	0xbd736eab	-0.059431713
102	0x3c7adbea	0.015311221
103	0x3c90d3f7	0.017679198
104	0x3c0ccbd4	0.008593518
105	0xbd5d4df5	-0.054029424
106	0x3c79b354	0.015240509
107	0xbc86e318	-0.016465709
108	0x3cd2da1e	0.025738772
109	0x3cb86b98	0.022512242
110	0x3c59d7c8	0.013296075
111	0xbd1ea526	-0.038731717
112	0x3b89ebcf	0.004209019
113	0x3cadef09	0.021232145
114	0x3c7f14a8	0.01556889
115	0x3995ad4a	0.00028548605
116	0xbd193c32	-0.037410922
117	0x3cb80cf9	0.022467123
118	0xbce6e938	-0.02818738
119	0xbd474278	-0.048647374
120	0x3c245af1	0.010031448
121	0xbd040754	-0.03223355
122	0x3ca84b2a	0.020543654
123	0x3bf56312	0.0074886167
124	0x3c59dbbc	0.013297018
125	0xb9817768	-0.00024693762
126	0xbca1c693	-0.019748008
127	0xbc563ed3	-0.013076502
128	0xbc131427	-0.008976973
129	0x3cb03c48	0.02151312
130	0xbcbf96ce	-0.023387339
131	0x3c496ef1	0.012294517
132	0xbccba542	-0.024859075
133	0xbc9db22b	-0.019249996
134	0x3c9b243f	0.018938182
135	0x3cfe2d2c	0.031027399
136	0xbda84cf0	-0.082178
137	0x3d0bd0f9	0.03413484
138	0x3d04d59e	0.032430284
139	0xbc4b0010	-0.012390152
140	0x3d621f79	0.055205796
141	0xbc91faf6	-0.017819863
142	0xbdb74c79	-0.08950133
143	0xbdd364b5	-0.10321943
144	0xbd2fa118	-0.04287824
145	0xbce0d66e	-0.027445998
146	0xba8afe2e	-0.0010604316
147	0xbcf07dfa	-0.029356945
148	0x3c395dbe	0.011313854
149	0xbd0431d3	-0.03227408
150	0x3999d1b6	0.0002933868
151	0xbcba6727	-0.022754265
152	0x3d1082ff	0.035281178
153	0x3bedcd61	0.007257149
154	0x3cd1020b	0.02551367
155	0x3bc7d428	0.006098289
156	0x3d32ecf9	0.043683026
157	0x3ba847f9	0.005135533
158	0xbcb09765	-0.021556566
159	0xbcdba869	-0.026813703
160	0x3b1ab4ab	0.0023606222
161	0x3d3f1d51	0.046658818
162	0xbbdafc5a	-0.0066829147
163	0x3cae44bb	0.021273008
164	0x3cde117f	0.027107952
165	0x3d2339b5	0.039849956
166	0x3d1c98d8	0.0382317
167	0x3cf321f7	0.029679282
168	0x3b17df9f	0.002317406
169	0xbcaed5ce	-0.021342184
170	0x3d046fea	0.032333292
171	0x3caab767	0.020839406
172	0xbb2408a8	-0.0025029574
173	0xbd16568e	-0.03670364
174	0xbd25ca77	-0.04047629
175	0xbbe6bac2	-0.0070413062
176	0x3b73ebdf	0.0037219448
177	0x3d0523bc	0.032504782
178	0xbb210ea7	-0.0024575384
179	0x3d61aa1b	0.055093866
180	0xbcfb4d95	-0.030676642
181	0xbcfad53c	-0.030619256
182	0x3bfcaf2e	0.0077113127
183	0x3d003158	0.031297058
184	0xbcde68a0	-0.027149498
185	0xbce18313	-0.027528321
186	0x3b55cdb3	0.0032623827
187	0xbd09254f	-0.033482846
188	0x3c8cba05	0.017178545
189	0xba21b2ee	-0.0006168325
190	0x3cd96629	0.026537972
191	0xbc26b52a	-0.010175029
192	0xbbcc4db8	-0.0062348507
193	0x3d7a822c	0.061159298
194	0xbd046205	-0.03232004
195	0xbd5f69f3	-0.0545444
196	0xbd38cce1	-0.045117263
197	0xbd3a93a6	-0.045550965
198	0xbc2d961e	-0.010594873
199	0x3bfbd1e5	0.0076849335
200	0xbbe1df52	-0.006893077
201	0x3d429597	0.04750594
202	0x3af152b4	0.0018411488
203	0xbc2c2d66	-0.010508871
204	0xbd262b53	-0.04056866
205	0xbd00eda6	-0.03147664
206	0xbc0827dd	-0.008310285
207	0x3daa24e6	0.08307819
208	0x3c43c6cf	0.011949255
209	0x3dad76e5	0.08469943
210	0xbc4f6047	-0.012657232
211	0x3c2cff9d	0.01055899
212	0x3d298f4b	0.04139642
213	0xbc905dca	-0.017622847
214	0xbcbe97ac	-0.023265682
215	0x3d10b367	0.03532734
216	0x3c86c812	0.016452823
217	0xbd1ae302	-0.037814148
218	0xbc6ed588	-0.014577277
219	0xbca534fd	-0.020166868
220	0x3b7fc7f7	0.00390291
221	0xbd0a9781	-0.03383589
222	0xba861ab4	-0.0010231347
223	0xbce467b7	-0.027881486
224	0xbd6fdeae	-0.058561973
225	0xbc404f4b	-0.011737655
226	0x3c09ec17	0.008418105
227	0x3ccdd72c	0.025127016
228	0x3cd712ac	0.02625402
229	0xbcdaefd8	-0.026725695
230	0x3cb3a538	0.021929368
231	0x3c4fe853	0.012689668
232	0x3d3c55ab	0.045980137
233	0xbc3f9e54	-0.011695463
234	0x3c5daf0b	0.013530503
235	0x3c53f306	0.012936359
236	0xbc527020	-0.0128441155
237	0x3cbc62b0	0.022996277
238	0xbb69fcf6	-0.0035703755
239	0xbd0cebf9	-0.03440473
240	0x3cad476f	0.021152226
241	0xbcd9c7e4	-0.026584573
242	0xbc74559b	-0.014912988
243	0x3d407e74	0.046995595
244	0x3bc1afd0	0.005910851
245	0x3c65ff5d	0.014037934
246	0xbccaf73d	-0.024776096
247	0xbcadc88c	-0.021213792
248	0x3b5b0904	0.0033422122
249	0x3d0d4c56	0.034496628
250	0xbc88f17c	-0.016716711
251	0x3c9791e9	0.018502193
252	0x3d2331e2	0.039842494
253	0x3d02861f	0.03186619
254	0x3d257dd2	0.040403195
255	0xbd20b033	-0.039230537

default.encoder_cv.8.bias f4 [128]
0	0x3cacc6d6	0.021090906
1	0x3bd722b6	0.006565417
2	0xbd07803e	-0.033081286
3	0x3ce1baee	0.027554955
4	0xbd081d32	-0.033230968
5	0xbcc45539	-0.023966419
6	0x3c06f0b5	0.0082361
7	0x3d327057	0.043564167
8	0x3ccc4157	0.0249335
9	0x3ca79f8d	0.020461822
10	0x3ce9c911	0.028538259
11	0x3bab79ef	0.0052330415
12	0xbc3b10e5	-0.011417602
13	0xbc15dfe7	-0.009147621
14	0xbc2d5b39	-0.010580831
15	0x3d2f870d	0.042853404
16	0x3cffbcb4	0.03121791
17	0x3b2e19c0	0.0026565641
18	0xbc569f51	-0.013099507
19	0xbbdb518e	-0.0066930717
20	0xbd4d695c	-0.050149307
21	0xbd1fe78a	-0.039039172
22	0xbd34cf9c	-0.044143304
23	0x3caa3841	0.020778777
24	0x3ceeeaa2	0.029164616
25	0x3d0e4c19	0.03474054
26	0xbb0eb9b2	-0.0021778164
27	0xbd1583a3	-0.03650249
28	0xbc52d57a	-0.01286828
29	0xbaad3dd5	-0.001321728
30	0xbd4fe2b4	-0.05075331
31	0x3cb11ab0	0.02161917
32	0x3ca55501	0.020182135
33	0x3d3596d5	0.044333298
34	0xbc197cae	-0.009368105
35	0xbd60cbcc	-0.054881856
36	0x3cb14957	0.021641416
37	0x3d13c4be	0.0360763
38	0x3d108fce	0.035293393
39	0xbc0e3e13	-0.008681792
40	0xbcdc5577	-0.026896222
41	0xbcf66788	-0.030078664
42	0x3cffa72c	0.031207643
43	0xb8b9d66b	-8.861426e-05
44	0x39f45bc8	0.0004660769
45	0xbd329743	-0.043601286
46	0xbce49a05	-0.027905473
47	0x3c568934	0.013094235
48	0xbd438bd6	-0.04774078
49	0x3d2dd0a5	0.042435307
50	0xbcf4d285	-0.02988554
51	0x3c1600a9	0.009155431
52	0xbd4c3a83	-0.04986049
53	0x3d482cd3	0.048870873
54	0xbc107e46	-0.008819168
55	0x3bcda4e2	0.006275759
56	0xbd141295	-0.036150534
57	0x3c935dbf	0.017989038
58	0xbcc87a0d	-0.02447226
59	0xbcc6bdec	-0.024260484
60	0x3c8eead5	0.017445961
61	0xbbb40669	-0.005493928
62	0xbd0ecc6b	-0.034862917
63	0xbc6444e7	-0.013932443
64	0xbc0400eb	-0.0080568595
65	0x3c28acb1	0.010295079
66	0xbb1ed42b	-0.0024235349
67	0x3933d79a	0.00017151088
68	0x3cdbe846	0.026844155
69	0xbc905d14	-0.017622508
70	0x3d002589	0.031285796
71	0x3d2da364	0.04239215
72	0xbd4141a0	-0.047181726
73	0xbc641102	-0.013920071
74	0xbc2f0fed	-0.010684949
75	0xbd0e891f	-0.034798738
76	0xbd0c6d64	-0.03428401
77	0x3a4daacd	0.00078455807
78	0xbd38f1c7	-0.04515245
79	0x3ced94a6	0.029001545
80	0x3c89bd7e	0.01681399
81	0xbb5b7ce4	-0.0033491189
82	0xbd363eff	-0.04449367
83	0xbcb93420	-0.022607863
84	0x38e46bfa	0.000108919994
85	0xbc08b700	-0.008344412
86	0xbd152456	-0.036411606
87	0x3d067527	0.03282657
88	0xbc87fba0	-0.016599476
89	0x3b959eab	0.004566034
90	0xbd185071	-0.03718609
91	0xbcabbeb7	-0.020964963
92	0x3cc95f22	0.024581496
93	0xbc662620	-0.014047176
94	0x3cf771b8	0.030205593
95	0xbcb4d3be	-0.022073623
96	0xbc07b4c4	-0.008282844
97	0xbc94c3a9	-0.018159704
98	0xbcd51294	-0.026009835
99	0xbd10be7d	-0.035337914
100	0xbcd1396a	-0.025540072
101	0x3c857b5e	0.016294178
102	0xbce24cbc	-0.02762448
103	0x3b6f197e	0.00364837
104	0x3d1fb824	0.03899397
105	0xbcfcc881	-0.030857326
106	0xbd302e87	-0.043013122
107	0x3d306ff6	0.043075524
108	0xbcdc116c	-0.026863776
109	0xbd43e4ca	-0.047825612
110	0xbc93912f	-0.018013565
111	0xbafc7ea0	-0.0019263811
112	0xba0b65d2	-0.00053176016
113	0x3a8a645d	0.0010558475
114	0x3c696933	0.014246273
115	0x3d2eb20f	0.04265028
116	0xbd3c1747	-0.045920637
117	0xbc8a369b	-0.016871741
118	0xbc85ee9f	-0.016349135
119	0xbc6c8546	-0.014436072
120	0x3c496cf1	0.01229404
121	0x3c9b4b18	0.018956706
122	0xbd26e2ef	-0.040743764
123	0x3cbc668a	0.022998113
124	0x3d3c0f81	0.045913223
125	0x3ce28176	0.027649622
126	0xbcdaefb9	-0.026725637
127	0x3d12bb8c	0.03582339

default.encoder_fc.0.weight f4 [128, 128]
0	0x3da2b059	0.07943792
1	0x39febf00	0.0004858896
2	0x3da60e19	0.08108158
3	0xbd1ff68e	-0.039053492
4	0x3c793c50	0.0152121335
5	0x3ccf41c0	0.025299907
6	0xbd9748b1	-0.07386912
7	0xbd817c0e	-0.0632249
8	0x3cf64a58	0.030064747
9	0x3cf0d2a8	0.029397324
10	0x3d32eed6	0.043684803
11	0x3da80df7	0.082057886
12	0x3d45f38a	0.04832796
13	0xbd3d11d8	-0.046159595
14	0xbc21a688	-0.009866364
15	0xbda52279	-0.08063216
16	0x3d828e6f	0.06374823
17	0x3c88681c	0.016651206
18	0x3d2c8ec2	0.042128332
19	0x3d93c559	0.072153755
20	0x3d09e736	0.033667766
21	0xbd3fc790	-0.046821177
22	0xbd681fa4	-0.0566708
23	0x3cff860c	0.031191848
24	0xbd9cb89a	-0.076523975
25	0xbd0e4d9c	-0.034741983
26	0x3d1f2652	0.038854904
27	0xbce2edd0	-0.027701288
28	0xbd6bdfa0	-0.057586312
29	0x3cf90660	0.030398548
30	0x3d6a3bd2	0.057185955
31	0xbce1bd56	-0.027556103
32	0x3cfd6cbc	0.030935638
33	0x3d993325	0.07480458
34	0x3d15b944	0.036553636
35	0x3d9304d5	0.07178656
36	0xbcc827a8	-0.024432972
37	0x3db17b67	0.08666115
38	0xbd863250	-0.06552565
39	0xbd339f90	-0.043853343
40	0xbd877d84	-0.06615737
41	0x3da00015	0.07812516
42	0xbd81c13e	-0.06335686
43	0xbd8aba51	-0.06773818
44	0x3d0f3672	0.034964032
45	0x3d177e56	0.036985718
46	0x3c897b1c	0.016782336
47	0xbbf27850	-0.0073995963
48	0x3db25305	0.08707241
49	0x3d998d89	0.07497699
50	0xbd9859db	-0.074390136
51	0xbd4cc6d4	-0.049994305
52	0xbd0b6cdf	-0.034039374
53	0xbd66df2a	-0.05636517
54	0xbd5fc6ee	-0.054633074
55	0xbda12b7d	-0.07869623
56	0x3d7d577a	0.061851002
57	0xbd87ccf4	-0.066308886
58	0x3c7d1198	0.015446089
59	0xbd811377	-0.06302541
60	0xbd0a13f8	-0.03371045
61	0x3d5cb3da	0.053882457
62	0xbd425808	-0.047447234
63	0x3daf8f4d	0.08572254
64	0x3b82ffa0	0.003997758
65	0xbd4daae2	-0.050211795
66	0xbd5b5463	-0.053547274
67	0x3b242b20	0.0025050119
68	0x3d194446	0.037418626
69	0x3a848e00	0.001011312
70	0x3cd6e34c	0.02623143
71	0xbda96edd	-0.082730986
72	0x3d642326	0.055697583
73	0x3cac76f8	0.021052822
74	0x3cef1a54	0.029187359
75	0xbda77e4c	-0.08178386
76	0x3dace717	0.084425144
77	0xbd8bb0b4	-0.06820813
78	0xbd4b64b4	-0.049656585
79	0x3d8767ef	0.06611621
80	0xbca655bc	-0.020304553
81	0xbb6c1d40	-0.0036028177
82	0x3d854bd9	0.065086074
83	0x3d8f25a9	0.06989605
84	0xbd8c6eda	-0.06857081
85	0x3db4eb01	0.08833886
86	0x3c159380	0.009129405
87	0x3d4a4cea	0.049389757
88	0xba05d580	-0.00051053613
89	0xbd7d2c3a	-0.061809756
90	0x3ceac434	0.02865801
91	0x3ce55db8	0.02799879
92	0x3ce2902c	0.027656637
93	0xbc322368	-0.010872699
94	0x3da55b79	0.08074088
95	0xbcf2ca5a	-0.029637504
96	0x3bf269e0	0.007397875
97	0x3d75ebaa	0.0600392
98	0xbcba34f0	-0.02273032
99	0xbda721a9	-0.08160717
100	0x3b128880	0.0022359192
101	0xbd425fe3	-0.047454726
102	0xbd753fc4	-0.059875265
103	0xbd72e87c	-0.059303746
104	0xbccff848	-0.025386944
105	0x3d16d3da	0.03682313
106	0x3c4552e0	0.012043685
107	0xbce524f0	-0.027971715
108	0xbd8979d3	-0.06712689
109	0xbd43e737	-0.047827926
110	0x3d7992d6	0.06093105
111	0x3ce5495c	0.027989082
112	0x3d0eaebc	0.03483461
113	0xbd762a21	-0.06009877
114	0x3d800895	0.06251637
115	0xbcf21a64	-0.0295536
116	0xbd9de23d	-0.07709167
117	0xbcc75e60	-0.024336994
118	0x3c923f34	0.017852403
119	0xbd6498a2	-0.055809624
120	0xba9e2e80	-0.0012068301
121	0xbd1de083	-0.03854419
122	0xbd031dc0	-0.032010794
123	0xbd47db8a	-0.048793353
124	0xbd6939d5	-0.05693992
125	0xbbc5a710	-0.0060318783
126	0xbcfbdc2e	-0.030744638
127	0xbd7fbdf4	-0.062437013
128	0xbd9f2e8f	-0.07772552
129	0x3d1dfe8e	0.03857284
130	0x3c324828	0.010881461
131	0xbc523b50	-0.012831524
132	0x3d84d1a7	0.064853005
133	0xbd7dfd65	-0.062009234
134	0xbd2cb58d	-0.042165328
135	0xbdb118c6	-0.08647303
136	0xbd4d963c	-0.050192103
137	0xbd6415f3	-0.055684995
138	0x3d7dc486	0.061954997
139	0x3d943ba9	0.07237942
140	0x3d760542	0.060063608
141	0xbd74fe07	-0.05981257
142	0x3d004424	0.031314984
143	0xbd7c39b8	-0.061578482
144	0xbd1310da	-0.035904743
145	0x3b08d420	0.002087839
146	0x3dac15fd	0.084026314
147	0x3cdd0990	0.026982099
148	0x3c8632ac	0.016381584
149	0xbd283c62	-0.04107321
150	0x3d9ef5e7	0.07761746
151	0x3d3445f2	0.044012018
152	0x3daf356b	0.085551105
153	0x3d890d8b	0.06692036
154	0xbd42cdcc	-0.047559544
155	0x3cdf9288	0.027291551
156	0xbc2eb4e8	-0.010663249
157	0x3cce2da8	0.025168255
158	0xbdaed149	-0.08536012
159	0xbc1567f8	-0.009119026
160	0xbd404882	-0.04694415
161	0x3ccd2eb4	0.025046684
162	0xbcade25c	-0.0212261
163	0xbb878f20	-0.004136935
164	0xbd699139	-0.05702326
165	0xbd752946	-0.059853815
166	0x3da836fb	0.08213612
167	0xbcc55d94	-0.024092473
168	0xbd86d4ce	-0.06583558
169	0xbda8c0b0	-0.08239877
170	0xbb419460	-0.0029537901
171	0xbce1017e	-0.027466532
172	0x3c2bce00	0.010486126
173	0xbd4b294b	-0.049599927
174	0x3dae2d33	0.08504715
175	0xbc896a78	-0.016774401
176	0x3caf0a20	0.021367133
177	0x3da60b4f	0.08107626
178	0xbbb2b460	-0.0054536313
179	0x3d17ac92	0.03702981
180	0x3d4abdbe	0.04949736
181	0xbb9b0440	-0.0047307312
182	0xbd62d5f0	-0.055379808
183	0xbd78d077	-0.060745683
184	0x3d916a49	0.071003504
185	0x3d06dbd0	0.032924473
186	0x3b4515e0	0.0030072853
187	0xbc8a430c	-0.016877674
188	0x3b95dce0	0.0045734495
189	0x3d41f09a	0.047348596
190	0xbd061c6c	-0.03274195
191	0xbd6552c1	-0.055987123
192	0x3c46cc08	0.012133606
193	0x3d0646dc	0.03278242
194	0x3d97a263	0.0740402
195	0xbda10c3a	-0.0786366
196	0x3ca401dc	0.020020418
197	0x3d936ad5	0.07198111
198	0xbc781c68	-0.015143491
199	0x3d8db753	0.06919732
200	0x3d44fafe	0.048090927
201	0x3c693ff0	0.014236435
202	0xbd7db929	-0.06194416
203	0xbd5dc8a7	-0.054146435
204	0x3d45e68a	0.048315562
205	0xbc6864e8	-0.014184214
206	0xbd7ac6ee	-0.06122487
207	0x3d935811	0.07194532
208	0x3d96dfb7	0.07366889
209	0x3d40df5a	0.047088005
210	0xbd26b365	-0.040698428
211	0xbc9834d4	-0.018579878
212	0x3d812343	0.06305554
213	0x3d8a0e6f	0.06741034
214	0xbb63f120	-0.0034781173
215	0xbcebbd6c	-0.028776847
216	0xbda5f16e	-0.0810269
217	0x3d4d6962	0.05014933
218	0xbcebefcc	-0.028800867
219	0xbd9a5dd8	-0.075374305
220	0x3ceb8bcc	0.028753184
221	0x3da36efd	0.07980154
222	0x3bca1c40	0.0061679184
223	0xbd83c3c0	-0.06433821
224	0xbdb26a7f	-0.08711719
225	0xbca79758	-0.020457909
226	0xbd95c679	-0.07313246
227	0xbced9cf2	-0.029005501
228	0xbd4963b5	-0.049167354
229	0xbc9f625c	-0.019456081
230	0x3d4a7126	0.049424313
231	0xbc384528	-0.011246957
232	0xbd582b9a	-0.052775957
233	0x3d8f7673	0.07005014
234	0xbda9a0f5	-0.08282653
235	0x3c590248	0.013245173
236	0x3d05b976	0.032647572
237	0x3d5a365e	0.053274505
238	0x3d8ab6ed	0.067731716
239	0xbd938152	-0.072024
240	0x3ba7a580	0.0051161647
241	0xbaba5a40	-0.001421757
242	0xbc824968	-0.015904143
243	0x3b16a020	0.0022983626
244	0x3db14019	0.08654804
245	0xbd640f63	-0.055678736
246	0x3d9a2469	0.07526476
247	0x3c1260d8	0.008934222
248	0x3c22fed8	0.009948455
249	0xbd1ae9ee	-0.03782075
250	0x3bba9d60	0.00569503
251	0xbc0d3670	-0.008618936
252	0x3caee6e4	0.021350332
253	0x3ce6e594	0.028185643
254	0x3d19e0ca	0.03756789
255	0xbca78d5c	-0.020453148

default.encoder_fc.0.bias f4 [128]
0	0x3d31fae6	0.043452166
1	0x3c876f2c	0.016532503
2	0xbd920428	-0.07129699
3	0xbc235a48	-0.009970255
4	0x3db1033b	0.08643194
5	0xbda660fe	-0.081239685
6	0x3d3ffc3e	0.046871416
7	0x3d1d20f2	0.038361497
8	0x3c426290	0.011864319
9	0xbd86441b	-0.06555959
10	0x3d1eb656	0.038748108
11	0xbdab55cb	-0.08365973
12	0xbd877b1a	-0.06615277
13	0x3b197a00	0.0023418665
14	0x3c9ecb3c	0.01938402
15	0xbdb26f35	-0.08712617
16	0xbc479dd8	-0.012183629
17	0xbc7f2c48	-0.015574522
18	0xbd9765a9	-0.07392437
19	0xbd25507c	-0.04035996
20	0x3d7f631a	0.06235037
21	0xbd887f4e	-0.066649064
22	0x3db4e8a1	0.08833433
23	0xbd93cc60	-0.07216716
24	0x3c3cce18	0.011523746
25	0x3d0499b2	0.032373138
26	0xbd98006b	-0.07421955
27	0x3d505396	0.050860964
28	0x3d995503	0.07486918
29	0xbd55b225	-0.052171845
30	0x3d844423	0.064583085
31	0xbca7b990	-0.020474225
32	0xbdaa613f	-0.083193295
33	0x3d077744	0.033072725
34	0xbd508d3c	-0.05091594
35	0xbcce66f8	-0.025195584
36	0x3c1c6c60	0.009547323
37	0xbd404a55	-0.04694589
38	0x3d7375aa	0.059438385
39	0x3c889e84	0.016677149
40	0x3c0c9008	0.008579262
41	0xbdac79dd	-0.08421681
42	0xbd8ad3a1	-0.06778646
43	0x3d3964f2	0.045262285
44	0xbd67d01d	-0.056594957
45	0x38826000	6.2167645e-05
46	0x3d84bfb7	0.06481879
47	0x3d26a7de	0.040687434
48	0x3cb9f83c	0.022701375
49	0xbdb470ed	-0.088106014
50	0x3da64bfb	0.08119961
51	0x3d5658c2	0.05233074
52	0xbc8aecd0	-0.016958624
53	0xbc04cb68	-0.008105136
54	0x3c2fe710	0.010736242
55	0x3c80f86c	0.015743457
56	0xbb8296e0	-0.003985271
57	0xbc276610	-0.010217205
58	0xbbcfab80	-0.006337583
59	0x3d43dad2	0.047816105
60	0x3d99dabd	0.07512424
61	0x3d5d3b2e	0.054011516
62	0xbd9460f5	-0.072450556
63	0x3d809c0f	0.06279766
64	0x3d1502a2	0.036379464
65	0xbc1d9918	-0.00961902
66	0xbce9b61e	-0.028529223
67	0x3d9a20a5	0.07525758
68	0x3d81faa9	0.06346638
69	0xbcb47b6c	-0.022031508
70	0xbd1ce640	-0.03830552
71	0xbccd4ec8	-0.02506198
72	0x3d561fee	0.052276544
73	0xbd5b15c9	-0.053487573
74	0xbd5cb4dc	-0.05388342
75	0x3d846a05	0.06465534
76	0x3c81ec28	0.015859678
77	0xbc9f1b14	-0.019422092
78	0xbd04e0e8	-0.03244105
79	0x3c406b80	0.01174438
80	0x3d137202	0.0359974
81	0x3d5fb5da	0.054616787
82	0x3c2a7ad0	0.010405257
83	0xbc087b58	-0.008330189
84	0xbc05d398	-0.008168124
85	0x3da96597	0.0827133
86	0x3d4f9c02	0.05068589
87	0x3c5725e8	0.013131596
88	0xbd49be51	-0.049253765
89	0xbd9d993e	-0.07695244
90	0xbd827d84	-0.063715965
91	0xbd3ad9d7	-0.045617905
92	0x3cb24f20	0.021766245
93	0x3c08dc40	0.008353293
94	0x3d8758bb	0.06608721
95	0xbd489ba7	-0.048976567
96	0x3d72f65e	0.059316985
97	0x3d8a4509	0.06751449
98	0xbd875992	-0.06608881
99	0xbd7ef8aa	-0.062248863
100	0xbd28fc05	-0.04125597
101	0x3d624e4e	0.05525046
102	0x3da8824d	0.08227978
103	0x3d0cdb10	0.0343886
104	0xbda1023b	-0.078617536
105	0x3c6e7a18	0.014555477
106	0xbce01474	-0.027353503
107	0x3cd46914	0.025929011
108	0xbcc15c68	-0.023603633
109	0xbc098fa8	-0.008396067
110	0xbd5babf5	-0.053630788
111	0x3d7a5e16	0.061124884
112	0x3db324c7	0.08747249
113	0x3daa55c5	0.083171405
114	0xbd64b4b5	-0.0558364
115	0x3db1a48f	0.08673965
116	0xbd40c764	-0.047065154
117	0x3d543642	0.051809557
118	0xbc6a0d20	-0.014285356
119	0xbce9719e	-0.02849656
120	0xbdb2228e	-0.08697997
121	0x3dac03fd	0.08399198
122	0x3da1041b	0.07862111
123	0x3d071c42	0.032985933
124	0x3d71e342	0.05905462
125	0x3cafb48c	0.021448396
126	0x3d884c9f	0.06655239
127	0xbdb03c72	-0.08605279

default.encoder_fc.3.weight f4 [128, 128]
0	0xbdaa0116	-0.083009884
1	0xbdb0b19f	-0.086276285
2	0xbd9eec04	-0.0775986
3	0x3d95c1cb	0.07312354
4	0x38ad7c00	8.27238e-05
5	0x3ce46544	0.027880318
6	0x3bb0e460	0.005398318
7	0xbd4316da	-0.047629215
8	0x3c4fa3b0	0.0126733035
9	0x3d49660e	0.049169593
10	0x3c8e1a48	0.017346516
11	0x3d4a048a	0.049320735
12	0xbc772778	-0.015085094
13	0xbcff6b4a	-0.03117909
14	0xbc8f5ce0	-0.017500341
15	0x3d9cb789	0.07652194
16	0xbd0bb98a	-0.03411249
17	0xbd9a4f82	-0.07534696
18	0xbd94c5d9	-0.07264299
19	0xbdaba025	-0.083801545
20	0xbda26c44	-0.07930806
21	0xbdaa6f1e	-0.08321975
22	0x3d69ef5a	0.05711303
23	0x3d6be8b6	0.057594977
24	0xbd9f28c2	-0.07771446
25	0x3d88f985	0.06688217
26	0x3cd4a738	0.025958642
27	0xbd8f83d4	-0.07007566
28	0x3ba75760	0.0051068515
29	0x3d70f756	0.058829628
30	0xbd7662e6	-0.06015291
31	0x3d7aa91a	0.061196424
32	0x3dae7aed	0.0851954
33	0x3b8a84f0	0.004227273
34	0x3d29931a	0.041400053
35	0x3d9de509	0.077097006
36	0xbd16a871	-0.036781732
37	0x3d3fb91e	0.0468074
38	0x3d84d3cd	0.0648571
39	0x3d979e45	0.074032344
40	0x3d9355f3	0.07194128
41	0xbd7f6268	-0.062349707
42	0xbd7d3bf8	-0.06182477
43	0x3d73f1ea	0.05955688
44	0xbd30de72	-0.04318089
45	0xbd30fdfa	-0.04321096
46	0xbd437998	-0.047723383
47	0x3c0d08c8	0.008608051
48	0x3d190336	0.037356578
49	0x3ce3db08	0.027814403
50	0xbd9ded48	-0.077112734
51	0x3d822f35	0.0635666
52	0x3d240ac2	0.040049322
53	0xbd79360c	-0.06084256
54	0xbd834873	-0.06410303
55	0x3d728c8e	0.059216075
56	0xbd0a1883	-0.033714782
57	0xbd9a957c	-0.07548043
58	0xba800f80	-0.0009770244
59	0xbd533fa9	-0.051574383
60	0xbd05c77b	-0.032660943
61	0xbc94008c	-0.018066667
62	0xba5b3600	-0.00083622336
63	0x3d91fb43	0.071280025
64	0x3beaeef0	0.007169597
65	0x3d7d4786	0.06183579
66	0x3be40720	0.006958857
67	0xbd97d001	-0.074127205
68	0x3d978425	0.073982514
69	0xbdb47e5d	-0.088131644
70	0x3d8f6f87	0.07003694
71	0xbd30459f	-0.043035146
72	0xbbcda7d0	-0.0062761083
73	0xbd8908c4	-0.06691125
74	0xbd9f64aa	-0.07782872
75	0xbcf0136c	-0.029306136
76	0x3d9ac47f	0.0755701
77	0x3d86ffcd	0.06591759
78	0x3d4f676a	0.050635733
79	0xbd9f5985	-0.07780746
80	0x3cb3a7f4	0.021930672
81	0x3d920f83	0.07131865
82	0xbd6a646b	-0.057224672
83	0xbd26dd8c	-0.040738627
84	0x3b83ea70	0.00402575
85	0xbcfd9292	-0.03095368
86	0xbc368a78	-0.011141412
87	0x3d9df913	0.07713523
88	0xbd8a59c5	-0.067554034
89	0x3d9f57d1	0.077804215
90	0xbd3a0ec2	-0.04542423
91	0x3da62cef	0.08114039
92	0x3d78386e	0.06060069
93	0x3c950130	0.018189043
94	0x3dac0ffb	0.084014855
95	0x3db49c31	0.08818854
96	0x3bea9bd0	0.0071596876
97	0xbcfb141e	-0.030649241
98	0x3daa7423	0.083229326
99	0x3cf80870	0.03027746
100	0x3d41d30e	0.047320418
101	0xbb8c39a0	-0.0042793304
102	0x3d802fb1	0.062590964
103	0x39a19a00	0.00030823052
104	0x3cc70788	0.024295583
105	0xbd7c8f3a	-0.06166003
106	0xbd4343c1	-0.047672037
107	0x3b8c9b10	0.004290946
108	0xbceb55fc	-0.028727524
109	0xbda45f52	-0.080259934
110	0x3c9505e4	0.018191285
111	0x3c480178	0.012207381
112	0xbccce078	-0.025009379
113	0xbc3f65d0	-0.011681989
114	0xbd96df1f	-0.07366776
115	0xbdada247	-0.084782176
116	0x3d020d9a	0.031751253
117	0x3d4957fe	0.04915618
118	0x3d93fa15	0.07225434
119	0x3d8b3311	0.067968495
120	0x3d943bd5	0.072379746
121	0x3bbb24b0	0.0057111606
122	0xbd892a59	-0.0669753
123	0xbd92d141	-0.07168818
124	0x3cd9dba8	0.026593998
125	0xbd2fea89	-0.04294828
126	0x3be1d180	0.0068914294
127	0x3db44b9b	0.08803483
128	0xbd968bc6	-0.073508784
129	0xbd9daf0c	-0.07699403
130	0x3d40e2b2	0.047091193
131	0x3d641ff2	0.055694528
132	0x3dab3ddb	0.08361407
133	0x3d8472a1	0.06467176
134	0xbda18b02	-0.07887842
135	0x3d9015ef	0.070354335
136	0xbdaed866	-0.085373685
137	0x3a638a80	0.0008680001
138	0xbbb46840	-0.0055055916
139	0x3c498318	0.012299322
140	0x3ce49060	0.027900875
141	0x3d55c226	0.052187108
142	0x3c03f9e0	0.00805518
143	0x3d0b659c	0.03403245
144	0x3d6523ee	0.05594247
145	0x3dac0fef	0.084014766
146	0x3d58591e	0.052819364
147	0xbd814796	-0.06312482
148	0x3d5dfcc6	0.05419614
149	0x3b83b1d0	0.0040189996
150	0x3d447916	0.04796704
151	0xbd975d00	-0.07390785
152	0xbc1f21d8	-0.009712659
153	0xbbfd6910	-0.0077334717
154	0x3d9baed5	0.07601706
155	0xbd876961	-0.06611896
156	0xbd73baca	-0.059504308
157	0xbbe52390	-0.006992765
158	0xbcab6e50	-0.020926625
159	0xbd644ac6	-0.055735372
160	0x3ce86280	0.028367281
161	0xbba0aa70	-0.0049031302
162	0x3d1954e6	0.03743448
163	0x3d94bcc3	0.07262566
164	0x3c96d9f4	0.018414475
165	0xbd7e8dfd	-0.06214713
166	0x3d7b97c6	0.06142404
167	0x3d821a73	0.06352701
168	0xbdb320ee	-0.08746515
169	0xbd7c7c58	-0.06164202
170	0x3d835639	0.0641293
171	0xbd809488	-0.0627833
172	0x3d4432d6	0.047900043
173	0xbd2c3af8	-0.042048424
174	0x3daea323	0.085272096
175	0x3c20ec68	0.009821989
176	0x3d58be5a	0.05291591
177	0xbc4d8070	-0.012542829
178	0x3cc3a728	0.023883417
179	0x3d79df62	0.06100405
180	0x3d36dd9e	0.044644944
181	0x3c91470c	0.017734073
182	0x3c79d9e8	0.015249707
183	0x3c86b56c	0.01644393
184	0x3d8b2953	0.06794991
185	0x3d88b51f	0.06675171
186	0xbd1a319e	-0.037644975
187	0x3c3b5c48	0.011435576
188	0xbdaeecb5	-0.08541242
189	0xbd1d2970	-0.038369596
190	0xbbbb94e0	-0.0057245344
191	0xbc10a1c0	-0.008827627
192	0x3c74e6b0	0.014947578
193	0x3b8b73e0	0.0042557567
194	0x3db0f95f	0.08641314
195	0xbb343700	-0.0027498603
196	0x3cdd87ac	0.027042232
197	0xbdb1f06a	-0.086884335
198	0xbdb14fa3	-0.086577676
199	0x3d91f0c3	0.07126
200	0xbcaf10a4	-0.02137024
201	0x3d6f49da	0.05842004
202	0xbd333935	-0.04375573
203	0xbcf4413c	-0.029816262
204	0x3d61ef0a	0.055159606
205	0x3d216e22	0.03941167
206	0xbc65e430	-0.014031455
207	0x3cfc0158	0.03076236
208	0x3d127b30	0.035762012
209	0xbc3ebde8	-0.011641957
210	0x3c6772c8	0.014126487
211	0x3d6a68ba	0.05722878
212	0x3bee5400	0.007273197
213	0x3d47d342	0.048785456
214	0xbc343c00	-0.011000633
215	0x3d086fdc	0.033309802
216	0x3c2180b8	0.009857349
217	0x3d4d7622	0.05016149
218	0xbc2e99f0	-0.010656819
219	0x3ca99230	0.02069959
220	0xbb4fb260	-0.0031692013
221	0xbdb0aae0	-0.08626342
222	0x3be7d9c0	0.0070755184
223	0x3d82c883	0.06385901
224	0xbd81b385	-0.06333069
225	0xbd2a3e67	-0.041563418
226	0xbabcb000	-0.0014395714
227	0x3d63ba26	0.055597447
228	0x3d4f538e	0.050616793
229	0x3c74a8e0	0.014932841
230	0x3d99c731	0.07508696
231	0xbd910529	-0.07081062
232	0x3b0f88c0	0.0021901578
233	0xbceec568	-0.029146865
234	0xbd335c2d	-0.043789078
235	0xbc5399d0	-0.01291509
236	0xbc9d633c	-0.019212358
237	0xbcb763b8	-0.022386417
238	0xbca8884c	-0.020572804
239	0x3d57ed92	0.0527168
240	0x3c403ac0	0.011732757
241	0xbd32a42f	-0.04361361
242	0xbdb2492e	-0.08705364
243	0x3d80cd9d	0.062892176
244	0xbd8b9901	-0.068162926
245	0x3d2dc52e	0.042424373
246	0xbc088dd0	-0.008334592
247	0x3d052a72	0.032511182
248	0xbd64c7c1	-0.055854563
249	0x3db2ce47	0.087307505
250	0xbd6fe173	-0.058564615
251	0xbd218e52	-0.039442368
252	0xbd89b072	-0.067231074
253	0xbd78df56	-0.060759865
254	0x3ce53264	0.02797813
255	0x3d8cfac7	0.068837695

default.encoder_fc.3.bias f4 [128]
0	0x3da7d0ad	0.081940986
1	0xbd5c1d59	-0.053738926
2	0xbd9f2add	-0.077718474
3	0x3c1ffe28	0.009765185
4	0xbd1c7c8a	-0.038204707
5	0x3d9a7ddf	0.07543539
6	0x3d609f2e	0.054839306
7	0x3d6d7d2e	0.05798071
8	0xbd89897e	-0.06715678
9	0x3cc27cac	0.023741089
10	0xbce73826	-0.028225016
11	0xbc1b1eb8	-0.009467773
12	0xbd804806	-0.062637374
13	0x3c11ce08	0.008899219
14	0x3cd4f178	0.025994048
15	0xbd607faf	-0.05480927
16	0x3d0e8682	0.034796245
17	0xbd4a304b	-0.049362462
18	0xbd8f8c9f	-0.07009243
19	0x3d275c5a	0.040859558
20	0x3bd40400	0.0064702034
21	0x3d3cd70a	0.046103515
22	0x3a43f200	0.00074747205
23	0x3d095a3c	0.03353332
24	0xbdaf6dfc	-0.085659
25	0x3badf870	0.005309157
26	0x3db35ef1	0.08758343
27	0xbda00d6a	-0.078150585
28	0xbd9f3383	-0.07773497
29	0xbd661fce	-0.056182675
30	0x3d87467f	0.06605243
31	0xbb8c6f10	-0.0042857006
32	0xbd9d4ba0	-0.0768044
33	0xbd8f0dfd	-0.0698509
34	0xbcf158a0	-0.029461205
35	0x3d737aaa	0.059443153
36	0x3da10ea1	0.07864118
37	0x3cb5b120	0.022179186
38	0x3dac3c5d	0.08409951
39	0x3da8e0cd	0.08246002
40	0x3db1d263	0.08682706
41	0xbcf10240	-0.029420018
42	0xbc047518	-0.008084558
43	0x3d197766	0.037467383
44	0x3cc8530c	0.024453662
45	0x3db29b6d	0.08721051
46	0x3d0be802	0.034156807
47	0xbcd55bee	-0.026044812
48	0xbc52bd48	-0.012862511
49	0x3d178782	0.036994465
50	0xbd48d745	-0.049033422
51	0xbdb094e6	-0.0862215
52	0x3b807cb0	0.003921114
53	0xbcbb6bac	-0.02287849
54	0x3d4a47f2	0.04938502
55	0x3d9fc2cb	0.07800826
56	0x3d24ea56	0.040262543
57	0x3cf0d640	0.029399037
58	0xbd2587dc	-0.04041277
59	0x3c4376d0	0.011930183
60	0x3bb586b0	0.0055397376
61	0x3d1ad04e	0.03779631
62	0x3d9d2b5f	0.07674288
63	0xbc350388	-0.011048205
64	0x3d34aef6	0.04411217
65	0xbcce1e18	-0.025160834
66	0xbd26329d	-0.040575612
67	0xbd14ea37	-0.036356177
68	0x3d68497a	0.056710698
69	0x3d79fc16	0.061031424
70	0x3c7660b8	0.015037708
71	0x3d5fed4e	0.05466967
72	0x3d00bb0e	0.03142839
73	0xba4cfb00	-0.00078193843
74	0x3d75f12e	0.06004446
75	0x3d0c1d76	0.034207784
76	0x3ced8cc4	0.028997786
77	0xbd5d4940	-0.054024935
78	0x3cb5ff00	0.02221632
79	0x3d81ad03	0.063318275
80	0xbc2274f8	-0.009915583
81	0x3ce9919c	0.028511815
82	0xbd9335f6	-0.071880266
83	0x3d506fde	0.050887935
84	0xbccd2324	-0.02504117
85	0xbd889cc1	-0.066705234
86	0xbd6be3a3	-0.05759014
87	0x3d184166	0.037171744
88	0xbd15fd64	-0.036618605
89	0x3c1d2a40	0.009592593
90	0x3d172512	0.036900587
91	0xbd09f95a	-0.033685066
92	0x3d22900e	0.039688163
93	0x3d918ac3	0.07106545
94	0xbcacc068	-0.02108784
95	0x3c6de198	0.014519118
96	0xbd485f26	-0.048918866
97	0xbd6e07f4	-0.058113053
98	0xbca95970	-0.02067253
99	0x3d6d3962	0.057916053
100	0x3d81dd39	0.06341023
101	0x3da4d001	0.08047486
102	0xbc6d57c0	-0.014486253
103	0xbc882aa8	-0.016621903
104	0xbda6f676	-0.081524774
105	0x3d5f670e	0.05454164
106	0x3cb9996c	0.022656165
107	0x3d4c17ea	0.049827494
108	0xbcf64970	-0.030064315
109	0x3db29fd7	0.08721893
110	0x3d7e0baa	0.062022842
111	0x3c433240	0.011913836
112	0xbd04ec17	-0.032451715
113	0x3d84b39f	0.064795725
114	0xbd9519b5	-0.07280294
115	0x3d52c802	0.051460274
116	0x3db1034b	0.08643206
117	0x3d306602	0.043066032
118	0x3b997a30	0.0046837553
119	0xbd65ebe3	-0.056133162
120	0x3c6977a0	0.014249712
121	0x3c8729bc	0.016499393
122	0xbda53f00	-0.08068657
123	0x3d27b186	0.040940784
124	0x3d9f18fb	0.077684365
125	0xbc1f8fd8	-0.009738885
126	0x3d43fe0a	0.047849692
127	0x3c122cd8	0.008921824
