models/mnist-relaxed1E/encoder_z2_z1_-2605077031886239214.pt (torch_old, 88270 bytes, 8 tensors)

default.encoder.to_hidden.weight f4 [128, 19]
0	0xbd3bc2e3	-0.045840155
1	0xbdb59f02	-0.08868219
2	0x3e030d31	0.12798001
3	0x3da44f59	0.08022947
4	0xbb71c1e9	-0.003688926
5	0xbdba1b61	-0.09087253
6	0x3e0ae108	0.13562405
7	0xba1b9562	-0.00059350405
8	0xbda13e70	-0.07873237
9	0x3c434e9d	0.011920598
10	0x3b90e0c6	0.0044213263
11	0xbf1c4c93	-0.61054343
12	0x3e827a11	0.25483754
13	0x3e9747df	0.2954702
14	0xbe56ca88	-0.20975697
15	0x3dd10423	0.10205867
16	0xbcf0876e	-0.029361453
17	0xbdc23663	-0.0948303
18	0x3cebca51	0.028782995
19	0x3daa4758	0.08314389
20	0x3d708c39	0.058727477
21	0xbca855a9	-0.020548658
22	0xbe2aba40	-0.16672611
23	0x3d6ad5c3	0.057332765
24	0x3a9a782f	0.0011785085
25	0x3da1507b	0.078766786
26	0x3e0ddb2f	0.13853143
27	0xbdf15389	-0.11783511
28	0x3df50e72	0.11965646
29	0xbf04ebc6	-0.5192226
30	0x3ea37903	0.31928262
31	0xbec2d982	-0.3805657
32	0x3f17f5b2	0.59359276
33	0x3e5ae8e4	0.21377903
34	0xbdf1d059	-0.11807317
35	0x3efe845e	0.49710363
36	0xbd9d9416	-0.07694261
37	0x3d83060c	0.06397638
38	0x3e3213f4	0.17390424
39	0x3d14c8b9	0.036324237
40	0x3db7552e	0.089517936
41	0xbc0fbfe3	-0.008773777
42	0xbd00a7d4	-0.031410053
43	0x3e20c098	0.15698469
44	0x3cd36fba	0.025810111
45	0xbd1535f3	-0.036428403
46	0x3d866dab	0.06563886
47	0x3d726f3c	0.059188113
48	0x3e80c816	0.25152653
49	0xbdd913db	-0.1059949
50	0xbd46509e	-0.048416726
51	0x3c2cdc17	0.01055052
52	0xbe95c181	-0.29249194
53	0xbdd24baa	-0.10268338
54	0x3d9c947a	0.07645507
55	0xbdf62f3d	-0.12020729
56	0x3dcb21f5	0.09918586
57	0xbd54064d	-0.05176382
58	0x3d91d384	0.071204215
59	0x3cbbd026	0.022926401
60	0xbdf3953c	-0.118936986
61	0x3dbe733d	0.09299324
62	0xbd146a3a	-0.036234118
63	0x3c8a4ca6	0.016882252
64	0x3d458adc	0.04822813
65	0xbe024b41	-0.1272402
66	0x3b9bebdb	0.004758341
67	0xbe2a3acc	-0.16623992
68	0xbe36961c	-0.178307
69	0xbea64e4e	-0.32481617
70	0x3d827e67	0.063717656
71	0x3e22b257	0.15888344
72	0xbe96aa1b	-0.29426655
73	0x3e2e9601	0.1704941
74	0x3d57c4f8	0.05267808
75	0x3dad0f6e	0.084502086
76	0xbde54fdf	-0.11196875
77	0x3d806d06	0.062707946
78	0xbd40b3c3	-0.047046434
79	0xbdb80432	-0.08985175
80	0x3cfb0fd8	0.030647203
81	0xbcb2f76c	-0.021846496
82	0xb97ce05c	-0.00024116173
83	0x3e13b52e	0.14424583
84	0xbe53caff	-0.20682906
85	0xbcd93230	-0.02651319
86	0xbe3c5143	-0.18390374
87	0x3d9b8569	0.07593805
88	0xbde0df9a	-0.109801486
89	0xbe5e7919	-0.21725883
90	0x3eaa601c	0.3327645
91	0x3ca6b14c	0.020348214
92	0x3e34cc64	0.17656094
93	0xbb37fbcf	-0.0028073674
94	0xbe147bad	-0.14500304
95	0xbd75c606	-0.060003303
96	0xbe1528f1	-0.14566399
97	0x3e1e28cd	0.15445252
98	0x3d80397b	0.062609635
99	0x3aad20e6	0.0013208657
100	0xbdde6420	-0.10858941
101	0x3d80edbe	0.06295346
102	0x3d1c2487	0.038120773
103	0xbd754e13	-0.05988891
104	0xbc468e1f	-0.012118845
105	0x3e455e21	0.19274189
106	0xbebef78e	-0.37298244
107	0x3e9ddf21	0.30834296
108	0xbcbee3f6	-0.02330206
109	0x3e6be459	0.23036326
110	0xbddcb024	-0.10775784
111	0x3e10f0bd	0.14154334
112	0xbe0427b0	-0.12905765
113	0xbe18a2c8	-0.14905846
114	0x3d70243c	0.058628306
115	0xbdd13028	-0.10214263
116	0xbe00f3f5	-0.12593062
117	0x3da1e731	0.079054244
118	0x3d93981c	0.07206747
119	0xbe08fec9	-0.13378443
120	0x3bdff1b7	0.0068342346
121	0x3c7a4ddc	0.015277352
122	0xbe083552	-0.1330159
123	0x3ce7f4e3	0.028315013
124	0x3ebae876	0.3650548
125	0xbd8f7732	-0.070051566
126	0x3e74428a	0.23853508
127	0xbe48544d	-0.19563408
128	0xbe4867e1	-0.19570877
129	0xbcdc42cc	-0.02688732
130	0xbe004894	-0.12527686
131	0xbe2b4bc0	-0.16728115
132	0xbe37c73b	-0.17947094
133	0x3d1afffb	0.03784178
134	0xbd5fdabd	-0.054651964
135	0x3d438bc6	0.04774072
136	0xbcac4e82	-0.02103353
137	0xbd25f871	-0.040520135
138	0x3dd04fea	0.101714924
139	0x3ce0cec3	0.027442342
140	0xbd2cdf43	-0.042205106
141	0x3d0e87fb	0.03479765
142	0xbd2d7e11	-0.042356554
143	0x3f258879	0.64661366
144	0xbee55239	-0.44789293
145	0x3d9ce5c8	0.07661015
146	0x3dfb8d16	0.122827694
147	0xbdae13e6	-0.08499889
148	0x3e0cbdf8	0.13744342
149	0x3e6d79c4	0.23190981
150	0xbc890682	-0.016726736
151	0xbd1edcdc	-0.038784847
152	0xbb44c8d5	-0.0030026932
153	0xbe14d87e	-0.1453571
154	0xbcf58738	-0.029971704
155	0x3cfd37de	0.030910429
156	0xbb08fa19	-0.0020901023
157	0xbdf73927	-0.12071448
158	0xbdd1e856	-0.10249393
159	0xbcf5d73b	-0.030009856
160	0x3d587da7	0.052854206
161	0xbbec53f5	-0.007212157
162	0xbd167aec	-0.03673832
163	0x3ee95762	0.4557448
164	0x3d8d8e8a	0.06911953
165	0xbdc7eeac	-0.0976232
166	0xbd12d5f9	-0.03584859
167	0x3e9b43b3	0.30325088
168	0x3c226c25	0.009913479
169	0x3e1611fa	0.14655295
170	0x3e759cfa	0.23985663
171	0xbd09646d	-0.03354304
172	0xbc009321	-0.007847578
173	0x3d9e5d1e	0.077326044
174	0x3dcd909a	0.10037346
175	0xbce48b63	-0.027898496
176	0x3d2383d0	0.039920628
177	0x3d288d06	0.041150115
178	0x3c72a2c4	0.014809314
179	0xbcf1f278	-0.029534563
180	0xbd088a49	-0.033335004
181	0x3ea99bf1	0.33126786
182	0xbf2bee28	-0.6716027
183	0x3ea9b74e	0.33147663
184	0xbe436c31	-0.1908424
185	0x3d9d0a29	0.076679535
186	0xbc43c59d	-0.01194897
187	0xbdb457bd	-0.08805797
188	0xbe55b2a3	-0.20868926
189	0x3cbe3a63	0.0232212
190	0x3c3db2c3	0.011578265
191	0xbd10d521	-0.035359506
192	0x3d3e9835	0.046531875
193	0x3e0fb087	0.14032184
194	0xbd92dc4b	-0.07170924
195	0x3e0f5db5	0.1400059
196	0x3ba7ad27	0.005117077
197	0xbd875041	-0.06607104
198	0xbcc14ba6	-0.023595642
199	0xbdf0b49b	-0.11753198
200	0xbdc99241	-0.09842349
201	0x3ea21b3a	0.31661397
202	0x3ce7f061	0.028312864
203	0xbea01aca	-0.31270438
204	0xbe3a2002	-0.18176273
205	0x3e8affe4	0.27148354
206	0xbdcea5aa	-0.10090192
207	0xbd9cf84c	-0.07664546
208	0x3b4324b7	0.0029776522
209	0xbdc88b84	-0.097922355
210	0xbd739c98	-0.05947551
211	0x3d1d2158	0.038361877
212	0xbd9e33e3	-0.0772474
213	0x3d889b62	0.06670262
214	0xbd8c72e7	-0.068578534
215	0xbd40f3a5	-0.047107358
216	0x3d85382f	0.06504857
217	0x3dbb858d	0.09156332
218	0x3dab6efe	0.083707795
219	0x3eafb780	0.34319687
220	0xbf14e62d	-0.5816372
221	0x3ea30450	0.31839228
222	0xbcbc9381	-0.023019554
223	0xbd873c5d	-0.0660331
224	0x3d63d08e	0.055618815
225	0xbac8c82c	-0.0015318445
226	0xbdb62cff	-0.08895301
227	0x3e1130a7	0.14178716
228	0xbde37a5b	-0.11107322
229	0x3d5f7b95	0.054561216
230	0x3dc755de	0.09733175
231	0x3db425c3	0.08796265
232	0x3d729ade	0.059229724
233	0x3d0906f5	0.0334539
234	0xbd6ceaa7	-0.05784097
235	0x3dd2256d	0.10261045
236	0x3a02b0b8	0.00049854396
237	0xbd8a9886	-0.06767373
238	0x3ef26e85	0.47349945
239	0xbecf98d0	-0.40546274
240	0xbdef0264	-0.11670378
241	0xbe476071	-0.19470383
242	0xbe0baab8	-0.13639343
243	0x3d0b9e08	0.034086257
244	0x3e1fe3cd	0.15614243
245	0xbec054d3	-0.37564716
246	0xbd9529c0	-0.07283354
247	0xbc50d479	-0.01274597
248	0xbd135144	-0.035966173
249	0xbe0d14d0	-0.1377747
250	0xbd98bf59	-0.07458372
251	0xbdc71a49	-0.0972181
252	0xbd95fdeb	-0.07323822
253	0xbdd58e18	-0.10427493
254	0xba7ab2ca	-0.0009563385
255	0x3dcc5426	0.099769875

default.encoder.to_hidden.bias f4 [128]
0	0xbe15a5ad	-0.14613982
1	0x3dd2dfca	0.102965906
2	0xbc8f60f6	-0.01750229
3	0x3d379d16	0.044827543
4	0x3e25f7fd	0.16207881
5	0x3da78bce	0.081809625
6	0xbde31d56	-0.1108958
7	0x3bbf4edc	0.005838258
8	0x3dbaf352	0.09128441
9	0xbe6e3180	-0.2326107
10	0x3dc772be	0.09738682
11	0xbda30df3	-0.07961645
12	0xbdb63461	-0.08896709
13	0x3df59903	0.11992075
14	0xbdcbbc6f	-0.0994805
15	0xbe7c51f0	-0.24640632
16	0x3e242738	0.16030586
17	0x3d946dc0	0.07247496
18	0xbe8decb2	-0.27719647
19	0x3df0bc43	0.11754658
20	0xbe28209b	-0.16418688
21	0xbe096c39	-0.1342019
22	0x3dd960a6	0.10614137
23	0x3d909adf	0.07060789
24	0xbe8ee9d5	-0.27912775
25	0xbe86e431	-0.2634597
26	0xbd9fc76a	-0.07801707
27	0xbe8f3b93	-0.2797514
28	0xbe6245e1	-0.22096969
29	0xbe9ddf70	-0.30834532
30	0xbd98a4ec	-0.07453331
31	0xbe94b207	-0.29042074
32	0xbd106414	-0.035251692
33	0x3db2222a	0.086979225
34	0x3e748491	0.23878695
35	0x3db43144	0.08798459
36	0xbe2629ee	-0.16226932
37	0xbe973f18	-0.29540324
38	0x3c923088	0.017845407
39	0x3d09e0ce	0.033661656
40	0x3d832c3b	0.06404921
41	0x3da48908	0.08033949
42	0xbe834cda	-0.2564457
43	0x3d97febb	0.07421633
44	0xbe11bf14	-0.14233047
45	0x3d72511d	0.059159387
46	0xbe5b6817	-0.21426426
47	0x3dee2dd3	0.11629834
48	0xbd977f2c	-0.07397303
49	0xbe9bf937	-0.30463573
50	0xbc83c638	-0.016085729
51	0x3dcb557c	0.09928414
52	0xbe22ea6e	-0.1590974
53	0xbda2ac42	-0.07943012
54	0xbc8c3840	-0.017116666
55	0xbe9cc37b	-0.3061789
56	0x3e357096	0.1771873
57	0x3df17c15	0.11791245
58	0xbdf3ae4a	-0.118984774
59	0x3dcb9d8a	0.099421576
60	0xbe80cfa0	-0.25158405
61	0xbe0c9bfe	-0.13731381
62	0x3e049c08	0.12950146
63	0xbdf900ca	-0.121583536
64	0xbe15cb2b	-0.14628284
65	0xbe5da2fc	-0.21644205
66	0x3d0d2eb1	0.034468357
67	0xbd1f2f34	-0.038863376
68	0xbe035c9f	-0.12828301
69	0xbe1d9c72	-0.1539171
70	0x3e0dbba3	0.13841109
71	0x3e5472d9	0.20746936
72	0x3d2691d5	0.04066642
73	0xbe326f17	-0.1742519
74	0xbe1fbf96	-0.15600428
75	0xbd0970a5	-0.03355469
76	0x3ddb1903	0.1069813
77	0x3e9145d2	0.2837358
78	0x3d450998	0.048104852
79	0x3d9021e8	0.07037717
80	0x3d83b745	0.0643144
81	0xbe1b1e98	-0.1514839
82	0x39bcf281	0.00036038834
83	0xbcfa87ac	-0.030582272
84	0xbe621fbb	-0.22082417
85	0x3dec031b	0.1152403
86	0xbd854140	-0.06506586
87	0xbe7153c3	-0.23567109
88	0xbe718c33	-0.23588638
89	0x3da5e6a3	0.08100631
90	0xbe2fe6ae	-0.17177841
91	0xbe8a966b	-0.27067885
92	0xbd2097b5	-0.03920718
93	0xbdab7453	-0.083717965
94	0xbe24e8de	-0.16104457
95	0xbe48ba14	-0.19602233
96	0xbe097996	-0.13425288
97	0xbe344f51	-0.17608382
98	0xbdd64e9f	-0.104642145
99	0x3cc40aee	0.023930993
100	0x3e584637	0.21120535
101	0x3e0851f4	0.13312513
102	0x3e35651b	0.1771435
103	0xbc5facb9	-0.01365202
104	0xbe648cb7	-0.22319303
105	0xbe6c4804	-0.23074347
106	0x3e2004eb	0.15626876
107	0x3e11d1fc	0.14240259
108	0x3d69b780	0.057059765
109	0x3e1e01e5	0.1543041
110	0x3e38501a	0.17999306
111	0x3dca4830	0.0987705
112	0x3d34bfc2	0.044128187
113	0x3deb905d	0.115021445
114	0xbe13fc8f	-0.14451812
115	0x3db8bda1	0.09020544
116	0x3e332905	0.17496116
117	0xbe5ed8e9	-0.21762432
118	0xbdaca419	-0.08429737
119	0xbe8a541c	-0.27017295
120	0xbe7c9b1b	-0.24668543
121	0x3d51b943	0.05120207
122	0x3dc26ebe	0.09493779
123	0xbea4aaf7	-0.32161686
124	0xbda54a4e	-0.08070813
125	0xbc26f554	-0.010190327
126	0xbe8b791c	-0.27240837
127	0xbe65f606	-0.22457132

default.encoder.to_out.weight f4 [128, 128]
0	0x3d814ea1	0.063138254
1	0xbd8df20a	-0.06930931
2	0xbd2c2176	-0.0420241
3	0x3c86fb10	0.016477138
4	0x3d1d2301	0.03836346
5	0x3c9eb9d4	0.01937572
6	0x3d6f6bf6	0.05845257
7	0x3cc1c916	0.023655456
8	0xbb978795	-0.004624317
9	0x3dee7f91	0.11645425
10	0xbc56f0f3	-0.01311897
11	0x3cb56b07	0.022145761
12	0xbd94d709	-0.07267577
13	0x3c1eaa8a	0.009684214
14	0xbcd00974	-0.025395133
15	0xbda0c5a0	-0.07850194
16	0x3c81c46a	0.015840728
17	0xbcedd643	-0.029032832
18	0x3c8d1da9	0.017226057
19	0xbd1cfd9e	-0.038327806
20	0x3d1b875f	0.037970897
21	0xbd5ebb04	-0.05437757
22	0x3d320271	0.04345936
23	0x3c9a8cda	0.018865991
24	0xbd8325ed	-0.06403718
25	0x3d228266	0.03967514
26	0xbc401d1b	-0.011725689
27	0xbce5c0b6	-0.028045993
28	0x3d83c3ab	0.06433805
29	0x3c11b542	0.008893313
30	0xbcdd730e	-0.027032401
31	0xbbb40008	-0.005493168
32	0xbc1e2231	-0.009651707
33	0x3d18f919	0.037346933
34	0xbd26ff11	-0.040770594
35	0x3cf58960	0.029972732
36	0xbbb78228	-0.0056002326
37	0xbc618194	-0.013763804
38	0x3c50a836	0.012735417
39	0xbd465dbe	-0.048429243
40	0xbca5fb8e	-0.020261552
41	0xbd7c61b1	-0.061616603
42	0x3d6cc17f	0.05780172
43	0xbd33aa3f	-0.04386353
44	0xbd2b673e	-0.041846506
45	0xbc82e9e9	-0.015980678
46	0xbc8c4e82	-0.01712728
47	0x3d3e66e7	0.046484854
48	0x3cab46ff	0.020907877
49	0x3d71409d	0.05889951
50	0x3d11fa7d	0.035639275
51	0x3d934eac	0.0719274
52	0x3d61b7ec	0.055107042
53	0x3ce88b20	0.028386652
54	0xbd852ca6	-0.06502657
55	0x3c9979e4	0.01873488
56	0xbc8e0883	-0.017338043
57	0x3d05ef7d	0.032699097
58	0xbcedbc04	-0.029020317
59	0xbd3ae436	-0.045627795
60	0xbda6d1a9	-0.08145458
61	0xbd2db79e	-0.04241144
62	0xbd5e0b85	-0.054210205
63	0x3d97124b	0.07376536
64	0x3c1dd54c	0.0096333735
65	0xbd9f9db8	-0.07793754
66	0x3d832e3e	0.06405304
67	0x3d6abafc	0.05730723
68	0x3d58054a	0.05273942
69	0x3d8aef47	0.0678392
70	0x3c74b630	0.014936015
71	0x3d9427b0	0.07234132
72	0x3ce56077	0.0280001
73	0x3d1c0b6d	0.038096834
74	0x3b806bb2	0.0039190883
75	0xbcd1ddec	-0.025618516
76	0xbd1a7d40	-0.037717104
77	0x3c91a75b	0.017779997
78	0xbd93be1f	-0.07213997
79	0xbcf3623a	-0.029709924
80	0xbdc2f15a	-0.095186904
81	0xbc662036	-0.014045766
82	0x3bc95dae	0.0061452007
83	0xbd42e45d	-0.047581065
84	0xbd24510c	-0.040116355
85	0x3d425724	0.047446385
86	0x3c9038ee	0.017605271
87	0x3d9528b8	0.07283157
88	0xbd5a9ce5	-0.053372283
89	0xbd3c7b2f	-0.046015915
90	0xbdca7d49	-0.098871775
91	0xbcb854e6	-0.02250142
92	0x3d236374	0.039889768
93	0xbcd8fb79	-0.026487099
94	0x3d44397e	0.04790639
95	0xbd5ad2b3	-0.053423595
96	0xbcbcfc55	-0.02306954
97	0x3c26d777	0.010183207
98	0xbd19b357	-0.037524547
99	0x3b3cf59f	0.0028832925
100	0xbd98f516	-0.074686214
101	0xbd06c7c9	-0.032905374
102	0xbd91d6ed	-0.07121072
103	0x3d13964d	0.03603201
104	0xbcb45d2d	-0.022017086
105	0x3cfb8156	0.03070132
106	0x3c24ddee	0.010062678
107	0xbc3fae35	-0.011699249
108	0x3ccef620	0.025263846
109	0xbdaedbf3	-0.08538046
110	0xbd99759e	-0.07493137
111	0x3cdbae35	0.026816467
112	0x3ca16186	0.019699823
113	0xbcc2b1f2	-0.023766492
114	0xbbc74b37	-0.0060819644
115	0xbcd48bb0	-0.025945514
116	0x3bd3ad32	0.0064598555
117	0xbce20b52	-0.027593289
118	0xbd9044b5	-0.07044355
119	0xbc7b0391	-0.0153206745
120	0xbb2fccee	-0.0026825028
121	0x3d5ce925	0.05393328
122	0xbd13ec07	-0.036113765
123	0x3d40a952	0.047036476
124	0xbd3830c3	-0.044968378
125	0x3d9a61ab	0.0753816
126	0x3d35772d	0.044303108
127	0xbd26df4c	-0.040740296
128	0x3cdd7d84	0.02703739
129	0xbc15195d	-0.009100285
130	0xbd8db38a	-0.0691901
131	0xbd5ed559	-0.054402683
132	0xbd8eca80	-0.069722176
133	0xbd618e58	-0.05506739
134	0x3da2aba9	0.07942898
135	0x3b98bd4c	0.004661238
136	0x3d934d47	0.07192474
137	0x3ca6b82a	0.020351488
138	0xbd719428	-0.058979183
139	0x3dc23994	0.094836384
140	0x38da0ae2	0.00010397077
141	0x3d67125e	0.056414
142	0x3b0d81bf	0.0021592227
143	0xbc58fedc	-0.013244357
144	0x3c52c86a	0.012865165
145	0xbc2ce6c5	-0.010553067
146	0xbd7ecb6d	-0.06220572
147	0x3d2eec4a	0.04270581
148	0xbdab6d07	-0.08370405
149	0x3d7edfdd	0.06222521
150	0x3d663f07	0.05621245
151	0xbd108495	-0.03528269
152	0xbaedbc12	-0.0018137714
153	0x3cf1a426	0.029497217
154	0xbd998f3f	-0.07498025
155	0x3d4dbbaa	0.0502278
156	0x3c88e4d3	0.016710674
157	0xbca17a72	-0.019711707
158	0xbca84383	-0.020540005
159	0x3c3b8345	0.011444871
160	0xbc2726c9	-0.010202118
161	0x3d8bb887	0.06822305
162	0xbd86cf4c	-0.065825075
163	0xbd4e9d4f	-0.05044299
164	0xbd8accad	-0.0677732
165	0xbc2d519d	-0.01057854
166	0x3ccbc5cb	0.024874588
167	0xbccfc076	-0.025360327
168	0x3d313441	0.043262724
169	0xbd8c7560	-0.06858325
170	0xbce9efb3	-0.02855668
171	0x3d933208	0.07187277
172	0xbd649f34	-0.05581589
173	0xbd4a3977	-0.04937121
174	0x3ccc0a6b	0.024907311
175	0x3b177604	0.0023111114
176	0x3d9ee6bd	0.077588536
177	0xbd7e3006	-0.062057517
178	0xbd6c87cf	-0.057746705
179	0x3d832e6b	0.06405338
180	0x3c28950d	0.010289443
181	0x3b38834a	0.0028154426
182	0xbd8bebfd	-0.068321206
183	0xbd730d4a	-0.059338845
184	0xbd6bc6ce	-0.05756264
185	0x3c509c8b	0.012732635
186	0x3d8db7c6	0.069198176
187	0xbd36abba	-0.044597365
188	0xbd5e9a31	-0.054346267
189	0x3d4b00cd	0.04956131
190	0xbd507a2e	-0.05089777
191	0xbca9e04d	-0.020736838
192	0x3ce13fa2	0.027496163
193	0xbdada378	-0.08478445
194	0x3ccf3cdb	0.025297573
195	0x3bca811c	0.006179942
196	0x3bc23a53	0.005927363
197	0x3d198f16	0.037489973
198	0xbca104b4	-0.019655563
199	0x3dafab7c	0.0857763
200	0xbd44a380	-0.04800749
201	0xbc6bfdac	-0.014403742
202	0x3d7e4797	0.062079992
203	0x3d4d85fb	0.0501766
204	0xbcae5748	-0.021281853
205	0x3d3e012e	0.046387844
206	0x3d678aa0	0.056528687
207	0xbcdda20b	-0.027054807
208	0x3d23669b	0.039892774
209	0x3c734202	0.01484728
210	0xbcb11833	-0.021617984
211	0xbd40f9c6	-0.047113203
212	0xbbe9c086	-0.0071335463
213	0xbb8f1817	-0.0043668854
214	0x3c84849c	0.016176514
215	0x3dc19672	0.09452523
216	0x3d040346	0.032229684
217	0xbd346231	-0.044038955
218	0xbd999e7b	-0.07500931
219	0xbc4457ee	-0.011983855
220	0xbc8d50f5	-0.017250517
221	0x3ca2437f	0.019807575
222	0x3c7858f5	0.015157928
223	0xbbec3343	-0.0072082593
224	0xbd4c7e1b	-0.04992495
225	0x3d0f814d	0.03503542
226	0x3d1abd04	0.037777916
227	0x3d259317	0.04042348
228	0x3c3c477d	0.0114916535
229	0xbd5c222b	-0.053743523
230	0x3b3011d7	0.0026866102
231	0x3d94b7f4	0.07261649
232	0xbcaac347	-0.020845069
233	0x3d4d3dd9	0.05010781
234	0x3d0cf134	0.034409717
235	0x3c2553fc	0.010090824
236	0x3d6011ea	0.054704584
237	0x3d40e31b	0.047091585
238	0x3bd89abe	0.0066102436
239	0xbd8e892b	-0.069597565
240	0x3c2efcc9	0.010680386
241	0x3d810c3b	0.06301161
242	0x3c060c61	0.008181662
243	0xbc3ec4f4	-0.011643637
244	0x3c4e8e05	0.012607102
245	0x3c973ec4	0.018462546
246	0xbd805ea1	-0.06268049
247	0x3d20f8be	0.03929972
248	0x3bc74d2e	0.0060821986
249	0xbcd993b1	-0.026559683
250	0xbd3ed7ec	-0.046592638
251	0x3c0bdfcd	0.008537245
252	0x3c8d46f0	0.01724574
253	0x3db31519	0.087442584
254	0x3d1cf8c6	0.038323186
255	0xbc6b6ff6	-0.014369955

default.encoder.to_out.bias f4 [128]
0	0xbd2a7f04	-0.041625038
1	0x3cb724fc	0.022356503
2	0xbd3eba3d	-0.04656433
3	0xbd98287f	-0.07429599
4	0xbdbc95dd	-0.09208272
5	0x3da5e786	0.081008
6	0x3e18c834	0.14920121
7	0xbbd420d8	-0.006473642
8	0xbc216afd	-0.009852168
9	0x3d82595f	0.063647024
10	0x3b699f9f	0.003564812
11	0x3dd4fcd7	0.10399788
12	0xbcc152cc	-0.023599051
13	0xbddd8543	-0.10816433
14	0xbde29b48	-0.11064774
15	0xbc0d8fc1	-0.008640231
16	0x3d823b75	0.06358997
17	0xbcb699ed	-0.022290194
18	0xbd338e9f	-0.043837186
19	0xbe040d83	-0.1289578
20	0xbe1b35a4	-0.15157181
21	0x3b045808	0.0020194072
22	0xbe2641d2	-0.16236046
23	0xbcd2cdad	-0.02573284
24	0x3c132864	0.008981798
25	0xbce0d9c1	-0.027447583
26	0xbde778f7	-0.11302369
27	0xbd7aef19	-0.061263178
28	0x3d2400ca	0.040039815
29	0xbd0d6887	-0.034523513
30	0x3d0085cb	0.031377595
31	0xbdee6330	-0.11640012
32	0xbe16ebc9	-0.14738382
33	0x3d0623e4	0.03274907
34	0x3de911c1	0.113803394
35	0xbb0bd7a3	-0.0021338246
36	0xbd25216a	-0.04031507
37	0x3ddb2df7	0.107021265
38	0x3ad2f7c9	0.0016095574
39	0x3d895ad4	0.06706777
40	0xbab9a7f5	-0.0014164435
41	0x3b295969	0.0025840646
42	0x3e057cc3	0.13035874
43	0x3ddbebe8	0.10738355
44	0x3cad3f9e	0.0211485
45	0xbd5647a8	-0.05231443
46	0xbd669bd0	-0.056300938
47	0xbdaa40b7	-0.083131246
48	0x3d6f20cc	0.058380887
49	0x3dbeff63	0.09326055
50	0x3d55817c	0.05212544
51	0x3d6561e1	0.056001548
52	0x3deff049	0.11715753
53	0x3d86f8f8	0.06590456
54	0xbd00358a	-0.03130106
55	0x3e1ba8cd	0.15201111
56	0xbca3af4d	-0.01998105
57	0x3d0e58c2	0.034752615
58	0x3d4901ad	0.049073864
59	0x3c498b5d	0.012301293
60	0x3e02cb28	0.1277281
61	0x3abda417	0.0014468458
62	0x3e2744e7	0.16334878
63	0x3d9bd6cb	0.07609328
64	0x3ce7a7de	0.028278288
65	0x3d997190	0.074923635
66	0xbd087db9	-0.033323023
67	0x3e27fe87	0.16405688
68	0xbd999ea7	-0.07500964
69	0xbd31f5b7	-0.043447223
70	0xbde5b0af	-0.1121534
71	0xbbde6d11	-0.006787904
72	0x3d3f011b	0.046631914
73	0xbc911c8e	-0.017713811
74	0x3d52f02d	0.05149858
75	0x3c0c9c6a	0.008582214
76	0x3db48958	0.08815259
77	0x3b120341	0.0022279772
78	0xbcc4b581	-0.024012329
79	0x3d8c16c9	0.068402834
80	0xbd076e38	-0.033064097
81	0x3cd40962	0.02588338
82	0xbbb20a14	-0.0054333303
83	0x3aff0bf6	0.0019458521
84	0xbd67a95e	-0.056558006
85	0x3dbce41d	0.09223197
86	0x3ca42139	0.020035373
87	0xbd81d7df	-0.06340002
88	0x3df61da8	0.12017375
89	0xbc221fd8	-0.009895287
90	0xbe19a44e	-0.15004084
91	0xbd655c82	-0.055996425
92	0x3ca26521	0.019823613
93	0xbd38972d	-0.045066047
94	0x3db86772	0.09004106
95	0xbd999854	-0.074997574
96	0xbd527993	-0.051385473
97	0x3d8b5fd8	0.0680539
98	0x3b8e1cd8	0.0043369345
99	0xbcb5a797	-0.02217464
100	0xbdcc8c8e	-0.09987746
101	0x3e136296	0.14393076
102	0xbd6bf415	-0.05760582
103	0xbd28aadf	-0.04117858
104	0xbd91c520	-0.07117677
105	0x3c53998f	0.012915029
106	0xbe1026bc	-0.14077276
107	0xbcb26444	-0.021776326
108	0xbcb86a0c	-0.022511505
109	0xbb41c04c	-0.002956408
110	0x3e157abe	0.14597604
111	0xbd3016e4	-0.04299058
112	0x3dd7b079	0.10531706
113	0x3d82cb29	0.06386406
114	0x3d659d2c	0.056058094
115	0x3d3dfd71	0.04638428
116	0xbd66121a	-0.056169607
117	0x3e0e5a27	0.13901578
118	0x3e064006	0.1311036
119	0x3d3f011d	0.04663192
120	0xbda68aab	-0.081319176
121	0xbbeb947d	-0.007189332
122	0xbcc114be	-0.023569461
123	0xbc5d31d7	-0.013500652
124	0x3de32468	0.11090928
125	0x3e05fa37	0.1308373
126	0x3dbf0cf8	0.093286455
127	0x3d950e58	0.072781265

default.mean_encoder.weight f4 [10, 128]
0	0x3c025735	0.007955362
1	0xbbc3f856	-0.0059805317
2	0x3ba35fe6	0.004985797
3	0x3b8b695c	0.004254503
4	0x39979896	0.0002891465
5	0x3c0eb6fd	0.00871062
6	0x3c56c5e1	0.013108701
7	0x3c23386a	0.009962181
8	0x3bb8ba06	0.00563741
9	0xbb61f316	-0.0034477166
10	0xbab23b48	-0.001359799
11	0xbb83945a	-0.0040154876
12	0x3b8bf8ce	0.004271603
13	0xbc5b5237	-0.013386301
14	0x3bb9d972	0.0056716735
15	0xbc09f8f4	-0.008421171
16	0x3b749352	0.0037319255
17	0xbaa67dd5	-0.0012702296
18	0xbaf52a84	-0.0018704687
19	0xbb19aece	-0.002345014
20	0xbbbb4ede	-0.005716189
21	0x3b0d0414	0.0021517323
22	0xbc7e4acc	-0.015520763
23	0x3ae266af	0.0017273034
24	0x393066ca	0.0001682296
25	0x3c25d683	0.010121944
26	0x3c669e18	0.014075778
27	0x3bba88d4	0.0056925807
28	0xbcb283ad	-0.021791304
29	0xbbf9e6f0	-0.007626407
30	0xbbe391db	-0.0069448776
31	0x3c580fb4	0.013187338
32	0xbc75684e	-0.014978481
33	0x3c069e5a	0.008216465
34	0xbbcdfcfe	-0.0062862625
35	0x3c03ff3b	0.008056457
36	0x3aa8498e	0.0012839304
37	0x3be4b52b	0.0069796047
38	0xbca466fe	-0.020068642
39	0x3d16bcf5	0.036801297
40	0xbb9fec05	-0.0048804306
41	0xbb42da45	-0.002973215
42	0x3b8ddb79	0.0043291417
43	0x3ca0d5f6	0.019633275
44	0xbc0a5e25	-0.008445297
45	0xbc3ea724	-0.011636529
46	0x3c43862e	0.011933846
47	0x3ad94780	0.0016577095
48	0x3c296b1f	0.010340481
49	0x3c002783	0.00782192
50	0xbc39cccb	-0.01134033
51	0x3c2750f2	0.01021217
52	0xbc02858c	-0.00796641
53	0x3c544b23	0.012957367
54	0xbbcd5657	-0.006266396
55	0x3c3c808c	0.011505257
56	0xbaf56efe	-0.0018725095
57	0xbc9252bc	-0.017861716
58	0xbbc3cb43	-0.0059751584
59	0x3c02ac29	0.0079756165
60	0xbb7e641e	-0.0038816999
61	0x3bc1bedd	0.0059126453
62	0xbc3ec6e4	-0.011644099
63	0xbb0cd39e	-0.0021488438
64	0xbbdbb459	-0.0067048487
65	0x39da4574	0.00041631947
66	0x3c1538c4	0.009107772
67	0xbbcd71b2	-0.006269657
68	0x3a9988f4	0.0011713789
69	0xbb4f3374	-0.0031616362
70	0xbb964ad7	-0.0045865583
71	0x3ba84e4c	0.005136287
72	0x3b203a85	0.0024448943
73	0x3c043991	0.0080703655
74	0x3c67169f	0.014104514
75	0xbba24fa7	-0.004953343
76	0x3b9ee581	0.0048491363
77	0xbb1f8c9a	-0.002434528
78	0x3c40a1a0	0.011757284
79	0xba20238f	-0.0006108814
80	0x3c0b0edd	0.00848743
81	0x3b94e325	0.0045436793
82	0xbbf57bb2	-0.0074915523
83	0x3cef43cf	0.029207138
84	0xbb8fd20a	-0.0043890523
85	0xbb2f3e62	-0.0026740064
86	0xbc46bf34	-0.012130547
87	0x3adb05b4	0.0016710074
88	0x3d0147e5	0.031562705
89	0xbb9ccbc4	-0.004785033
90	0x3ba4ee21	0.00503327
91	0x3c024b90	0.007952586
92	0xbc8ca61a	-0.017169047
93	0xbbafe901	-0.0053683524
94	0x3b89b764	0.00420277
95	0x3b1aae0b	0.0023602273
96	0x3beb6d2e	0.007184646
97	0xbb0d938c	-0.0021602837
98	0x3c13da01	0.009024144
99	0xbc3e7c8e	-0.011626376
100	0xbb2c9867	-0.0026335956
101	0xbb876cdc	-0.00413285
102	0xbb05a58b	-0.002039286
103	0xbbc560f7	-0.006023522
104	0x3c5129b2	0.012766289
105	0xbb8ebf4b	-0.0043563
106	0x3c2cfc08	0.010558136
107	0xbbffd6c1	-0.007807583
108	0x3c6164be	0.013756929
109	0xbc4afa32	-0.012388753
110	0x3b93c588	0.0045096315
111	0xbcae4e24	-0.021277495
112	0x3c334155	0.010940869
113	0x3be290a1	0.0069142138
114	0x3b553ff6	0.0032539344
115	0x3b016c36	0.0019748337
116	0x3ba2f8ae	0.0049734926
117	0xbc40fd84	-0.011779193
118	0x3cb54ea7	0.02213223
119	0xba5067b0	-0.0007950021
120	0x3b84b96f	0.0040504257
121	0x3cb4a3db	0.022050789
122	0x3c817f7a	0.015807856
123	0xbc907a26	-0.01763637
124	0x3b6a6706	0.0035766973
125	0xbc46a6dc	-0.012124743
126	0x3c36373e	0.011121569
127	0xbc2d717e	-0.010586141
128	0x3be0052e	0.006836555
129	0xbc5dff17	-0.013549588
130	0x3a049ba5	0.0005058593
131	0xbce09812	-0.027416263
132	0xbc751981	-0.014959694
133	0xbc81e7f3	-0.015857672
134	0x3a84266e	0.0010082254
135	0xbb6a3648	-0.003573792
136	0xbb88af14	-0.0041712616
137	0xbb249f26	-0.0025119274
138	0xbad27469	-0.0016056421
139	0xbabe2499	-0.0014506757
140	0x3c705cfe	0.014670609
141	0xbd0089c0	-0.03138137
142	0x3b97c4a2	0.0046315948
143	0x3b5e6fae	0.0033941078
144	0x3bab455e	0.005226775
145	0xbbba0df0	-0.005677931
146	0x3bc6961e	0.006060376
147	0x3bf2326a	0.0073912637
148	0x3c715ada	0.014731133
149	0x3b5ea55a	0.003397307
150	0xb9c1c9e4	-0.0003696225
151	0xbc171aff	-0.009222745
152	0x3c0ebbcb	0.0087117655
153	0xbc1780f3	-0.0092470525
154	0xbc6bd954	-0.014395077
155	0x3bab66a8	0.0052307434
156	0x3c2e6d70	0.010646209
157	0xbb3d1dd2	-0.0028856886
158	0x3c454b55	0.012041886
159	0x3c599b87	0.0132817095
160	0xba7c6b81	-0.00096290564
161	0x39f999b2	0.00047607493
162	0xba0e371a	-0.0005425081
163	0x3abcc2d9	0.0014401331
164	0x3c13a043	0.009010377
165	0xbca4ca4b	-0.020115992
166	0xbc7331c7	-0.014843411
167	0x3c979e3a	0.018508065
168	0xbbd744f2	-0.006569498
169	0xba4e542e	-0.000787082
170	0x3badf2d9	0.0053084907
171	0x3c522b01	0.012827636
172	0x3b45342e	0.0030090916
173	0xbc0c5051	-0.008564071
174	0x3b26c3b6	0.0025446243
175	0xbc2c3a9a	-0.010512019
176	0x3c774416	0.015091917
177	0x3bbf443c	0.0058369916
178	0x3bb19a3c	0.0054199975
179	0xbbbf6667	-0.0058410647
180	0xbc01c250	-0.007919863
181	0xba1a3d65	-0.0005883782
182	0x3b422784	0.0029625604
183	0x3c9be8a1	0.019031825
184	0x3c5f385f	0.01362428
185	0xbc8ad274	-0.016946055
186	0x3c2f0a99	0.010683679
187	0xbc2de854	-0.010614473
188	0x3c716505	0.014733558
189	0xbc4abec3	-0.012374583
190	0x3b636a34	0.0034700753
191	0x3c1515f3	0.009099471
192	0x3ae9ca76	0.0017836827
193	0xbc209a95	-0.00980248
194	0x3bd1ae0d	0.0063989223
195	0xbb6e819d	-0.0036393174
196	0x3b65858d	0.003502223
197	0x3c52c9f9	0.012865537
198	0xba58beda	-0.0008268185
199	0xbbde3e46	-0.006782326
200	0x3c143c64	0.009047601
201	0x3cb6e94f	0.022328047
202	0xbc710aea	-0.014712075
203	0x3c25482b	0.010088007
204	0x3bcf1543	0.0063196733
205	0xbafd1ee0	-0.001931157
206	0xbb4d34c2	-0.0031311964
207	0xbc57fda1	-0.013183028
208	0xbc6ba23a	-0.01438194
209	0xbc7fe1bc	-0.015617784
210	0x3a9d7421	0.0012012759
211	0xbc984479	-0.018587338
212	0xbcb1f96c	-0.021725379
213	0x3bb293ff	0.0054497714
214	0x37c34027	2.3275685e-05
215	0x3c3849fa	0.011248106
216	0xbb8b48fe	-0.0042506447
217	0x3c835df4	0.016036011
218	0xba26fcff	-0.0006370097
219	0xbc1893bf	-0.009312569
220	0xbc4855f6	-0.012227526
221	0xbbdd91bc	-0.0067617577
222	0xbb39746b	-0.002829815
223	0xbc114706	-0.008867031
224	0x3ba62d61	0.0050713276
225	0xbc6538b9	-0.0139905745
226	0xbbd791a8	-0.006578643
227	0x3be8ff4c	0.007110512
228	0x3bd58dad	0.006517133
229	0xbc26af1c	-0.010173585
230	0x37214100	9.611482e-06
231	0x3b170713	0.0023044988
232	0xbb5f17e6	-0.0034041344
233	0x3b8d1741	0.0043057506
234	0xbc20b86f	-0.009809597
235	0xbb3a1bef	-0.0028397997
236	0xbc5f0492	-0.0136119295
237	0xbb807caf	-0.0039211134
238	0x3ba69dd0	0.0050847307
239	0x3c41ed58	0.011836372
240	0x3b8d0a75	0.004304225
241	0x3b0aa52a	0.0021155574
242	0x3c10451c	0.008805539
243	0xbc01bd0d	-0.007918608
244	0xbbaf3b52	-0.0053476477
245	0xbca3dda0	-0.02000314
246	0x3cc08650	0.023501545
247	0x3b8feab6	0.0043919934
248	0x3c73ff0d	0.014892352
249	0x3b94385c	0.00452332
250	0xbc9559d1	-0.018231304
251	0xbc00416d	-0.007828099
252	0x3be8dd60	0.007106468
253	0xbc3bd12d	-0.011463446
254	0xbbaaba7a	-0.005210218
255	0x3b221aee	0.002473529

default.mean_encoder.bias f4 [10]
0	0x3c831898	0.016002938
1	0xbd1b143d	-0.037861098
2	0xbe0f33ef	-0.13984655
3	0x3d10be3f	0.035337683
4	0xbd2c5eed	-0.042082716
5	0xbc53d7e3	-0.012929889
6	0x3c6d2229	0.014473476
7	0xbd50342b	-0.050831
8	0x3c9ac014	0.018890418
9	0x3b15ab0f	0.0022837555

default.var_encoder.weight f4 [10, 128]
0	0x3aaebc67	0.0013331295
1	0x3c2cb24c	0.010540556
2	0x3c669dfc	0.014075752
3	0xbb85e71a	-0.0040863873
4	0x3bdee018	0.0068016164
5	0xbcbbba46	-0.02291597
6	0xbc8b6b9b	-0.017019084
7	0x3ca5beed	0.020232642
8	0xbb693ab2	-0.0035587964
9	0xbc1f6e9f	-0.009730964
10	0xbb63fd8a	-0.0034788572
11	0xbb64d14d	-0.0034914792
12	0x3b16d301	0.0023013952
13	0xbbdb43d1	-0.006691434
14	0x3c07cbed	0.008288366
15	0xbbc1fddc	-0.005920155
16	0xbc587b47	-0.013212985
17	0x3c8e83ec	0.01739689
18	0x3c05a896	0.00815787
19	0xbb1e4251	-0.0024148414
20	0xbc795c1d	-0.015219715
21	0x3c95c446	0.018282067
22	0x3cde7d45	0.027159343
23	0xbc10ecf1	-0.008845554
24	0x3b9b98b7	0.0047484296
25	0xbb56f832	-0.0032801745
26	0xbca21ffc	-0.019790642
27	0xbd049798	-0.032371134
28	0xbb3229f4	-0.002718565
29	0x3c3aa898	0.011392735
30	0xbb70dfed	-0.0036754564
31	0xbc030d33	-0.007998752
32	0x3c6fb62f	0.014630838
33	0xbc9cefd0	-0.01915732
34	0xbc08d65a	-0.008351887
35	0x3bb2badc	0.0054544043
36	0x3bce37ad	0.006293258
37	0x38bf027a	9.108051e-05
38	0x3c81ac8c	0.015829347
39	0xbc225571	-0.009908066
40	0x3c0f610e	0.008751167
41	0x3d04ca83	0.032419693
42	0x3be8767a	0.0070942016
43	0xbc3b8b74	-0.011446822
44	0xbc064701	-0.00819564
45	0xbb1090d1	-0.0022058974
46	0xba086b1f	-0.00052039506
47	0x3c1e78a7	0.00967232
48	0x3ad61a22	0.0016334692
49	0x3c347102	0.011013271
50	0x39c04c14	0.00036677776
51	0x3a912f06	0.0011076636
52	0xbbabb990	-0.0052406266
53	0xbbb05862	-0.00538163
54	0x3a686a17	0.0008865906
55	0xbc62d3a6	-0.013844406
56	0xbb1dcf09	-0.0024079701
57	0x3aae7e41	0.0013312773
58	0xbb336924	-0.00273759
59	0x3b174fe1	0.0023088383
60	0x3c1e2282	0.009651782
61	0x3b920a86	0.004456821
62	0xbc85d3cd	-0.016336346
63	0xbd00fdab	-0.031491917
64	0x3afecce9	0.001943973
65	0x3c0bb426	0.008526837
66	0xbc8bec01	-0.017080309
67	0x3c70f7f9	0.014707559
68	0xbaa1b912	-0.001233848
69	0x3cc424fa	0.023943413
70	0xbb881307	-0.004152659
71	0x3b6c5522	0.0036061485
72	0x3bda1eba	0.006656495
73	0xbb49bb51	-0.0030781815
74	0x3badca03	0.0053036227
75	0x3c14c91f	0.009081154
76	0xbc1f3495	-0.009717126
77	0xbc50da52	-0.012747364
78	0xbc3448d7	-0.0110036945
79	0xbc078e2c	-0.0082736425
80	0x3b83e779	0.0040253964
81	0x3c35866b	0.011079411
82	0xbc8a69b3	-0.016896104
83	0x3b4ff160	0.0031729564
84	0x3b082698	0.0020774957
85	0xbcd54872	-0.026035521
86	0x3c2109ec	0.009829026
87	0xbc419795	-0.011815925
88	0xbc8f3925	-0.017483303
89	0xba05a4d0	-0.00050981063
90	0x3c51cccb	0.012805174
91	0x3c4973f6	0.012295714
92	0x3c56556c	0.01308189
93	0xbc9d4f70	-0.019202918
94	0xbc4b4461	-0.0124064395
95	0xbb13c861	-0.0022549855
96	0xbbbdc953	-0.005791822
97	0x3b63d4ac	0.0034764213
98	0x3bf206d5	0.0073860683
99	0xbc7ba0b3	-0.015358138
100	0x3d00c6c8	0.031439573
101	0xbc3f190f	-0.011663689
102	0xbc4c7418	-0.012478851
103	0x3b421e16	0.0029619983
104	0xbccd0944	-0.025028832
105	0xbb71317e	-0.0036803181
106	0xbc179f24	-0.009254251
107	0x3bd5bd14	0.006522784
108	0x3bac795a	0.0052634897
109	0x3bad7f65	0.0052947276
110	0x3833b678	4.2846863e-05
111	0x3b85529a	0.0040686848
112	0xbbebf813	-0.0072012036
113	0x3c86f75a	0.016475368
114	0x3c7d71aa	0.015468994
115	0xbc321a7c	-0.010870572
116	0x3b241adf	0.002504043
117	0xbc57a420	-0.013161689
118	0x3c4566f6	0.012048474
119	0x3cb10c3f	0.021612285
120	0x3b8e46f0	0.0043419525
121	0xbc9f12b6	-0.019418102
122	0xbc324a3c	-0.010881957
123	0x3c8025c5	0.01564301
124	0xbb957307	-0.0045608315
125	0xbc8822ab	-0.016618093
126	0x3bf6acbe	0.0075279167
127	0xbb772054	-0.0037708478
128	0xbb005439	-0.001958145
129	0x3c22a4ec	0.009927016
130	0xbc10c89a	-0.00883689
131	0x3bf38a58	0.0074322633
132	0xbb49af86	-0.0030774786
133	0xbb2752ab	-0.0025531452
134	0xbc6f893a	-0.01462012
135	0x3bfa0d17	0.007630955
136	0x3b934137	0.004493858
137	0x3c988bcb	0.018621346
138	0xbcc938b2	-0.024563167
139	0x3b78f91a	0.0037990273
140	0xbab3b7be	-0.0013711376
141	0x3c81bd13	0.015837228
142	0xbbd6c257	-0.006553929
143	0x38b8b326	8.807173e-05
144	0x3c60d8be	0.01372355
145	0xbc315428	-0.010823287
146	0x3b9f03f3	0.0048527657
147	0x3c0dd8be	0.008657632
148	0xbc088542	-0.008332552
149	0xb9ca52aa	-0.00038590032
150	0xbcb194af	-0.021677343
151	0x3c848285	0.016175518
152	0xbad109d8	-0.0015948368
153	0x3c036b76	0.008021226
154	0x3b7493d9	0.003731957
155	0x3c09c5f0	0.008409008
156	0x3bf95fcf	0.007610298
157	0x3a85f3bf	0.0010219737
158	0xbbd95bb8	-0.006633248
159	0x3bd3070f	0.0064400504
160	0xbb5a1ae4	-0.0033280188
161	0x3c93e6b9	0.018054353
162	0xbb524158	-0.0032082405
163	0x3be66db8	0.0070321225
164	0xbbd5c15c	-0.0065232944
165	0x3d03f171	0.03221268
166	0xbbe058d2	-0.0068465257
167	0xbc031573	-0.008000719
168	0xbb8b8b22	-0.0042585293
169	0xbc723e1e	-0.014785318
170	0x3c9e850c	0.019350551
171	0xbb0ac658	-0.002117535
172	0x3bebd1d2	0.0071966434
173	0x3c6175e2	0.013761016
174	0x3c6d62b8	0.014488868
175	0x3cb8bef9	0.022552
176	0x3cf4c72f	0.029880134
177	0x3c365450	0.0111285
178	0x3ca7dd76	0.020491343
179	0xbc0f2090	-0.008735791
180	0xbb313f30	-0.002704572
181	0xbcf25859	-0.029583143
182	0x3c0bfbf4	0.008543957
183	0xbc3f5839	-0.011678749
184	0x3c5ecadb	0.013598169
185	0xbbb759db	-0.0055954284
186	0x3b33eb1d	0.002745337
187	0xbcd7405c	-0.026275806
188	0x3b84908e	0.0040455526
189	0xbc3ef45c	-0.0116549395
190	0x3c51c380	0.0128029585
191	0x3c97b186	0.018517267
192	0xbc583c50	-0.013197973
193	0xbca8dc0f	-0.020612745
194	0x3b95845d	0.004562898
195	0x3ce69fdf	0.028152404
196	0xbc0ceeb9	-0.008601838
197	0x3acf14e4	0.0015799073
198	0x3c69e4eb	0.01427577
199	0xbcc48f76	-0.023994189
200	0x3c553399	0.01301279
201	0x3a8fef4f	0.0010981354
202	0x3c1d34fc	0.009595152
203	0xbb5955ba	-0.003316267
204	0x3c733684	0.0148445405
205	0xbbd2f3d7	-0.0064377594
206	0xb8bad1e3	-8.9082656e-05
207	0x3b7e01f8	0.0038758498
208	0x3bce3268	0.00629263
209	0x3acee394	0.0015784376
210	0x3c1f8775	0.009736885
211	0xbc110f6d	-0.008853775
212	0x3bc36a21	0.0059635793
213	0xbc188289	-0.009308466
214	0xbbe53bcc	-0.0069956537
215	0xbc1f99de	-0.009741275
216	0x3b5af072	0.0033407477
217	0x3c3bbf9e	0.011459259
218	0x3c0ab2a2	0.008465441
219	0xbb2e02d1	-0.0026551972
220	0x3c1d2f2c	0.009593766
221	0x3c39b013	0.011333483
222	0x3cb72b78	0.022359595
223	0xbc44d27e	-0.012013076
224	0xbc256f59	-0.010097348
225	0x3bbdf8e0	0.0057974905
226	0xbc2518f4	-0.01007675
227	0x3b74d88d	0.003736052
228	0x3c445092	0.0119821
229	0x3c711ff8	0.014717095
230	0xbc56bcd3	-0.013106543
231	0x3c0dbef6	0.008651486
232	0x3c63c35f	0.013901561
233	0xbb3dfa68	-0.0028988365
234	0xbbaa4c37	-0.005197074
235	0x3a90dd6c	0.0011052317
236	0xbbd8ff92	-0.006622263
237	0xba2b09b3	-0.00065245776
238	0xbbac95d6	-0.0052668853
239	0x3c0b70ea	0.0085108075
240	0x3c92bd74	0.017912604
241	0x3c0311a1	0.0079998085
242	0xbb65d33a	-0.0035068528
243	0x3af3871c	0.0018579694
244	0x3c53a3d4	0.012917478
245	0xbc9bd4ec	-0.019022427
246	0xbc5216f7	-0.012822858
247	0xbbe7f8d8	-0.007079225
248	0xbcbbc928	-0.022923067
249	0x3c475248	0.0121656135
250	0xbcd00e31	-0.025397392
251	0x3c360faf	0.011112138
252	0xbb9c3ebc	-0.0047682207
253	0x3b036fbf	0.002005562
254	0x3a026b39	0.0004975084
255	0x3a089c3a	0.0005211268

default.var_encoder.bias f4 [10]
0	0x3c902150	0.01759401
1	0xbc1364d8	-0.008996211
2	0xbde2d5cb	-0.11075934
3	0x3caa73f7	0.02080725
4	0xbc8d75a1	-0.017268004
5	0xbec5e8f5	-0.38654295
6	0x3cdb0613	0.026736295
7	0xbcdcfeba	-0.026976932
8	0xbd0b0846	-0.033943437
9	0x3c3c7106	0.011501556
