models/mnist-relaxed1E/encoder_z1_-9007962256546906249.pt (torch_old, 516075 bytes, 14 tensors)

default.encoder_cv.0.weight f4 [32, 1, 3, 3]
00000000: eec6 4f3d fb08 47be 4840 7bbe 0862 843e
00000010: 282d 20be d9b8 293d 0e8f 773d 69b3 ca3d
00000020: 7504 c73e 60e4 aa3d ef4d 99be a9ac a73c
00000030: d5fb fb3d 245d 5f3e 85ef e23b 9db8 7a3e
00000040: 5ed7 b53e 668a b9be 587d e43c 8920 f63d
00000050: 6c0b 953e 326e d0bd 8e88 903e 7495 30be
00000060: 166f debe 71c6 d4bc 3531 99be 3125 95be
00000070: f2ef 3a3d 39fe af3e 2c0a 0bbe c1fb 803e
00000080: e746 d63d f5a6 b1be 3600 4c3e cbbd b7bd
00000090: 5fab 6b3e d879 b03d 3a9b 8abd 52bc 5bbd
000000a0: 018f 8b3e 13dd 993e c5b7 97bd 2050 393e
000000b0: 0a10 1abe ec70 f5b9 4121 863e d2ab 783d
000000c0: 3d84 923b c935 a93e 5b78 a3be 8d7a cebe
000000d0: f0f9 1dbe 30df c9be 0ffe 0a3d 7292 1b3e
000000e0: 1ac8 843c 0dfd 993e e84b 9f3a 9c70 c3be
000000f0: c71c c9bc ba42 d0be 25c4 163d d856 64be
00000100: 68a4 7abe 8753 15be d615 ffbd 6049 0bbe
00000110: ea6e 38be 29fd 0abe a3f3 ab3e 4b6f 293e
00000120: baee cf3d 1cfa f23d 6724 8bbe eef0 803e
00000130: fd00 703e 47bd 32bd a6a5 e53d bac5 c0be
00000140: 2708 943d a560 a2be 8dd3 22bd 0ba5 88be
00000150: 0e1d 8c3e 0ef2 86be 493e 863e e780 103d
00000160: 9a9b 913e f3ab 993e 9deb 6fbd f998 e4be
00000170: 4540 8ebe a36c 13be 70ea 20bc 077f ac3e
00000180: 5aa6 04bd ecff 34be e729 e13d 00f7 e03d
00000190: bfca 223e 67f3 e9bb 23f8 4abd 509c 4b3e
000001a0: 3108 01bd e575 293e 5144 87bd 429d 953e
000001b0: ccb0 8cbe 79cf 043e 614b a0be 8454 3d3d
000001c0: 8907 75be 63ac ffbd 202c a9be ada2 01be
000001d0: 5da5 7ebe a40e 69be 0d22 d7be 19fe 193e
000001e0: 8af3 97be ef4a ffbd 140e 303e 769f 43be
000001f0: 4c27 f4bd 4f8a 843e 5be9 aabe 616e e4bd
00000200: e34c d2be 24aa 4039 0c9b 1b3e 36c6 913e
00000210: 3d46 5fbe ff86 543c 6bf9 1e3e dbcd a13e
00000220: 0899 be3d a472 cebe 8014 1ebe 81d8 e13d
00000230: e28e 9fbe 63e9 903c 84b8 33be 1bac 91bd
00000240: 8a67 1b3b 11a2 cd3c 27e9 43bd a670 aabe
00000250: 6967 033e 01da 9c3e ade1 26bd 90e3 f9bd
00000260: 6a25 d23e de1a a4be 9ad4 26bd 6918 5fbe
00000270: b181 17bd 0f8b 33bc 9e5e aebd 059b 0ebd
00000280: 2ce9 26be 1557 74bd c678 8b3c 3729 21bd
00000290: 4b51 8dbe 96b2 2f3e 8357 3bbe df81 04be
000002a0: 1aa8 51be 45d4 53be 5a44 1f3e 7b66 a93d
000002b0: 1384 3f3e d32d 4dbe ace1 e9bd 2fa3 f1bd
000002c0: 718b 7f3e 03a2 833e fdaa 73bd 4fd6 ad3e
000002d0: 4ea1 81bd 3538 f2bb e8a8 ba3e 2e0c 5cbe
000002e0: 22df 88be d0c4 8abe 50dd b7bd 83be 9e3c
000002f0: 0508 9cbe 6843 843e 6eb7 c0bd ee2a d2be
00000300: 044b d63d 474d 38be 396e 383c 80ab 7ebc
00000310: c335 2e3e 0f47 01be 7534 913e d2d5 24be
00000320: 5716 86be 6b0d 03be e376 56be 7446 b7be
00000330: 8b69 b53e 8ba6 333e f04a a23e 70de a43e
00000340: c8a3 ae3e 5da9 373e 503b a9be 1ed0 e4bd
00000350: 2a4d 4bbd 4418 dabd 7a96 d2be 132d 2cbe
00000360: 202f 523e 6803 3dbd 5408 4c3d 1f32 b2bb
00000370: 6e76 dfbd fe75 58bd 2c7a 183e 9256 813e
00000380: 2c68 d2be 2e05 0cbe 14ba 123e 0907 8cbe
00000390: 453b d83d cdae 91bc d9c3 8ebe f746 77be
000003a0: c276 bc3e 76c0 da3d 2547 143e 87c3 8fbe
000003b0: 0b52 723e 016b 02bd c405 c1bd a7c0 363e
000003c0: 678c 9d3e e13e 36be 10a3 b2bd 61b7 b73c
000003d0: 7e83 5bbd 1f18 4a3d e700 8abd 2f9c e9be
000003e0: c888 ebbc b344 253e 4350 913e 931e f33d
000003f0: 14e3 753e 4139 92be 473f 463e c03e 0abe
0.050726824 -0.1943702 -0.2453624 0.25856042 -0.15642226 0.04143605 0.060439162 0.09897501
0.38870588 0.0834434 -0.2994227 0.020468073 0.123038925 0.21812874 0.0069255256 0.24484487
0.35515875 -0.36238402 0.0278918 0.12017924 0.29110277 -0.10177268 0.28229183 -0.17244512
-0.43444127 -0.02597353 -0.29920354 -0.29129937 0.045638986 0.34373644 -0.13578099 0.25192073
0.10462742 -0.3469769 0.19921955 -0.08971747 0.23014592 0.0861699 -0.06767888 -0.053646393
0.2725754 0.3005148 -0.07408098 0.18096972 -0.15045181 -0.00046814175 0.26197246 0.060710736
0.0044713304 0.33048847 -0.3192776 -0.40327874 -0.15427375 -0.3942809 0.033933695 0.15192583
0.016208697 0.30075875 0.0012153359 -0.38171852 -0.024549855 -0.40675908 0.03680815 -0.22298753
-0.24476779 -0.14582644 -0.12455337 -0.13602209 -0.1801106 -0.13573135 0.33584318 0.16546361
0.10152955 0.11864111 -0.2717621 0.25183815 0.23437877 -0.04363754 0.112132356 -0.37650853
0.072281174 -0.3171436 -0.03975253 -0.26688418 0.27365917 -0.26356548 0.26219395 0.03527918
0.28439027 0.30014 -0.058574308 -0.4464796 -0.2778341 -0.1439691 -0.009821519 0.33690664
-0.032385208 -0.17675751 0.1099432 0.109846115 0.15897654 -0.0071396115 -0.049553048 0.19883847
-0.031501953 0.1654888 -0.06604827 0.2922154 -0.27478635 0.1296977 -0.3130751 0.04622318
-0.23928656 -0.12484052 -0.33041477 -0.12659712 -0.24867769 -0.22759491 -0.42018166 0.15038337
-0.29677993 -0.12465464 0.1719287 -0.19103798 -0.11921558 0.2588677 -0.3338116 -0.111538656
-0.41074285 0.00018373929 0.15195864 0.28471535 -0.21804138 0.012971639 0.15524833 0.31602368
0.09306532 -0.4032184 -0.15437508 0.11027623 -0.31163698 0.017689412 -0.17550856 -0.07112905
0.0023712837 0.025101693 -0.047829773 -0.3328907 0.12832417 0.30635074 -0.040742565 -0.12201607
0.4104417 -0.32051748 -0.040730096 -0.21786655 -0.036988918 -0.010958447 -0.085141405 -0.034815807
-0.16299886 -0.05965336 0.017025363 -0.039345946 -0.27601084 0.17157969 -0.18295102 -0.12940167
-0.20474282 -0.20686443 0.15553418 0.082715 0.18702726 -0.20037012 -0.114199966 -0.11798703
0.24955536 0.25709543 -0.05948924 0.33952567 -0.063295946 -0.0073919543 0.3645699 -0.21489021
-0.26732737 -0.2710328 -0.08977759 0.019377952 -0.30474868 0.25832677 -0.094099864 -0.41048378
0.10463527 -0.17998229 0.011256748 -0.0155438185 0.17012696 -0.12624763 0.28360334 -0.16097191
-0.2618892 -0.12798087 -0.20943789 -0.3579594 0.35432085 0.17544 0.31697798 0.32200956
0.3410933 0.179357 -0.33053064 -0.11172508 -0.049634136 -0.106491596 -0.4113043 -0.1681407
0.2052579 -0.046145827 0.04981263 -0.005438104 -0.109112605 -0.0528469 0.14890355 0.2526136
-0.41095102 -0.13673851 0.14328796 -0.27349117 0.1055818 -0.017783547 -0.27883795 -0.24148165
0.36809355 0.1068124 0.14480264 -0.28078863 0.2366411 -0.031840328 -0.09424928 0.17846929
0.3077118 -0.17797424 -0.08722508 0.022426309 -0.053592198 0.04933941 -0.06738453 -0.4562697
-0.028751746 0.16139488 0.28381547 0.11871066 0.24012405 -0.28559306 0.19360076 -0.135005

default.encoder_cv.0.bias f4 [32]
00000000: 428d 44be d2c8 58be 72c1 063e 09ac c6bd
00000010: 3550 5dbe 8005 6d3a 24ec 923d 41d3 f6bc
00000020: d071 893d 913d f4bd cf83 87bd 6656 65be
00000030: 7448 8c3e 1eda de3d 9a9e 253d b759 543e
00000040: cbd4 9cbe aa0e 5b3e 199f 713e 3a08 85be
00000050: bc10 753c 188a 2a3e 8d14 3ebe 839e 0bbd
00000060: e3b8 803b 0bf8 f13d 678d debd 120d bf3c
00000070: fb5d 09be fea9 253e b2a1 00be 5e2a fa3d
-0.1919451 -0.21170357 0.13159731 -0.09700782 -0.21612628 0.0009041652 0.071739465 -0.03013003
0.06711161 -0.11925805 -0.06616937 -0.2239624 0.27399027 0.10881446 0.040434457 0.20737348
-0.30631098 0.21392313 0.23595847 -0.2598284 0.014957603 0.16654241 -0.18562527 -0.034086715
0.00392829 0.118148886 -0.10866814 0.023321662 -0.13414757 0.16178128 -0.12561682 0.12215112

default.encoder_cv.4.weight f4 [64, 32, 3, 3]
00000000: d9a7 f13c 470e 8ebb 6d30 563e f9ea eb3d
00000010: 1d43 a73c 432f b63c 1b45 bf3d 7a04 4c3d
00000020: 9839 84bd fd2e 56bd e325 73bd 0f2b 24bd
00000030: c59b 553d 3950 bc3d e2dd ac3d c5c3 01bd
00000040: 5f39 543d 91d7 7ebd 2ca9 83bd 17c6 e5bd
00000050: 00f5 0fbe 06bd b63d 2bd7 d63b 01cb 083e
00000060: a527 233d cfa9 9ebc 46b3 47bd b862 7bbd
00000070: b5b7 20bc e090 51bd 9cd3 11bd 7a37 8abd
00000080: 454d 383d 9cf8 9f3d c866 54bd df35 0abd
00000090: 41a9 80bd b012 18be eda7 66bd 007c c8b6
000000a0: 1dc4 5c3d ec7b 373d 71be d53d 824f 613d
000000b0: 3389 28bc 457d 543d 7757 84bc a60b 6cbd
000000c0: c1ef 3b3d 0c6c 853d 6f7d b63c 02ce 16bd
000000d0: 90d5 87bd b53a 1a3d 5cef 0abe 85d7 91bd
000000e0: b97d 33be 47f7 bdbc 7d80 9b3d 08e3 a83c
000000f0: bf55 d5bd d1dd cbbb 768f 32bd 3fbe 973c
00000100: 6897 0d3d cc03 fa3d c56b 02bd ae4d 35bd
00000110: 36b7 33bd 8949 9bbc 6921 443c 729e a0bc
00000120: ae75 46bd b13f c33c 28b0 e6bd e61e 6fbd
00000130: 1a43 033d 9add 9a3c 99d3 39bd ab42 9d3d
00000140: a1ec a2bc 67b0 423d cb08 0e3d 19bd a63d
00000150: fb9e 343d 57dd c93b 0b1b 4f3d 8971 8c3d
00000160: dbb4 963c 6398 73bc 65e7 043e 617e 55bd
00000170: 83f8 ae3d 9cac 9dbb 4963 57bd 405f 833d
00000180: 9125 bb3d 9c85 8abc c307 e0bc 7949 c1bd
00000190: a852 5e3b 0f8e acbd 0dfe 19bd fb58 003d
000001a0: d4c9 453d 9fbd 9b3d c99a 9e3d 2705 65bd
000001b0: c9a0 853d 4964 17bc 44ea a53d a9db 9c3c
000001c0: 99b7 9dbd 82bc 99bb 52e8 b83b 5b36 a83c
000001d0: 58bb 20bd 6599 893d 89c1 13bd 2d84 cebc
000001e0: be2a 8a3c c2df 78bd d26e a8bd 11fd 8d3c
000001f0: 0311 91bd e543 8dbd d4bf 7e3d da09 de3b
00000200: 6ab1 973d d766 ec3c 05cf 3c3d ebda 5c3d
00000210: 640c a1bc b8ba af3c 4ca5 34bc 2ef2 97bd
00000220: 53df 48bd 6802 3d3b 72dd 7fbc f814 4a38
00000230: c8f0 6ebd 0e03 27bb 4c6c e5bc 028a 21bd
00000240: c344 983b 9222 94bb 67cb ba3c 4ce3 b03d
00000250: 3068 5abb 8c1b aa3d 6910 ad3d a0d4 003c
00000260: 72f2 35be 8dbb 433d 2b91 173d f9ef 273d
00000270: aabf 323d 0ba1 4ebd fdb3 a4bd 3477 ff3c
00000280: b0cd a7bc 2e84 27bd a400 043d 4914 ef3c
00000290: d38e 1bbd 7c9a febc 0a98 23bd f557 923b
000002a0: e1cd d4bc dd2d 42bc 0a17 f5bd bede 76bc
000002b0: a8a6 843c 4685 013e 2626 943d 8110 1c3d
000002c0: d8c2 993d efcb 683d 1f19 463c de29 5ebd
000002d0: 93f7 c43d dde8 d23c 340d a33c df10 f03b
000002e0: 2788 edbc 475c a0bc f436 303d 66f4 0dbc
000002f0: 1d0e 673d 6d95 28bb 466c e43c 960e c23c
00000300: ddbd 68bd 1534 33bd 5fac 6fbd 0df2 3e3d
00000310: 84a3 003d 8319 99bd 4ff0 ea3c 9e03 8e3d
00000320: 028b e73d 7f8e d2bc d0fd 113d 2b0d 0ebc
00000330: 47e1 83bd 5f31 80bc 9471 42bd 9045 05bd
00000340: 84a1 5dbc 6e15 b6bd cfed a33d a48b 563d
00000350: 43f8 0a3e b595 e83b dab6 27bc 7cc9 4f3c
00000360: 38dc 16bd 5e1f 20be f828 57bd bfaf 1e3d
00000370: ed6d bc3d 443c 01bd 859e 0dbd a2c6 a63d
00000380: 358e b43b ceb8 7d3b 8ff6 c8bc d3a7 b23d
00000390: cb1e 1c3c 1384 93bc 4d92 e83c 44a9 d7b9
000003a0: ce51 b23c 686f efbd 5fd3 32bd 4c50 3fbe
000003b0: 8af6 30be fad0 ac3d 8ac2 b83d 6c84 483d
000003c0: f3cf 8a3c b258 b73d 11e4 4abd d826 c9bc
000003d0: 72fd 1f3c 1aed cf3c 98ca c6bc cbc7 c0bc
000003e0: 325f 47bd 193a edbb 9b80 7ebd d17b 0fbe
000003f0: a5f6 713b 321b aebd a315 773c dad8 dc3d
0.029498981 -0.004335198 0.2091691 0.11519427 0.020417744 0.022239333 0.09339353 0.049808957
-0.06456298 -0.052290905 -0.059362303 -0.040080126 0.052150507 0.09194989 0.08440758 -0.03168084
0.051812526 -0.0622173 -0.06428751 -0.11219423 -0.14058304 0.08922772 0.0065564117 0.1335869
0.03983273 -0.01936808 -0.048754953 -0.061373442 -0.009809424 -0.051163554 -0.035602197 -0.067488626
0.044995565 0.0781109 -0.051855832 -0.03374278 -0.062822826 -0.14850879 -0.05631249 -5.9749e-06
0.053897966 0.044795915 0.104367144 0.055007465 -0.010286617 0.05187728 -0.016154988 -0.057628296
0.045882944 0.06514749 0.022276608 -0.036817558 -0.06632531 0.037653644 -0.13567871 -0.07121185
-0.17528428 -0.0231892 0.075928666 0.02061607 -0.104167454 -0.006221511 -0.043593846 0.018523334
0.03456822 0.122077554 -0.03184106 -0.044263534 -0.043875895 -0.018955963 0.011970856 -0.019606803
-0.04845207 0.023834081 -0.11264068 -0.058379076 0.032046415 0.018904496 -0.04536781 0.076787315
-0.019888224 0.04753151 0.034676354 0.08141536 0.044096928 0.006160419 0.0505629 0.068575926
0.018396785 -0.014867875 0.12978895 -0.052122477 0.085434936 -0.0048118364 -0.05258492 0.06414652
0.091380246 -0.016909413 -0.027347451 -0.09437842 0.0033923779 -0.08425533 -0.037595797 0.03133486
0.04828818 0.07604527 0.07744367 -0.055913117 0.06524808 -0.009240218 0.08101323 0.01914771
-0.07701034 -0.0046916613 0.005642929 0.020533731 -0.039241165 0.06718711 -0.03607324 -0.02520951
0.016866084 -0.060760267 -0.08224262 0.017332586 -0.07083323 -0.068977155 0.06219466 0.0067760767
0.07406886 0.028857632 0.046095867 0.053919714 -0.019659229 0.02145134 -0.011025738 -0.07419239
-0.049041104 0.0028840546 -0.0156167615 4.818008e-05 -0.058335096 -0.0025483998 -0.028005742 -0.039438255
0.004646869 -0.0045207227 0.022802068 0.086371034 -0.003332626 0.083060354 0.084503956 0.007863194
-0.17768267 0.047786284 0.037003677 0.04100034 0.043639816 -0.05044655 -0.080421425 0.03118477
-0.020483822 -0.04089754 0.032227173 0.029184477 -0.037978005 -0.031079523 -0.039939918 0.0044660517
-0.025977077 -0.011851755 -0.11967285 -0.015067754 0.01619275 0.12648496 0.07233839 0.038101677
0.075078666 0.05683511 0.01209095 -0.054239146 0.096175335 0.025745803 0.019903757 0.00732623
-0.028995587 -0.019575251 0.043021157 -0.008664226 0.056409944 -0.002572383 0.02788366 0.023688596
-0.056821693 -0.04375084 -0.058513995 0.046617556 0.03140594 -0.07475569 0.028679041 0.06934284
0.113058105 -0.025702713 0.035642445 -0.008670132 -0.064394526 -0.015648542 -0.047471598 -0.032537043
-0.013527278 -0.08890806 0.08004343 0.052379265 0.13571267 0.0070979246 -0.010236466 0.012682315
-0.03683111 -0.15636966 -0.052529305 0.038741823 0.09200654 -0.031551614 -0.034575004 0.08143355
0.0055101165 0.0038714889 -0.02453163 0.08723416 0.009528826 -0.018007314 0.028390074 -0.00041134108
0.021767523 -0.11691171 -0.04365861 -0.18682975 -0.17281547 0.084382966 0.090214804 0.048954412
0.016944861 0.08952464 -0.049533907 -0.024554655 0.009765016 0.025381614 -0.024266526 -0.023532769
-0.04867477 -0.007239592 -0.062134366 -0.14012076 0.0036920693 -0.08501281 0.015080842 0.10783549

default.encoder_cv.4.bias f4 [64]
00000000: a541 e33c 857c d8bc c9da a93c e5c2 b63c
00000010: 1c43 23bd db2d c0bd 48ce 08bd aae7 a6bd
00000020: 9d53 83bd 62b6 cebc a51a de3b ab26 15bd
00000030: 46a1 7cbc 47e0 72bd 2e8c 50bc cef4 86bd
00000040: 6104 cebc 33b5 68bd 4164 d8bc 428c 83bd
00000050: 8592 93bc 591c e03c 48c4 813b b1c3 58bd
00000060: 5921 f9bc bf8c 2a3c 763e dbbc c523 6a3c
00000070: 76ec 26bd ac01 5d3b 9171 9abd f39b b0bc
00000080: db53 45bc 78a1 06bd cff0 023c 950c 1ebd
00000090: 5713 f4bd 754c 4cbd 3447 eb3b da5e 57bb
000000a0: 34e8 6dbd 7d9f 65bd 8bd3 893b df69 b3bc
000000b0: df53 293d 4da1 3bbc 1574 20bd ce0e cfbd
000000c0: 3440 b9bd 7f55 67bd 8df4 94bd 13e3 d2bd
000000d0: 3a10 25bd cd8b d4bb d422 b3bd f5cb 1bbd
000000e0: f1bb 72bd 72dc 0bbd f946 81bc a345 b8bc
000000f0: 1755 8e3c 4ccc 0ebc 49c3 a53c 44ef 87bd
0.027741263 -0.026426563 0.020734208 0.02230973 -0.039858922 -0.09383746 -0.03339985 -0.08149655
-0.06412432 -0.025233451 0.0067780786 -0.03641383 -0.01541931 -0.05929592 -0.012728734 -0.065896615
-0.025148572 -0.05681343 -0.026414992 -0.064232364 -0.018014202 0.027357267 0.003960166 -0.052921
-0.03041141 0.010409533 -0.026763182 0.014290755 -0.04075285 0.003372292 -0.07541192 -0.021558737
-0.0120439185 -0.032868832 0.007991984 -0.038586218 -0.11917751 -0.049877603 0.007180119 -0.0032862932
-0.058082774 -0.056060303 0.004206126 -0.02190107 0.04133975 -0.011452031 -0.039173204 -0.10110246
-0.09045449 -0.05647802 -0.07273207 -0.10297217 -0.040298678 -0.006486392 -0.08746877 -0.038036305
-0.059261266 -0.03414578 -0.015780913 -0.022494143 0.017374558 -0.0087157 0.02023472 -0.06637433

default.encoder_cv.8.weight f4 [128, 64, 3, 3]
00000000: 984f 353d ae47 fdba 1873 0d3d 6739 43bd
00000010: 8ba6 89bc 24be 76ba 1c22 c6bc ba93 c4bb
00000020: 001b 8bbd e3e1 e73c 68fa 273c 2fff d33c
00000030: 1111 bfbc 64bc b33d ad0c e03c 1eda 053e
00000040: 0a8c 833d 99c6 dfbd 43a2 49bd f70d a1bd
00000050: 597f 22bd 2580 70bd 138c b0bd 34b0 663c
00000060: 4292 18bd 337e b53c 044f 763d 8be1 2a3c
00000070: 2477 363d 7129 8b3d 421f aa3c 4df0 183d
00000080: 675e b3bb ef69 b9bb 27ac 353d 4316 19be
00000090: 1683 22bd a17b 513d 969a 463c bcb6 35bb
000000a0: fa9b 053c 0bdc 17ba 2e92 08be 160e 063d
000000b0: 1f6f a4bd eeb6 dfbd 125e 603d b494 b03b
000000c0: 6c68 8abc c1a5 933c 83cd e53c b7f4 763d
000000d0: f763 833c 14f4 95bc 4b1f 813d ad9c acbc
000000e0: 5006 bfbd 645a 58be 39c2 233c 94e5 4a3d
000000f0: 0197 423d d23d 67bd 4308 43bd 1d88 b0bd
00000100: d930 17bd 2c42 2a3d 3056 60bd d1ec 9bbd
00000110: 896b c43d 29de dabc 36ee dc3a 1d0e 223d
00000120: 1c50 0fbd 24b5 b03b da01 bc3c 3cee 55bc
00000130: 7f78 f03d ecfd 303d fc8d c63c f340 6e3d
00000140: 57a9 a0bd 68c5 93bc e3d4 acbc 90dd 993c
00000150: f59e 70bd 19d2 aa3d e04d 0b3d bf2f f63c
00000160: 4306 68bd 9804 74bd ec4d 73bd ad55 afbd
00000170: 49f9 b6bd 3616 e4bd 4d0b 05bc 11fc b8bb
00000180: 68d5 7a3d 0b71 1bbd 0c92 bbbd 206c 8e3d
00000190: f6cb b4bc 320f f83c 8dc4 243c 8734 3fbc
000001a0: 3802 c33b 137e 26bd cd2e 2a3d f811 6cbc
000001b0: a1a3 4c3a 50a6 d8bc 3da2 19bc e319 dbbc
000001c0: 1cfb 873a 4695 253d 45b8 813d 6cbe 2dbb
000001d0: c466 9dbc 76e7 af3c 9598 7c3d 8b14 f53d
000001e0: 15ab 3ebd b7db 01bd 1ab5 f43c 493c 003a
000001f0: e7ca cf3c 0534 9fbd 5d03 dc3b 201f 01bb
00000200: 99b2 c1bd 4dec cabc 25de f73c cbfd c43c
00000210: f393 8fbb 66b4 5ebd a42d b1b9 80af 643d
00000220: 75c6 133d 5923 db3d fd9d a43c a84e f93c
00000230: b62b 88bd 461d 30bd cf6b 093d 55c2 92bd
00000240: 3e03 1b3d 4a03 2cbd 16cc 75bd 49c2 073d
00000250: 47fa d4bb a637 66bd 7cd3 873c 7163 ac3c
00000260: a34e 8f3c 1cd0 683d 6f2b 993c ec6e e1bd
00000270: efda a8bd 48b7 833d 258c b23d aab7 e23c
00000280: 2d30 453e 4577 02bd c6f1 243b 9914 c4bd
00000290: ee02 0fbe 84c8 04be 1057 aebd dea6 283d
000002a0: 4e05 0f3d 34db f83c 3ef0 b53d 6a8d bfbc
000002b0: 67d3 41bd 1593 dcbc 84d0 3ebd 25d4 113d
000002c0: a9bd 36bc 7164 033d 8045 65bd d6d4 10be
000002d0: 956a f5bc c00c bcbd 6534 b4bd b776 91bd
000002e0: d3fb 59bd ebb4 7f3d 6280 6d3d 9cec a6bd
000002f0: 35f7 01bd 1090 ecbc dc7c 9e3c 75cf 153d
00000300: 83f2 6abd 6825 7abd ef7c 5dbd 88a6 8d3d
00000310: ada0 bdbd 551c bcbd 41fe 87bd 7b23 74bd
00000320: 7fa0 4bbc f4cf 41bd 4999 1a3d 8087 f93a
00000330: 3313 863d 313b 07bb 8f05 883d 777d 3fbd
00000340: d2bc 623d 5e76 e63a 00e2 603d d8a3 913c
00000350: b506 99bd e9de 9bbc 02ee 15bd 84ae 4cbd
00000360: fa7c ac3d 10c4 f4bc 49df e63c e6f9 53bd
00000370: 4dac 9fbb d937 d23d c5a9 443d dc6d 73bc
00000380: d718 cdbd 5a28 43bc ecdc 5bbd 2cca ccbd
00000390: 14fe f8bc f19d 9bbd a858 17bd 465e cabc
000003a0: 711f bc3c 646c 4f3d e2c9 e33b aea5 84bb
000003b0: d1f7 103c 7cb0 88bd d2d9 2b3d a4fd 9b38
000003c0: 00d5 6d3d d857 82bd 7b0c f6bd 4898 f43d
000003d0: 4446 06be 3e62 4fbd 5cce 1bbd 7913 b73d
000003e0: 6052 a3bd a2bc e3bb 4065 b3bc e970 173e
000003f0: c367 ac3d 49c3 283d a8dc e93d 96c8 8e3d
0.04426536 -0.001932373 0.03453359 -0.047662165 -0.016803047 -0.00094124884 -0.024186186 -0.0059990557
-0.06792259 0.028305953 0.010252573 0.025878517 -0.023323568 0.08776167 0.027349794 0.13071486
0.06423195 -0.10926551 -0.04922701 -0.07863992 -0.03967223 -0.05871596 -0.08620467 0.014080096
-0.037248857 0.022154903 0.06013395 0.01042975 0.044547215 0.06795014 0.020766858 0.037338544
-0.0054739 -0.00565838 0.04435363 -0.14949898 -0.039675795 0.051143292 0.012121817 -0.0027727326
0.0081548635 -0.0005792982 -0.13337013 0.032728277 -0.08029007 -0.10923563 0.054777212 0.0053888205
-0.016895495 0.018023374 0.028052097 0.060291972 0.016038878 -0.018304862 0.06304797 -0.021070803
-0.09327376 -0.21128231 0.009995037 0.04953535 0.04750729 -0.05645544 -0.0476153 -0.086197115
-0.03691182 0.041567013 -0.054769695 -0.076135285 0.09590823 -0.026717262 0.001685566 0.03956424
-0.034988508 0.0053926874 0.022950102 -0.013057288 0.11741733 0.04321091 0.024237625 0.05816741
-0.07844799 -0.018038467 -0.021097606 0.018782407 -0.058745343 0.08340854 0.034009814 0.030052064
-0.056646597 -0.059574693 -0.059400484 -0.08561263 -0.08934266 -0.11137049 -0.00812037 -0.005645283
0.061238676 -0.037949603 -0.091587156 0.06954217 -0.022069912 0.030280683 0.010056627 -0.011670238
0.005951192 -0.040647577 0.04154854 -0.014408581 0.0007806365 -0.026446491 -0.0093770595 -0.026745742
0.0010374519 0.04042556 0.06333975 -0.0026511205 -0.019214042 0.021472674 0.06166895 0.11966809
-0.046549875 -0.031703677 0.029871512 0.00048917957 0.025365306 -0.07773594 0.006714268 -0.001970239
-0.09457893 -0.02477088 0.030257294 0.0240468 -0.0043816506 -0.05437126 -0.00033794076 0.055831432
0.036077935 0.107001014 0.020094866 0.030433014 -0.06648962 -0.042996667 0.03355008 -0.07165972
0.03784489 -0.041995324 -0.060009085 0.03314427 -0.006499562 -0.056205414 0.016580336 0.021043511
0.017493552 0.056839094 0.018697469 -0.11007485 -0.08244883 0.064314425 0.08718137 0.027675468
0.19256659 -0.031852026 0.0025168522 -0.09574241 -0.13965961 -0.12967116 -0.085126996 0.041174762
0.03491717 0.030377962 0.08883713 -0.023382861 -0.04732075 -0.026925603 -0.046585575 0.035602707
-0.011153617 0.03207821 -0.055974483 -0.1414369 -0.029958049 -0.09182119 -0.08799056 -0.07102721
-0.053218674 0.062428396 0.057983764 -0.081505984 -0.031729896 -0.028877288 0.019346647 0.0365748
-0.057360183 -0.06107083 -0.054074224 0.06916529 -0.09259162 -0.091850914 -0.06640292 -0.05960415
-0.012428402 -0.04731746 0.03774384 0.0019037575 0.06546631 -0.0020634646 0.06641685 -0.046750512
0.055355854 0.0017582884 0.05490303 0.017778322 -0.074719824 -0.01902719 -0.036603935 -0.04997112
0.08422275 -0.029878646 0.028182643 -0.051751994 -0.004872835 0.10264558 0.048013467 -0.0148577355
-0.100145034 -0.011911476 -0.053677484 -0.09999499 -0.030394591 -0.07598484 -0.036949784 -0.024703156
0.022964211 0.05064048 0.0069515565 -0.004048071 0.008848147 -0.06674287 0.041955777 7.43822e-05
0.05806446 -0.06364411 -0.12014099 0.11943108 -0.13112742 -0.0506308 -0.038038597 0.08939261
-0.07974696 -0.006949977 -0.021898866 0.14789166 0.084182285 0.041201863 0.1141904 0.069718525

default.encoder_cv.8.bias f4 [128]
00000000: f4bf 2ebd 2332 bbbd 43f8 61bd bb60 83bd
00000010: b1d0 77bd 2745 c5bc f264 52bd 8bff bfbc
00000020: b3c0 8bbd 1135 1dbd 23f9 c43b 5e8a c4bd
00000030: 48a4 b23c 325d 5ebd 493d d8bd 462f aabc
00000040: 4f31 f23c 288f 9dbd 8325 233d b898 20bd
00000050: 0661 90bc 31ad abbd b029 96bd 11da 17bd
00000060: 6e15 5fbc a7c7 b3bd 7727 b9b9 d01f abbd
00000070: e5bd 603c f6a8 ecbd 07f9 68bd 9e98 2cbd
00000080: 7dbc 6ebd 1422 40bd 60c5 ea3b 8296 98bd
00000090: 749b e33b f9bf 83bc 28c6 d7bc 2faf 28bc
000000a0: dce7 b3bc 8f43 613d fe46 62bd 16b2 6abd
000000b0: e228 e2bc 7fa5 62bc a462 edbd 64c7 eabc
000000c0: 0154 b6bc 5fc7 703c 0803 dcbc f12b 05bd
000000d0: 6460 bebc 9098 47bd 555a 23bd 871b 76bc
000000e0: 3ad0 333d 6344 44bd ff04 ecbb 80b1 b0bd
000000f0: a757 58bb 9037 72bd 482c 81bb 7201 a9bd
00000100: 7d12 7fbd a4dc a9bd 989b 04ba 2b6e 6e3c
00000110: ec72 17bb 61d4 babc 8a29 d3bd f05d 893c
00000120: 7be2 ad3a 5f09 bfbd 0586 8ebb 6284 85bd
00000130: 9f04 39bd 9c57 ecbd 1718 4fbd b262 55bd
00000140: 88ea 22bd e2de 00bc ee23 29bd fc2b 7bbd
00000150: ea9d 58bd 8bbe 36bd 4115 293b 69df b9bd
00000160: 89ce 4fbc 5511 acbd 81de 5b3c f5b0 713c
00000170: 81b9 9abd 80e0 083c cb89 72bd e569 47bd
00000180: 693c a3ba 0a45 94bd c82c 0fbd 87a2 e5bc
00000190: 246d e2bd 2179 bcbd db80 a03d 3f2d 9bbc
000001a0: 5f09 cabc 6649 b7bc e68f 593c 23a1 08bc
000001b0: 73a7 3abd 1814 1abd 20bd d73c 9095 87bd
000001c0: 9fcd a2bd 451e a7bd bc0d 833a 8b96 9ebd
000001d0: ac84 c2bc b327 e8bc e0d9 3bbd 4bc7 99bd
000001e0: fa73 9dbc 9478 2ebd 306d efbc 3c81 0abd
000001f0: 63a3 c8bd 3b71 26bd fa54 b7bd a124 9dbd
-0.04266353 -0.09140422 -0.0551684 -0.06414934 -0.060501758 -0.024080826 -0.0513658 -0.023437282
-0.06823864 -0.038380686 0.0060111447 -0.09596704 0.021806851 -0.054288097 -0.10558564 -0.020774495
0.029564528 -0.076933205 0.039830696 -0.039208144 -0.01762439 -0.08382643 -0.0733217 -0.0370732
-0.013615949 -0.08778315 -0.00035315353 -0.08355677 0.013717149 -0.11555664 -0.056878116 -0.042137735
-0.058285225 -0.0469075 0.007164642 -0.07450582 0.0069460217 -0.01608275 -0.026339605 -0.010295673
-0.021961145 0.05499607 -0.055243485 -0.057298742 -0.027607385 -0.013833403 -0.1159108 -0.02865953
-0.022256853 0.014695971 -0.026856914 -0.03251261 -0.023239322 -0.04872948 -0.03988107 -0.0150212115
0.043899752 -0.04791678 -0.007202744 -0.086276054 -0.003301123 -0.05913502 -0.0039420463 -0.08252229
-0.06227349 -0.08294037 -0.00050585857 0.014552633 -0.002310927 -0.022806348 -0.10310657 0.016768426
0.0013266349 -0.09327959 -0.0043494725 -0.06519391 -0.045170423 -0.11540148 -0.050560083 -0.052096076
-0.039774448 -0.007865639 -0.04129403 -0.061321244 -0.052884974 -0.04461531 0.0025800022 -0.09075815
-0.012683519 -0.08401743 0.013419748 0.0147516625 -0.07554913 0.008354306 -0.05921344 -0.048684973
-0.0012453917 -0.07239731 -0.034954816 -0.0280316 -0.11055973 -0.09202791 0.07837077 -0.018942473
-0.024662672 -0.022373866 0.013278937 -0.008339199 -0.04556985 -0.03761682 0.026335299 -0.06620324
-0.07949375 -0.0816007 0.00099986 -0.077435575 -0.023744904 -0.028339243 -0.04586208 -0.07508715
-0.019220341 -0.04259546 -0.02922687 -0.033814654 -0.097967885 -0.04063533 -0.08951755 -0.07673002

default.encoder_fc.0.weight f4 [128, 128]
00000000: 7c99 9abd d690 023d 7e47 e6bc 9a35 723d
00000010: 628a d4bc 441c 49bd 448a 83bc 313a b33d
00000020: fd80 a33d 30c8 373c c073 703b 7c8f b0bd
00000030: 31f3 92bd 86d8 a3bd 9494 c1bc 3208 44bd
00000040: 0ae1 adbd c063 94bb db9c 813d 3844 853c
00000050: 2f20 22bd d468 50bd 7664 783d ee85 93bd
00000060: 02e5 36bd 6004 b4bb 8475 e3bc 0e3b 1d3d
00000070: dc30 a0bc 89cb 2fbd ffa1 2cbd 2ef0 703d
00000080: 107d f6bc 86b9 0d3d 7b47 44bd 0c2c a5bd
00000090: 2fc3 46bd 2333 04bd 20dc 8cbc 4617 593d
000000a0: 1ef6 f0bc 281b 1c3c 830f 9b3d dd45 9dbd
000000b0: 9639 653d dc8e 3fbd 1c66 2fbd 4625 90bd
000000c0: 431c 70bd 6410 0c3d 0933 1bbd e375 993d
000000d0: 2d34 3abd 40c0 6d3c 6829 11bc 3a40 93bd
000000e0: eb33 923d 026e 503d adc2 873d e04f 44bb
000000f0: 662f 523d 601b ec3c d07c 2fbd 84be 8bbd
00000100: c772 73bd b661 413d c3fc a53d fc0a b0bd
00000110: 0c4a c9bc f935 9c3d 22da 7d3d 1cb9 d1bc
00000120: 918f a83d 8b05 883d 1c69 f5bc b422 a1bc
00000130: c4ac cc3c f130 9c3d ed17 3ebd 95a3 5bbd
00000140: bfbe adbd b841 adbc d553 66bd 73d6 2fbd
00000150: e8db b03c a2a5 123d 48c6 10bd a60f a9bd
00000160: 2d21 16bd 1402 7ebd e471 41bd 8411 17bd
00000170: d62d 123d f70b 973d 6011 7ebc ba4e 6e3d
00000180: 5253 1a3d 1bac 97bd 8d0b a93d 85bf 99bd
00000190: 209b a1bb 80f3 c73a 4539 8a3d fdee b1bd
000001a0: c876 e73c 50a1 f4bc 8af7 d5bc d827 cd3c
000001b0: 43af b3bd 9f74 08bd 7ff9 83bd 2026 57bb
000001c0: 2591 35bd 2075 883b 1e8a 433d 40c5 eb3a
000001d0: b063 eb3c 6504 89bd c8d6 933c 404a de3b
000001e0: 403c 913c 2061 4abc 6826 a5bc 9e13 6e3d
000001f0: 7c16 803c cf54 5bbd 20e4 1dbd a2aa 3f3d
00000200: 20c0 803b f6cb 8bbd 9247 1ebd 88c2 f53c
00000210: 00af b7ba 1c0e 96bd 9fe6 23bd 2852 92bc
00000220: 28ab 0a3c 951d 30bd 5055 e8bb 85c1 833d
00000230: dac8 603d 7356 9c3d e4f3 93bd 8829 cb3c
00000240: 9c92 043d 9e22 533d 2b25 8cbd d067 f33c
00000250: ed16 46bd 3098 afbd 6088 e93b 92d8 6f3d
00000260: 8e42 22bd 38de 05bd 016d 8a3d 18de e4bc
00000270: eaae dcbc cb95 9abd 8e07 95bd 9a42 293d
00000280: fc4e af3c a561 59bd a2c6 183d 3df2 5bbd
00000290: dd55 4dbd e8c8 dfbc 6bb2 25bd ac55 c0bc
000002a0: 0001 a1bd c00f d63a e834 35bc 74d6 87bc
000002b0: ac72 c9bc 3808 a2bd 60e3 87bb 6b3f b23d
000002c0: 36ac 55bd adae 2dbd fd88 a63d 6842 34bc
000002d0: 0c3f 8a3c b06a b63b 2516 9bbd a268 753d
000002e0: b8e1 48bc a436 ecbc 5d8b 943d 91a2 4abd
000002f0: e83c ea3c ed9f 5fbd 2c70 9abc 0c21 f93c
00000300: 7ca0 8dbc e0e1 7cbc 89a6 a6bd c1fb 26bd
00000310: 6a5c 693d 85f0 adbd 259d a8bd 14d2 943c
00000320: e934 37bd e3f3 a53d 5165 aa3d 8a4e eebc
00000330: 7e74 38bd b803 13bc 02c2 353d 006a 513b
00000340: 8aea 37bd fa98 663d 2301 2fbd b8d1 10bd
00000350: 461e dbbc 0091 c4ba 00e5 1dbc 7c3d a7bc
00000360: 832e 7bbd ef0e 9f3d 8aac a5bd 3c64 df3c
00000370: 20a9 033d c158 993d e6ee 2a3d 588c c0bc
00000380: 7cd5 003d e2b9 a8bd 84cc 66bd 638f 8a3d
00000390: 9da1 b03d 9102 45bd be0a 0a3d 2aee 13bd
000003a0: 73c1 b3bd 7c75 90bc ee9b 4b3d c6e1 84bd
000003b0: 7e39 5d3d 31da 8c3d cc46 8abc 1049 8cbd
000003c0: 9049 af3c a08c b5bc 2861 23bc 6637 133d
000003d0: a8ad 663c 0651 473d d7f0 30bd d1c2 a23d
000003e0: 38ab 033c 80ad 7a3b 8155 9c3d 76d9 9abd
000003f0: ae1e 173d ee0d 413d e841 2b3c 7024 d73b
-0.07548806 0.031876408 -0.028110262 0.05913315 -0.025944892 -0.04909922 -0.016057141 0.087513335
0.07983587 0.011217162 0.0036690086 -0.086211175 -0.07175291 -0.08000283 -0.023630418 -0.04785938
-0.084901884 -0.0045284927 0.06328746 0.01626788 -0.039581474 -0.050881222 0.060642682 -0.072032794
-0.044651993 -0.0054936856 -0.027765997 0.038386397 -0.019554548 -0.042918716 -0.04214668 0.058822803
-0.030088931 0.034600757 -0.04791973 -0.08065042 -0.048525985 -0.03227533 -0.017194808 0.05300071
-0.029414233 0.009527959 0.07571318 -0.07679341 0.05596312 -0.0467671 -0.04282199 -0.07038359
-0.058620702 0.03419532 -0.037890468 0.07493188 -0.045459915 0.014511168 -0.00885997 -0.071899846
0.07138809 0.05088616 0.06628928 -0.0029954836 0.051314734 0.028821647 -0.04284364 -0.06823447
-0.059435632 0.047212325 0.08104851 -0.08595845 -0.024571441 0.07627482 0.061975606 -0.025600962
0.08230508 0.06641682 -0.029957347 -0.019669868 0.024984725 0.07626522 -0.046409536 -0.0536228
-0.084836476 -0.021149501 -0.056232292 -0.042929124 0.021589234 0.03580249 -0.035345346 -0.08254938
-0.036652733 -0.0620137 -0.047227755 -0.03688194 0.035688244 0.07375329 -0.015507072 0.05818055
0.037677117 -0.074058734 0.08254156 -0.075072326 -0.0049318224 0.0015255064 0.067492045 -0.086881615
0.028254882 -0.029862076 -0.026119012 0.025043413 -0.08773663 -0.033314344 -0.06444072 -0.003282912
-0.044327874 0.004164353 0.04773914 0.0017987862 0.028734058 -0.06690291 0.018046752 0.0067837536
0.017728925 -0.012352258 -0.020159915 0.058124177 0.015635721 -0.053547677 -0.038547635 0.046793588
0.003929153 -0.06826012 -0.038642474 0.029999986 -0.0014013946 -0.0732691 -0.04001486 -0.01786144
0.008463658 -0.04299696 -0.007090248 0.06433395 0.054879047 0.076336764 -0.07224253 0.024800077
0.03236638 0.051546685 -0.06843027 0.029712588 -0.048361707 -0.08573949 0.007126853 0.058556147
-0.039614253 -0.032682627 0.06759072 -0.027937934 -0.026938874 -0.07548102 -0.072768316 0.04132328
0.021399967 -0.053071637 0.037298806 -0.053697813 -0.050130714 -0.02731748 -0.040453356 -0.023478352
-0.07861519 0.0016331598 -0.011059977 -0.016581751 -0.024590813 -0.07911724 -0.0041469783 0.08703502
-0.052166186 -0.042402912 0.08131597 -0.011002161 0.016875766 0.0055669174 -0.07572583 0.05991424
-0.012260847 -0.028834648 0.07253144 -0.04947144 0.028593495 -0.054595876 -0.018852316 0.030411266
-0.017288439 -0.015434712 -0.08137233 -0.040767435 0.0569729 -0.08493141 -0.08233098 0.01816658
-0.044728193 0.08103158 0.08320106 -0.029090185 -0.04503297 -0.008973055 0.044374473 0.003195405
-0.04490141 0.056298234 -0.042725693 -0.035356253 -0.026747834 -0.0014996827 -0.009637117 -0.02041506
-0.061323654 0.0776652 -0.0808955 0.027269475 0.032143712 0.074876316 0.041731738 -0.023504421
0.031453595 -0.08238579 -0.056347385 0.0676563 0.08624575 -0.04809815 0.03370165 -0.036115803
-0.08777132 -0.017634146 0.049709253 -0.06488375 0.054009907 0.06877554 -0.016879462 -0.06849873
0.021397382 -0.022161782 -0.009971894 0.035941504 0.014079489 0.048661254 -0.043198433 0.079473145
0.008036427 0.0038250387 0.07633496 -0.07561009 0.036894493 0.047132425 0.010452725 0.006565623

default.encoder_fc.0.bias f4 [128]
00000000: 60e3 7fbc 8891 43bc b882 dd3c 52a7 1a3d
00000010: 586f 123d 8052 713a 6841 2fbd 76a2 6e3d
00000020: 636d a13d be44 7c3d f85f ba3c e08c 3cbb
00000030: 61bc b03d 20cc bebc d913 36bd 1e6b 3f3d
00000040: a7fb 1ebd 1051 33bd f0b1 febb e8ae 81bd
00000050: fe69 1bbd c88c 903c e4a5 bb3c 4ef8 6a3d
00000060: 10fe 063d a3dc 33bd 6f42 8d3d 40ca a23b
00000070: 1d5c 983d 71b5 06bd 521c 9abd b337 45bd
00000080: 84e9 62bd 4f00 5fbd 80a6 88bd 80a0 173b
00000090: 265a 203d ecce 38bd 887c 58bd 2630 22bd
000000a0: 12a9 683d 6666 a0bd 87da 46bd 008b f33b
000000b0: 02c1 6bbd faf1 e9bc da80 0f3d b064 673c
000000c0: d1a8 08bd 1c20 0c3d bae3 2a3d 1cca b4bd
000000d0: 064c 78bd dacc 533d 5801 143d 3abb 1a3d
000000e0: 704c f03c 1cec 90bd 5509 a4bd 806a 76ba
000000f0: 5955 9f3d 00c2 31ba 1146 8d3d e4f0 84bd
00000100: 2bbf 40bd a746 8e3d 18ec 043c 6c43 a7bc
00000110: 7c15 3cbd adaa a63d ea63 3fbd 44f5 f63c
00000120: 7073 0b3d 3064 bebb 966e 443d e163 3bbd
00000130: 00c5 afbc bed9 383d 66f9 353d 4668 6a3d
00000140: 8adb 423d 828b 88bd 4f87 68bd 420a 553d
00000150: 0aac 713d 006c 54bc d14c 40bd 1e07 45bd
00000160: af32 a43d 1a7b a4bd ddec 853d 3876 76bd
00000170: 25a4 873d 3001 c4bb ae31 dabc fac6 2a3d
00000180: 865e 383d d85d 84bc bc56 963c baf0 3e3d
00000190: 7c62 cfbc 93ac 57bd d8f7 71bd f716 9c3d
000001a0: 4fe1 a03d 4963 b2bd 5c90 a73c 0090 df3b
000001b0: 186e dd3c d3da a8bd b88e 8bbd c488 bdbc
000001c0: b0f1 aa3c 70b5 033d 081f 04bc c0c7 d9ba
000001d0: adb8 943d 1ac9 88bd 8eb2 63bd e0c1 803c
000001e0: f401 fc3c f7e5 17bd 1d71 acbd 87b7 5dbd
000001f0: 997d 88bd bcf1 a2bc a83d 51bd 4deb 873d
-0.015618175 -0.011936553 0.02703987 0.037757225 0.035750717 0.0009205714 -0.042786986 0.058260404
0.07882192 0.061588995 0.02275084 -0.0028770491 0.086296804 -0.023290694 -0.044452522 0.046733014
-0.038814213 -0.04377848 -0.0077726766 -0.06332189 -0.03794288 0.017645255 0.022906251 0.057365708
0.032957137 -0.043911587 0.06897437 0.0049679577 0.07439444 -0.03288788 -0.07524933 -0.048148822
-0.05539848 -0.054443654 -0.06672382 0.0023136437 0.039148472 -0.04511921 -0.052853137 -0.0395967
0.056801863 -0.07832031 -0.048548248 0.0074323416 -0.057557113 -0.028557766 0.03503499 0.014123127
-0.03336412 0.03421031 0.041721083 -0.08827612 -0.060619377 0.051709034 0.036134094 0.03777621
0.029333323 -0.07076284 -0.080095924 -0.0009400025 0.07779951 -0.00067809224 0.0689813 -0.06491259
-0.047057312 0.069470696 0.00811293 -0.020417891 -0.045918927 0.081380226 -0.046726145 0.030146249
0.034045637 -0.005810283 0.047957025 -0.04574955 -0.021456242 0.04512953 0.044427298 0.05722835
0.04757265 -0.06667234 -0.056769665 0.052011736 0.05900196 -0.012965202 -0.046948258 -0.04810249
0.0801748 -0.08031292 0.06539319 -0.060171336 0.06623105 -0.005981587 -0.026635017 0.041693665
0.04501202 -0.01615803 0.018351905 0.046616293 -0.025315516 -0.052654814 -0.059074253 0.07621568
0.07855474 -0.087103434 0.020454578 0.006822586 0.027030036 -0.082448624 -0.06814331 -0.023136504
0.020867199 0.032155454 -0.008064039 -0.0016615316 0.072617866 -0.06678982 -0.055590205 0.015717447
0.03076265 -0.037084546 -0.08420012 -0.054130103 -0.06664581 -0.019890659 -0.05108419 0.06636677

default.encoder_fc.3.weight f4 [128, 128]
00000000: 74bd b1bd 1a4b 93bd 211d 9bbd ee66 83bd
00000010: c6fa 19bd a0b5 07bd 882f 833c b350 3dbd
00000020: 3b83 a9bd e089 aebb 70f3 4ebc 9775 ab3d
00000030: dac7 5d3d 5434 92bc d646 243d 84ab dfbc
00000040: bade 573d c459 d83c b8ef 423c 7778 13bd
00000050: d867 6cbd 2d3b 74bd a08d 133d cc08 96bc
00000060: ad1f 0bbd 2dca 963d 965a 2e3d 3e97 8bbd
00000070: 0af7 243d c681 663d e7a9 0dbd 1f3d abbd
00000080: 1e43 2f3d c800 973c ba09 6dbd 2d7e 893d
00000090: 98ff 44bd 67f3 953d a0fc 2bbc 1c73 eabc
000000a0: ab8b 6bbd 48f0 34bc a449 f53c edf2 8d3d
000000b0: 1cbb ec3c 5659 163d 9840 bcbc 4c56 25bd
000000c0: 10f7 58bc bfe3 8a3d bafb 7c3d de21 223d
000000d0: f848 ef3c c2e8 9bbd 0000 8935 60fd 41bc
000000e0: ba67 e2bc 436e 33bd e226 b1bd 3060 013d
000000f0: c031 46bc 4808 4fbd c494 a43c 8810 183c
00000100: 5fd6 51bd 4022 afbd e86e 70bd 83c6 4ebd
00000110: 28f3 c7bc bf66 49bd d7be 8dbd ea8c 00bd
00000120: 88aa b43c adbd 0ebd 34e7 39bd 23cc b3bd
00000130: 2550 833d 2bdf a03d c112 ae3d 862c 753d
00000140: c85c 60bd 4e7f 453d 42c2 5b3d 10c9 dc3b
00000150: 6b8d 79bd 221a b3bd 348f a9bd 51ce 9f3d
00000160: 83ff b3bd 6b1a 893d 52f1 703d d2f7 98bd
00000170: d0ce a03c 1a24 333d 282a a9bc e7ed 73bd
00000180: e8af 9a3c cc43 89bc fca6 f4bc c8cd 6cbc
00000190: 0159 b33d c0c0 9dbc 6d2a 33bd 6586 15bd
000001a0: 50c1 4b3c e8f7 66bc 9890 90bc e23e 573d
000001b0: 9003 3abd 5274 1d3d 0c60 a5bc 002f ba3b
000001c0: 4225 723d 1760 b4bd cb9e a0bd e0dc 4e3b
000001d0: b451 bcbc f059 71bc d76f 93bd 38a7 b63c
000001e0: a20d 3d3d 5937 a73d 5fc9 a23d f481 c7bc
000001f0: dcd9 0cbd 5d78 9ebd 1201 a2bd f0a6 89bd
00000200: d603 253d f1bc 13bd 986e aebc 48b1 0a3c
00000210: 46e0 2e3d 4786 99bd 81bf b2bd ccce b73c
00000220: 70df d1bc 4e45 3c3d 10ee c93c b511 66bd
00000230: 00c5 2d3b fb0c 873d dc69 90bc 9eb1 98bd
00000240: b387 94bd af5f adbd 3fae ad3d c761 a83d
00000250: a0f4 abbc 6052 3bbb e053 50bb ee07 55bd
00000260: f012 f33c 57ca 99bd bf5d 8a3d 3dc5 9ebd
00000270: 7849 e13c f262 243d 4aa0 aebd aeed fcbc
00000280: ff27 aa3d 00d5 633b cdd5 ae3d 12bd 413d
00000290: a972 8e3d 8382 b43d 455a 56bd c21a 3e3d
000002a0: a525 903d 94dc 9dbd b4f7 6fbd 9d38 833d
000002b0: 238a 873d e04b bdbb 8606 9cbd 8051 6dbd
000002c0: 10a8 903c f74e 3fbd 33fd 863d be0b 98bd
000002d0: 2c77 9cbc 3ee8 553d a437 9fbc 4c69 73bd
000002e0: 1a1e 363d bd11 a73d 3861 573c 0cc0 80bd
000002f0: 9675 4e3d 179a a2bd bf5e 06bd 129f f6bc
00000300: 00a2 f7bb 002a d7b9 9b47 35bd 5f2f 4bbd
00000310: a0a2 003d 322d d6bc c001 853b 2059 76bb
00000320: 8bc5 03bd 6500 a03d 6067 993b 9849 dc3c
00000330: f128 8fbd a5fe 913d 91a2 a43d 4083 73bc
00000340: 6a25 293d 2d54 16bd aa56 fdbc 74c3 debc
00000350: 7057 de3c c04b 1abb 8fa4 a9bd 86de 743d
00000360: 3eb3 1bbd 36e5 783d a6de 33bd 7aba 503d
00000370: d087 4dbc 09ab 833d cca1 efbc 9012 de3b
00000380: c192 b33d 9329 2dbd 342e 94bc b880 1d3c
00000390: 59e5 39bd bc20 55bd 11d5 a6bd 26ca 3e3d
000003a0: 608e 89bc 0197 89bd b8ad 74bd aaf3 94bd
000003b0: c2b3 403d a2fb 98bd ec35 b33c 1bf4 833d
000003c0: 50a7 b63c a05e f43c 26d6 86bd e07d f9bb
000003d0: 3a64 6e3d 047d b83c 340c fb3c 7a06 2e3d
000003e0: 3886 32bc 0082 0eba 8a00 a7bd 9787 8e3d
000003f0: f631 483d 54da 6abd 6104 34bd 4a31 1bbd
-0.086787134 -0.07192059 -0.07573915 -0.06416117 -0.03759267 -0.033132195 0.016013876 -0.04621954
-0.08276983 -0.0053264946 -0.012631282 0.08372038 0.05414567 -0.017847218 0.040106617 -0.027303465
0.052702643 0.026409991 0.011897974 -0.036003556 -0.05771622 -0.059626747 0.036023736 -0.018314742
-0.033965755 0.07362781 0.04256686 -0.068159565 0.040274657 0.056276105 -0.03458586 -0.08361267
0.042788617 0.01843299 -0.057870604 0.06713519 -0.048095316 0.07321816 -0.010497242 -0.028619342
-0.057506245 -0.011043616 0.029942341 0.069311 0.028897814 0.03670629 -0.02298002 -0.040365502
-0.013242498 0.0678172 0.061763503 0.03958308 0.029209599 -0.076127544 1.0207295e-06 -0.011840194
-0.027637351 -0.043806326 -0.086499944 0.031585872 -0.012096822 -0.050545007 0.020090468 0.009281285
-0.05122983 -0.085514545 -0.05869952 -0.050482284 -0.024407938 -0.049170252 -0.069211654 -0.031384386
0.022053972 -0.034848858 -0.045386508 -0.0877917 0.06411771 0.07855066 0.08499671 0.059856914
-0.054775983 0.04821711 0.053652056 0.0067378357 -0.060925882 -0.08745219 -0.08279267 0.078030236
-0.08788969 0.06694492 0.05882389 -0.07469143 0.019629866 0.0437356 -0.020649984 -0.059553053
0.018882707 -0.01675596 -0.02986478 -0.014453359 0.087572105 -0.01925695 -0.043741632 -0.03650512
0.012436226 -0.014097191 -0.017647073 0.052550204 -0.045413554 0.03844101 -0.0201874 0.0056818724
0.059117563 -0.0880739 -0.07842787 0.0031564757 -0.022988178 -0.014730915 -0.07199066 0.022296533
0.04615558 0.081648536 0.07948565 -0.024353959 -0.034387454 -0.07737801 -0.079103604 -0.06721294
0.04028686 -0.03606886 -0.02129297 0.008465119 0.042694353 -0.074963145 -0.08727933 0.022437476
-0.025619239 0.04596453 0.02464965 -0.05616923 0.0026515126 0.06594273 -0.017628603 -0.07455753
-0.07252445 -0.08465516 0.084805004 0.082217745 -0.02099067 -0.0028583035 -0.0031788275 -0.052009515
0.029672116 -0.075092964 0.06756162 -0.07752464 0.027500853 0.040133424 -0.085266665 -0.030875053
0.0830841 0.003476441 0.08536873 0.047299452 0.069554634 0.08813956 -0.05233218 0.046412237
0.0703843 -0.077080876 -0.058585837 0.064072825 0.06618144 -0.0057768673 -0.07618432 -0.057939053
0.017658263 -0.046706166 0.06591263 -0.07424115 -0.019099794 0.052223437 -0.019435711 -0.05942659
0.0444623 0.0815768 0.013145737 -0.0628663 0.050405107 -0.079395466 -0.0328052 -0.030105148
-0.0075571537 -0.00041039288 -0.04425774 -0.049605723 0.03140509 -0.026144598 0.0040590465 -0.0037589744
-0.032170814 0.07812575 0.0046815127 0.026890561 -0.06990231 0.07128648 0.080388196 -0.014862835
0.041295446 -0.03670137 -0.030925114 -0.027192809 0.027141303 -0.0023543686 -0.0828334 0.059782527
-0.038012736 0.060765468 -0.043913506 0.050959088 -0.012544587 0.06429107 -0.029251955 0.006777115
0.087682255 -0.042275976 -0.018088438 0.0096132085 -0.04538474 -0.05203317 -0.08146108 0.046579503
-0.016791523 -0.06718255 -0.059735984 -0.07273038 0.04704643 -0.0746987 0.021876298 0.06443044
0.022296578 0.029830277 -0.06583814 -0.0076138824 0.058201052 0.02252055 0.030645467 0.042486645
-0.010896258 -0.00054362416 -0.081544 0.069594555 0.04887577 -0.05733712 -0.04394949 -0.037888803

default.encoder_fc.3.bias f4 [128]
00000000: bec4 673d 58e4 983c 76cf 703d aa36 57bd
00000010: 70be 8dbc c858 3fbc 907c 533c 221a 403d
00000020: 6059 f4bb 54eb 9a3c 88d4 9cbc d92c 98bd
00000030: 2e42 643d 7027 1ebc 0019 e93a a8a7 27bd
00000040: 370c 8fbd 85e4 b1bd 8838 a63c 1561 ad3d
00000050: 8adf f7bc ccd6 b8bc 3856 b13c d896 f7bc
00000060: b61d 483d 6a85 4f3d f6b7 043d 700e 083c
00000070: 0055 c9b9 024c 4c3d dc9b 44bd 2c3e 893c
00000080: b43b 86bc 9e7e 423d c722 8f3d 5c3f 5ebd
00000090: 4a2f 523d caa8 3f3d 6d4f b3bd 4783 a83d
000000a0: 1e53 d5bc 5858 57bd 9e0c 80bd 2339 8a3d
000000b0: d091 073c 55bf aa3d 95c0 47bd 183c 3d3c
000000c0: 911b 76bd fa1d 593d 44a9 e63c 5ea6 433d
000000d0: a4c2 42bd 4067 35bc 0642 643d 174a 18bd
000000e0: 3a34 313d f786 83bd da72 3e3d bc42 97bd
000000f0: 36fd 473d baf2 87bd ef09 b03d d0a3 35bc
00000100: 0b94 96bd de49 3e3d a0b6 433b fe81 563d
00000110: 918f 24bd a33b 2fbd 4b68 a83d e642 233d
00000120: a01a 7f3b a06b f63b d288 ecbc b3c0 19bd
00000130: d103 21bd 0049 e5bb 5889 a2bc aeb3 3f3d
00000140: 8027 26bb e2bd 513d a4a2 ffbc f8d0 b6bc
00000150: 5454 023d 108f 093c 614d b33d b40a a8bc
00000160: f24e 1dbd 1a8e 49bd c8ba b5bc 8ea3 023d
00000170: 3963 863d fa36 5c3d 20f3 483c caa3 623d
00000180: 9338 a0bd 3d64 a83d 10d7 d03c 2b7d 813d
00000190: fcbd c7bc 8db6 80bd 4aed 713d 20b0 c3bb
000001a0: 1f10 94bd 00ce 33bb c06a cdbc 4b22 a93d
000001b0: e31e 95bd e05f f83c 9a20 ffbc 98d5 1bbd
000001c0: 410f af3d abbc 903d f812 923c 688b cc3c
000001d0: c6a8 0d3d f2c0 43bd bba3 61bd cc23 a13c
000001e0: a28f 4ebd a783 933d efdd a6bd e856 bfbc
000001f0: ed3c 833d f8e7 fa3c b0f1 a1bd c665 6f3d
0.056584112 0.01866357 0.0587916 -0.052542366 -0.017302722 -0.011678882 0.012908116 0.046899922
-0.0074569434 0.018911041 -0.019144312 -0.07430429 0.055727176 -0.009652957 0.001778394 -0.040931374
-0.06984752 -0.08686165 0.020290628 0.084657826 -0.030257959 -0.02256336 0.021647558 -0.030223295
0.04885646 0.050664343 0.032402 0.008304223 -0.00038401037 0.049877174 -0.0480002 0.016753279
-0.01638589 0.047484033 0.06989055 -0.054259643 0.05131463 0.04679183 -0.08755384 0.08228164
-0.02604061 -0.052574486 -0.062524065 0.06749179 0.0082745105 0.08337275 -0.048767645 0.011549972
-0.060084883 0.053007104 0.028156884 0.047766082 -0.047548905 -0.01107198 0.055727027 -0.037180033
0.043262698 -0.06422227 0.04649625 -0.073857754 0.048825465 -0.06638093 0.08595645 -0.011086419
-0.07352456 0.046457164 0.0029863492 0.052370064 -0.040175978 -0.042781483 0.08223017 0.03985872
0.0038925782 0.007520154 -0.028873835 -0.037537288 -0.03931028 -0.0069972277 -0.019840881 0.046802215
-0.0025353134 0.051206477 -0.031205483 -0.022316441 0.031818703 0.008395925 0.08754993 -0.020512916
-0.038405366 -0.049207784 -0.02218379 0.03189426 0.06561894 0.053763367 0.012264997 0.055331983
-0.07823291 0.08222244 0.025493175 0.06322702 -0.024382584 -0.06284819 0.059064187 -0.0059719235
-0.07229637 -0.0027436018 -0.025075316 0.08258494 -0.07281282 0.030319154 -0.031143475 -0.038045496
0.08547831 0.070672356 0.01783131 0.024968818 0.034584783 -0.04779143 -0.055087786 0.01967039
-0.050429948 0.07202845 -0.08147799 -0.02335687 0.06408105 0.03062819 -0.07907426 0.058446668

default.mean_encoder.weight f4 [10, 128]
00000000: 8237 0b3c dab4 173d 13db f4bc 3e7f ed3d
00000010: 1d24 833d 0231 9f3c 9477 12bd 1ca8 c3bd
00000020: e9fc 5fbd 08bb 39bd 8fe8 e83b 774b 613d
00000030: ef99 473d 3347 c03d 8c08 dc3c 86a4 9dbd
00000040: 8793 04bd 8566 413d d7d3 2ebd 881f 923d
00000050: 8024 883c 63d6 d2ba 36db c03d 8232 8e3c
00000060: 15da 68bc bd46 b23d ac5c b33d 37be 1f3e
00000070: 3e3b 4ebd 4b5d f2bd 022e 1bbc 1970 04be
00000080: 658d 35bd 102f 5cbd ecfe 263d bebe f13d
00000090: 0b78 843d e59e 2e3d 9d37 903c 6eeb f13c
000000a0: 5044 83bd c428 913d 2d7c 443d 1eda cabd
000000b0: c302 27bc ab2a d8bd 256e 6c3d b51d fc3d
000000c0: 5ac6 053e ac1b d9bd 338e d33c 4f3a e43d
000000d0: 073c 043d be61 0e3e 2e82 debd 8240 ad3d
000000e0: 149a c3bc d3c9 073e 7812 adbc 8cbc b7bd
000000f0: f930 60bd d35c a53d c8e2 a5bd eb65 683d
00000100: 032f 5fbd cd89 c43d 43d1 463d 3a7d d3bd
00000110: e669 043d e413 30be af4b 4abd f7fd b63b
00000120: e2c4 01bd 22cc f33b 526b 733d bfad 1cbe
00000130: 4120 b0ba 1772 05be 882e ce3d c83f 96bd
00000140: 8afa ddbd dc8a 293d 44b9 b43d 830e 0dbd
00000150: cdc9 b1bd 947c ef3d 24dc a03d 9f1c c63d
00000160: ecf5 46bc 200b dcbd 140e 1abe 6d8c 01bd
00000170: 0dd9 093e ed3f d43d 5cba 90bc d387 77bd
00000180: 651e b5bc 60c6 093d 5483 97bd 055b f23c
00000190: 4bb1 36bd 096b 983a 39cd e93d e773 02bd
000001a0: c38f 45bd 30df 94bd 5a22 5abd 6f9c 40bd
000001b0: 401b 6c37 60ed 23be 342e 7f3d 3ed7 103d
000001c0: b8e8 86bd 8cc8 cfbd 674c e5bd ad56 73bd
000001d0: 7e30 28ba c277 9fbd dbc3 b13d 46b0 053e
000001e0: 5095 283e 0b7e fe3d 19ab e9bd 4065 61bd
000001f0: b4ff d13c 53dd 0b3e c7ad 7bbd 15b0 c0bd
00000200: a425 12bd be38 0fbd 1e41 c5bd 92d0 163d
00000210: bac7 343d 6581 943d 6713 453d b5a0 06bd
00000220: 74b0 f5bb 7738 1abe 68e8 e8bd d3ff 89bd
00000230: 22a3 09bd 87f9 ea3c 5a45 b53d 25d7 93bd
00000240: 8c2e b73d 2f01 c8bd 4ae2 763d de50 1bbd
00000250: 33ce bfbd c22f bc3c e5c9 783d d84c e43d
00000260: 79c6 c43c f3c1 6a3d 2ce1 7b3c 0a36 8abd
00000270: bdde 36be 3836 18bd e5a8 db3c 1fdc b7bc
00000280: fca2 cd3d 9257 08be dcdf 643b 0e5d 2ebd
00000290: b888 383d af89 bcbd e110 fd3d 0697 69bc
000002a0: 591e bb3c c417 0fbd 54f0 cf3d d8b4 f23d
000002b0: a038 103e c003 323d 6231 4cbc 58af 263c
000002c0: e16c b83c cb2e e4bd 452e 513d 8d4f b6bd
000002d0: 8780 74bb bfed dabc 7cb4 4dbd 4442 7ebd
000002e0: f8c3 913d e9e0 7cbc 0114 6e3d 98d5 1dbc
000002f0: 3cf7 be3d ca1e 8fbd 8c48 233e 2eec d53c
00000300: b3de 913d 2b41 00bd a13f d23c cccd 1dbd
00000310: ad58 aebd e78f f4bd 1b73 443d 8553 583c
00000320: f9f3 73bd 2755 343c eb68 9dbd 78aa e5bc
00000330: ff61 cc3c 3544 d3bd 9682 47be 869b 173c
00000340: 51b6 093d d013 90bd e14e ee3c 0f98 09be
00000350: d8ab c0bd ac64 94bd 7b06 c83d 150a 143e
00000360: 76a7 ed3c abb9 813d 8e7c bebc bfde ea3c
00000370: e211 f03d 082d c23c cc45 263d 0f5e 36bd
00000380: a4d7 f93d 40f7 c33c 1134 483c d22d 9abd
00000390: 6278 b93d b42a ef3d cf18 ba3d 2721 6abe
000003a0: 3df1 013d c626 94bd 8927 42bd bb1f 73bb
000003b0: 722c 3c3d 7aa1 82bc 2de0 403d edf3 c93d
000003c0: bc96 a6bc 1d89 96bc 6cfd b8bd 5d18 cd3b
000003d0: a5b2 5c3d fd19 bfbc 93c0 e9bb b3f9 c43d
000003e0: 87fd 6fbd 6165 fa3c 4ee2 85bc df17 5d3d
000003f0: d3fa 1fbc 19c1 b23d a7a2 3a3d c4e8 8ebd
0.008497121 0.037037708 -0.029889619 0.11596535 0.064033724 0.019432548 -0.03575857 -0.09553549
-0.054684553 -0.045344383 0.0071078013 0.05500361 0.048730787 0.0938858 0.026859544 -0.07697396
-0.032367256 0.04721691 -0.042682495 0.0713492 0.016618967 -0.0016085621 0.09416811 0.017358068
-0.014212151 0.087048985 0.0875791 0.15599905 -0.050349467 -0.118342005 -0.009471418 -0.12933387
-0.044324297 -0.05375582 0.040770456 0.11803959 0.06468209 0.042632002 0.017604643 0.029531207
-0.06409514 0.070878536 0.047969986 -0.09904884 -0.01019353 -0.10555013 0.05772223 0.12310354
0.13063946 -0.10600981 0.025824642 0.11143934 0.03228381 0.13904473 -0.108646736 0.084595695
-0.023877181 0.13260584 -0.02112697 -0.08971509 -0.054734204 0.080743454 -0.08099896 0.05673782
-0.054488193 0.09596596 0.04853941 -0.103266194 0.032327555 -0.17195088 -0.049388584 0.005584474
-0.031681903 0.007440106 0.05942852 -0.15300654 -0.0013437347 -0.13031803 0.10067469 -0.07336384
-0.10838802 0.041392192 0.08824399 -0.034437668 -0.086810686 0.11693683 0.078544885 0.09673428
-0.012143593 -0.107443094 -0.15044433 -0.03162806 0.13461705 0.103637554 -0.017666988 -0.060432266
-0.02210922 0.03363645 -0.07398096 0.029584417 -0.044602674 0.0011628579 0.11416096 -0.031848814
-0.048232805 -0.07269132 -0.053255416 -0.047024187 1.4073041e-05 -0.1600852 0.062299922 0.03536152
-0.06587356 -0.10145673 -0.11196213 -0.059408832 -0.00064159173 -0.07786514 0.086799346 0.13055524
0.16463208 0.124263845 -0.114095874 -0.0550282 0.025634624 0.13658647 -0.061445024 -0.09408585
-0.03568043 -0.034966223 -0.09631561 0.036820002 0.044135787 0.072512425 0.048114207 -0.032868106
-0.0074978415 -0.15060602 -0.11372453 -0.06738248 -0.03360284 0.028683437 0.088511184 -0.0721877
0.08944425 -0.09765851 0.0602744 -0.037918918 -0.09365501 0.022971991 0.060739417 0.11147469
0.02402042 0.05731387 0.015373509 -0.067485884 -0.17858405 -0.037161082 0.026813934 -0.02244383
0.100408524 -0.13314655 0.003492347 -0.042569213 0.04505226 -0.092059486 0.12356735 -0.014257198
0.02284162 -0.034934774 0.10153261 0.118508995 0.140841 0.043460608 -0.012462946 0.010173641
0.022512855 -0.111417376 0.051069517 -0.08901892 -0.0037308054 -0.026724694 -0.05022095 -0.062074915
0.07117456 -0.015434482 0.058124546 -0.009633444 0.093245 -0.069882944 0.15945643 0.026113596
0.07122555 -0.03131215 0.025665106 -0.03852634 -0.08513007 -0.1194151 0.047961336 0.013203506
-0.059558842 0.01100663 -0.07686027 -0.028035387 0.024949072 -0.10315744 -0.19483408 0.009253388
0.033621136 -0.07035029 0.029090347 -0.13436912 -0.094077766 -0.07245764 0.09766861 0.14456971
0.029010516 0.063342415 -0.023252752 0.028670667 0.11722161 0.023703113 0.040593907 -0.044523295
0.12199333 0.023921609 0.012219445 -0.07528271 0.09056164 0.11678067 0.09086763 -0.22864209
0.031724203 -0.07233958 -0.047400985 -0.003709777 0.045940824 -0.015946139 0.04708879 0.09860978
-0.020335548 -0.018375928 -0.090327114 0.006259008 0.053881306 -0.023327822 -0.0071335523 0.09617939
-0.058591392 0.03056592 -0.016343262 0.053977843 -0.009764391 0.08728237 0.045565274 -0.0697799

default.mean_encoder.bias f4 [10]
00000000: 6edb 9e3d 9d0e 433d 6fa7 253d ef93 623e
00000010: 8eab 96bd 588b 913d 7efa 14bd 60e5 b63d
00000020: d0d5 30be 6898 373e
0.07756697 0.04762136 0.04044288 0.22126745 -0.0735694 0.07106656 -0.0363717 0.089304686
-0.17269063 0.17929232
