models/mnist-relaxed1E/encoder_z1_-5715881879979088570.pt (torch_old, 516075 bytes, 14 tensors)

default.encoder_cv.0.weight f4 [32, 1, 3, 3]
00000000: 230b 373d 3238 a0be 1d2e 573e bf0f f5bd
00000010: 64da 393d 89d4 71be 8f05 193d 966a f83e
00000020: 2a8b cf3d b445 68be 9b19 05bf 5fd5 f8bd
00000030: e1c6 6dbe 5d7f 803e 9cc2 d93c ccba 84be
00000040: 525d 35bc 7add d23d 20b1 dfba 784c 82be
00000050: a732 983e 739f 163e 7f1b 2d3e 0679 9b3c
00000060: 20f9 9e3d 37bc 8d3e 48ab 6cbe 340c 83be
00000070: 2612 74be 71cb 38be 5bac 043e 29a7 e0bd
00000080: df67 53be cff3 393e 3698 743e e486 873e
00000090: 341c 3a3e 859f 8a3c d9fc 44be b504 1e3b
000000a0: ac5c 43be 6678 71bd a2d3 bcbe 6f0a 0c3e
000000b0: 7781 a6be d475 87be c05c 3a3c 3da3 bdbe
000000c0: 3705 583e 940a 86bd 67a8 633d e476 833e
000000d0: d278 9bbe 35f2 71be d876 4a3d b4db 1a3e
000000e0: fe9a 3b3e 144b 34be 6b41 ae3e 3cc5 48be
000000f0: 65be c4be 11b2 ac3e 1f49 91bd e48d 483e
00000100: 499a afbe fc4c a8bd 6e92 603e b8ee aebe
00000110: 2adc a03e 3524 003e fe35 153e 040b a93e
00000120: 3afe 513e 849f 08bc e5ae a13d 42b2 443e
00000130: c44e 793d 754a c83e 6ce4 21bd 10ef 3a3e
00000140: f1d6 1cbe 7ba2 433e d775 853d 4792 b2bd
00000150: 6d5b d5bd a19a 9bbe becc 12bf 4ed6 f23d
00000160: 00fd ad3e c80d dd3b 9ab9 323e 36e5 a33e
00000170: b4a2 c03e da89 b4be f818 173e e585 12be
00000180: 51bb 963e 5fd5 36be 982d 1c3e 9ea9 363e
00000190: 6a85 94bd c7fa b63e 3072 233e d66d 58be
000001a0: f2c8 ec3d 1cd7 c5be 954d 8a3e 693a 2d3e
000001b0: 4254 12be cd11 003e fdd3 e3bd 6b15 503d
000001c0: a40e 223c dd46 cbbe aefd 203e 17b3 bb3e
000001d0: a75e a23e d525 49be 8b18 453e 094e 403e
000001e0: 18b6 913e 8624 a43d c6ae 543e 55ab 2dbe
000001f0: 6502 3abe 33ef 1a3e 24e9 0bbd 4215 ab3c
00000200: 4eda 8c3d 244b 343e 085f 45be b71c 6b3e
00000210: 14cd 80ba 58a3 a33e e897 873e acd1 4b3e
00000220: d6b0 7bbd 1875 9d3e 1cc8 3bbe 1ec5 bebe
00000230: fa39 b13e fd85 5b3e d7b5 393e 3d2a a63d
00000240: 3187 d7bd 3ecb 67be 3c76 a83e dda9 4fbe
00000250: 40eb c43d 89a7 633e 430c b8bd 9b45 85be
00000260: 24c5 af3e 147a d53d aadb 65bd 65fb a3be
00000270: 94c6 903b 419c 5c3b 86d5 89be 3144 82be
00000280: 5256 39be 8188 88be c150 cf3c c551 853e
00000290: b617 37be da6c a8be bd59 873e 4bc1 8a3e
000002a0: 6198 24bd 7433 f8bd 0669 753d f3d7 93bd
000002b0: b9d6 26be cd5b c73e 1e08 09be 58e3 b43e
000002c0: 6557 6f3c 9eec 5abe e8b3 753e 700d 62be
000002d0: b1c3 723e 0353 333e 10b8 3cbe ec17 c4bd
000002e0: bc4d 9bbe a811 533e 8d07 a9be 5a71 623e
000002f0: 0a49 ac3e 94e1 553e 1ac6 77be ff2c a53e
00000300: d8ad 2dbd a465 31bd 70be b1bd 53d1 91be
00000310: 26c0 72bd 009f 1f3e a1d8 b8be 5523 f13b
00000320: 4339 7f3e 9862 babe 2c3e 87bd a306 6f3e
00000330: 7055 af3c cd0a f13d b28b b93e 7135 0fbe
00000340: 30ed 3cbe 4adf 10be 4d7c 4bbd 3519 3d3e
00000350: a60e 8b3e 94c0 cb3c 8e25 d53d 2ed5 aa3e
00000360: d6b9 72bd 71da 62bc 23f5 9fbc da75 ae3e
00000370: 11a9 8b3e 527c b23c 7b92 e33d 9bb0 a4bc
00000380: 94e2 edbd 5319 92be a36a a23d 20ef 983d
00000390: f6db 0abc 9d0b ccbe 005b 8bbe fd51 1b3e
000003a0: 7744 92bd 19b0 233e 788d 96be 93b5 813e
000003b0: 67cc 86be 9d35 903e 7cd3 51be e4ea 9cbe
000003c0: d915 c43e 10cd f2ba 8fb3 f1be 7c2f c83d
000003d0: c15b 5dbe f415 89be 6260 bbbd 1d8d 41be
000003e0: b5f7 223c f1e1 853e b353 bf3e a030 373e
000003f0: 37f3 e83d 5ef8 20be c699 c0be 3134 283e
0.044688355 -0.31292874 0.21013685 -0.11965894 0.04537429 -0.23616232 0.037358817 0.4851882
0.10133965 -0.2268284 -0.51992196 -0.12150072 -0.23220398 0.2509717 0.026582055 -0.25923765
-0.011069613 0.102961496 -0.0017066337 -0.25448966 0.29726145 0.14709263 0.1690502 0.018978607
0.077623606 0.2768266 -0.23112214 -0.25595248 -0.23835048 -0.18046357 0.12956373 -0.10969383
-0.20645092 0.18159412 0.23886189 0.264701 0.18174821 0.016921768 -0.19237079 0.0024111692
-0.1907832 -0.05895271 -0.36880213 0.13675855 -0.3252065 -0.26457083 0.011374652 -0.37038603
0.2109574 -0.06544986 0.055580523 0.25676644 -0.30365616 -0.23627551 0.049429744 0.15122873
0.18320844 -0.17606765 0.34034285 -0.19606489 -0.3842651 0.33729604 -0.07094025 0.19585377
-0.34297398 -0.082178086 0.21930858 -0.34166503 0.31417972 0.12513812 0.14571378 0.33016217
0.20507136 -0.008338813 0.078946866 0.19208625 0.060866132 0.39119306 -0.03952448 0.18255258
-0.15316369 0.1910495 0.06516617 -0.087193064 -0.10417829 -0.3039141 -0.5734366 0.118572816
0.33982086 0.0067460276 0.17453614 0.32010812 0.37624133 -0.35261422 0.14755619 -0.14308889
0.29439786 -0.17854832 0.15251768 0.17838141 -0.07252009 0.35738203 0.15961528 -0.21135649
0.11561765 -0.38640678 0.27012315 0.16916813 -0.14289954 0.1250679 -0.11124418 0.050801676
0.009891186 -0.39702502 0.15721771 0.36660072 0.3171284 -0.19643338 0.19247644 0.18779768
0.2845924 0.08014779 0.20769796 -0.16959889 -0.18164976 0.1513031 -0.034157887 0.02088416
0.06877576 0.17606789 -0.19274533 0.22960173 -0.0009826743 0.3196056 0.26483083 0.19904202
-0.06144794 0.30753398 -0.18338054 -0.37259763 0.34614545 0.21437831 0.18135773 0.08113525
-0.105238326 -0.22636124 0.32902706 -0.20279641 0.09615183 0.22231878 -0.08986714 -0.26029667
0.34330094 0.10423675 -0.05611769 -0.32027736 0.0044182036 0.003366247 -0.26920718 -0.2544265
-0.18099335 -0.26666644 0.025307061 0.26038948 -0.17880139 -0.32895547 0.26435652 0.27100596
-0.040184382 -0.12119189 0.05991461 -0.072189234 -0.16292848 0.38937226 -0.13382003 0.353297
0.014608239 -0.21379325 0.2399441 -0.22075438 0.23707463 0.17512135 -0.1842959 -0.09574875
-0.30332744 0.20612204 -0.33013573 0.22113553 0.33649474 0.20886832 -0.24196663 0.32260892
-0.04240212 -0.043309823 -0.08678901 -0.28480014 -0.05926528 0.15587997 -0.36102775 0.0073589482
0.24924187 -0.36403346 -0.06603655 0.23342375 0.021403044 0.11769638 0.36239392 -0.1398523
-0.18449855 -0.14147678 -0.04967909 0.18466647 0.27159613 0.024872102 0.104075536 0.33365768
-0.05925926 -0.013846026 -0.01952607 0.3407429 0.27277425 0.021787796 0.11111923 -0.020103743
-0.11615482 -0.28534946 0.079304956 0.074674845 -0.008475294 -0.3985261 -0.27217865 0.15167995
-0.07141965 0.15985145 -0.29404807 0.25333843 -0.26327822 0.28165904 -0.20490831 -0.30647957
0.38297918 -0.0018524248 -0.47207305 0.09774682 -0.21617033 -0.2677456 -0.09149243 -0.18901487
0.009946753 0.26148942 0.37368545 0.17889643 0.113745145 -0.15719745 -0.3761732 0.1642616

default.encoder_cv.0.bias f4 [32]
00000000: e4d3 49be 3cad 9e3d 4f58 8cbe 83ff b43d
00000010: d353 9d3e 80ed 153e 3ef8 90bd 2891 8fbe
00000020: 8d6d 74be b4b0 2dbd 895c 65be a2bc 1dbe
00000030: d61e 333d 3d04 82bc 1c52 afbe b4e3 9cbe
00000040: 73b7 ce3d 7f20 543d de99 e83d fe47 c33b
00000050: 48b7 fabd 39cd 3fbe d69e 97bd 5b29 a03d
00000060: 03fc 27be a6be 893e e5c0 93bc a9ca 84be
00000070: 4ae1 e93b 2938 47be ca49 04be 6b6c 3cbd
-0.19709736 0.077478856 -0.27411124 0.088377975 0.30728015 0.1464138 -0.070785984 -0.28040433
-0.23869915 -0.042404845 -0.2239858 -0.15403989 0.04373058 -0.015871162 -0.34242332 -0.30642474
0.10093584 0.051788803 0.11357473 0.00595951 -0.122419894 -0.1873063 -0.074033424 0.07820388
-0.16404729 0.26903266 -0.018036315 -0.25935867 0.0071374523 -0.19455017 -0.12918773 -0.046001833

default.encoder_cv.4.weight f4 [64, 32, 3, 3]
00000000: 9f2b 9bbc a56d abbd 9bba 10bd d6a7 8dbc
00000010: 9e88 abbd 0237 e23c f0ad 6f3c 1f13 26bc
00000020: acf5 19bd d04e 22be a9c9 80bd b7c7 b2bd
00000030: c026 15bd 72f6 4ebc bf8d 433d 3ab4 373c
00000040: 8ef0 1dbd 89a3 36bd 4a37 8e3d a46e 673c
00000050: bf63 ea3b 2d7c 073d 88c3 94bc 720e b8bd
00000060: fede 71bb d057 91bd fb4b 2ebd 2840 8fbc
00000070: 3f84 83bd 7b0f 6e3c c2e6 d5bc 1d2e 9cbc
00000080: d907 383d 5e16 ad3d 7f0a 4e3d 8119 13bd
00000090: c686 5abd a85b 3a3c 5a36 fbba 96a1 82bc
000000a0: ede7 f23c f553 77bd dcb7 c6bc 5b21 793c
000000b0: 6e43 a5bd 7787 8fbd 310f e3bc f47b 56be
000000c0: fb5b 313d 0562 d6bb ad92 feba 9f7b 6a3b
000000d0: 49f6 bdbd 1dab 76bc 868e b53d 693f 193d
000000e0: 63b0 db3d 6899 893d 3ddd 45bd 6f41 7c3c
000000f0: dcb4 ab3d 6613 b4bd f924 88bb 8046 013c
00000100: 735e 6fbd a3ce f33d 50e2 f23c b680 43bd
00000110: 8dcb 203d 5c6e b03d 5f0f bfbd 2c68 c5bb
00000120: 3e24 9d3d f137 61bb 3217 153d bef3 943d
00000130: b9bd b5bd 84dd d33c 8e50 303b ba8d 00bc
00000140: 2326 2ebd ef15 803c 3643 c7ba 8226 af3c
00000150: dc4f 713d 51dc 50bd f11b 79bd aeb6 193a
00000160: 7b70 ed3c 38d0 0dbd aab4 cb3d eb7a bf3d
00000170: 4f28 243d d77f 843d 4a97 83bd 2ae2 a43d
00000180: 9f6e ff3c f3fe c0bd 44f4 d73a bcd4 b33d
00000190: 97f8 923d 2d06 0c3e 0416 c53c 56c7 43bd
000001a0: d150 863d f946 99bd 81c4 8a3c a3e5 31bc
000001b0: 6bc5 fc3c 5823 19bc 3543 b83c 5886 cbbb
000001c0: 9bdc 98bd 68ae 1a3d d73d 863d 9e37 00bb
000001d0: 2489 1bbd b3c6 793d d616 283c e638 a93d
000001e0: 3f20 19bd b2ad 97bd 7abd ee3c 979a 35bd
000001f0: 3845 85bc c954 473d 5f20 27bb 9836 79bc
00000200: 8ad7 3c3d 47cb 1b3c 0a50 81bd b400 6b3d
00000210: 61cc 043d 4db1 4fbc 1d8a ec3c 3d06 8d3d
00000220: c622 373c 8154 2a3e 2af2 7c3d c462 9abd
00000230: 8228 a93d 86cd 913d f0d1 77bd 219b e93c
00000240: 54bf e5bc 0804 95bd a252 223d 95e3 68bd
00000250: 7161 c1bd 2079 603c 434f 0f3d 3be9 de3c
00000260: d261 273d 9eba b0bd 3653 b33c 98d2 debb
00000270: 3e11 d8bb 29cb 33ba db12 aabc fe71 21bc
00000280: 5b72 903a b462 7bbd 4bcb 143d 7eda a2bb
00000290: 0e35 0b3e cbe8 bbbc 7339 f8bc 4642 41bd
000002a0: 0c06 58bc b93d 2abd 4db8 79bd 5129 ed3a
000002b0: e307 0b3d 6523 dc3c bb26 303d 173b 3c3c
000002c0: 5cc8 22bc 4225 e3bc aea9 d2bc 8032 c13c
000002d0: 4f47 a4bc 3a23 58bd c06c ff3d 42ef d23c
000002e0: a023 82bd 62df 2fbd 3d9c dbbd 50c1 9cbc
000002f0: ff5f cd3c 0b32 f5bb 52ad 103d 1f99 d23c
00000300: 084d 16bc e1a1 6b3d 395c 733c 30c6 3fba
00000310: 6b87 f7bc ef32 763d cb72 c63c 4b76 63bd
00000320: c8bc 7d3d 9ae8 6ebd 9069 aabd 3ed3 ad3d
00000330: 3888 c4bc 3c98 5fbd 3069 01bd 8e8b 9e3b
00000340: 36bb a4bc ebd3 603d d154 f93b 8afb ff3c
00000350: 394e 67bb 1b40 403d 6791 35bd 3f74 d73c
00000360: 1c90 6a3d ccbd f43c f276 e23d 6a3a 653d
00000370: 3a4a 1abc 3e2c a6bd 12aa a03d 4ba7 bdbd
00000380: 7da1 9abd d0fb e9bb 8539 c93c a5b2 523c
00000390: 009c 11bd 6cf2 b43b 44a6 e7bc 00d5 f2bb
000003a0: e25e 8c3c ec45 4cbd 5be6 8d3b 6df3 893d
000003b0: 0b1b 4dbe d23f 4d3d dcb6 62bd 36b5 20bd
000003c0: d6ee a53c 66d0 11ba f232 1bbd 233c a6bc
000003d0: 3729 9abd 6dc2 703c b328 573d 195b cdbc
000003e0: 3daf fabc c9a4 6e3d 9717 b43c db22 283d
000003f0: 5ee4 44bd ccd7 973c a55a 57be 938c 01bd
-0.018941699 -0.083705224 -0.03533421 -0.017291944 -0.08375667 0.02761412 0.014628872 -0.010136395
-0.037587807 -0.15850377 -0.062884636 -0.08729499 -0.036413908 -0.012631999 0.0477426 0.011212403
-0.03855949 -0.044589553 0.06944139 0.0141255 0.007153004 0.033077408 -0.018159643 -0.0898713
-0.0036906595 -0.07096827 -0.04255293 -0.017486647 -0.06421708 0.014530058 -0.02611101 -0.019064957
0.04492936 0.08451532 0.05030298 -0.035912994 -0.053351186 0.011374392 -0.0019165978 -0.01594619
0.029651606 -0.060382802 -0.024257593 0.0152057065 -0.08069502 -0.0700826 -0.027717205 -0.20945722
0.04330061 -0.0065424466 -0.0019422375 0.003577925 -0.09275491 -0.015055445 0.08865075 0.03741399
0.107270025 0.06718713 -0.048306692 0.01539646 0.083841056 -0.087927625 -0.004154798 0.007890344
-0.058439683 0.11904647 0.02964893 -0.04773017 0.03925662 0.086147994 -0.09329104 -0.006024381
0.07672928 -0.003436562 0.036399074 0.07273053 -0.08874077 0.025862463 0.0026903483 -0.00784629
-0.04251684 0.015635459 -0.0015202526 0.021380667 0.05891405 -0.05099136 -0.060817663 0.0005863708
0.028984299 -0.0346224 0.09946568 0.093496166 0.040077504 0.06469696 -0.064253405 0.0805095
0.031180678 -0.09423628 0.0016475995 0.0878081 0.07176321 0.13674231 0.02405835 -0.047797523
0.06558383 -0.0748424 0.016939403 -0.010857972 0.030855855 -0.0093468055 0.022492984 -0.0062110834
-0.07463952 0.037763983 0.06554764 -0.00195644 -0.037972584 0.06098051 0.010259351 0.08262806
-0.037384268 -0.074061766 0.029143084 -0.04433688 -0.016268358 0.04866484 -0.0025501472 -0.01521077
0.04610399 0.009508914 -0.06314094 0.057373717 0.032421473 -0.012676549 0.028874451 0.068859555
0.011177724 0.16633798 0.061754383 -0.07538369 0.082596794 0.071192786 -0.060502946 0.028516354
-0.028045334 -0.072761595 0.039629586 -0.056857664 -0.094424136 0.013700753 0.0349877 0.027210822
0.040864773 -0.086293444 0.021890264 -0.006800007 -0.0065938523 -0.00068585813 -0.020760944 -0.009853838
0.0011020409 -0.061373428 0.036326688 -0.004969894 0.13594458 -0.022938153 -0.030300831 -0.047182344
-0.013185035 -0.04156277 -0.06096678 0.0018093978 0.03394307 0.026872346 0.043005686 0.0114886975
-0.009935465 -0.027727727 -0.025715675 0.02358365 -0.020053534 -0.05276797 0.12471914 0.025748853
-0.06354451 -0.042937644 -0.107231595 -0.019135147 0.025070189 -0.007482772 0.03532154 0.02570778
-0.009173639 0.057527427 0.014853531 -0.0007315604 -0.03021594 0.060107168 0.02422466 -0.055532735
0.061947614 -0.058327295 -0.08320916 0.08487557 -0.023990735 -0.05458854 -0.031594455 0.0048384136
-0.0201088 0.0548896 0.007608988 0.031247873 -0.0035294427 0.046936136 -0.04432812 0.026300548
0.05726634 0.029875658 0.11057843 0.05596391 -0.009417111 -0.08113907 0.07844938 -0.09260424
-0.07550333 -0.007140614 0.02456356 0.012859975 -0.035549164 0.005522063 -0.028277524 -0.0074106455
0.017135087 -0.04987137 0.004330439 0.06735883 -0.20029847 0.050109692 -0.05535017 -0.039235316
0.020255487 -0.0005562365 -0.037890382 -0.020292347 -0.07527392 0.014694792 0.05252905 -0.025067853
-0.030601138 0.05826262 0.021983905 0.041048866 -0.04806935 0.018535517 -0.21030672 -0.031628203

default.encoder_cv.4.bias f4 [64]
00000000: 926c e23b 22a9 0dbd 42c6 0abd a77f f5bd
00000010: 7471 203d 4b4e 6c3b 2a6d debc 0da5 5bbd
00000020: 0b66 1dbd 97fc 9dbd 4999 123c 2f43 e6bd
00000030: a890 a2bc 7ab0 5fbd 77ba 84bb b23f bdbd
00000040: ac7d 2d3d 140c 87bd adb2 9d3c 9a9c 80bd
00000050: d147 07bd a407 c3bd 1ab9 4e3b 7103 d83c
00000060: c6d4 83bd 8db9 abbd 2474 b9bc 3a88 c1bc
00000070: b987 a53a b372 09bd 4363 e9bd 15d6 b8bd
00000080: 2a56 44bd 8712 48bd 997c 433c 7b58 0cbe
00000090: be85 68bd 68d4 8fbc 32f5 9d3b 3560 08bd
000000a0: dfca 01bb 4285 3b3c 4821 81bd a4f7 97bd
000000b0: 7086 ab3c 5781 363c 57f1 38bc 3e91 84ba
000000c0: 520c a9bd ddf4 cfbb 21aa e3bc 480c 7dbd
000000d0: 275a 183c 38f2 41bc 86dd 4abc a14c 7cbb
000000e0: b23a 4e3b 0eb7 1dbd 96d1 7fbc 055c 05bd
000000f0: 5761 cabd 9bcb 793c 5dc5 913c 50b5 373c
0.0069099152 -0.034585126 -0.03388048 -0.119872384 0.039170697 0.0036057408 -0.027151663 -0.0536242
-0.038427394 -0.07714193 0.008947679 -0.11243283 -0.019844368 -0.05461166 -0.0040505487 -0.092406645
0.04235618 -0.065941006 0.019250238 -0.062798694 -0.033027474 -0.09522942 0.0031543435 0.026368828
-0.06437068 -0.083850004 -0.022638388 -0.023624528 0.001262895 -0.03355665 -0.11395886 -0.09025208
-0.047933735 -0.048845794 0.011931562 -0.13705628 -0.05676817 -0.017557338 0.0048204893 -0.033294875
-0.0019804758 0.011445345 -0.06305176 -0.074202806 0.020938128 0.011139235 -0.011288009 -0.0010114086
-0.08254303 -0.0063463286 -0.027791085 -0.06177929 0.009298838 -0.011837535 -0.012381917 -0.0038497823
0.003146809 -0.038504653 -0.015613934 -0.03255846 -0.09881847 0.015246297 0.017794305 0.011212662

default.encoder_cv.8.weight f4 [128, 64, 3, 3]
00000000: c901 783d 9312 b63c 468d 1abc 1660 143c
00000010: 1346 433b 5b60 813d f6e0 88bc 6e29 a4bc
00000020: 9a22 7cbd bc5d 4fbc e71e d3ba 8d71 85bc
00000030: 12c4 053b b13e 12bc d90d a1bd 18f8 dd3b
00000040: 2d26 823d a847 87bd 33df 013c 613b cb3c
00000050: 66d6 9b3d eb1d 04bc 8bb0 0f3d b69d f2bc
00000060: 64fa fdbb 9a02 063d 7569 e03a c7f5 953a
00000070: 2a9a 80bc 523b 733d 3fd3 603c 43dd aabc
00000080: b716 923d edbb ca3c a511 e33d 024c 78bd
00000090: a242 8d3d 2aba 693d 96fa 19bd 2eaa 753b
000000a0: 0d46 203d 25b2 6abd 7c26 223d 3950 8f3c
000000b0: 8463 1a3d 46f5 09bb 93d4 063d fb7e 9e3d
000000c0: 0351 b33c ac6f 4f3d 609e 8f3c 76a7 a53b
000000d0: 82ff a0bd b283 d3bb 224d 0c3d 9176 663c
000000e0: b1bb b6bd 9d0e c63c 778a 233d 02e0 09be
000000f0: de4e 323d a14e d3bd 0022 b7bd efbb 1d3d
00000100: 8256 833d bdf2 7bbd 5bd4 a6bc 604e e53c
00000110: ce68 12bd 748a 5e3d 6feb 3bbd d0fc b53d
00000120: a723 cabc 5a8d 87bc 212d 563a 77ed f83c
00000130: 0e16 08bd f77a 5fbc 8c72 cdbd 80b8 503d
00000140: 5b31 873c 6f74 3a3d 1cab c1bd 71b5 1ebe
00000150: c27b 1a3c e960 7ebd c095 0a3d ba7a 613d
00000160: 107e 163e 86e7 babc 7c1f 4e3b 18f7 9e3d
00000170: dc6c 95bc 0fc5 c83b 2a50 3dbc 87e9 77bd
00000180: 3cce 293d 0259 083d 8f66 52bc 1135 9bbc
00000190: 6229 063d 7283 55bd ccf2 b33b ed8d 633d
000001a0: 1edf d23c efc7 bc3d f208 15bd ca8a 1c3e
000001b0: 6796 babc 737e 2bbe 6df5 1abe a8db 42bc
000001c0: 51bb 0ebc 7145 88bd ef1d b63c b798 9bbc
000001d0: 9aa4 10bd 3753 1ebc b534 8bbd 739f b73d
000001e0: 5c87 203c 7248 58bc 3d31 2c3c 2a91 c53d
000001f0: d306 14bd f4b4 9fbd 5e39 f43c 7ec4 91bc
00000200: f039 f43c 5869 d13b 6e8a 35bd 58f6 f83c
00000210: e70c 423c d878 bbbc 4bf6 bbbc 24b0 f23c
00000220: e73f 6dbd 405b b2bc a581 9f3d 4186 39bd
00000230: 7440 863c 69e6 313d a138 633d d836 173e
00000240: 1a47 0d3d caac 2fbb 77bb 463d 2b34 883d
00000250: 43b5 b1bd 37dc 913c 6620 253e b5b7 9bbd
00000260: 0531 123e 0010 46bd 5c1e 78bc 4176 473b
00000270: 4ebb 1d3c c2fb dc3b 65eb 1cbe 8f97 1abd
00000280: 0c3f 283d ec7b 0abb c8ed 2d3d 99c7 b7bc
00000290: e9ce e83c 8a62 c8bc f484 993b b11c 6d3d
000002a0: d7b6 143d a3f3 9b3c e766 443c d659 7e3c
000002b0: 3b9c 9c3c c084 b53d 9dec cfbc e436 13bd
000002c0: 9854 253d 3388 cdbd f46e 86bd 1dc2 f3bd
000002d0: 3847 143d 34c1 203d 85a3 d63d 3b7b 3fbd
000002e0: 6bea f83d e501 df3d 8543 a23d 6549 873c
000002f0: c155 bd3d 9f15 5f3d e614 9b3d 0d7a 043e
00000300: 68d7 0e3d 370a 3a3d a961 783d 0c54 173e
00000310: 5940 23bd 1bae f43d acd6 83bd 4a8e 6fbd
00000320: 133c b43b 6348 643c 6df2 063c cb0d 6ebd
00000330: c490 24bd 8c47 293c 40ba 4abd f132 dcbb
00000340: 28fa 363d 41ab 283d 4ff5 abbc 3aee af3c
00000350: 63a1 923c 6969 2c3d d6ac a4bc fdfc 0c3d
00000360: c62d e63c eda3 963d 35e5 193c b175 0cbc
00000370: 1fbf cfbc 06a9 2d3c 0fc9 5d3c 398e 573d
00000380: b8f8 b1bc 8b0f 713d db70 c13d a21e 743d
00000390: ebb9 783c cf3f 04bc d0a6 d8bc 5578 343d
000003a0: 2ceb 853c 7319 54bd fe13 ac3c 1848 c1bd
000003b0: eaa2 00be 1dcc 943c 8536 013c d8b2 a9bc
000003c0: e828 84bc b761 f93c 8528 6bbd b659 78bd
000003d0: f725 7abd e882 8cbd 2706 ef3c 5847 aabc
000003e0: c6d5 5bbd 48a2 09be 78a7 a23c 2e1b d4bc
000003f0: 4eb7 dfbc 4e81 e13b a765 5d3d f4b4 283d
0.060548577 0.022225654 -0.009433096 0.009056112 0.0029796406 0.063172065 -0.016708832 -0.020039286
-0.061556436 -0.012656625 -0.0016107232 -0.016289497 0.0020411056 -0.00892608 -0.07863969 0.00677396
0.06354938 -0.06605464 0.00792675 0.024808588 0.07609253 -0.008063774 0.035080474 -0.029616218
-0.007750796 0.032717325 0.0017121272 0.0011441045 -0.015698511 0.059382744 0.01372224 -0.020857459
0.07133239 0.024747813 0.1108735 -0.06061936 0.06897475 0.057062306 -0.037592493 0.0037485468
0.039129306 -0.057298798 0.039587483 0.017494308 0.03769256 -0.0021050735 0.03291757 0.07739063
0.021889215 0.050643608 0.017531574 0.0050553633 -0.07861234 -0.0064549083 0.034253247 0.014066354
-0.08922518 0.02417689 0.039926972 -0.13464358 0.043532245 -0.10317732 -0.08942032 0.038509306
0.064129844 -0.06151079 -0.02036493 0.027991474 -0.03574448 0.054331258 -0.045878824 0.08886111
-0.024675203 -0.016546894 0.0008170177 0.03038667 -0.033224158 -0.013640157 -0.10031614 0.050957203
0.016503027 0.045521196 -0.09456465 -0.15498902 0.00942892 -0.06210414 0.03383422 0.05504868
0.14696527 -0.022815477 0.0031451872 0.07761973 -0.018240385 0.006127007 -0.011554757 -0.060525443
0.041456446 0.03328801 -0.012841835 -0.018946202 0.03275431 -0.05212731 0.00549159 0.055555273
0.025741156 0.09217822 -0.036385484 0.15287319 -0.022776796 -0.16747455 -0.15132685 -0.01189319
-0.008711652 -0.0665387 0.02223107 -0.018993719 -0.035313226 -0.009663395 -0.067971624 0.089659594
0.009797897 -0.013200866 0.010509786 0.096468285 -0.03613932 -0.07798186 0.029812511 -0.01779389
0.029812783 0.006390732 -0.04432147 0.030390903 0.0118438965 -0.022884771 -0.02294459 0.029625006
-0.05792227 -0.021772027 0.077883996 -0.04529405 0.016388156 0.043432627 0.055473927 0.14767015
0.034491636 -0.0026805871 0.048518624 0.06650575 -0.08677151 0.017805202 0.1612564 -0.07603399
0.14276512 -0.048355103 -0.015143957 0.0030435475 0.009627176 0.006743879 -0.15324171 -0.037742194
0.04107575 -0.0021130992 0.042463094 -0.022434043 0.028418975 -0.02446105 0.0046850387 0.05788869
0.036307182 0.019037073 0.011987424 0.015524348 0.019117465 0.08863211 -0.02538138 -0.03594102
0.040363878 -0.100357436 -0.065641314 -0.119022585 0.036200732 0.039246753 0.104804076 -0.04674838
0.12154087 0.10889033 0.079230346 0.01651449 0.09244872 0.05446398 0.075723454 0.12937184
0.034873396 0.045419898 0.06064001 0.14778155 -0.03985629 0.119472705 -0.0643743 -0.058485307
0.0055003255 0.013933274 0.00823651 -0.058118623 -0.04017712 0.0103319995 -0.049494028 -0.00671994
0.04467216 0.041178945 -0.020990996 0.0214759 0.01789922 0.042092714 -0.020101946 0.034420956
0.028097998 0.07355485 0.009393026 -0.008572982 -0.025359688 0.01059938 0.013536706 0.05262587
-0.021725044 0.058852714 0.094453536 0.059599526 0.015181045 -0.008071854 -0.02644673 0.04406007
0.01634749 -0.051782083 0.021005627 -0.09437579 -0.12562147 0.018163735 0.007886534 -0.020715162
-0.016132787 0.030442102 -0.05741169 -0.06063243 -0.061071362 -0.06860906 0.029177738 -0.020785972
-0.053670667 -0.13440812 0.019855246 -0.025891867 -0.027309086 0.0068818694 0.05405202 0.041188195

default.encoder_cv.8.bias f4 [128]
00000000: 9f15 a3bb e8d3 913c b204 7fbd 967f 36bd
00000010: 943e 55ba ab94 9cbd d5d7 82bd f8cb d1bd
00000020: 3595 9abc 8534 6d3c 9733 e7bc 4cdc 9abd
00000030: dd19 37bd 46bc e6bc 7cbe f0bc 3e0d 39bc
00000040: 9ff1 76bd 9b74 67bd a91c 2fbd 6909 3cbd
00000050: 8343 90bd abe3 cbbc a923 9bbd e51e 70bd
00000060: eb9d 33bd 1868 95bd 814e 83bc 2d18 3bbc
00000070: 76e2 51bd f480 5bbd ea5e 093c 533c 22bd
00000080: 6444 af3a c78f c0bd 2bef 71bc dc2a 8fbd
00000090: d72c a5bd 2a6a 6abd b931 dabc e9a5 a93b
000000a0: 46b5 11bd c178 50bd cfbc 88bc f48c 86bd
000000b0: b2d2 bebc 151f 32bd d227 83bd 8024 a5bd
000000c0: 9c46 3cbd 77ff 8abc 75a2 49bb faf8 82bd
000000d0: 8c0e 42bd c116 9bbc 59de 5abd 58d8 eabd
000000e0: 1667 dfbb 1866 c6bb f02f 66bd e67b 57bd
000000f0: a6e7 de3b e534 6cbd 366d c1bc 2caa 343c
00000100: 6ad6 6fbd 34d0 c1bd bde6 3d3c cd9f 4ebd
00000110: c1eb 053d f565 783c c1c2 73bd f826 1338
00000120: ec66 89bd 53ff c53c d751 44bd 65fd 143d
00000130: 05b1 0dbd e87b 3bbd c206 05bc de4a e6bd
00000140: 9b89 08bd a79c 42bb 417c 0bbd 88a0 bbbd
00000150: 5f74 6cbd bf78 99bd d001 d43c 9947 d93c
00000160: 7115 edbc 1d8e 6fbc d821 b7bc 3e82 8c3c
00000170: a7b6 b5bc 35ef 1dbc 8261 c4bc 493e 1cbd
00000180: ecf4 cfbd f0d0 67bd d054 3abd 2bb5 99bd
00000190: c23c 6dbc 4b3b 86bd 9955 72bd 119b c3bc
000001a0: 47b2 b0bc 010e 7cbd 58bb 76bd 2869 35bb
000001b0: 40a9 0c3c c309 b4bd 6d14 6abd f07e 923c
000001c0: 594f c23c fc94 72bd 6ddc 27bd 866f c03b
000001d0: 893c bbbc f891 113d cc3e 54bd 1ceb b2bd
000001e0: af03 233c 4481 96bc 9e1f 3ebd f2c5 5fbd
000001f0: 3c83 53bd d315 47bd b520 d1bd ed71 76bc
-0.0049769427 0.01780124 -0.062260337 -0.04455527 -0.000813463 -0.07645544 -0.06388823 -0.10243982
-0.018869976 0.014477854 -0.028222842 -0.075615495 -0.0447024 -0.028165948 -0.029387705 -0.011294661
-0.06028902 -0.056507688 -0.04275194 -0.04590741 -0.07044127 -0.024888834 -0.07575161 -0.058623213
-0.043851774 -0.07295245 -0.016028645 -0.011419338 -0.05124136 -0.053589776 0.008384446 -0.03960831
0.0013371822 -0.09402423 -0.014766495 -0.06990597 -0.08065193 -0.057230152 -0.026635038 0.0051772487
-0.035573266 -0.05089641 -0.016691593 -0.065698534 -0.023293827 -0.043486673 -0.064040795 -0.080636024
-0.045965776 -0.016967518 -0.0030766998 -0.06395145 -0.047377154 -0.018931748 -0.053434703 -0.114670455
-0.0068177087 -0.006054651 -0.05619806 -0.052608393 0.006802517 -0.05766763 -0.023611646 0.0110269
-0.05855409 -0.0946354 0.011590657 -0.050445367 0.032695536 0.015161027 -0.059511904 3.5083824e-05
-0.06709084 0.0241696 -0.04792961 0.03637447 -0.034592647 -0.045772463 -0.008119287 -0.112447485
-0.033334356 -0.0029695423 -0.034054045 -0.09161478 -0.057728168 -0.074937336 0.02587977 0.026523398
-0.028940888 -0.014621285 -0.022355005 0.017151948 -0.022181822 -0.009639551 -0.023972277 -0.038145337
-0.10154137 -0.056595743 -0.04549104 -0.07505258 -0.014479818 -0.06554278 -0.059163664 -0.023877652
-0.021569384 -0.061536793 -0.06023726 -0.0027681086 0.008585274 -0.087909244 -0.057148386 0.017882794
0.023719477 -0.059224114 -0.0409817 0.0058726696 -0.022856014 0.035539597 -0.0518177 -0.0873625
0.009949609 -0.018372186 -0.04641687 -0.054632135 -0.051638827 -0.048604798 -0.102113165 -0.01504181

default.encoder_fc.0.weight f4 [128, 128]
00000000: ced8 8fbd 00bc b83b a07c 66bc b395 973d
00000010: f0ce 4cbd 00e0 0dba 1ab2 1a3d bf02 a53d
00000020: cca0 b13c 94c7 2dbd 0526 96bd 90b3 e83b
00000030: 2e98 99bd fa2b 54bd 8046 9fbb 6f64 8e3d
00000040: 8741 8c3d de36 6e3d ef1f 903d 13bc 29bd
00000050: 0564 9d3d 472b 973d d8ef 693c 20f0 adbc
00000060: 22ac 99bd 7ced acbd c03c b1bc 02a5 9dbd
00000070: f217 50bd c02d acbc 7083 6dbc 9885 a13c
00000080: a863 adbc d19c 873d 00f0 1739 3239 2e3d
00000090: fabf 84bd 5c3b f33c 22d0 3dbd 9bc6 55bd
000000a0: c710 923d 3788 9cbd a919 9a3d 71bc a43d
000000b0: df02 9bbd 244a 45bd b4d5 cdbc 9e82 623d
000000c0: 29fe a33d 2907 8dbd 0029 0dbc d0f6 70bc
000000d0: 128d 723d d2fd a5bd 5727 9e3d 240e abbd
000000e0: 48bc c7bc 8b36 92bd d59b 903d 783e 48bd
000000f0: 24cf df3c f80c 983c 9f02 11bd a02b 55bc
00000100: 0460 85bc c098 f6bc aa4d 303d 2f8b 27bd
00000110: a70e 13bd c0b2 963c 477a 56bd 771a 9ebd
00000120: 06d3 7d3d 60c8 253b 4c88 f83c 2450 a9bc
00000130: 98c4 0c3c 8006 00bc 324e 6e3d c4b6 86bc
00000140: 54d5 a7bc e495 8ebd 4f18 a23d 5630 eabc
00000150: f080 36bc a30f 96bd f040 8c3c 8067 943a
00000160: 1012 e93c c62c 313d 268d 6fbd 72e4 9dbd
00000170: 92af 693d e2d0 5fbd e0dc d23b 72e1 233d
00000180: 1453 be3c 98c6 fbbc 7610 103d e035 113d
00000190: 2770 98bd 34de 4fbd 2ec5 173d a4e5 9abc
000001a0: dff8 2ebd 90ef c83c 144a c03c 9e05 243d
000001b0: 871d aa3d 95d3 a23d c006 40bb 9340 943d
000001c0: 20b1 403c 1b62 a83d 8004 cdbb cbb9 54bd
000001d0: 6783 80bd c023 87bc 8409 96bd 1a14 713d
000001e0: 004e dbbc f8a1 94bc 5a88 393d defd 023d
000001f0: 3077 a43c ee93 13bd 3f4d 5abd f86f adbd
00000200: 96b1 a8bd 6d59 a63d b0a6 78bc 45c9 87bd
00000210: 4e90 033d 80df 90ba ff82 06bd 77ca a8bd
00000220: a7aa 8c3d f991 b3bd a812 bbbc 5078 9ebb
00000230: 348c 053d f9d8 b43d bca1 82bd 408d 42bb
00000240: ebfc 92bd b671 463d cb0b 8bbd 21a4 933d
00000250: b353 a83d e0ac cf3b 37e5 69bd 5688 9abd
00000260: 881c 8a3c 4a59 523d 2f2a 0dbd 35f6 65bd
00000270: 40da 33bd 65cd 15bd c035 523c c071 5bbb
00000280: d075 79bc 3315 4fbd de38 053d 1d89 943d
00000290: 284e 8cbc c8b8 5abd aae1 583d 99d3 64bd
000002a0: 8244 353d c091 3a3c a68c 533d f113 a43d
000002b0: 092d b03d 8012 77bb a802 d5bc 5506 993d
000002c0: 3815 4b3c c8c2 7cbc 8da4 a73d 2842 87bd
000002d0: 20cf 51bd d4a0 49bd 808c 733a 6184 883d
000002e0: c0e1 ccbc 8c4a 6bbd c461 7bbd 062b 82bd
000002f0: 34d2 43bd 007c 043d de9d 79bd d059 80bb
00000300: 6e3c f9bc 5237 213d 6063 b7bb 97f1 943d
00000310: 89f6 863d e821 603c 78bb adbd 8e8d 90bd
00000320: f0d9 a03b fa1b 023d 0b31 a3bd 881b 3abc
00000330: 8ae8 353d 06d1 463d 6d61 b1bd 7bea 31bd
00000340: 3c69 8e3c ac4b 7abd c032 aeba 786c 02bc
00000350: 6a0c 563d 9ceb 90bd 4afc 96bd 8034 e8bc
00000360: 7da6 afbd 8d98 36bd a064 563c 0e21 adbd
00000370: f2de a8bd 7ec5 13bd dcad a93c 48c5 c6bc
00000380: 93cd a93d 8115 17bd 8872 513c 981a 863c
00000390: 1cbb 50bd 2278 753d a239 7f3d c06b f23b
000003a0: 2c22 a2bd 781f b5bc 8c58 933c a0d8 543b
000003b0: e06b cfbc 1e63 4ebd fa29 5e3d 9b3a a43d
000003c0: 9989 903d d02d 71bc ca84 1b3d 82b1 78bd
000003d0: 8364 a23d 6818 403c 0fab 5abd 1914 a8bd
000003e0: 31b4 4abd cc60 ea3c 8ab1 4abd 3bcf 853d
000003f0: a8dc 083d b0cb 8abc 508c 06bc 20be 083c
-0.07023774 0.0056376457 -0.014067799 0.074016 -0.05000204 -0.0005412102 0.037767507 0.080571644
0.02168312 -0.04242666 -0.073314704 0.0071014836 -0.07499729 -0.05179975 -0.004860699 0.0695275
0.06848436 0.058157794 0.07037341 -0.041439127 0.07685093 0.073813014 0.014278375 -0.021232665
-0.07503535 -0.08443734 -0.021635413 -0.07697488 -0.050804086 -0.021017909 -0.014496669 0.019717023
-0.021165684 0.06621707 0.00014489889 0.042535014 -0.06481929 0.02969139 -0.04634107 -0.052191358
0.07132106 -0.076431684 0.075244255 0.08043755 -0.07568907 -0.04816641 -0.025126316 0.055300348
0.080074616 -0.06886131 -0.008615732 -0.014707282 0.059216566 -0.08105053 0.07722347 -0.083523065
-0.024381772 -0.071393095 0.070609726 -0.0488877 0.027320452 0.018560871 -0.03540289 -0.013010889
-0.016281135 -0.030102134 0.043042816 -0.04090422 -0.035902645 0.018395782 -0.052362707 -0.077198915
0.061968826 0.0025296435 0.030338429 -0.020668097 0.0085917935 -0.00781405 0.05818004 -0.016444571
-0.020487465 -0.06962183 0.07914793 -0.028587501 -0.0111391395 -0.07327201 0.017120808 0.0011322349
0.028450996 0.04325559 -0.05848422 -0.07709588 0.057052203 -0.054642566 0.0064350218 0.040009923
0.023232974 -0.030734345 0.03517195 0.03545177 -0.07443266 -0.05074902 0.03705328 -0.01890833
-0.04271781 0.024528295 0.023472823 0.04004442 0.08306413 0.07950512 -0.0029300898 0.07238879
0.01176098 0.08221837 -0.00625664 -0.051935 -0.06275063 -0.01649654 -0.07326034 0.05885706
-0.026770592 -0.018143639 0.04529605 0.031980388 0.020076364 -0.03602975 -0.053296324 -0.08468622
-0.08236997 0.08122525 -0.01517646 -0.06630186 0.03212004 -0.0011052936 -0.03283977 -0.08241742
0.06868487 -0.087680764 -0.022836044 -0.0048361197 0.03260441 0.08830447 -0.06378505 -0.0029686242
-0.071771465 0.048448287 -0.06789359 0.072090395 0.08219089 0.006337747 -0.057103362 -0.07545535
0.016859308 0.051354684 -0.034464058 -0.056143004 -0.04390931 -0.036572833 0.012830198 -0.0033484548
-0.015225843 -0.050557327 0.032524936 0.07252715 -0.017127112 -0.053398877 0.052949585 -0.055865858
0.044254787 0.011387289 0.051647805 0.08011616 0.0860234 -0.0037700236 -0.026002243 0.07471911
0.012395196 -0.015427299 0.081856824 -0.06604415 -0.05122292 -0.049225643 0.00092906505 0.06665874
-0.02500999 -0.05744414 -0.061372533 -0.06355862 -0.047807887 0.032344818 -0.06094157 -0.0039169565
-0.030424323 0.0393594 -0.005596563 0.07272642 0.065899916 0.013679959 -0.084830225 -0.070582494
0.0049087927 0.03176496 -0.079683386 -0.011359103 0.04441122 0.048539184 -0.086611606 -0.04343651
0.017384164 -0.061107323 -0.0013290271 -0.007960431 0.052257933 -0.07076189 -0.07372339 -0.028345346
-0.08576677 -0.044579078 0.013085514 -0.0845357 -0.082456484 -0.036077015 0.020712785 -0.024263993
0.08291163 -0.036885742 0.012783654 0.016370103 -0.05095969 0.05992902 0.062310822 0.0073980987
-0.07916674 -0.022109732 0.017986558 0.0032477751 -0.025319993 -0.050387494 0.05423925 0.080189906
0.07057495 -0.014720395 0.037968434 -0.06071616 0.07929327 0.011724569 -0.05338579 -0.08206958
-0.04948825 0.02861061 -0.04948572 0.06533667 0.03341356 -0.016942829 -0.008212164 0.008346111

default.encoder_fc.0.bias f4 [128]
00000000: 681e 96bd 18ca bbbc c706 973d 0be5 97bd
00000010: 6d20 16bd 4427 d23c aa07 64bd e148 2ebd
00000020: 3604 383d c02a 233b 7013 0fbc e2ef 093d
00000030: d7b0 18bd 4017 92ba fc59 92bd c865 c0bc
00000040: ade1 b13d 4886 d63c 24ef d93c 14d5 25bd
00000050: a645 afbd 7223 04bd 533e b4bd 24bf e7bc
00000060: 8286 733d fd7d a13d 8461 f83c 080d c8bc
00000070: 30cf 1b3c 8837 f43c 50d8 223c 69cb 9d3d
00000080: 4f61 a2bd aa27 563d d0f4 5ebc 41e3 9e3d
00000090: 545d 043d f050 95bb 08e7 61bc 209e 5ebb
000000a0: a868 d63c 687f a0bd 4057 7abb 1e09 0a3d
000000b0: 9ac1 eabc 4232 a9bd 12df 11bd 08bc 6c3c
000000c0: 81d2 8a3d c8ea 72bd d0e8 f53c b141 aabd
000000d0: b3f1 76bd 7879 a5bc 1b82 07bd c1b9 903d
000000e0: 5c0f 923c 5751 a93d 7866 dd3c 3873 5f3c
000000f0: 6c25 9dbc e5d4 ad3d 30aa cd3b 6090 10bc
00000100: 08d9 643c a95b b23d a252 4d3d d080 99bd
00000110: d20f 2a3d 2312 a0bd 8025 d3bc 6306 02bd
00000120: b6dd 253d 7ac5 6b3d 70f9 10bc 361f 5c3d
00000130: d8e8 9f3c f288 a0bd f850 7ebd 0e52 463d
00000140: 9487 bb3c 890c 953d 1234 753d 501d aabb
00000150: cef8 263d 203a 4ebc 98e6 0fbd ae9c 65bd
00000160: 0693 91bd b9aa 20bd e05f 1e3b 3aa9 a5bd
00000170: 3c76 813c 86a9 423d 005f f7b9 9c28 a6bc
00000180: 9eba 763d 584c 40bc 5f72 8f3d 5144 ac3d
00000190: 218e 973d a1f8 8f3d 4699 733d 0063 2fba
000001a0: 8f6a a3bd 4eb0 083d c04d fd3b a077 a7bc
000001b0: b4b4 adbc 143d 9b3c bd43 5bbd b301 81bd
000001c0: 84d9 43bd 1670 8abd e00a 0d3d 0c04 96bc
000001d0: dd02 50bd 2a58 87bd 2c12 07bd ad20 893d
000001e0: 9e1d 42bd 2064 983c 0051 f83b b631 17bd
000001f0: d971 08bd b26a 8abd b0da e1bb 0f64 ae3d
-0.07330018 -0.022923514 0.073743396 -0.07416733 -0.036652017 0.025653489 -0.05567137 -0.04254997
0.04492589 0.0024897307 -0.008732662 0.033676036 -0.037278023 -0.0011145845 -0.071460694 -0.023486033
0.08685622 0.026187077 0.026603289 -0.04048641 -0.08558206 -0.032260366 -0.0880095 -0.028289385
0.05945445 0.078853585 0.030319937 -0.024420276 0.009509847 0.029811636 0.009939268 0.07704813
-0.079287164 0.05228392 -0.013608173 0.07758189 0.032315567 -0.0045567676 -0.013787992 -0.0033968762
0.02617295 -0.07836801 -0.0038198978 0.0337001 -0.02865677 -0.08261539 -0.035613127 0.014449127
0.06778432 -0.059305936 0.03001824 -0.08313311 -0.060289096 -0.020199522 -0.033083063 0.0706668
0.01782959 0.082674675 0.0270264 0.01363831 -0.019182883 0.08487872 0.0062763914 -0.008823484
0.01396776 0.08708889 0.050127633 -0.07495272 0.041518994 -0.07815959 -0.025774717 -0.031744372
0.040494643 0.057561375 -0.008848533 0.053740703 0.019520208 -0.0783862 -0.062088937 0.048418097
0.022891797 0.072777815 0.05986411 -0.0051914826 0.040764622 -0.0125871 -0.03513202 -0.056057625
-0.071081206 -0.039225314 0.0024166033 -0.08088918 0.015803449 0.04752495 -0.00047182292 -0.020283036
0.060236566 -0.011736952 0.070042364 0.08411468 0.07400156 0.07029844 0.059472345 -0.00066904724
-0.07979309 0.033371262 0.007730216 -0.020442784 -0.02120433 0.018950023 -0.053531397 -0.06299152
-0.04781486 -0.0675966 0.0344342 -0.018312477 -0.05078398 -0.06608613 -0.032976314 0.066956855
-0.047391526 0.01860243 0.0075780153 -0.036912642 -0.0333117 -0.06758632 -0.0068925247 0.085151784

default.encoder_fc.3.weight f4 [128, 128]
00000000: 0ba4 b23d b0b4 39bd 5696 4d3d b27a 02bd
00000010: 1077 533c e087 ce3c a70a 863d 4ef8 643d
00000020: 5811 04bc 541d 88bd 6097 5b3c 1c2c 21bd
00000030: b437 79bd 18fd 41bc 00a3 9abb d431 d33c
00000040: c2cd 5dbd 2a1f a5bd 3568 89bd 5c07 02bd
00000050: 7a50 0f3d 2804 4c3c e14f 05bd 88e4 94bc
00000060: 8052 4f3b 307e aebd 9154 acbd b866 ea3c
00000070: 1d5c 9f3d a869 463c 81dd b1bd b0ba c5bc
00000080: de36 a7bd b0d6 d73c f06a a7bc e0fb bcbc
00000090: c101 873d 3850 6abc 6d97 823d f922 a73d
000000a0: fdb2 19bd 8e30 613d 7728 4bbd 48f0 4cbc
000000b0: fc9b b53c 6a1c 82bd 0aee f6bc 4d95 2cbd
000000c0: a08a 4f3c 88e7 86bc 325d acbd 20b0 eebb
000000d0: d87b 74bc 82c2 543d 06a2 80bd 00de 6a3a
000000e0: 719c 9d3d 5b08 5cbd a4fe aa3c c52a a6bd
000000f0: ff60 873d 3881 343c d488 f93c f853 053c
00000100: 6650 0d3d 835a 9f3d a3df 3fbd 8668 463d
00000110: 4d09 883d a82e 073d 1a2d 17bd c879 b1bd
00000120: 7b3c b43d 805d bd3c 3a7a 4c3d c007 f43c
00000130: 0407 143d 95c2 51bd a18d 6ebd a61f 233d
00000140: abbb 873d d5d9 9e3d 0084 e1bb a04b 393c
00000150: b346 aa3d cadb 94bd d178 af3d 94f9 a6bd
00000160: 1f61 5cbd a098 b8bb 6be2 48bd 9725 58bd
00000170: ca6a 0ebd 689d 92bd bcc6 85bc ae10 0d3d
00000180: 688a 12bc 4f34 a2bd 0486 fdbc 6bcb 56bd
00000190: ee68 67bd 919c ad3d d506 08bd 63fa 30bd
000001a0: fc82 98bd 684e a73c 0ca6 f23c b828 453c
000001b0: 3780 44bd 9867 97bc df27 a33d 59ae 93bd
000001c0: 1709 6cbd 5da7 b3bd b3db a33d 8833 7a3c
000001d0: 9bf4 78bd e00f 093d 6a22 543d 76a8 3f3d
000001e0: 6f84 913d 88b6 903c 9e4c 64bd c492 a43c
000001f0: 8093 7ebc c26c 4a3d 521b 343d b10e 9a3d
00000200: 60a5 debb 20ce 8f3b ebb8 8f3d c093 723c
00000210: b06d 3bbc 6012 cf3b 6c41 abbd a0e1 5f3c
00000220: 489d 25bc a857 da3c 0b63 aa3d 2837 9dbd
00000230: 2456 c13c a028 79bc 9d32 0bbd 20ff b13c
00000240: 406e 29bd 000b c63c ec15 9bbc c4d1 9bbd
00000250: 6847 4fbc fc07 42bd 38d7 c63c 2ac0 92bd
00000260: 7056 edbb 10fa babc 687b 293c e9da 8ebd
00000270: 4e7b 6e3d f0e7 083c 1094 133c 5b5d 91bd
00000280: 5c35 9c3c b1a6 63bd 2196 9b3d 372c 8b3d
00000290: 7692 413d 2231 353d e042 38bb 5acd 49bd
000002a0: c577 ae3d b865 83bd d0df 4abc 0e30 98bd
000002b0: 98cd 60bc 9e74 07bd d90a 903d 8b24 973d
000002c0: c04f b03b 65fd 863d c429 c9bc b327 85bd
000002d0: 2057 5bbb ca1b 263d a615 3a3d b906 8c3d
000002e0: dc92 0a3d d57a b3bd f66c fcbc fc04 5fbd
000002f0: 9a4c 1f3d 985d eebc 008e c4b9 e205 6e3d
00000300: 2da1 9b3d 608a 0bbb c25e 263d e6c1 3f3d
00000310: c0b8 94bb 9094 753c 2f04 853d 3ad7 3bbd
00000320: 280f 7cbc fa70 5e3d bc78 e83c 28a5 47bd
00000330: 09eb 8b3d ec5a 32bd eafb 6ebd 40b3 d0bb
00000340: e06d 1fbb e2d0 603d 4ab8 013d b848 aa3c
00000350: 98df cb3c ed71 5cbd c0dd bd3b 08be 12bd
00000360: 6866 18bc 4f98 3abd e202 7d3d 0865 56bd
00000370: 04a7 9fbc 0043 21bb e4d9 19bd 1620 403d
00000380: 70f4 70bd 063e 523d a045 fabb f8bb 8dbd
00000390: 1c96 a0bc d8bb 9b3c a5ed 11bd 87ae b23d
000003a0: 10c6 df3c a842 913c 1d8c a2bd 1978 a6bd
000003b0: 5015 b3bd 75c1 84bd 7016 10bc 30e3 89bb
000003c0: 46b9 673d a6ab 463d 55ab b43d 0926 0ebd
000003d0: 326c 4c3d 4609 4b3d 8ca2 e3bc 59b2 1bbd
000003e0: a48b 93bd 6799 ab3d ed20 923d 306b a1bd
000003f0: c6fc 38bd bc62 e2bc 98e6 a2bc 982c f93c
0.08722695 -0.045338333 0.0501922 -0.031855293 0.012906805 0.025211275 0.065450005 0.055900864
-0.008060776 -0.06646219 0.01340279 -0.039348707 -0.06084414 -0.011840127 -0.004719138 0.025780596
-0.054151304 -0.08062585 -0.06709329 -0.0317453 0.034988858 0.012452163 -0.03254688 -0.018175378
0.0031634867 -0.08520162 -0.08414567 0.028613433 0.07781241 0.012110151 -0.08684827 -0.024136871
-0.08164762 0.026347488 -0.020436734 -0.023069322 0.065921314 -0.014301352 0.063765384 0.081609674
-0.037524212 0.054977946 -0.049599137 -0.012508459 0.022169106 -0.06353076 -0.030142803 -0.04213457
0.012667328 -0.016467825 -0.08416213 -0.0072841793 -0.014922105 0.05194331 -0.062809035 0.0008959472
0.076958545 -0.053718906 0.020873375 -0.081136264 0.066102974 0.011017136 0.030460753 0.0081376955
0.034500502 0.077809356 -0.046844136 0.048439525 0.06642399 0.03300348 -0.036908247 -0.08665806
0.08800598 0.023115873 0.04992125 0.029788852 0.036139503 -0.05121096 -0.058240537 0.039825104
0.06627592 0.07756392 -0.0068821907 0.011309534 0.08314266 -0.07268484 0.08567966 -0.08153072
-0.05380356 -0.0056334287 -0.049044054 -0.052770223 -0.03476981 -0.07158929 -0.016330115 0.034439735
-0.008944131 -0.07920133 -0.030947693 -0.05244009 -0.056496553 0.08477128 -0.03320964 -0.043207537
-0.07446858 0.02042313 0.029620193 0.012033634 -0.047973838 -0.018482015 0.07966589 -0.072109886
-0.057625856 -0.087721564 0.08000889 0.015271075 -0.06078015 0.033462405 0.051790632 0.046791516
0.07105338 0.017665163 -0.05573713 0.020089515 -0.015538096 0.049420126 0.043971367 0.075223334
-0.0067946166 0.0043885857 0.07017692 0.014805734 -0.011439726 0.006319329 -0.083620876 0.013664633
-0.0101083 0.026653126 0.08319672 -0.07676536 0.023600645 -0.01520744 -0.033983815 0.021728098
-0.04136491 0.024175167 -0.018931352 -0.07608369 -0.012651302 -0.047370896 0.024272546 -0.07165559
-0.00724297 -0.022824317 0.010344364 -0.069753475 0.05822306 0.008356079 0.009007469 -0.07097884
0.019068412 -0.05557889 0.07596994 0.06795543 0.047258817 0.04423631 -0.0028116032 -0.049268104
0.08518938 -0.06415886 -0.012382463 -0.07431041 -0.013720892 -0.0330702 0.07033319 0.07380017
0.0053806007 0.065913 -0.024556048 -0.06501713 -0.0033468679 0.040553845 0.0454308 0.0683722
0.033831462 -0.08763663 -0.030813675 -0.054448113 0.038891412 -0.029097363 -0.0003748983 0.05811108
0.07599101 -0.0021292195 0.04061771 0.046815775 -0.0045386255 0.014989033 0.064949386 -0.045859553
-0.015384473 0.05430696 0.028377883 -0.04874149 0.06831939 -0.04354374 -0.058345713 -0.0063690245
-0.0024326965 0.054886706 0.031669892 0.020786628 0.024886891 -0.053819586 0.005794257 -0.03582576
-0.009301759 -0.04555541 0.061770327 -0.052342445 -0.019488819 -0.0024606586 -0.037561312 0.0469056
-0.058826864 0.05132868 -0.0076376945 -0.06920618 -0.019602828 0.01901047 -0.035627026 0.08724695
0.027316123 0.01773198 -0.07936881 -0.081283756 -0.087442994 -0.064822115 -0.008794412 -0.004207991
0.056573175 0.04850354 0.088217415 -0.034704242 0.04990787 0.04956939 -0.02778747 -0.038011882
-0.07204369 0.083788686 0.07135186 -0.078817725 -0.04516294 -0.02763497 -0.019885346 0.030416772

default.encoder_fc.3.bias f4 [128]
00000000: 804c afba 5927 6bbd 0e85 7a3d 5bce 9abd
00000010: b357 af3d 54d4 143d 3e8a 213d b82c 083c
00000020: 6de6 0bbd feba 453d 048b 9dbd d055 bc3b
00000030: 248d 8cbd de5f 583d aa3e 59bd 3694 75bd
00000040: d664 ebbc ded8 603d 1fbd 85bd 6e92 603d
00000050: 908d a6bc 80ec 9d3b 34bf cbbc aafb 1a3d
00000060: 1891 dd3c 3542 60bd 7457 8f3c 9662 593d
00000070: c099 ac3a 208a 30bc 5601 84bd 087c 003c
00000080: b466 b23c f9da 96bd 6a66 b0bd 504e b8bc
00000090: 802a 0b3c 9f9e 80bd ecc4 e1bc b408 983c
000000a0: 1b65 a93d 042b 883c cc95 fd3c 02eb 463d
000000b0: 703c d73b c398 a33d b89a 8bbd fee0 033d
000000c0: 7d48 873d d8ef 74bc 9305 b4bd 6270 96bd
000000d0: cc58 ffbc 807f 30bc 6af2 203d 2037 753c
000000e0: d23d 423d 6353 6bbd f35c 833d e821 b3bc
000000f0: fcf7 59bd 643e c43c 38df fd3c 606d fe3c
00000100: 6398 a7bd 6027 653b d67f 7d3d 9d97 47bd
00000110: ee29 483d 2e2b 7b3d 52ba 79bd 01db 5dbd
00000120: 3403 76bd bde5 32bd d6d1 573d 1df7 913d
00000130: 75b8 8c3d 3b82 863d b480 a2bd 26da 7bbd
00000140: 4826 79bc f7b8 a93d 4b91 12bd bedc 0f3d
00000150: c54c a53d 8a2a 87bd b9c4 82bd 84b8 86bc
00000160: 0db0 8d3d 20b0 d0bb 9df3 b33d fcb7 a73c
00000170: f209 573d d40f abbd 86f2 3d3d 80d9 54bc
00000180: a362 b33d fbb7 9a3d 6c52 b0bd 988e 063d
00000190: adc1 68bd 70a5 72bc fd96 2dbd 49b3 8bbd
000001a0: 502a 0d3c 200e 433b c0ac 533b a428 b43c
000001b0: 2f16 813d 5eca f3bc 505f 8ebc 5f9f af3d
000001c0: d0fb 30bc 0a5a 60bd da7a 26bd b7a2 8e3d
000001d0: 118e ab3d 8684 453d 9da3 ab3d 3f2a 93bd
000001e0: 0757 aa3d ba55 0dbd 88ec a4bd 8bb8 993d
000001f0: 20ba 3f3c 9f03 b53d c890 7ebd 18c1 d13c
-0.0013374239 -0.05741057 0.061162047 -0.075588904 0.08561649 0.036335304 0.03943848 0.008311443
-0.034155298 0.048274033 -0.07692531 0.0057475343 -0.06862858 0.0528258 -0.053038277 -0.059955798
-0.028734606 0.05489432 -0.065302126 0.054827146 -0.020331174 0.0048194528 -0.024871446 0.03783766
0.027046725 -0.05475064 0.017497756 0.053072535 0.001316838 -0.010775119 -0.06445567 0.007842071
0.021777488 -0.073659845 -0.08613284 -0.02249828 0.0084940195 -0.062802546 -0.02755972 0.018558837
0.082712375 0.016622074 0.030955218 0.048563965 0.006568484 0.07988121 -0.0681662 0.03219699
0.06605623 -0.014949761 -0.08790126 -0.07345654 -0.031170271 -0.010772586 0.039293684 0.014966756
0.047422238 -0.05745257 0.06414213 -0.021866754 -0.053215012 0.023955531 0.030990228 0.031058013
-0.08183362 0.0034966096 0.061889492 -0.048728574 0.048868112 0.061320476 -0.060968705 -0.054163937
-0.06006165 -0.043676127 0.05269035 0.07127211 0.0687112 0.06567808 -0.079347044 -0.06148734
-0.015206881 0.08287232 -0.035783093 0.035122626 0.08071283 -0.065999106 -0.06385178 -0.016445406
0.06918345 -0.006368652 0.087867 0.020473473 0.05249972 -0.08352628 0.046373866 -0.012991309
0.08759048 0.07554623 -0.08609471 0.03285083 -0.05682533 -0.014809951 -0.04238032 -0.06821305
0.008616045 0.0029763058 0.0032299012 0.021992035 0.06303059 -0.029759582 -0.017379433 0.085753195
-0.010802224 -0.054773368 -0.040644504 0.06964629 0.083767064 0.048222087 0.08380816 -0.07185792
0.083173804 -0.034505583 -0.08052927 0.07505902 0.0117020905 0.08838581 -0.062149793 0.02560477

default.mean_encoder.weight f4 [10, 128]
00000000: 6b23 afbc c154 9bbc d4ff 9abd 641c cfbc
00000010: 4936 d1bd 3c85 c8bd 4c18 a53d 9799 c5bd
00000020: 974c ebbd 1272 b0bd 9aa6 e33d 0c48 833d
00000030: 4317 06bc 6f24 1b3d 96b7 a63c 2412 01bd
00000040: 5707 e93d 8ed4 08bc 1f69 283d e2ba c4bd
00000050: d637 7f3d 896c b6bd ecbd 90bd ec9e 123d
00000060: cf6d 88bd 496e 0bbd 003a b3bb 65cc 233e
00000070: 35a6 0b3d 584d 003c ae7f b63d 03c8 833d
00000080: c20f c03c e275 3bbd b1b0 0abd 242f 46bd
00000090: 120c f5bd bf77 27be e778 a53c 94a4 5a3d
000000a0: a08d 013d fa74 b9bc 2ac0 85bc 203e a23c
000000b0: a1f2 813d 78d1 2cbe 4aef 8e3d 5c32 dcbc
000000c0: 7658 df3a 2fe6 dd3c a92f 8fbd e192 e63b
000000d0: 026e ac3d 1adb 98bd 1773 dabc 5e98 a3bd
000000e0: 183a 5e3d c402 033e 48b1 a9bd 1fd9 4abd
000000f0: 2ba1 07bd 718f 1f3e 66cc febd a15c 193d
00000100: 85af 5dbd f236 4abd b2cf b4bd e41d faba
00000110: 5ed9 87bd f9d8 e23d 3007 4e3d 344e a7bd
00000120: 821d 6dbd 7bc8 1b3c a423 df3c 7b82 13bd
00000130: a6b5 80bc 85f2 89bd 0fbc 23be afe1 11be
00000140: c17e ce3c 7b92 35bd 22fb be3c da04 94bc
00000150: 4b80 52bd dba8 2b3c 5b08 1d3c 1951 00be
00000160: da7c a33d 58c6 25ba 8f08 ac3d 8ae9 65bd
00000170: b7c6 933d 8723 923d 77c2 9fbd 2aed b63d
00000180: 4a1d 30bd 39d6 133d 280f d3bc 7dfd 293c
00000190: 30c6 cb3c 7540 8ebd 277c 86bd 918c e03d
000001a0: c96f 41bd fcec 80bd e8a4 3a3c 562e 0abd
000001b0: d5f4 063d 8682 8cba cb6e db3d d9db a53c
000001c0: 0a4e 873c b14b a03d 4bf0 91bc 7fdf 863c
000001d0: b963 883b c518 16bd bb95 b1bd c2c1 90bd
000001e0: 7b63 c03b ec22 e0bd e036 053e f70b 8bbd
000001f0: bbcc 5abb 654f 353d ff97 74bc 51b2 3d3d
00000200: b2d3 973d 71ec 2d3d 71ba 33bc e88c 493d
00000210: 5787 793d 8a99 373d 23c9 db3d 58f6 823d
00000220: b78b 943d 3322 73bd 1334 ea3c 23a1 c73d
00000230: dd2e e2bd fff9 ec3d 0e32 32bd 94a5 943d
00000240: 2c92 61bd a46d 08bd be3f c9bc 0bff ed3c
00000250: cb8d a33d e2bb f3bd 2f7b 8dbd 714a 0a3d
00000260: 41f9 78bc ea5e 5d3c e07b 16bd 680c 49be
00000270: 1aff a13d ffef e73c 92c0 813c fc26 f2bc
00000280: 80c2 a13d 70f8 00be 926a 9abd d92c 81ba
00000290: 76d7 35be 2fb8 143d cf78 bfbd e916 cc3d
000002a0: 1e78 db3d 37a1 1d3e 7949 acbd f193 3dbc
000002b0: d56e 47bd 91ba 1dbd 98ea 1e3c 1ce6 13bd
000002c0: c821 bbbd e17b 6f3d c021 4fbd 48a2 023a
000002d0: 412c cf3c d15c 983c 8832 a13d 8f16 f83d
000002e0: 9c5e 6a3d e308 a03d 899c 4ebd edd5 1c3c
000002f0: 1b7b 0abd 27dd 7bbd 4536 f63c 8aab 6e3d
00000300: 4df9 d6bd a8ef e13d 5371 ac3d e573 0d3c
00000310: ec13 3a3c 36cf 3abc 3c1c 88bc b57a 3ebd
00000320: 1c27 b23d 2f18 7bbd 7567 dbbc ddd0 d8bc
00000330: cfdb c13d 58ab 5fbd 1faa 673d 3cba 1dbd
00000340: 6e74 d93d 6420 f53d dd41 c33b 38b8 f83d
00000350: c7de 023e 8867 df3d 3bf1 10bc d228 1e3d
00000360: 0961 4ebc 0400 bebc 3530 af3d ab35 9c3d
00000370: 423e c03d a20a 9e3d 52cd c6bd 3deb f13d
00000380: c92a 34bd 5569 ba3c 8870 1b3e 70bd 023e
00000390: 6729 373c 432a a63d 75bc 3bbc 6228 59be
000003a0: 857e bc3d d176 01be 4d48 973d 8bd4 e23c
000003b0: 2f24 b13d baae bebb 245c f9bd ad95 903d
000003c0: e669 4a3d ee2d cd3d cb92 da3d 2750 983d
000003d0: a8fe 23bd c412 393d c5f8 e7b9 3a88 a3bd
000003e0: 1e4f db3c 93f0 103c 4d9e 03be 3705 d2bc
000003f0: f568 9ebc a08b 08be 2675 e7bc df09 a53d
-0.021379193 -0.018961312 -0.075683266 -0.025282092 -0.10215432 -0.097910374 0.08061275 -0.096484356
-0.11489218 -0.08615507 0.11115761 0.06410226 -0.008184257 0.037876543 0.020351212 -0.03151144
0.11378353 -0.008351458 0.041115876 -0.096059576 0.06230911 -0.0890742 -0.07067475 0.03579609
-0.06661569 -0.034040723 -0.0054695606 0.15995939 0.034094054 0.00783094 0.08911072 0.064346336
0.023445014 -0.04576672 -0.033859912 -0.0483848 -0.11965193 -0.16354273 0.020199252 0.05337961
0.031629205 -0.022638787 -0.016326983 0.019805014 0.06345106 -0.16876781 0.069792345 -0.026879482
0.0017039913 0.0270873 -0.06991512 0.0070365523 0.0841942 -0.07463665 -0.026666207 -0.07988046
0.05425462 0.12794024 -0.08285767 -0.04952347 -0.033112686 0.15582062 -0.1244133 0.037441853
-0.054122467 -0.049368806 -0.08828677 -0.0019082394 -0.066332564 0.110765405 0.050299823 -0.08169213
-0.05788947 0.0095082475 0.027238674 -0.036013108 -0.015711617 -0.0673571 -0.15989707 -0.14246248
0.025206925 -0.044329148 0.023313109 -0.01806872 -0.05139188 0.01047727 0.009584512 -0.12530936
0.07982798 -0.0006323806 0.0840007 -0.056130923 0.07215636 0.071356826 -0.07800763 0.08931954
-0.042996682 0.03609297 -0.025764063 0.010375378 0.024874777 -0.06945888 -0.06566649 0.10964311
-0.047225747 -0.06295201 0.011391856 -0.033735596 0.032948334 -0.0010720051 0.107144915 0.020246433
0.016516704 0.07826937 -0.017814776 0.016463993 0.0041622785 -0.036644716 -0.08671137 -0.07068206
0.005871234 -0.10944161 0.13009214 -0.067893915 -0.003338619 0.04426517 -0.014928817 0.046312634
0.074134246 0.042461816 -0.010969744 0.049206644 0.060920086 0.04482416 0.10731723 0.063946426
0.07253211 -0.059358787 0.028589284 0.09747531 -0.11044095 0.115711205 -0.043504767 0.07258144
-0.05507104 -0.033307686 -0.024566527 0.029052278 0.07986029 -0.1190107 -0.06908261 0.0337624
-0.0151961455 0.013511399 -0.03673923 -0.19633639 0.07909985 0.028312681 0.015838895 -0.029559605
0.07898426 -0.12594771 -0.07539858 -0.0009855285 -0.17757973 0.036308464 -0.09349214 0.09965307
0.1071627 0.1539353 -0.08412451 -0.0115709165 -0.048689682 -0.038508 0.009699486 -0.03610812
-0.09137303 0.05846775 -0.050569296 0.0004983288 0.025289657 0.018598946 0.07870966 0.12113678
0.057219133 0.07814195 -0.050442252 0.009572488 -0.03380881 -0.061490204 0.030055175 0.05826906
-0.10496769 0.11032039 0.084200524 0.008633588 0.011357289 -0.011401942 -0.016615026 -0.04650374
0.08698866 -0.06130236 -0.02678273 -0.026466781 0.09465753 -0.054606766 0.056558724 -0.038507685
0.1061791 0.11969069 0.0059587792 0.12144512 0.12780295 0.10908419 -0.008846576 0.038613148
-0.012596377 -0.023193367 0.08554117 0.07627424 0.09386875 0.07716872 -0.097071305 0.11812446
-0.043986116 0.022755304 0.15179646 0.12767577 0.011179305 0.081135295 -0.011458506 -0.21206811
0.09203819 -0.12642981 0.07386837 0.027689239 0.086494796 -0.005819169 -0.121757776 0.070597984
0.0494174 0.10018526 0.1067253 0.07437163 -0.04003778 0.045183912 -0.000442451 -0.079849675
0.026771124 0.00884642 -0.12853356 -0.025637252 -0.019337157 -0.13334513 -0.028254103 0.080585234

default.mean_encoder.bias f4 [10]
00000000: 69b4 93bd d152 583e f886 f63c c3c2 f43c
00000010: 2271 cf3d 55f4 1cbe 0845 8f3d 5227 fcbd
00000020: 5c63 e93d 976f 0bbd
-0.07212145 0.21125342 0.030093655 0.029878026 0.10129 -0.1532758 0.069955885 -0.12312187
0.113959044 -0.034041967
