models/mnist-relaxed1E/encoder_z2_z1_-5626122139460126378.pt (torch_old, 88270 bytes, 8 tensors)

default.encoder.to_hidden.weight f4 [128, 19]
0	0x3e0f1cda	0.1397585
1	0xbe0b4b67	-0.13602982
2	0xbd3de013	-0.046356272
3	0x3da9e1f1	0.08295048
4	0x3e013058	0.12616098
5	0x3d178987	0.03699639
6	0x3cd00491	0.025392802
7	0x3c299807	0.010351188
8	0xbd767dfa	-0.060178734
9	0x3becdac9	0.0072282297
10	0x3e8b486c	0.2720369
11	0xbeb7466b	-0.35795912
12	0xbdcbca1b	-0.09950658
13	0x3df13e92	0.117795125
14	0x3dc47969	0.0959347
15	0x3d87635e	0.0661075
16	0x3ec6d160	0.38831615
17	0xbea24993	-0.31696758
18	0x3e83f254	0.2577082
19	0xbd22320d	-0.039598513
20	0x3d2b2410	0.04178244
21	0x3da5ff1d	0.081052996
22	0xbd220ef4	-0.03956504
23	0x3d27beaa	0.040953316
24	0xbd16d489	-0.036823783
25	0x3d26104c	0.040542886
26	0x3c190bf7	0.009341232
27	0xbe1021bf	-0.14075373
28	0xbe2d7a20	-0.16941118
29	0xbd3a9e20	-0.045560956
30	0xbeb143d3	-0.34622058
31	0x3e12cfa2	0.14337018
32	0x3e4e502e	0.20147774
33	0xbe6e480e	-0.23269674
34	0x3e6f9389	0.23396124
35	0x3e6210ab	0.22076671
36	0xbef2f6bc	-0.47453868
37	0x3e16abe3	0.14714007
38	0xbcddd01c	-0.027076773
39	0xbd5cfd7c	-0.05395268
40	0xbc744543	-0.014909091
41	0xbc6b331b	-0.014355446
42	0x3b718c3f	0.0036857275
43	0x3cb4fead	0.022094095
44	0x3c3332df	0.010937422
45	0x3c9cfb75	0.019162873
46	0x3bd42e39	0.0064752367
47	0xb97af657	-0.00023933627
48	0xbee84cf1	-0.45371202
49	0x3f08bc26	0.5341209
50	0xbd915cbb	-0.07097765
51	0x3e442d9e	0.19158027
52	0x3d93d9c8	0.07219273
53	0x3e0f1aac	0.13975018
54	0xbc40e991	-0.011774437
55	0xbed4fd29	-0.41599396
56	0x3e8bc063	0.27295217
57	0xbda9ebdb	-0.08296939
58	0x3e2dc460	0.16969442
59	0xbcee0099	-0.02905302
60	0x3c8a6178	0.01689218
61	0xbdb21ac1	-0.08696509
62	0xbc03a847	-0.008035726
63	0xbd0d45bb	-0.03449033
64	0xbd7c2c8c	-0.06156592
65	0xbcb60c45	-0.022222647
66	0xbd1cfdcd	-0.03832798
67	0x3ec60a0f	0.3867955
68	0x3eef0716	0.46685094
69	0x3e9fbce8	0.31198812
70	0xbf18adbd	-0.59640104
71	0xbf2d1abd	-0.67618924
72	0xbeee2307	-0.465111
73	0xbd285ab6	-0.041102134
74	0x3e0e54bf	0.13899516
75	0xbeaf6166	-0.34253997
76	0xbda4029c	-0.0800831
77	0x3e3087ee	0.17239353
78	0x3cbabba9	0.022794561
79	0xbe49b20b	-0.19696824
80	0x3e1bca6b	0.15213935
81	0xbcbc1742	-0.022960309
82	0xbbd531d4	-0.006506184
83	0x3dc93288	0.09824091
84	0x3d00a7a3	0.03140987
85	0x3de96ee9	0.113981076
86	0xbedef5b7	-0.4354684
87	0x3ea6b0e1	0.32556823
88	0xbdce9378	-0.10086721
89	0xbe489bc7	-0.19590674
90	0xbe8632a6	-0.26210517
91	0xbddc0f67	-0.10745125
92	0xbdbb79f7	-0.09154122
93	0xbe95fa95	-0.2929274
94	0x3dfcf70f	0.1235181
95	0xbc0e8d43	-0.008700672
96	0xbd0cd436	-0.034382068
97	0x3d060c5f	0.03272664
98	0x3d0d1e53	0.034452748
99	0x3da9273f	0.08259439
100	0xbc6cb13e	-0.014446555
101	0xbd849da7	-0.06475382
102	0xbd7d14d2	-0.061787434
103	0x3de20f4e	0.110380754
104	0xbcf7c2ca	-0.03024425
105	0x3dea1895	0.1143047
106	0xbe3b5cfc	-0.1829719
107	0x3f1973a0	0.59942055
108	0xbdfccfb2	-0.12344302
109	0x3eb43e68	0.35203862
110	0xbe7ee011	-0.24890162
111	0xbf0d3112	-0.55153
112	0x3ef02679	0.46904352
113	0xbd32a2fe	-0.043612473
114	0xbd0dde43	-0.034635793
115	0xbcf4f571	-0.029902192
116	0x3c70d724	0.014699731
117	0x3d2c8d40	0.042126894
118	0x3cc7563f	0.024333118
119	0xbcdabedb	-0.026702335
120	0x3d78f649	0.06078175
121	0x3c3c40dd	0.011490074
122	0xbd6860c9	-0.056732927
123	0xbc873a6d	-0.016507352
124	0x3e0327ec	0.12808198
125	0xbe80ffc1	-0.25195125
126	0xbe5321fd	-0.20618434
127	0x3e76d9a7	0.24106465
128	0x3d91c714	0.07118049
129	0x3ed2316d	0.41053334
130	0x3f119a3f	0.56875986
131	0xbf0af2f9	-0.54276997
132	0x3e6f8802	0.23391727
133	0x3be91294	0.0071128104
134	0xbd96cb2c	-0.07362971
135	0xbbf7f49f	-0.007567003
136	0x3d431e15	0.04763611
137	0xbdf2d918	-0.118578136
138	0x3d9409c6	0.07228427
139	0x3c8f1456	0.017465752
140	0xbced3064	-0.028953739
141	0x3d4beec6	0.04978826
142	0xbc969a90	-0.018384248
143	0xbedde1c2	-0.43336302
144	0x3f1dd026	0.61645734
145	0xbf040c67	-0.51581424
146	0xbea265b5	-0.3171822
147	0xbe54b5b7	-0.20772444
148	0x3ceca09d	0.02888518
149	0xbf021706	-0.5081638
150	0x3ecab780	0.39593124
151	0x3cfb2625	0.030657837
152	0x3d97afb0	0.074065566
153	0x3d38de1f	0.045133706
154	0x3cda6bf6	0.026662808
155	0xbdd20f5a	-0.10256834
156	0xb8fd254a	-0.00012070926
157	0x3e0739c5	0.13205631
158	0xbd0af596	-0.033925615
159	0x3d67061a	0.056402303
160	0xbc6a2c27	-0.014292753
161	0xbda13dd9	-0.07873125
162	0x3dabff76	0.08398335
163	0x3eecb985	0.4623529
164	0xbe92d08e	-0.2867474
165	0xbd7093ff	-0.05873489
166	0xbecc32c5	-0.39882484
167	0xbdace20a	-0.08441551
168	0xbd4ee9b0	-0.05051583
169	0x3ee142b5	0.43996206
170	0xbf113740	-0.5672493
171	0x3cc4fb77	0.024045689
172	0xbc888b05	-0.016667852
173	0x3d5eb2db	0.05436979
174	0xbdb8c936	-0.09022753
175	0xbc2d1e74	-0.010566343
176	0x3c13bffc	0.009017941
177	0xbced2fd7	-0.028953476
178	0x3c13af9b	0.009014036
179	0xbd9e4311	-0.07727636
180	0xbdfe1eba	-0.124082044
181	0xbe955413	-0.29165706
182	0xbd45cffe	-0.04829406
183	0xbd703d30	-0.058652103
184	0x3eb27697	0.34856102
185	0x3dc0d74f	0.09416067
186	0x3e64f5ea	0.22359434
187	0xbe12caaa	-0.14335123
188	0x3e5c2b29	0.2150084
189	0x3d3a95fd	0.045553196
190	0xbea1009f	-0.31445786
191	0x3e1060a9	0.14099373
192	0x3d34831c	0.04407035
193	0xbe8b3a5c	-0.27192962
194	0xbdbfaa5b	-0.093586646
195	0xbdb1aacc	-0.08675155
196	0x3e4835b3	0.19551735
197	0xbe9fd4e0	-0.31217098
198	0xbe2e6d9b	-0.17033999
199	0xbdb4437a	-0.08801933
200	0xbeb66996	-0.3562743
201	0x3e3bca93	0.18338995
202	0xbf04ff0f	-0.5195169
203	0xbc851efd	-0.016250128
204	0xbe9c940a	-0.30581695
205	0xbde2e2fa	-0.110784486
206	0xbe3c9d79	-0.18419446
207	0xbdfb471c	-0.122694224
208	0xbe35c63e	-0.17751405
209	0x3dcbe504	0.09955791
210	0xbd369be2	-0.044582255
211	0xbda54581	-0.080698974
212	0xbddfee36	-0.10934107
213	0x3d0c4c58	0.034252495
214	0x3c2113ca	0.009831378
215	0x3c63d8a7	0.013906634
216	0x3bb0bdbe	0.005393713
217	0xbdcd9751	-0.10038627
218	0xbbce7cee	-0.006301514
219	0x3d802ad5	0.062581696
220	0xbd7b66f8	-0.061377496
221	0x3e5a3685	0.2130986
222	0xbdd4fc99	-0.10399742
223	0x3eb2249d	0.3479356
224	0xbe4201a5	-0.1894594
225	0xbd6ab125	-0.057297844
226	0x3e96f313	0.29482326
227	0xbda1ee4d	-0.079067804
228	0xbdf093f8	-0.11746973
229	0xbe26d61f	-0.16292618
230	0x3c835c01	0.016035082
231	0xbca42ae0	-0.020039976
232	0xb908ae27	-0.00013034848
233	0x3e1a01a3	0.15039687
234	0xbcdeb053	-0.027183687
235	0x3d120c58	0.035656303
236	0xbd3d52c5	-0.046221513
237	0xbd67ace0	-0.05656135
238	0x3e097222	0.13422444
239	0xbf494ef6	-0.7863611
240	0xbdc07588	-0.09397417
241	0xbe24ddf0	-0.16100287
242	0x3e4bd6f5	0.19906218
243	0xbe37de47	-0.17955886
244	0xbf1ab6a6	-0.6043495
245	0x3e640429	0.22267212
246	0xbe41102a	-0.18853822
247	0xbbe2b919	-0.006919038
248	0xbdda347c	-0.10654542
249	0x3b671200	0.0035258532
250	0x3e03f86a	0.12887731
251	0x3cb68eab	0.022284826
252	0xbd143668	-0.0361847
253	0x3e05f75d	0.13082643
254	0xbe1b6ae9	-0.15177502
255	0xbdb7299e	-0.08943485

default.encoder.to_hidden.bias f4 [128]
0	0xbe7feb24	-0.24992043
1	0x3d90a4f5	0.07062713
2	0x3e419d49	0.18907656
3	0xbeae9806	-0.3410036
4	0xbd33e8d1	-0.043923203
5	0xbc9201c5	-0.01782311
6	0xbe2c7f40	-0.16845417
7	0xbccc5ff2	-0.024948094
8	0xbe7db249	-0.24775042
9	0x3e84d3eb	0.2594293
10	0x3e073247	0.13202773
11	0xbd93e0bb	-0.07220598
12	0xbeab3186	-0.3343622
13	0xbde9d0f5	-0.114168085
14	0xbde0242d	-0.109444
15	0xbc56c930	-0.01310949
16	0x3de92f6e	0.113859996
17	0xbe588f35	-0.21148379
18	0x3e97f3b7	0.29678127
19	0xbe2eff85	-0.1708966
20	0x3ccc56a4	0.024943657
21	0x3e184078	0.14868343
22	0xbe2b3586	-0.16719636
23	0x3d9c8ae6	0.0764368
24	0x3e04d237	0.12970816
25	0xbe35f42a	-0.17768922
26	0x3e8abf3d	0.27099028
27	0xbddf44ba	-0.109017804
28	0xbe85eacb	-0.26155695
29	0xbe03f621	-0.1288686
30	0xbe248ae1	-0.16068603
31	0x3e9bedf9	0.30454996
32	0xbd977617	-0.07395571
33	0x3da4bcc8	0.0804382
34	0x3e392f42	0.18084434
35	0xbdf26e4e	-0.11837445
36	0xbe055bc8	-0.13023293
37	0x3c9ee85d	0.019397909
38	0x3de64d63	0.11245229
39	0x3e7eae7a	0.24871245
40	0xbe75b542	-0.23994926
41	0xbdd727c3	-0.10505631
42	0xbe79b15b	-0.24384062
43	0xbe942f6a	-0.28942424
44	0xbe271d33	-0.16319732
45	0x3e3a1845	0.1817332
46	0x3d177377	0.03697535
47	0xbd1fc138	-0.039002627
48	0x3daeac77	0.08528989
49	0x3e75b901	0.23996355
50	0x3d8596e4	0.06522921
51	0xbe675433	-0.22590713
52	0x3e21239b	0.15736239
53	0xbd088450	-0.033329308
54	0xbda59687	-0.080853514
55	0xbe8bf82d	-0.2733778
56	0xbd809332	-0.06278075
57	0x3e579daa	0.21056238
58	0xbdebd0f1	-0.11514462
59	0x3c3526a7	0.011056579
60	0xbde5352e	-0.11191784
61	0x3dacaf08	0.08431822
62	0xbe594299	-0.21216811
63	0xbe40eb4f	-0.18839763
64	0xbe94c18c	-0.29053915
65	0x3e3c2444	0.18373209
66	0xbdece51c	-0.11567137
67	0xbe8432ae	-0.25819916
68	0xbde97322	-0.11398913
69	0xbcf6b5a8	-0.030115917
70	0xbe04314c	-0.1290943
71	0xbe00836c	-0.12550133
72	0x3e7d73b4	0.24751168
73	0xbd0a5bae	-0.03377884
74	0xbe7ef5df	-0.2489848
75	0xbdd64c29	-0.10463745
76	0xbc016cbd	-0.00789946
77	0x3d854a59	0.06508321
78	0x3e257e43	0.16161446
79	0x3d221e3e	0.039579622
80	0xbe368f9e	-0.17828223
81	0xbe717a53	-0.23581819
82	0x3e2461b4	0.16052896
83	0xbe6509b4	-0.22366983
84	0x3c502c91	0.012705938
85	0xbdfe5745	-0.12418989
86	0x3eaa684d	0.332827
87	0x3e505e26	0.20348415
88	0xbd6f78fc	-0.05846499
89	0x3e620dc9	0.22075571
90	0xbda991b4	-0.08279744
91	0xbe867937	-0.26264355
92	0xbe0cbc56	-0.1374372
93	0xbe25449a	-0.1613945
94	0xbe88f6a8	-0.26750684
95	0x3e69fc76	0.22850212
96	0xbd60ed96	-0.05491408
97	0xbd7aae63	-0.061201464
98	0xbe6018e9	-0.21884502
99	0xbe29c37a	-0.16578475
100	0xbe2f6ca8	-0.17131293
101	0x3dfaa0ed	0.122377254
102	0xbe01b5f2	-0.12667063
103	0xbd8841fd	-0.06653211
104	0x3e956836	0.2918107
105	0xbe069b8e	-0.13145277
106	0x3dc5a618	0.096508205
107	0x3d00d166	0.031449698
108	0x3dcadcf9	0.099054284
109	0xbe2a9d7b	-0.16661637
110	0x3e2d0c29	0.1689917
111	0x3e601436	0.2188271
112	0xbdd60de1	-0.10451866
113	0x3e47e3d2	0.195205
114	0x3d540bfc	0.05176924
115	0xbe152f22	-0.14568761
116	0xbd3a020e	-0.045412116
117	0xbc1f0f68	-0.009708263
118	0xbe930336	-0.28713387
119	0xbe7ca3b9	-0.2467183
120	0x3e7b1307	0.24518977
121	0xbdb0d581	-0.08634473
122	0xbe6443cf	-0.22291492
123	0xbbb3a9cf	-0.0054828892
124	0x3ea25563	0.3170577
125	0xbd0ea6bf	-0.03482699
126	0x3bf45cd2	0.007457354
127	0x3e515488	0.20442402

default.encoder.to_out.weight f4 [128, 128]
0	0x3c81c12d	0.015839184
1	0x3d305949	0.0430539
2	0x3c62eb6c	0.013850074
3	0xbca3760d	-0.019953752
4	0x3c225332	0.009907531
5	0xbd6f8232	-0.058473773
6	0xbd6f91e4	-0.05848874
7	0x3c9176c9	0.017756836
8	0xbd416baf	-0.047221836
9	0x3d479190	0.048722804
10	0xbd876cc5	-0.06612543
11	0xbd5fd14c	-0.05464296
12	0xba1ae049	-0.0005908055
13	0x3ba70997	0.0050975787
14	0x3cc21ea9	0.02369626
15	0x3bb68bca	0.0055708634
16	0xbe121aaf	-0.14267991
17	0xbccaf32a	-0.024774153
18	0x3dddd878	0.10832304
19	0x3d079c65	0.033108134
20	0xbd830145	-0.063967265
21	0x3b944700	0.0045250654
22	0x3d4713ec	0.048602983
23	0xbcced968	-0.025250152
24	0x3d966254	0.07342973
25	0xbda9d8d2	-0.08293308
26	0x3d2330c5	0.039841432
27	0x3d265ee4	0.04061784
28	0x3d11fb79	0.035640214
29	0x3d0366d3	0.032080483
30	0x3d342c4b	0.043987554
31	0xbd445a17	-0.04793748
32	0xbdb086cf	-0.08619463
33	0xbd4a5760	-0.049399734
34	0x3dbc2177	0.091860704
35	0x3d2df06c	0.042465612
36	0xbdb1e0ba	-0.08685441
37	0xbbb94e6e	-0.0056551015
38	0xbd7e27c6	-0.06204965
39	0x3d88e1e1	0.06683708
40	0x3c360dd7	0.011111698
41	0xba621e07	-0.000862569
42	0xbd1a6305	-0.03769209
43	0xbc7a603a	-0.015281731
44	0x3d1535f7	0.036428418
45	0xb976c31c	-0.00023533072
46	0xbd8c66b1	-0.06855524
47	0x3d2d6f80	0.042342663
48	0x3d4a0549	0.049321447
49	0x3d71c5e0	0.0590266
50	0xbd3a7c3b	-0.04552863
51	0xbd306eb4	-0.043074325
52	0x3d5ba061	0.053619746
53	0x3d0d1eb6	0.034453116
54	0xbd1c2eec	-0.038130686
55	0x3c990073	0.018676972
56	0x3daa7a7d	0.08324144
57	0x3d74bb12	0.059748717
58	0xbda14196	-0.07873838
59	0x3cf5442b	0.029939732
60	0x3d3d4ac0	0.046213865
61	0xbd3feccf	-0.046856698
62	0xbda2a8b9	-0.079423375
63	0xbcb38753	-0.021915114
64	0xbd665a37	-0.05623838
65	0xbd2ea5e9	-0.042638693
66	0x3c20065c	0.009767141
67	0x3c2b18db	0.010442938
68	0xbd61ad6d	-0.055097032
69	0x3d8172c1	0.06320716
70	0xbd234e6c	-0.03986971
71	0x3d12ca91	0.035837714
72	0x3db73e6a	0.089474514
73	0x3ca2b853	0.019863283
74	0xbca77767	-0.020442678
75	0x3b9553f2	0.004557126
76	0xbd63e3fa	-0.055637337
77	0xbd862c7c	-0.065514535
78	0xbd9fdf07	-0.07806211
79	0x3d36ccc1	0.044628862
80	0x3be42d7a	0.006963429
81	0xbdb2df1f	-0.08733963
82	0xbd2f6b1d	-0.04282676
83	0x3d8e7f23	0.06957843
84	0x3d22d732	0.039756007
85	0x3b4b5491	0.0031025747
86	0xbd1cb82e	-0.038261585
87	0xbcdc90d3	-0.026924526
88	0x3c8d21a0	0.017227948
89	0xbca5ec30	-0.020254225
90	0x3d444490	0.04791695
91	0x3d87a33c	0.06622931
92	0x3d7b74e6	0.06139078
93	0xbc0ba921	-0.00852421
94	0xbd63c73d	-0.05560993
95	0xbba9cbb6	-0.005181755
96	0x3d6c1e63	0.057646167
97	0xbd241b16	-0.040064894
98	0xbd378492	-0.044804163
99	0xbc81ba4a	-0.0158359
100	0xbc7708b7	-0.015077761
101	0x3c30e0a9	0.010795751
102	0x3d4d0649	0.050054822
103	0xbd12921a	-0.035783865
104	0x3d639d0e	0.0555697
105	0xbda7eb30	-0.08199155
106	0xbd00b664	-0.03142394
107	0x3c504d5d	0.012713757
108	0x3c380252	0.011231022
109	0xbd668274	-0.056276754
110	0xbd2088f9	-0.039193127
111	0x3d58a55e	0.05289208
112	0xbc9a7c55	-0.018858114
113	0x3d98a45c	0.07453224
114	0xbcd1f585	-0.025629768
115	0x3da3e966	0.080035016
116	0xbd163eb7	-0.036680903
117	0x3cf1d9e4	0.029522844
118	0xbc883eba	-0.016631473
119	0x3bc33b9d	0.005958034
120	0x3dc479ae	0.09593521
121	0xbd48b7ea	-0.04900352
122	0xbc24c2cb	-0.010056208
123	0x3c81ae98	0.015830323
124	0xbd9ad2c3	-0.07559731
125	0xbd94c041	-0.07263232
126	0x3d61a0c9	0.055084977
127	0x3cdefd61	0.02722043
128	0x3c739387	0.014866716
129	0xbcd12db1	-0.025534483
130	0x3db79026	0.08963041
131	0xbd912f91	-0.07089151
132	0xbc9a024d	-0.018799925
133	0x3c0a4fd2	0.008441882
134	0xbd4ec0c1	-0.050476793
135	0xbd24fdc9	-0.04028109
136	0x3d53e2eb	0.051730078
137	0xbd1178b1	-0.03551549
138	0x3da12a69	0.07869417
139	0x3d433d7d	0.04766606
140	0x3c457fdf	0.012054413
141	0x3c0e3d5f	0.008681624
142	0x3d2ea3e2	0.04263676
143	0xbd5fc5e8	-0.054632097
144	0x3c4f5ccb	0.012656401
145	0xbd7dbe6b	-0.061949175
146	0xbd096a0c	-0.0335484
147	0x3c9122a5	0.017716715
148	0xbb6b4bd6	-0.0035903356
149	0xbc5bc591	-0.013413803
150	0x3c124e96	0.008929869
151	0x3d1352c6	0.03596761
152	0xbcd40549	-0.025881426
153	0xbd5489df	-0.051889297
154	0x3d3fac5e	0.04679524
155	0xbd8807b1	-0.06642092
156	0x3dc569c9	0.096393175
157	0x3d79e8ed	0.06101315
158	0xbd7ed3d2	-0.062213726
159	0x3cf02605	0.029315004
160	0xbdd26194	-0.10272518
161	0xbd1cdb7f	-0.038295265
162	0x3de31f71	0.11089981
163	0xbba5a307	-0.0050548348
164	0xbdc4f33f	-0.09616708
165	0x3c0e05e5	0.008668398
166	0x3d222aeb	0.03959171
167	0x3cda105a	0.026619125
168	0xb96ba0ac	-0.00022471201
169	0x3d97ed55	0.07418314
170	0x3a92fa13	0.0011213444
171	0x3ce29f8d	0.02766397
172	0xbc0e6318	-0.008690618
173	0x3da51498	0.080605686
174	0xbd8e8cb4	-0.06960431
175	0xbd50b04a	-0.050949372
176	0xbb8e6911	-0.004346021
177	0xbd7bf64c	-0.061514184
178	0x3cb5f9db	0.022213867
179	0x3c9ffb64	0.019529052
180	0xbc1c116a	-0.009525636
181	0xbd80aca3	-0.06282928
182	0x3b554234	0.003254068
183	0x3d9605f7	0.073253565
184	0x3dab9f43	0.08379986
185	0xbda75111	-0.08169759
186	0x3d9da1be	0.076968655
187	0x3d87b821	0.06626917
188	0x3c9f4ec8	0.019446746
189	0x3cde9191	0.02716902
190	0x3c59fcdf	0.013304918
191	0xbda23d47	-0.07921844
192	0xbc940704	-0.018069752
193	0x3d68665a	0.056738235
194	0xbd8852c3	-0.066564105
195	0x3d1317dd	0.03591143
196	0x3d3d1063	0.046158206
197	0xbd876c27	-0.06612425
198	0xbb8a6fb9	-0.004224744
199	0xbd4d8753	-0.050177883
200	0xbd8feaa6	-0.070271775
201	0x3d69fb11	0.0571242
202	0xbdef0104	-0.116701156
203	0xbcdd1f1c	-0.026992373
204	0xbcb07bdf	-0.021543441
205	0xbc96d9cd	-0.018414402
206	0xbcfecb37	-0.03110276
207	0x3d11bd93	0.035581183
208	0x3d960a3f	0.07326173
209	0x3d8a9ba8	0.0676797
210	0xbda05b8a	-0.0782996
211	0x3dcfe2d4	0.10150686
212	0x3d433d97	0.04766616
213	0xbdbcf5d9	-0.09226579
214	0x3c9a75cd	0.018855
215	0xbcb8ad77	-0.022543652
216	0x3cb87a57	0.022519274
217	0x3d9565fd	0.07294843
218	0x3ca4ed59	0.020132707
219	0x3b0344e7	0.0020030083
220	0x3d84a0dd	0.06475995
221	0xbd4e6da8	-0.050397545
222	0xbd4345a0	-0.04767382
223	0x3d8ab432	0.06772651
224	0xbd98228f	-0.074284665
225	0x3c210a0a	0.009829054
226	0x3cc6b91f	0.024258194
227	0xbca28e8d	-0.019843364
228	0x3b2da0e1	0.0026493596
229	0xbd0db1a9	-0.034593258
230	0x3cf4f098	0.02989988
231	0xbddd934d	-0.10819111
232	0x3d584c7f	0.052807327
233	0xbcab8f59	-0.020942377
234	0x3d935fdb	0.07196017
235	0x3ce79ac3	0.028272038
236	0xbd349ecc	-0.044096753
237	0xbc63ee3c	-0.01391178
238	0xbd6e4bc0	-0.05817771
239	0xbc9f9f1b	-0.019485047
240	0xbd25f64b	-0.040518086
241	0x3b548bef	0.003243204
242	0x3d798b7e	0.060924046
243	0x3d824f84	0.06362823
244	0xbd1ad676	-0.037802182
245	0x3d7c69fb	0.06162451
246	0x3d9ac82f	0.07557713
247	0x3c22c77e	0.009935258
248	0x3dada7a5	0.08479241
249	0xbc04655a	-0.008080805
250	0xbd22d6a0	-0.039755464
251	0xbd989209	-0.07449729
252	0xbd4cf97e	-0.05004262
253	0x3cd6312e	0.026146498
254	0xbdf58df9	-0.1198997
255	0x3d0dd464	0.03462638

default.encoder.to_out.bias f4 [128]
0	0x3de7dbfc	0.113212556
1	0xbded2bed	-0.11580644
2	0xbe0df694	-0.13863593
3	0x3da529a5	0.08064584
4	0xbce8180d	-0.02833178
5	0x3d94afa2	0.07260062
6	0xbe2d36c5	-0.16915424
7	0xbe3949a4	-0.18094498
8	0x3ce2dae3	0.027692264
9	0x3c8177ab	0.015804132
10	0xbc96f065	-0.018425176
11	0x3dd1e19f	0.10248112
12	0x3e222a49	0.15836443
13	0x3da16df0	0.07882297
14	0x3da4ec8f	0.080529325
15	0x3d39c816	0.045356832
16	0xbddca4e8	-0.10773641
17	0x3e297bd7	0.16551147
18	0xbe33550c	-0.17512912
19	0xbd4dbb74	-0.050227597
20	0x3da118d3	0.07866063
21	0xbd3a434b	-0.04547433
22	0xbe01da37	-0.12680899
23	0xbdb810c9	-0.089875765
24	0xbe7e5415	-0.24836762
25	0xbd85e455	-0.065376915
26	0x3e00e426	0.12587032
27	0xbd63edc8	-0.055646688
28	0x3d14ce2a	0.036329426
29	0x3bd2221a	0.0064127566
30	0xbe036e6e	-0.12835094
31	0xbe0dd6d5	-0.13851483
32	0xbdda59bd	-0.106616475
33	0x3d449301	0.047991756
34	0x3eae5815	0.34051576
35	0xbd438e22	-0.04774297
36	0xbd6221f1	-0.05520815
37	0xbdcfd7ed	-0.101486064
38	0x3e17a4c2	0.14808944
39	0x3e8dc74a	0.27691108
40	0x3d3b9ebb	0.045805674
41	0x3e0fe283	0.14051251
42	0xbe078805	-0.13235481
43	0x3d8290c5	0.06375269
44	0xbe3a3879	-0.18185605
45	0x3db81525	0.08988408
46	0xbdd4cf77	-0.10391133
47	0xbc13f48e	-0.009030474
48	0xbb9b582d	-0.004740736
49	0x3ce1f271	0.027581425
50	0xbd0ea778	-0.03482768
51	0xbe97d688	-0.29655862
52	0x3e242149	0.16028322
53	0x3e8d07e4	0.27545083
54	0x3e29b9bd	0.1657476
55	0xbe27230c	-0.16321963
56	0xbd983aa5	-0.074330606
57	0xbd0c6934	-0.034280017
58	0x3e0750c9	0.13214411
59	0xbd43e2c1	-0.04782367
60	0xbe175c5c	-0.14781326
61	0x3e23b404	0.1598664
62	0x3e0eb644	0.13936716
63	0x3cca680d	0.024707818
64	0xbdf3cba7	-0.11904078
65	0xbd8b6755	-0.068068184
66	0x3db11551	0.08646644
67	0xbc8dbb58	-0.017301247
68	0xbe043884	-0.12912184
69	0xbe119a31	-0.14218976
70	0x3e1a2699	0.15053786
71	0xbdaa58f9	-0.083177514
72	0x3d7bf056	0.0615085
73	0x3e64f8dd	0.22360559
74	0xbe293a9b	-0.16526262
75	0x3cd23006	0.025657665
76	0x3bcdcd91	0.006280609
77	0xbd0eed8d	-0.034894515
78	0x3d77c24c	0.06048803
79	0xbd3a2e7e	-0.045454495
80	0x3e0c9785	0.13729675
81	0xbdcea3f8	-0.10089868
82	0x3e6ddc01	0.23228456
83	0xbc3c3092	-0.011486189
84	0xbe08490c	-0.13309115
85	0xbd90f84b	-0.07078608
86	0xbe3d3c8d	-0.1848013
87	0x3d2aff85	0.04174759
88	0xbddae2a6	-0.10687761
89	0xbdee8ba6	-0.116477296
90	0xbd96df4c	-0.07366809
91	0x3e5d06e6	0.21584663
92	0x3e71ed4d	0.2362568
93	0x3e44d2b1	0.19220997
94	0x3a89b934	0.0010507465
95	0xbc854856	-0.016269844
96	0x3d077500	0.033070564
97	0x3b3f22f6	0.0029165125
98	0xbd887eea	-0.06664832
99	0x3d777c52	0.060421295
100	0x3e3ecec3	0.18633561
101	0x3e4e1600	0.2012558
102	0xbeb5f58c	-0.355389
103	0xbc0786b1	-0.008271859
104	0x3aa4283d	0.0012524199
105	0xbe1fb394	-0.15595847
106	0x3e7d352e	0.24727318
107	0x3e65fb5c	0.22459167
108	0xbd3ddd82	-0.046353824
109	0x3c97a817	0.018512769
110	0x3df406f0	0.11915386
111	0xbdfd225f	-0.123600714
112	0x3dbb8f3a	0.09158178
113	0xbe64db95	-0.22349389
114	0x3d9bbb67	0.076041035
115	0xbb9504d9	-0.004547697
116	0xbe441b07	-0.19150935
117	0xbdb30048	-0.08740288
118	0x3d6c7241	0.05772615
119	0xbcf22f42	-0.02956355
120	0xbe34d639	-0.17659844
121	0xbd9278c2	-0.07151939
122	0xbd4004f3	-0.04687972
123	0xbe283aec	-0.16428727
124	0x3d59a66a	0.05313722
125	0x3d4e0da7	0.05030599
126	0x3cac6453	0.021043932
127	0x3d87c624	0.06629589

default.mean_encoder.weight f4 [10, 128]
0	0xbbe6b167	-0.007040191
1	0xbc035078	-0.008014791
2	0xbd7e69ed	-0.062112737
3	0xbc0c349b	-0.008557464
4	0xbd96dd0b	-0.07366379
5	0x3c959243	0.01825822
6	0xbd18da77	-0.03731772
7	0x3cbcb56d	0.02303573
8	0xbcfc51d3	-0.030800736
9	0x3c7d5d67	0.015464163
10	0x3c3f1f6c	0.011665206
11	0x3b54b058	0.0032453742
12	0xbc878621	-0.01654345
13	0x3d69d753	0.057090115
14	0xbc033615	-0.0080085
15	0x3a2592b7	0.00063161127
16	0xb99958c7	-0.00029248578
17	0xbd3a8276	-0.045534573
18	0xb9e7e5f4	-0.00044231082
19	0x3b9c6641	0.004772932
20	0x3d000098	0.031250566
21	0x3c7414c0	0.014897525
22	0xbd52865c	-0.051397666
23	0x3cb869f1	0.022511454
24	0xbb385369	-0.0028125888
25	0xb765f55e	-1.3706593e-05
26	0xbc36a6a7	-0.011148131
27	0x3d20514c	0.03914003
28	0x3a9adaff	0.0011814534
29	0xbc2d6627	-0.010583437
30	0x3cf9c5ec	0.030489884
31	0x3dca6f2e	0.09884487
32	0xbc0f03f1	-0.008728967
33	0x3be82f1c	0.007085694
34	0x3c95260a	0.018206615
35	0x3b653a56	0.0034977398
36	0x3b07b56e	0.0020707506
37	0xbca18232	-0.019715402
38	0x3d2e768a	0.042593516
39	0x3aaf8796	0.0013391848
40	0xbd8aff97	-0.06787031
41	0x3cfeb061	0.031089963
42	0xbb9fb07c	-0.0048733335
43	0xbc89b309	-0.016809003
44	0x3c944ef1	0.018104048
45	0x3ce72ae1	0.028218688
46	0x3cd1abb0	0.025594562
47	0x3c21d5a3	0.009877595
48	0xbc1205d5	-0.008912523
49	0x3c22c972	0.009935724
50	0xbd0ec045	-0.03485133
51	0x3b0728cf	0.002062369
52	0x3c119d12	0.008887546
53	0x3c67b836	0.01414304
54	0x3cbccc3a	0.023046602
55	0x3cbab69c	0.022792153
56	0xba4b81b2	-0.00077631616
57	0x3b727c2b	0.003700028
58	0xbcd73966	-0.026272487
59	0x3bc85aaa	0.0061143236
60	0x3cd6b0c7	0.02620734
61	0x3bc88361	0.006119177
62	0xbc31c12c	-0.010849278
63	0xbd66509e	-0.056229226
64	0xb82f4098	-4.178341e-05
65	0x3c362f08	0.011119612
66	0xbd4791de	-0.048723094
67	0xbce5c4fb	-0.02804803
68	0x3d1cee8b	0.03831343
69	0xbdacd517	-0.08439081
70	0xbcad6b6b	-0.021169385
71	0xbd170dd0	-0.036878407
72	0xbb464fa9	-0.0030259883
73	0x3ade5f2f	0.0016965623
74	0x3c943fa3	0.01809675
75	0xbd0de7e7	-0.034644987
76	0x3b7acd68	0.0038269404
77	0xbbe80947	-0.007081184
78	0x3cd0d1de	0.025490697
79	0x3d196629	0.037450943
80	0xbcd86588	-0.026415601
81	0xbbfe31df	-0.00775741
82	0x3cb15d80	0.02165103
83	0x3ca96963	0.020680135
84	0xbc650a60	-0.013979524
85	0x3d1c3c1a	0.038143255
86	0xbcfc3081	-0.030784847
87	0xba8e80a4	-0.0010872078
88	0xbc6d2c75	-0.014475931
89	0xbc18fcf9	-0.009337657
90	0xbae97887	-0.0017812409
91	0x3d04ad40	0.032391787
92	0x3b95198e	0.0045501655
93	0x3ce75cdc	0.028242521
94	0x3d2ec6d2	0.04267008
95	0x3cbf90b2	0.023384426
96	0xbc555660	-0.013021082
97	0xbd7b00b3	-0.061279964
98	0xbc99cf48	-0.018775597
99	0x3c80acd7	0.015707416
100	0xbd371f6e	-0.044707708
101	0x3c294bf6	0.010333052
102	0xba4384a0	-0.00074584223
103	0xbd7eda11	-0.062219683
104	0xbb2eb0a7	-0.0026655586
105	0x3b834496	0.004005979
106	0x3be09ef5	0.0068548867
107	0x3c16b908	0.009199388
108	0x3d151d4d	0.036404897
109	0xbcab9992	-0.020947251
110	0xbbe3dae1	-0.0069535826
111	0xbd1b457c	-0.037908062
112	0xbcbb3200	-0.02285099
113	0xbd57566a	-0.052572645
114	0x3c087bac	0.008330267
115	0x3a11a6d2	0.0005556169
116	0xbcc6c74c	-0.024264954
117	0xbaf0e6d3	-0.0018379338
118	0xbd069676	-0.032858334
119	0xbc2e57e6	-0.010641074
120	0xbc7f63e7	-0.015587783
121	0x3b9caa4e	0.004781044
122	0x3ca90e4a	0.020636696
123	0x3c15f2e5	0.009152149
124	0xbc032666	-0.00800476
125	0xbbadb6cc	-0.005301332
126	0x3bdd8178	0.0067598186
127	0xbd3d7e43	-0.04626299
128	0x3b89332e	0.0041870093
129	0x3c9adf25	0.018905232
130	0x3cbacfba	0.02280413
131	0x3c45e696	0.012078902
132	0x3c9e4d3d	0.01932394
133	0xbc4b85c6	-0.012422031
134	0xbc500dad	-0.012698573
135	0x3c62adee	0.013835413
136	0xbc029b18	-0.007971548
137	0x3cbd3ac5	0.023099313
138	0x3c30d991	0.010794059
139	0xbbca3eb0	-0.0061720237
140	0x3c05e285	0.008171682
141	0x3cd4bf61	0.025970163
142	0x3c72ef66	0.014827585
143	0xbbfa3eeb	-0.007636895
144	0x3b5d1da8	0.00337396
145	0xbb4f2d92	-0.0031612855
146	0xbb471d8f	-0.0030382609
147	0xbc17abd9	-0.00925728
148	0x3c4d2b06	0.012522465
149	0x3bf3df76	0.00744241
150	0xbcc523ac	-0.024064861
151	0x3bd837f6	0.006598468
152	0xbcbe4044	-0.023224004
153	0xbc4501ba	-0.012024337
154	0x3c11c423	0.00889686
155	0xbc623e9b	-0.013808872
156	0xbc89ded7	-0.016829891
157	0x3b2358fa	0.002492486
158	0xbbbf497d	-0.005837618
159	0xbd04d36e	-0.032428198
160	0xbaabd371	-0.0013109279
161	0xbc7c0063	-0.015380952
162	0x3b39a096	0.0028324476
163	0x3aa21ba4	0.0012367857
164	0xbbb8442c	-0.005623361
165	0x3c396d2b	0.011317532
166	0x3c6fb3ac	0.014630239
167	0xb9e3634a	-0.0004337079
168	0xbbe33089	-0.006933276
169	0x3ccf88b1	0.025333734
170	0xbc18831f	-0.009308605
171	0xbcf8fb8e	-0.030393388
172	0xbc9e0798	-0.01929073
173	0x3b9bff25	0.00476064
174	0x3aad0482	0.0013200196
175	0x3c92c351	0.0179154
176	0x3b8f3a90	0.004370995
177	0x3c1ed021	0.0096931765
178	0xbca4382d	-0.020046318
179	0xba9111a1	-0.0011067876
180	0x3c033be3	0.008009884
181	0x3bfc6692	0.007702657
182	0x3cd01001	0.025398256
183	0xbb321ab0	-0.0027176552
184	0xbb85c90b	-0.004082804
185	0xbb059e41	-0.0020388516
186	0x3c016741	0.007898153
187	0x3bb8763b	0.0056293285
188	0x3c9edf61	0.019393625
189	0x3c5b024c	0.013367247
190	0x3bbf0313	0.005829224
191	0xbc0a3a73	-0.008436787
192	0xba876547	-0.0010329866
193	0x3ca9582a	0.020671923
194	0x3cdc3911	0.02688268
195	0xbd0ca7c4	-0.03433968
196	0xbc4486e8	-0.011995055
197	0x3d053a26	0.032526158
198	0x3cb1f042	0.02172101
199	0xbbb82cef	-0.005620591
200	0xbc81231d	-0.015763814
201	0xbbf3cda1	-0.0074402844
202	0xbb533ce4	-0.0032232339
203	0xbb6154f0	-0.0034382902
204	0xb89b064e	-7.39215e-05
205	0x3af39191	0.0018582811
206	0x3cd3bb88	0.025846258
207	0x3bde8bdb	0.0067915744
208	0x3bda778c	0.006667083
209	0x3c154ec7	0.00911302
210	0xbb8be310	-0.0042690113
211	0xbc4cafb0	-0.012493059
212	0xbc0ddfe4	-0.008659337
213	0xbb5d9965	-0.0033813354
214	0xbc1f214e	-0.00971253
215	0xbba8639e	-0.0051388284
216	0x3c467223	0.012112173
217	0x3c2566e5	0.010095333
218	0x39c57cf4	0.00037667865
219	0x3c27c345	0.010239427
220	0xbbe66a2a	-0.0070316987
221	0x3c25803d	0.010101375
222	0x3cab2a4e	0.020894196
223	0x3cf9d93b	0.030499091
224	0xbb93b344	-0.004507454
225	0x3cc08125	0.02349908
226	0x3c7309ed	0.014833909
227	0xbbc72c8a	-0.0060783075
228	0xbb98d6b8	-0.0046642683
229	0xbaa881e5	-0.0012856094
230	0xbb889d0f	-0.0041691135
231	0x3b5c2e35	0.0033596877
232	0x3c10039a	0.008789921
233	0x3a3b4219	0.0007143333
234	0xbbc70fc1	-0.006074876
235	0x3c8c0d70	0.017096251
236	0x3c1d57fa	0.009603495
237	0x3c0d7850	0.008634642
238	0xbc1d3848	-0.009595938
239	0xbb4ec598	-0.003155088
240	0xbc01f8bd	-0.007932839
241	0xbcdd73b9	-0.02703272
242	0xbc270290	-0.010193482
243	0xbb0a3d95	-0.0021093835
244	0x3bcd89c0	0.0062725246
245	0xbba25fba	-0.004955259
246	0xba60f5dd	-0.00085815584
247	0x3bbf883d	0.0058450983
248	0xbbd6826a	-0.0065463083
249	0xbb61dab8	-0.0034462642
250	0x3b872e93	0.004125425
251	0xba75078e	-0.0009347134
252	0xbbe844b2	-0.0070882672
253	0xbc30c222	-0.010788472
254	0x3c1f68f4	0.009729613
255	0xbbe439fe	-0.006964921

default.mean_encoder.bias f4 [10]
0	0x3d9b0cab	0.075707756
1	0xbd0ff206	-0.03514292
2	0x3b36845d	0.002784989
3	0x3d09d6f6	0.03365227
4	0x3cb04aa3	0.021519965
5	0x39f29001	0.00046265128
6	0xbbb1a341	-0.0054210727
7	0x3c8c3fa4	0.01712019
8	0x3c45247c	0.012032624
9	0x3d9a07a9	0.07520992

default.var_encoder.weight f4 [10, 128]
0	0xbcb4f16d	-0.022087777
1	0x3d2dd7c8	0.042442113
2	0x3d89757d	0.06711862
3	0xbd18f012	-0.037338324
4	0xbbbad268	-0.005701352
5	0xbd0aed26	-0.03391757
6	0x3d760206	0.060060523
7	0x3d2f7124	0.04283251
8	0xbc5486cf	-0.012971594
9	0x3c84d12a	0.016213018
10	0xbc62617c	-0.013817187
11	0xbcdb1a85	-0.026746044
12	0xbd1dc70f	-0.038519915
13	0xbc94b41e	-0.018152293
14	0xbb842663	-0.0040328964
15	0x3bb301fd	0.0054628835
16	0x3c89c098	0.016815469
17	0xbd299725	-0.04140391
18	0x3d166b0b	0.036723178
19	0x3bf15962	0.0073653916
20	0xbcb81632	-0.022471521
21	0xbb1b7874	-0.0023722919
22	0x3d7523c0	0.059848547
23	0x3c55ee40	0.0130572915
24	0x3d6ec3e3	0.05829228
25	0x3d26ca35	0.040720183
26	0xbd154ffa	-0.036453225
27	0x3d67649c	0.056492433
28	0x3c2f01f6	0.01068162
29	0xbc441894	-0.0119687505
30	0x3d789445	0.060688276
31	0x3d96374a	0.07334764
32	0x3cd46f70	0.025932044
33	0xbcda6f6d	-0.02666446
34	0xbe175e5f	-0.14782093
35	0xba1d3eec	-0.0005998451
36	0x3d35dc5b	0.0443996
37	0x3da6291f	0.08113312
38	0xbd93f19f	-0.0722382
39	0xbdb4800c	-0.088134855
40	0xbd633511	-0.05547053
41	0x3bd16747	0.0063904854
42	0x3cb6868b	0.022280952
43	0xbd939a99	-0.072072215
44	0x3d52cc5f	0.051464435
45	0xbc46751e	-0.012112884
46	0xbb6e9f4b	-0.0036410864
47	0x3c662761	0.014047475
48	0x3ce317a9	0.027721243
49	0xbcd36fda	-0.02581017
50	0xbd0d2f7d	-0.034469116
51	0x3dbb922f	0.09158742
52	0xbccdeec9	-0.025138276
53	0xbda944bc	-0.08265063
54	0xbd6bb014	-0.057540968
55	0x3dac3130	0.08407819
56	0x3c1dd2ca	0.009632776
57	0x3b34ffdc	0.0027618324
58	0xbd89f5bb	-0.067363225
59	0x3ce915a4	0.028452702
60	0x3d93ea58	0.07222432
61	0xbcc2351a	-0.023706961
62	0xbce1d1ff	-0.027565954
63	0x3cebf5ec	0.028803788
64	0x3d6f643f	0.05844521
65	0x3cfdd13c	0.03098356
66	0x3d1e33d2	0.03862364
67	0x3d1851bb	0.03718732
68	0x3d873ea6	0.06603746
69	0x3c11e4d3	0.008904654
70	0xbd49185b	-0.049095493
71	0x3c51d216	0.012806436
72	0xbca4c701	-0.020114424
73	0xbd6945f2	-0.05695147
74	0x3d56ba08	0.052423507
75	0xbd5f5dfa	-0.054532982
76	0x3ba882be	0.005142539
77	0x3ce40372	0.027833674
78	0xbd2720fb	-0.040802937
79	0x3d74a805	0.05973055
80	0xbd60df95	-0.054900724
81	0x3c71468b	0.014726291
82	0xbd9bd8dc	-0.07609722
83	0x3cd63292	0.02614716
84	0x3d451505	0.04811575
85	0x3cc895cb	0.02448549
86	0x3d314632	0.043279834
87	0xbc9cd243	-0.01914323
88	0x3d546897	0.051857557
89	0x3cadea18	0.021229789
90	0x3c0ca90c	0.008585226
91	0xbdf224d4	-0.11823431
92	0xbdc7614d	-0.097353555
93	0xbdbeb7bc	-0.09312388
94	0xbd3d07f9	-0.04615018
95	0xbc4638ee	-0.012098534
96	0xbbbecb20	-0.005822554
97	0x3bc3f08e	0.005979604
98	0x3c90f1c9	0.017693417
99	0xbce2d655	-0.027690092
100	0xbd52005a	-0.051269867
101	0xbca60454	-0.020265736
102	0x3dd684a2	0.104745165
103	0xbce0e908	-0.027454868
104	0x3af09d3f	0.001835741
105	0x3cfad8c1	0.030620934
106	0xbe07dbec	-0.13267487
107	0xbd8f5224	-0.06998089
108	0xbbd7ace0	-0.0065818876
109	0xbbc93d39	-0.0061413315
110	0xbd4801e7	-0.04882994
111	0x3d429e1b	0.047514062
112	0xbd18055e	-0.037114494
113	0x3d88ba43	0.066761516
114	0xbc87ae4f	-0.016562609
115	0x3cbed7a8	0.023296192
116	0x3d3c8efd	0.0460348
117	0x3cc7b11a	0.02437644
118	0xbbfa0da9	-0.007631023
119	0xbc98d44b	-0.018655917
120	0x3d4b3686	0.049612544
121	0x3cd90ea1	0.026496233
122	0xbce47d52	-0.027891789
123	0x3d959362	0.07303502
124	0xbcf4a3d3	-0.029863274
125	0xb8b0e6b3	-8.435305e-05
126	0xbb0b02cb	-0.0021211382
127	0x39d36665	0.00040321346
128	0x3b8b2647	0.0042465064
129	0x3c1f52a0	0.009724289
130	0x3be1ed73	0.006894761
131	0xb9ed1dec	-0.00045226456
132	0xbc87ec41	-0.016592147
133	0x3c126763	0.008935782
134	0x3cae87ff	0.021305082
135	0x3cba42bc	0.0227369
136	0x3c327d5a	0.010894144
137	0xbc08cf98	-0.008350275
138	0xbca3bdc1	-0.019987943
139	0xbcdff2c9	-0.027337449
140	0x3b88be9e	0.004173114
141	0xbbcd40e6	-0.00626384
142	0xbb0ee460	-0.0021803603
143	0x3a3351f2	0.0006840519
144	0x3acc5546	0.0015589378
145	0x3ca53fbb	0.02017199
146	0x3bec538c	0.007212108
147	0x3c49637f	0.012291788
148	0xbc37254f	-0.011178329
149	0x3c46a436	0.012124112
150	0xbc9b841d	-0.018983895
151	0xbb45eaba	-0.0030199722
152	0x3c81c3b4	0.015840389
153	0xbaaa0cf8	-0.0012973836
154	0xbb9be27f	-0.004757225
155	0xbcc2915f	-0.023750959
156	0xbbd5144d	-0.006502664
157	0xbc8025e7	-0.015643073
158	0x3b17871e	0.0023121308
159	0x3c981e18	0.018569037
160	0x3acf070a	0.0015794944
161	0xbc9ffe7a	-0.019530524
162	0x3a29108e	0.0006449305
163	0x3ab73d9e	0.0013980155
164	0x3c76a61c	0.015054252
165	0xbbf86311	-0.007580169
166	0xbb138675	-0.0022510563
167	0xbafb2d97	-0.0019163367
168	0x3c8e5b69	0.017377572
169	0xbc0a15a6	-0.008428013
170	0x3cb346be	0.021884318
171	0xbc6c2498	-0.0144130215
172	0x3c98a62a	0.01863392
173	0x3c86e401	0.016466143
174	0xbc948ba7	-0.018132998
175	0x3cbf7fa2	0.02337629
176	0x3cb0ee2c	0.021597944
177	0xbc56648c	-0.013085496
178	0x3c93ecf8	0.018057331
179	0x3bbda5cc	0.005787587
180	0xbc132fce	-0.0089835655
181	0xbc259597	-0.010106466
182	0xbb07410b	-0.0020638134
183	0xbb2f9e2b	-0.0026797156
184	0xbb785cee	-0.0037897187
185	0xb8befe58	-9.107281e-05
186	0xbbf1d7b5	-0.0073804506
187	0x3c479ded	0.0121836485
188	0x3c19b87b	0.0093823625
189	0xbc31dfd3	-0.0108565865
190	0xbba09bb6	-0.0049013747
191	0x3ca2e07d	0.019882435
192	0xbcfa9134	-0.030586816
193	0xbb0b3c36	-0.0021245605
194	0x3bc15160	0.0058995932
195	0xbc848b30	-0.016179651
196	0xbcd57ccf	-0.02606049
197	0xbcb815f7	-0.022471411
198	0x3c3f988a	0.011694083
199	0xbc50e0e9	-0.012748935
200	0xbc847140	-0.016167283
201	0x3c4b2fa4	0.012401495
202	0xbd2f4052	-0.04278595
203	0xbc93926c	-0.018014155
204	0xbbc40714	-0.005982289
205	0x3b2eccc5	0.0026672345
206	0x3c8948ef	0.01675841
207	0xb92ea6ee	-0.00016656119
208	0xbc21dd5f	-0.009879439
209	0xbbe29ed4	-0.0069159064
210	0xbc198a9b	-0.009371425
211	0xbcee6bb5	-0.029104093
212	0xbc6bc177	-0.014389387
213	0x3bf113ef	0.0073571126
214	0x3c8b5032	0.017006014
215	0x3b8f7f2e	0.0043791747
216	0xbc2cfb13	-0.010557908
217	0xbb9454a6	-0.0045266924
218	0x3c911533	0.017710304
219	0x3bf299b4	0.0074035767
220	0x3b98375d	0.0046452717
221	0xbd15cb1f	-0.036570664
222	0x3d1ec23c	0.038759455
223	0x3ce8a84d	0.028400565
224	0x3c54faf2	0.012999283
225	0x3bfb6649	0.0076721055
226	0xbc89c871	-0.01681921
227	0xbc13b7b6	-0.009015968
228	0x3cab7959	0.020931887
229	0xbbc3130d	-0.0059531988
230	0xbbd43e00	-0.0064771175
231	0xbc782bd0	-0.015147164
232	0x3be457f5	0.006968493
233	0x3c5cb3b8	0.013470583
234	0x3c5cd85d	0.013479319
235	0xba8c4d89	-0.001070426
236	0xbbc05ba8	-0.0058703013
237	0xbc5a530b	-0.013325463
238	0x3b343bbf	0.0027501432
239	0xbcd6c125	-0.026215145
240	0x3b3c7847	0.0028758214
241	0x3d16dd6d	0.03683226
242	0x3cb4c692	0.022067342
243	0xbc7030d0	-0.014660075
244	0x3b34bf8c	0.002757999
245	0x3c46bdd4	0.0121302195
246	0xbb8d716d	-0.0043165
247	0xbb31661e	-0.0027068923
248	0xbb2f59ba	-0.0026756362
249	0xbc31b3e0	-0.010846108
250	0xbb8a6501	-0.0042234664
251	0x3b17623a	0.002309932
252	0x3c9af57a	0.01891588
253	0xbc276ec1	-0.010219277
254	0xbbdd66a6	-0.0067566214
255	0xbc10747c	-0.008816835

default.var_encoder.bias f4 [10]
0	0xbe2b6a52	-0.16739777
1	0x3a5f407b	0.0008516383
2	0xbd4932c9	-0.049120698
3	0x3d5f5411	0.05452353
4	0xbc93d95a	-0.018047977
5	0x3d0d9968	0.034570128
6	0xbc871932	-0.016491506
7	0x3bf655c8	0.00751755
8	0x3ca59cbc	0.020216338
9	0xbe810506	-0.25199145
