models/mnist-relaxed1E/encoder_z1_-4105537841436810383.pt (torch_old, 516075 bytes, 14 tensors)

default.encoder_cv.0.weight f4 [32, 1, 3, 3]
-0.2315952 -0.13686264 0.28043616 0.18410477 -0.26474112 0.31613642 0.12526314 0.27916932
0.13314286 -0.102339774 0.0005290377 -0.31259963 0.35284936 0.24498239 -0.49626318 0.32906628
0.0150276525 -0.24291095 -0.12722738 0.2977407 -0.069832936 0.23312011 0.010722311 0.14108004
0.1840647 -0.06260311 0.22157705 -0.30051464 -0.3354243 0.14007095 -0.40657046 0.23888813
0.14985317 0.14612873 0.016108075 -0.28167635 0.12645811 -0.06768749 -0.21553929 0.29915372
-0.30260268 -0.5035401 -0.10406003 -0.26971823 0.22244553 -0.32417423 -0.40618727 -0.04786837
0.20238207 -0.12982936 -0.11463232 0.34582487 0.19093794 -0.38341096 0.011023618 0.0029697495
0.056727625 -0.076955505 0.26117766 0.20274733 -0.25902355 -0.21177433 0.35978326 0.32635516
-0.051539753 -0.3789567 0.090409026 -0.0651661 -0.12650494 -0.036896765 -0.12175099 -0.48886988
0.20572414 0.28971243 0.0007748658 -0.34464327 -0.17767383 0.39391994 0.23466332 -0.13492075
0.13868806 -0.021613846 -0.15825748 -0.45336106 0.28551337 -0.24462011 -0.025114713 -0.25794908
0.07500421 -0.2202073 0.09414381 0.00945631 0.23990051 0.21407266 0.20708998 -0.09534261
-0.008775224 0.026557608 -0.24084787 -0.083540305 0.17153716 0.341368 -0.009031928 0.11430901
0.35917923 -0.10869473 0.30514383 -0.24805394 0.060225215 0.23762174 0.32859662 -0.18611868
-0.25367397 -0.15534322 -0.3606701 -0.19752727 -0.3943947 -0.22096857 0.16895334 -0.31291938
-0.10799638 -0.1367959 0.06943338 0.040229738 -0.14528862 -0.4294621 -0.041859977 0.3767306
0.038697038 -0.14232635 0.41431743 -0.2887046 0.074525975 -0.1761607 -0.45151675 0.011503259
-0.27011135 0.2828808 -0.06417521 0.09476893 -0.22646941 0.30995044 0.33175862 -0.37697965
-0.11053113 -0.31201226 -0.37693897 0.26915964 -0.073007956 0.24461268 0.16952892 0.16916242
0.3026156 -0.07800173 -0.40673435 0.23529704 0.15039954 -0.24358685 0.30973405 -0.13519296
-0.078317896 -0.26266134 -0.25811026 0.21517989 -0.1515413 -0.0952841 0.23164456 0.3084439
0.280635 0.15668817 -0.06399441 0.25853288 -0.05386364 -0.11322815 -0.022169732 0.07265154
0.1290977 -0.01115393 0.36377025 0.10767902 -0.05430086 -0.32902077 -0.29205996 -0.3117231
0.09704088 -0.27673805 0.2734522 0.30139762 0.30788636 0.28391537 -0.12978129 0.035810586
0.11799744 0.09100966 -0.2383274 0.27283266 0.24232991 -0.20604219 0.09128809 0.052944113
0.00987737 0.005966603 -0.21990375 0.12132935 0.07294257 0.4186238 0.062357634 -0.2506471
0.0033399935 -0.028756343 -0.055002097 -0.1485547 -0.024059072 -0.07721581 0.36483347 0.11178166
-0.112636365 -0.102481835 0.30546492 -0.03823889 0.022899332 0.28884214 0.26349434 0.12986596
0.0470801 -0.24966194 0.005665803 0.21432604 -0.009364076 -0.36871898 0.35071254 -0.09007301
0.25250405 0.14520235 -0.38419983 0.2241413 0.20551966 0.0022544307 -0.33109742 0.28751978
-0.03931628 0.14482832 0.22264795 0.11404515 0.17086948 0.09773187 -0.0518952 0.39988992
-0.10213951 -0.16302516 0.3555769 -0.17646313 -0.103523314 -0.3126907 0.107655376 -0.30982912
00000000: 4b27 6dbe b825 0cbe 5495 8f3e f685 3c3e
00000010: 268c 87be a2dc a13e fb44 003e 48ef 8e3e
00000020: 9a56 083e 8497 d1bd 1eaf 0a3a 0f0d a0be
00000030: aca8 b43e aadc 7a3e 3516 febe 607b a83e
00000040: 8b36 763c a6bd 78be e547 02be 7871 983e
00000050: 9204 8fbd 0ab7 6e3e a2ac 2f3c 4977 103e
00000060: 757b 3c3e 0f36 80bd 18e5 623e 0edd 99be
00000070: bcbc abbe c26e 0f3e 012a d0be 179f 743e
00000080: 1c73 193e c5a2 153e 15f5 833c e237 90be
00000090: 3c7e 013e bd9f 8abd 55b6 5cbe ad2a 993e
000000a0: bdee 9abe 01e8 00bf 6d1d d5bd 8218 8abe
000000b0: c3c8 633e 2afa a5be c7f7 cfbe a011 44bd
000000c0: 3f3d 4f3e fdf1 04be 5ac4 eabd f50f b13e
000000d0: 3c85 433e 714e c4be 689c 343c 21a0 423b
000000e0: 3a5b 683d d99a 9dbd 14b9 853e ff9c 4f3e
000000f0: bc9e 84be 5fdb 58be 8335 b83e 0618 a73e
00000100: 591b 53bd 9d06 c2be 5e28 b93d ce75 85bd
00000110: 838a 01be 1021 17bd 9558 f9bd 274d fabe
00000120: 59a9 523e 3055 943e 5d20 4b3a 1575 b0be
00000130: 21f0 35be e0af c93e 954b 703e aa28 0abe
00000140: 3e04 0e3e 850f b1bc 400e 22be f11e e8be
00000150: cf2e 923e b27d 7abe 5fbd cdbc e711 84be
00000160: cf9b 993d 067e 61be 78ce c03d a4ee 1a3c
00000170: 7ba8 753e dd35 5b3e 650f 543e fc42 c3bd
00000180: f5c5 0fbc 578f d93c d3a0 76be 2e17 abbd
00000190: 70a7 2f3e c9c7 ae3e a7fa 13bc d81a ea3d
000001a0: 57e6 b73e 589b debd d03b 9c3e da01 7ebe
000001b0: b7ae 763d 1d53 733e d13d a83e e595 3ebe
000001c0: 8ee1 81be 4b12 1fbe c0a9 b8be 9744 4abe
000001d0: 1aee c9be 9645 62be 1b02 2d3e f836 a0be
000001e0: 352d ddbd 3914 0cbe 1733 8e3d f0c7 243d
000001f0: 8ac6 14be 75e2 dbbe 5e75 2bbd d5e2 c03e
00000200: c980 1e3d 00be 11be 6a21 d43e 17d1 93be
00000210: 13a1 983d 7863 34be 342d e7be 2a78 3c3c
00000220: 094c 8abe c1d5 903e 4b6e 83bd 3616 c23d
00000230: 99e7 67be d3b1 9e3e 44dc a93e 7a03 c1be
00000240: 255e e2bd 12c0 9fbe 25fe c0be 4bcf 893e
00000250: 3285 95bd bf7b 7a3e fd98 2d3e ea38 2d3e
00000260: 6ff0 9a3e 5fbf 9fbd 7c3f d0be b5f1 703e
00000270: 5602 1a3e d56e 79be 7695 9e3e 0670 0abe
00000280: 2265 a0bd 8c7b 86be 0727 84be 1e58 5c3e
00000290: a42d 1bbe 4f24 c3bd 3b34 6d3e 5cec 9d3e
000002a0: 64af 8f3e dd72 203e 800f 83bd 6c5e 843e
000002b0: 1fa0 5cbd 29e4 e7bd 4c9d b5bc 55ca 943d
000002c0: 3032 043e f9be 36bc 1840 ba3e d186 dc3d
000002d0: 946a 5ebd 6975 a8be e288 95be 2c9a 9fbe
000002e0: 5ebd c63d 9cb0 8dbe ed01 8c3e ca50 9a3e
000002f0: 48a3 9d3e 5b5d 913e 63e5 04be 1fae 123d
00000300: a4a8 f13d 4663 ba3d 190c 74be b9b0 8b3e
00000310: 5525 783e b9fc 52be 40f5 ba3d eddb 583d
00000320: b1d4 213c 7e83 c33b 732e 61be 867b f83d
00000330: ea62 953d dc55 d63e b86a 7f3d d154 80be
00000340: cbe3 5a3b 6c92 ebbc e149 61bd b91e 18be
00000350: 8817 c5bc 5323 9ebd 74cb ba3e c8ed e43d
00000360: e5ad e6bd ffe1 d1bd e665 9c3e 62a0 1cbd
00000370: 6197 bb3c 1ee3 933e bbe8 863e 95fb 043e
00000380: 10d7 403d 61a7 7fbe 33a8 b93b 4978 5b3e
00000390: c86b 19bc bcc8 bcbe 9890 b33e 3378 b8bd
000003a0: 3648 813e edaf 143e d7b5 c4be 4c85 653e
000003b0: bf73 523e 12bf 133b 9a85 a9be cb35 933e
000003c0: 1c0a 21bd e04d 143e d3fd 633e 8190 e93d
000003d0: 69f8 2e3e a627 c83d 1090 54bd 5fbe cc3e
000003e0: 852e d1bd 11f0 26be 2d0e b63e c0b2 34be
000003f0: 0804 d4bd ff18 a0be 6c7a dc3d eca1 9ebe

default.encoder_cv.0.bias f4 [32]
-0.052429035 0.1685335 -0.20691843 0.059000116 0.2315985 0.22607595 0.08339166 0.16016807
-0.21857418 -0.037692457 0.13212477 -0.3386829 0.18281914 0.18021493 -0.15371561 -0.097000234
-0.15906084 0.19458121 -0.26348135 -0.12673959 -0.10074021 0.025464348 -0.10733682 0.1255859
-0.24146679 0.1352713 0.049746756 -0.08918296 -0.25552407 -0.10725403 0.12939413 -0.33556134
00000000: d4bf 56bd 0c94 2c3e 6de2 53be 1baa 713d
00000010: 2828 6d3e 7480 673e 3fc9 aa3d 1903 243e
00000020: e9d1 5fbe 6863 1abd b74b 073e d867 adbe
00000030: f134 3b3e 438a 383e a067 1dbe 0fa8 c6bd
00000040: d8e0 22be 4c40 473e 07e7 86be 06c8 01be
00000050: e250 cebd 9c9a d03c 68d3 dbbd 9799 003e
00000060: 1243 77be 8f84 0a3e 41c3 4b3d 8ea5 b6bd
00000070: 0dd4 82be 00a8 dbbd e57f 043e b2ce abbe

default.encoder_cv.4.weight f4 [64, 32, 3, 3]
0.008919565 -0.057711564 -0.07012365 0.011466042 -0.0011301822 -0.046170656 -0.055881873 0.008728011
0.041729286 0.039330862 0.033854548 -0.0125349155 0.025820317 0.057371527 0.039144147 0.0040611895
-0.059970018 -0.04196723 0.09025002 -0.00843857 -0.025419733 0.047498308 0.001409154 -0.056311402
-0.029208733 0.017341753 -0.01774365 -0.19304293 0.031862736 0.07566507 -0.06925963 -0.06975664
0.05568472 0.011543076 -0.20105483 -0.10264482 -0.022546679 0.007561341 -0.00645666 -0.08114644
-0.030874467 0.06260494 -0.055915657 -0.0024767797 -0.024241595 -0.04232613 0.0034898235 0.007731889
-0.08307679 0.029744927 0.02605992 -0.0056551797 -0.046979237 -0.005604821 0.010164336 -0.08052578
0.03469845 0.06139377 -0.01003916 -0.013363065 -0.0235673 0.054120895 0.03056573 0.01842803
0.04616279 0.032134596 -0.14670719 -0.058028396 0.04747784 -0.053714436 -0.17312728 -0.08184697
0.08839903 0.011526005 -0.033100046 0.12076627 -0.054254036 -0.114793025 0.052611597 0.078315414
0.020426756 0.0070287012 0.059020426 0.027844245 -0.015023806 0.044931486 0.112501696 -0.020510724
-0.025924204 -0.028362487 0.05059137 -0.030744614 0.002557442 -0.014332941 0.022163903 -0.054403916
-0.02313789 -0.01763061 -0.019231075 0.0032741555 -0.046838183 0.021268673 0.0669023 -0.048886657
-0.05614435 0.053876553 0.013690784 0.007229716 -0.03383185 -0.040676463 0.08219107 -0.08344844
-0.10839558 -0.1046491 0.02832875 -0.028997399 -0.12768143 0.021320526 0.086554416 0.07652085
-0.06372917 -0.052674506 0.1155709 -0.047576077 -0.11349085 -0.014823528 -0.034578238 0.040686373
0.038220167 -0.04938164 -0.025831759 -0.04180296 -0.10641151 -0.063855544 -0.0078071193 0.14573604
0.010367071 0.0052049616 -0.0060914326 0.07628176 0.03362216 0.014788005 0.035813853 0.04794352
0.029430438 -0.0026898459 -0.045142874 -0.007747676 0.0045656646 -0.038794644 0.01438658 0.0453539
0.123888396 -0.0423441 -0.057822265 -0.03919691 -0.054365456 -0.0261989 -0.01676786 0.059220523
-0.009582447 -0.07904991 -0.020426486 -0.029109523 -0.042413466 0.04847399 0.0010895527 -0.112086214
-0.026724279 0.070130385 0.017916672 0.0939214 0.045401208 -0.017587129 -0.0043942095 -0.02319695
-0.027022252 0.036820453 0.038228873 -0.02461303 -0.0013702387 0.09356678 -0.117589794 -0.059998773
-0.042858627 0.1368604 -0.007907928 0.06421866 0.14854594 0.07286695 0.03447152 0.0337875
0.05224677 0.0019508803 -0.04586836 0.015897566 -0.021033341 -0.0042518754 0.026968122 -0.0051175873
-0.07026373 0.045660324 0.036638968 -0.01955449 0.038013324 0.05165101 0.0044002486 -0.03970347
0.026853468 -0.07133673 -0.010302201 -0.04349993 -0.018135235 -0.08105531 0.01072791 0.002939674
0.020127706 -0.041448664 -0.051266845 0.043974992 -0.006481536 -0.12386266 -0.022417532 0.01090651
0.037309915 0.017201848 -0.04320721 -0.03258105 -0.032256927 -0.02150649 -0.07398382 -0.04980656
0.012242322 0.029898062 -0.008677245 -0.026373243 0.023233674 0.04893054 -0.0069025047 0.0041853306
0.026270984 -0.037716784 0.024532214 0.06480401 -0.013280417 -0.054508943 0.00073264696 0.0128003005
-0.038501643 0.029903384 0.01519564 -0.04619701 -0.011109893 0.009895587 0.10476709 -0.019233488
00000000: 5e23 123c f662 6cbd fd9c 8fbd 11dc 3b3c
00000010: 9f22 94ba 711d 3dbd 64e4 64bd eeff 0e3c
00000020: 54ec 2a3d 6619 213d 11ab 0a3d 3f5f 4dbc
00000030: 2185 d33c 68fe 6a3d 9d55 203d ba13 853b
00000040: 1fa3 75bd d5e5 2bbd 01d5 b83d ee41 0abc
00000050: 0b3d d0bc 968d 423d 5db3 b83a c9a6 66bd
00000060: 2747 efbc 4b10 8e3c 225b 91bc 0cad 45be
00000070: 8082 023d 4af6 9a3d fed7 8dbd 92dc 8ebd
00000080: a915 643d 2b1f 3d3c 51e1 4dbe 7337 d2bd
00000090: d0b3 b8bc 20c5 f73b 6492 d3bb 1b30 a6bd
000000a0: 73ec fcbc 0537 803d d107 65bd 7851 22bb
000000b0: 4f96 c6bc 2a5e 2dbd 86b5 643b c95b fd3b
000000c0: 2a24 aabd a2ab f33c 9d7b d53c 164f b9bb
000000d0: 4d6d 40bd a5a8 b7bb 5188 263c b3ea a4bd
000000e0: f61f 0e3d 0978 7b3d 4a7b 24bc c2f0 5abc
000000f0: 3610 c1bc dfad 5d3d fb64 fa3c 61f6 963c
00000100: 3215 3d3d 919f 033d 693a 16be 2faf 6dbd
00000110: 2078 423d ab03 5cbd 4748 31be 629f a7bd
00000120: 8d0a b53d 92d7 3c3c ea93 07bd 4e54 f73d
00000130: 7b39 5ebd 9b18 ebbd 427f 573d d563 a03d
00000140: 0356 a73c 0551 e63b 67bf 713d 9d19 e43c
00000150: 6926 76bc 140a 383d 4a67 e63d 1b06 a8bc
00000160: ff5e d4bc 7258 e8bc e538 4f3d 21dc fbbc
00000170: c29a 273b b6d4 6abc 1391 b53c a4d6 5ebd
00000180: ac8b bdbc 126e 90bc 7d8a 9dbc 3793 563b
00000190: 65d9 3fbd a43b ae3c 1304 893d 603d 48bd
000001a0: 9ef7 65bd a9ad 5c3d 4f4f 603c 41e7 ec3b
000001b0: 4493 0abd 5d9c 26bd cb53 a83d 04e7 aabd
000001c0: 80fe ddbd 4452 d6bd b211 e83c f48b edbc
000001d0: ecbe 02be 62a8 ae3c 7143 b13d f7b6 9c3d
000001e0: 7084 82bd 39c1 57bd 70b0 ec3d 22df 42bd
000001f0: e46d e8bd 62de 72bc e9a1 0dbd c1a6 263d
00000200: c08c 1c3d 6744 4abd 209d d3bc 9539 2bbd
00000210: 47ee d9bd b2c6 82bd ddd2 ffbb d43b 153e
00000220: a6da 293c 628e aa3b a49a c7bb 9d39 9c3d
00000230: 64b7 093d 6349 723c 8cb1 123d 6d60 443d
00000240: 1a18 f13c 2048 30bb bce7 38bd 38e0 fdbb
00000250: 929b 953b 22e7 1ebd b1b5 6b3c 03c5 393d
00000260: 33b9 fd3d 0271 2dbd 0ad7 6cbd f08c 20bd
00000270: 50ae 5ebd 139f d6bc c05c 89bc 3891 723d
00000280: b2ff 1cbc ebe4 a1bd 7255 a7bc 1877 eebc
00000290: beb9 2dbd aa8c 463d 52cf 8e3a 758d e5bd
000002a0: e0ec dabc 85a0 8f3d fcc5 923c dd59 c03d
000002b0: 9ef6 393d e212 90bc 4dfd 8fbb 8807 bebc
000002c0: c55d ddbc 0bd1 163d e195 1c3d 44a1 c9bc
000002d0: 9599 b3ba f19f bf3d ebd2 f0bd 46c1 75bd
000002e0: 878c 2fbd 2225 0c3e 4190 01bc 1385 833d
000002f0: 6d1c 183e 443b 953d 0232 0d3d c364 0a3d
00000300: b600 563d aeb4 ff3a 76e0 3bbd 9d3b 823c
00000310: 1d4e acbc 5153 8bbb 40ec dc3c 6fb1 a7bb
00000320: 6ee6 8fbd 5206 3b3d be12 163d bd30 a0bc
00000330: dcb3 1b3d 0290 533d f62f 903b 1ba0 22bd
00000340: cefb db3c fe18 92bd 90ca 28bc fc2c 32bd
00000350: 5890 94bc 5400 a6bd 1ec4 2f3c 8ca7 403b
00000360: dce2 a43c 13c6 29bd 2ffd 51bd 1f1f 343d
00000370: 1163 d4bb b5ab fdbd f9a4 b7bc 38b1 323c
00000380: 48d2 183d e4ea 8c3c 0bfa 30bd b573 05bd
00000390: d71f 04bd 612e b0bc d484 97bd f701 4cbd
000003a0: 0594 483c c8ec f43c 012b 0ebc b30c d8bc
000003b0: 8c54 be3c 646b 483d 682e e2bb 1925 893b
000003c0: 3f36 d73c ea7c 1abd c8f7 c83c f7b7 843d
000003d0: 1b96 59bc c544 5fbd 1b0f 403a 5ab8 513c
000003e0: e6b3 1dbd f1f7 f43c 22f7 783c 1339 3dbd
000003f0: 4506 36bc 1a21 223c 2190 d63d 8c8f 9dbc

default.encoder_cv.4.bias f4 [64]
-0.0071423263 -0.006775242 0.012566677 -0.04615765 0.0064968853 -0.06563546 -0.021765854 -0.05364339
0.009095457 -0.072075404 0.006724743 -0.11598478 0.027570887 -0.045562703 -0.028273273 -0.014398141
0.017858734 -0.07118836 -0.01572115 0.008368149 -0.05672273 0.03715523 -0.058320582 -0.05369078
-0.079838105 -0.012283905 -0.009748008 -0.07483044 -0.01514233 0.0060282005 -0.048083358 -0.036647294
-0.017147575 0.06357168 -0.09417658 -0.07948838 0.03267499 0.039516006 -0.018363927 -0.10838908
-0.0046617948 0.06286564 0.049627207 -0.00017922817 -0.044029266 -0.03291271 -0.0067710862 -0.09433027
0.008578151 -0.0031359983 -0.018147998 -0.05128526 0.015665857 -0.04301103 -0.04247602 -0.03141371
-0.09150183 -0.06742587 0.02262612 -0.062439702 -0.04611227 -0.000948003 -0.1003927 -0.11561012
00000000: 2d0a eabb d902 debb 77e4 4d3c ce0f 3dbd
00000010: d3e3 d43b e26b 86bd 4e4e b2bc 2cb9 5bbd
00000020: 1d05 153c 459c 93bd 3c5b dc3b 6e89 edbd
00000030: 57dc e13c f59f 3abd 5a9d e7bc 2ee6 6bbc
00000040: 7b4c 923c 34cb 91bd a4c9 80bc 901a 093c
00000050: 1856 68bd 1530 183d 90e1 6ebd ddea 5bbd
00000060: 2982 a3bd 6f42 49bc 1cb6 1fbc b440 99bd
00000070: 8917 78bc 3688 c53b 0ef3 44bd 791b 16bd
00000080: 1279 8cbc de31 823d a7df c0bd ceca a2bd
00000090: 36d6 053d 89db 213d f26f 96bc 18fb ddbd
000000a0: f8c1 98bb b3bf 803d e645 4b3d 32ef 3bb9
000000b0: 0858 34bd 7acf 06bd fddf ddbb 3b30 c1bd
000000c0: 608b 0c3c 5285 4dbb 1cab 94bc 7e10 52bd
000000d0: af55 803c 552c 30bd 56fb 2dbd aaab 00bd
000000e0: 5065 bbbd 9316 8abd 6a5a b93c c6c0 7fbd
000000f0: 38e0 3cbd 6883 78ba b09a cdbd 00c5 ecbd

default.encoder_cv.8.weight f4 [128, 64, 3, 3]
-0.07359311 0.032955084 0.0137512535 0.074356176 -0.018872436 -0.030783292 0.027075121 -0.06554945
0.034858905 0.07180181 -0.018971695 -0.025235156 0.02135134 0.02587287 0.083982155 0.02823055
0.028355857 0.07492552 0.046457157 -0.03583792 -0.06563366 -0.026021883 -0.03381464 0.051741425
0.024231551 -0.053340286 -0.018764643 0.0072051105 -0.0061207847 0.032734998 -0.01346277 0.0058733355
0.06164989 0.016178263 -0.041540276 0.04381093 -0.014640061 0.010063526 0.0026296875 -0.027753798
-0.024518384 -0.07468218 -0.0076302527 0.0705511 0.08237947 0.026617937 0.020490933 0.01759669
-0.0107586635 -0.05403303 -0.00445355 0.035029147 0.020597931 -0.059922002 0.13565454 0.015002047
-0.014810612 0.030582331 -0.035033114 0.058284223 -0.016651543 0.09564371 0.09895135 -0.0014197336
-0.062092934 -0.06053372 0.028809248 0.02805456 0.016089326 0.015273899 -0.017586352 -0.01488939
-0.046419054 0.036081173 0.004154467 -0.06647936 -0.027758606 0.037451163 -0.07113288 -0.03981899
0.022572385 -0.051346995 -0.04802681 -0.05776607 0.0014662709 0.029636543 0.036704168 0.04548526
-0.011610569 -0.025487 -0.04958916 0.039134428 -0.03271704 -0.05191869 -0.005881766 -0.06884563
0.0038159003 -0.053001847 -0.025601527 0.022623057 0.06890969 -0.058712997 0.021004243 0.050340746
0.07416072 0.008643389 -0.0036873748 0.055072274 -0.031089647 0.02377186 -0.045851137 -0.033586603
-0.027426 0.0791036 0.02073863 -0.069401614 -0.024807332 0.002296736 -0.00732146 0.018566763
-0.029788783 0.04974856 0.012645242 0.018873366 -0.026922189 0.00935671 0.04677762 0.042264316
-0.08848557 -0.050807305 -0.03455674 0.016706556 0.014933677 0.011349936 -0.012150798 -0.035353683
-0.015789974 -0.10680669 -0.057620097 0.015708618 -0.15027657 0.040977348 -0.015853114 0.07009307
0.012184981 -0.016168045 -0.04555993 -0.07662138 0.017977834 0.0041215294 0.058751885 0.011255041
-0.041203767 0.061772965 0.054138724 -0.026393624 -0.044127457 -0.029532637 0.06588494 -0.014089259
0.023018736 0.0049020764 -0.029509574 -0.004942117 -0.03334243 0.0054374607 -0.006871421 -0.0029671083
0.01922592 -0.025877517 -0.07728039 0.008290016 -0.050274443 -0.07200278 -0.017717678 0.019513344
0.030586263 0.051840745 -0.050605565 -0.012937267 0.059684254 -0.0014061319 -0.012255877 0.014804685
0.00076812087 0.038660992 0.00623283 0.03935671 -0.021231811 -0.023204887 -0.030087046 -0.09925489
-0.0773429 0.038045242 0.040093906 -0.004809068 0.012324983 -0.032799892 -0.0021071797 -0.045212854
-0.041535605 0.012334259 0.031855024 0.06587342 0.042625226 -0.010984677 -0.106734954 -0.009253425
-0.006166939 0.022007624 0.031727754 -0.09875101 0.0230257 0.059473023 -0.06462172 -0.008035821
0.022674255 -0.02201683 0.10744378 0.029940948 0.025606172 0.03738142 0.051393338 -0.07706081
-0.0036680226 -0.019521788 -0.016551824 0.017823864 0.08228368 0.043516923 -0.018902982 0.019042086
0.028829427 0.03692518 -0.0011964513 0.014032148 -0.010022467 -0.029177591 -0.032433838 -0.13678338
-0.037981 0.0016768941 0.030694326 0.009747241 -0.1136278 -0.10756435 -0.0067319423 -0.022437824
0.043343954 0.0574773 0.007963907 -0.015578445 -0.00089185516 0.021704175 -0.11037464 0.029735006
00000000: fcb7 96bd e9fb 063d f04c 613c 0d48 983d
00000010: 5e9a 9abc 3e2d fcbc a5cc dd3c ca3e 86bd
00000020: 36c8 0e3d d40c 933d 876a 9bbc f5b9 cebc
00000030: 01e9 ae3c 57f3 d33c d6fe ab3d c143 e73c
00000040: 8b4a e83c 8d72 993d dc49 3e3d c8ca 12bd
00000050: f16a 86bd d82b d5bc 3881 0abd d1ee 533d
00000060: 3f81 c63c 587b 5abd 4fb8 99bc d918 ec3b
00000070: dd90 c8bb 2215 063d f392 5cbc 1c75 c03b
00000080: 9884 7c3d 4788 843c 2326 2abd 1773 333d
00000090: dedc 6fbc 7de1 243c d656 2c3b ef5b e3bc
000000a0: c7da c8bc f9f2 98bd 3307 fabb 187d 903d
000000b0: 91b6 a83d dc0d da3c 9adc a73c ef26 903c
000000c0: 1b45 30bc bd51 5dbd 16ef 91bb b97a 0f3d
000000d0: febc a83c c670 75bd 06e9 0a3e 25cb 753c
000000e0: 36a8 72bc cc87 fa3c e27e 0fbd 70bb 6e3d
000000f0: d168 88bc d9e0 c33d 01a7 ca3d 5b16 baba
00000100: 2955 7ebd 35f2 77bd 5f01 ec3c add2 e53c
00000110: c3cd 833c 603f 7a3c 4111 90bc a1f2 73bc
00000120: e821 3ebd dac9 133d 3222 883b 5526 88bd
00000130: 0466 e3bc 6466 193d 1eae 91bd 3d19 23bd
00000140: b9e9 b83c 3a51 52bd c3b7 44bd 1d9c 6cbd
00000150: e32f c03a 56c8 f23c 1c57 163d c14e 3a3d
00000160: 423a 3ebc 1dca d0bc 011e 4bbd 6c4b 203d
00000170: 4e02 06bd b1a8 54bd d4bb c0bb f0fe 8cbd
00000180: 2f14 7a3b 7718 59bd 4bba d1bc fd53 b93c
00000190: 8620 8d3d 0a7d 70bd 1711 ac3c 1932 4e3d
000001a0: 93e1 973d 009d 0d3c e2a7 71bb 7793 613d
000001b0: b7af febc 34bd c23c 67ce 3bbd 1b92 09bd
000001c0: 7eac e0bc 1101 a23d 0fe4 a93c 6f22 8ebd
000001d0: bf38 cbbc d684 163b dce8 efbb 5319 983c
000001e0: 9b07 f4bc 25c5 4b3d fd2d 4f3c 519c 9a3c
000001f0: ec8b dcbc e34c 193c e499 3f3d 591d 2d3d
00000200: ec37 b5bd 521b 50bd 5e8b 0dbd 30dc 883c
00000210: 62ac 743c 15f5 393c 2414 47bc 06cf 10bd
00000220: fa59 81bc 77bd dabd 0d03 6cbd 5caf 803c
00000230: 1ae2 19be ddd7 273d 64de 81bc f58c 8f3d
00000240: 84a3 473c d972 84bc 0d9d 3abd aceb 9cbd
00000250: 4046 933c e50d 873b d1a5 703d 1067 383c
00000260: 48c5 28bd a605 7d3d 91c0 5d3d 7137 d8bc
00000270: febe 34bd 6eee f1bc afee 863d a3d6 66bc
00000280: ca91 bc3c 99a1 a03b 10be f1bc 7bf1 a1bb
00000290: 1292 08bd ba2c b23b a829 e1bb d173 42bb
000002a0: ad7f 9d3c 16fd d3bc 2e45 9ebd d9d2 073c
000002b0: 93ec 4dbd 3276 93bd aa24 91bc 73da 9f3c
000002c0: 0b90 fa3c f656 543d c847 4fbd d5f6 53bc
000002d0: 7a77 743d f54d b8ba e0cc 48bc 598f 723c
000002e0: b85b 493a fd5a 1e3d c53c cc3b 8034 213d
000002f0: 56ee adbc 2d18 bebc 1c79 f6bc 2646 cbbd
00000300: f465 9ebd 54d5 1b3d 8239 243d 6395 9dbb
00000310: baee 493c 2e59 06bd 9c18 0abb 1d31 39bd
00000320: 3d21 2abd a215 4a3c 6a7a 023d a5e8 863d
00000330: ca97 2e3d 13f9 33bc db97 dabd ad9b 17bc
00000340: 0914 cabb 5549 b43c f6f4 013d f83d cabd
00000350: 65a0 bc3c fc99 733d 6458 84bd ada8 03bc
00000360: 5cbf b93c a45c b4bc 7c0b dc3d b846 f53c
00000370: 09c4 d13c 431d 193d d281 523d 0fd2 9dbd
00000380: 3563 70bb 28ec 9fbc b197 87bc 5a03 923c
00000390: 5984 a83d cd3e 323d 6dda 9abc 26fe 9b3c
000003a0: b12b ec3c dc3e 173d 3ed2 9cba 18e7 653c
000003b0: 4635 24bc d805 efbc 58d9 04bd f110 0cbe
000003c0: f791 1bbd 3bcb db3a ab72 fb3c e4b2 1f3c
000003d0: b1b5 e8bd b34a dcbd a097 dcbb 87cf b7bc
000003e0: 6e89 313d 516d 6b3d 0c7b 023c bc3c 7fbc
000003f0: 63cb 69ba f4cc b13c 190c e2bd d496 f33c

default.encoder_cv.8.bias f4 [128]
-0.07026049 -0.009508429 -0.009719669 0.011482002 -0.046672907 -0.02332865 -0.034091823 -0.10619769
-0.10947539 -0.02882141 -0.06427345 0.009934881 -0.02398753 -0.050431155 0.033037845 -0.08954957
-0.076028146 -0.043802686 -0.026597966 -0.03790191 -0.05441335 -0.03299309 -0.07263018 -0.019605236
-0.026600376 -0.07629438 -0.039002355 -0.076536566 -0.022878023 -0.026699739 0.021629294 -0.04015874
-0.071278125 -0.04245918 -0.05539876 -0.08298309 -0.033583824 -0.053940836 -0.024267405 -0.026377682
-0.042023946 -0.041297406 -0.014096198 -0.10504586 0.039773326 -0.07281391 -0.037055638 -0.016698653
-0.09879012 -0.10518887 -0.047578104 -0.035384007 -0.028508622 -0.018164052 -0.054021716 0.010384608
-0.088532545 -0.0616519 0.0051860064 -0.022366673 -0.010994715 -0.017591082 -0.048641182 -0.057141297
-0.017936906 -0.018250922 -0.027372012 -0.025871852 -0.09736027 -0.042668577 -0.084868126 -0.031734668
-0.004727751 0.019070476 -0.024608815 0.012499198 -0.060301844 -0.022575287 -0.04904592 0.013041136
-0.0047885445 -0.055967167 -0.048645042 -0.02363152 -0.05156239 -0.022346098 -0.06201445 -0.05155872
-0.032537222 -0.030942425 -0.04636541 -0.03657251 -0.07371654 -0.063377924 -0.0841527 -0.08800153
0.0022588489 -0.060822487 0.011303798 -0.05351108 -0.0029454422 -0.0970297 0.03329219 -0.03828956
-0.075236835 -0.01721425 -0.049922865 0.03223102 -0.06786656 -0.008807328 -0.05512829 -0.016680531
-0.037358083 -0.06293903 -0.036630344 -0.03665987 -0.059173442 -0.067624696 0.0068333982 -0.017785342
-0.03884252 -0.008731031 -0.04411935 -0.03004561 -0.045830157 -0.013712529 -0.05289883 -0.046566926
00000000: bbe4 8fbd 3ec9 1bbc 3f3f 1fbc 021f 3c3c
00000010: 172c 3fbd ba1b bfbc dea3 0bbd 2d7e d9bd
00000020: a234 e0bd e11a ecbc cca1 83bd e9c5 223c
00000030: 7f81 c4bc e690 4ebd b152 073d c465 b7bd
00000040: a5b4 9bbd 726a 33bd fae3 d9bc 083f 1bbd
00000050: 88e0 5ebd c323 07bd 22bf 94bd 299b a0bc
00000060: 08e9 d9bc 3a40 9cbd efc0 1fbd 34bf 9cbd
00000070: b16a bbbc 69b9 dabc eb2f b13c 7e7d 24bd
00000080: 44fa 91bd ade9 2dbd cfe9 62bd 0af3 a9bd
00000090: 318f 09bd 11f1 5cbd 70cc c6bc 0216 d8bc
000000a0: 4d21 2cbd 7827 29bd bdf3 66bc 4922 d7bd
000000b0: 5be9 223d 761f 95bd a7c7 17bd 9dcb 88bc
000000c0: 7952 cabd 436d d7bd 42e1 42bd d2ee 10bd
000000d0: ea8a e9bc c7cc 94bc e045 5dbd 3424 2a3c
000000e0: 8d50 b5bd b486 7cbd 60ef a93b 503a b7bc
000000f0: 2d23 34bc 2c1b 90bc fa3b 47bd fe0c 6abd
00000100: 6bf0 92bc f582 95bc 453b e0bc 35f1 d3bc
00000110: d264 c7bd 3fc5 2ebd 57cf adbd 36fc 01bd
00000120: 40eb 9abb b039 9c3c 6d98 c9bc 70c9 4c3c
00000130: 11ff 76bd cfef b8bc 60e4 48bd 7daa 553c
00000140: 39e9 9cbb d43d 65bd 0640 47bd e496 c1bc
00000150: 1633 53bd 2a0f b7bc dd02 7ebd 3d2f 53bd
00000160: c045 05bd f87a fdbc a8e9 3dbd 0ecd 15bd
00000170: b3f8 96bd 49cc 81bd 4058 acbd 253a b4bd
00000180: 3209 143b 0021 79bd 9133 393c 6f2e 5bbd
00000190: 5208 41bb 82b7 c6bd 645d 083d 83d5 1cbd
000001a0: c515 9abd e604 8dbc eb7b 4cbd ad04 043d
000001b0: 9ffd 8abd 9c4c 10bc 34ce 61bd 9ca5 88bc
000001c0: ca04 19bd 2ee6 80bd b309 16bd a928 16bd
000001d0: da5f 72bd d17e 8abd b3ea df3b 91b2 91bc
000001e0: 5619 1fbd 990c 0fbc 7eb6 34bd 3622 f6bc
000001f0: 67b8 3bbd 84aa 60bc 72ac 58bd f6bc 3ebd

default.encoder_fc.0.weight f4 [128, 128]
-0.01797653 -0.0051210746 0.06119152 0.08191524 -0.032286625 0.074422635 -0.011049189 -0.05996311
0.037403412 0.043545015 -0.05090942 0.010694727 -0.058573052 -0.010109223 0.018872723 -0.061720937
0.04683309 -0.0042933 0.057185598 0.009389602 0.07082888 0.031027801 0.076447286 0.004682526
-0.002429232 -0.051926244 -0.0007332638 -0.04250105 0.056926586 -0.08647916 -0.03369358 -0.07048814
-0.020855777 0.07008087 0.042188965 -0.020569287 -0.086936094 -0.016745374 0.033144943 -0.047789436
0.008199297 0.061024375 -0.04687763 -0.0016358346 0.01589936 -0.061217166 0.04384961 0.061927326
0.017071657 0.03206352 0.07500575 0.06332696 -0.026608411 -0.084440745 0.008480422 0.06597189
0.028239504 -0.016246334 0.0779025 -0.06773691 -0.06284035 0.050865196 -0.057652727 0.059682854
-0.08308457 -0.05585791 -0.0076748654 0.012093373 -0.020047382 -0.0012947917 0.020063356 -0.08790941
0.02923201 0.06458869 0.06080734 -0.05070052 -0.081894316 -0.0686049 0.05380345 -0.076249085
0.044381358 -0.08582195 -0.0017113611 -0.079156235 -0.020374209 0.022935167 -0.004683681 -0.054819036
-0.07457424 0.051665448 -0.034907527 0.047236793 -0.08311304 -0.053532366 0.083026566 -0.08685205
0.055169515 -0.03661659 -0.026242957 -0.004396625 -0.06380612 -0.0639977 0.08061414 -0.06329502
0.056632616 -0.07394286 0.008454375 -0.052402977 -0.005618848 -0.057383344 0.0364236 0.007714212
-0.026340526 -0.037129276 0.012199618 0.019164413 0.07114876 0.016120508 0.050714888 0.07507341
-0.0026731342 -0.015209027 -0.017360188 0.038710766 0.0014655069 0.07939089 0.005689442 0.022257581
0.043107025 -0.04434175 -0.011209227 0.04631465 0.045475252 0.035374798 0.024968065 0.008611716
-0.032378968 -0.050639976 0.050554074 -0.072202995 -0.040195532 -0.015627176 0.0479388 -0.020634748
0.0011881441 -0.07026063 0.0143845305 -0.08509752 0.082877405 0.056817077 0.077048816 0.08343797
0.07880285 -0.07701294 -0.042059593 -0.055088576 0.03885811 -0.0059392154 0.05560953 -0.08502139
-0.0041634366 -0.013380446 -0.06733014 0.08592487 0.037925266 -0.057237864 -0.03664051 0.027726829
0.046347953 -0.02959856 -0.044056807 -0.065908775 0.025040463 -0.08202517 0.029333733 0.068732254
-0.07598731 0.06795999 -0.046076715 -0.057058424 -0.0040327087 0.07939129 0.075358324 -0.011390589
0.04713314 0.03575056 0.052432843 -0.06108448 -0.072254114 -0.031990185 -0.08442083 -0.050395902
0.0122841075 -0.011972107 0.014498599 0.013679802 -0.0190522 -0.060774796 -0.041314207 -0.016063668
-0.022162616 -0.08382975 0.05402904 -0.03835791 0.047603257 -0.06949873 -0.04836822 0.08832946
0.07624582 0.071143426 0.059690394 0.071183644 0.02078043 -0.052328598 0.0642971 0.0681637
0.022774987 -0.018745631 -0.042434804 0.012337439 -0.061949335 0.0187421 0.028748617 -0.014024891
-0.023970313 -0.013625041 -0.07344383 0.07119856 0.02594208 -0.011945337 0.041394643 0.086944886
0.068661116 -0.054586828 -0.05991789 -0.07932127 -0.0325321 0.048605524 -0.024021283 -0.04392495
0.037325613 0.0032906234 -0.067957684 0.06354738 0.0044792816 0.0045231804 0.07750299 -0.050865714
0.028664969 -0.0049809366 0.055370964 -0.023764446 -0.05313064 -0.065174915 -0.0857204 -0.014121957
00000000: 8443 93bc b0ce a7bb f6a3 7a3d 2dc3 a73d
00000010: fb3e 04bd e56a 983d a807 35bc e19b 75bd
00000020: 5234 193d 425c 323d 6586 50bd f038 2f3c
00000030: 4cea 6fbd 28a1 25bc f89a 9a3c 18cf 7cbd
00000040: 0ed4 3f3d d0ae 8cbb 723b 6a3d d8d6 193c
00000050: bb0e 913d 042e fe3c 6590 9c3d e06f 993b
00000060: c033 1fbb 9db0 54bd 8038 40ba 9515 2ebd
00000070: da2b 693d fc1b b1bd 4802 0abd 165c 90bd
00000080: bcd9 aabc 8f86 8f3d 56ce 2c3d ec80 a8bc
00000090: 8d0b b2bd 982d 89bc fec2 073d dbbe 43bd
000000a0: 5856 063c b2f4 793d c202 40bd 8069 d6ba
000000b0: 603f 823c dabe 7abd a69b 333d 82a7 7d3d
000000c0: dcd9 8b3c 0a55 033d 9d9c 993d 91b1 813d
000000d0: e2f9 d9bc 45ef acbd 78f1 0a3c 451c 873d
000000e0: 8856 e73c 0817 85bc 598b 9f3d a6b9 8abd
000000f0: 71b2 80bd 0658 503d 4425 6cbd 0276 743d
00000100: 3e28 aabd 44cb 64bd 707d fbbb 4823 463c
00000110: 683a a4bc 00b6 a9ba e85b a43c d909 b4bd
00000120: f877 ef3c 1347 843d 1e11 793d 59ab 4fbd
00000130: 35b8 a7bd ba80 8cbd 0261 5c3d 7b28 9cbd
00000140: 3ac9 353d 6bc3 afbd c04f e0ba aa1c a2bd
00000150: d0e7 a6bc 88e2 bb3c 9079 99bb ed89 60bd
00000160: 61ba 98bd 269f 533d 32fb 0ebd 5e7b 413d
00000170: 2b37 aabd c144 5bbd d509 aa3d 7ddf b1bd
00000180: 6ef9 613d 47fb 15bd 78fb d6bc 9011 90bb
00000190: c8ac 82bd 3a11 83bd 0719 a53d d2a0 81bd
000001a0: 9af7 673d 5b6f 97bd 3884 0a3c 81a4 56bd
000001b0: 501e b8bb cc0a 6bbd ea30 153d 80c7 fc3b
000001c0: 16c8 d7bc de14 18bd e8e0 473c b0fe 9c3c
000001d0: 71b6 913d 280f 843c 6aba 4f3d 17c0 993d
000001e0: c02f 2fbb 482f 79bc f436 8ebc 2e8f 1e3d
000001f0: 4016 c03a b197 a23d 806e ba3b 8855 b63c
00000200: fe90 303d b29f 35bd e8a6 37bc 6eb4 3d3d
00000210: 4244 3a3d 2ae5 103d d489 cc3c 2818 0d3c
00000220: cf9f 04bd dd6b 4fbd ca11 4f3d 2adf 93bd
00000230: 12a4 24bd 9004 80bc 7a5b 443d 340a a9bc
00000240: 80bb 9b3a cee4 8fbd 18ad 6b3c 9c47 aebd
00000250: a1bb a93d 06b9 683d c5cb 9d3d 87e1 aa3d
00000260: 6363 a13d f6b8 9dbd ae46 2cbd 8fa4 61bd
00000270: ae29 1f3d c09d c2bb d2c6 633d b21f aebd
00000280: 706d 88bb a839 5bbc 62e4 89bd 61f9 af3d
00000290: 8657 1b3d 4072 6abd 5c14 16bd 6023 e33c
000002a0: 5ad7 3d3d ae78 f2bc e974 34bd 2efb 86bd
000002b0: a821 cd3c d0fc a7bd 4c4d f03c 7fc3 8c3d
000002c0: 3c9f 9bbd 9b2e 8b3d f0ba 3cbd 18b6 69bd
000002d0: d024 84bb e797 a23d 7755 9a3d 989f 3abc
000002e0: ae0e 413d 2e6f 123d d2c3 563d b833 7abd
000002f0: f7f9 93bd 2408 03bd d4e4 acbd ef6b 4ebd
00000300: 4843 493c a826 44bc 888b 6d3c 4021 603c
00000310: 5c13 9cbc feee 78bd 1639 29bd f497 83bc
00000320: 608e b5bc efae abbd 8e4d 5d3d 2f1d 1dbd
00000330: a2fb 423d 5a55 8ebd c11d 46bd 13e6 b43d
00000340: c526 9c3d a5b3 913d ea7d 743d bbc8 913d
00000350: b83b aa3c 8356 56bd 33ae 833d 6999 8b3d
00000360: 9c92 ba3c 7090 99bc 1ed0 2dbd f822 4a3c
00000370: 96be 7dbd 0889 993c 3882 eb3c a8c8 65bc
00000380: 645d c4bc 903b 5fbc b869 96bd 8dd0 913d
00000390: 7c84 d43c 60b6 43bc 6e8d 293d 2910 b23d
000003a0: 339e 8c3d 7096 5fbd 766c 75bd 3173 a2bd
000003b0: 6140 05bd 9616 473d 48c8 c4bc a6ea 33bd
000003c0: bee2 183d 80a7 573b 662d 8bbd 2125 823d
000003d0: f0c6 923b 3037 943b e3b9 9e3d 9158 50bd
000003e0: ccd2 ea3c 2037 a3bb aacc 623d a8ad c2bc
000003f0: 849f 59bd 6d7a 85bd 2d8e afbd c85f 67bc

default.encoder_fc.0.bias f4 [128]
-0.054922823 0.016091317 0.03009975 -0.0040530413 -0.007578969 0.05987043 0.062094025 -0.023300558
0.06619703 0.052992187 0.046107687 0.05070751 -0.00962282 0.0038543716 0.036891274 -0.083018795
0.06735704 -0.076117605 -0.060986362 -0.0097262785 0.06379051 -0.025756381 -0.035940576 -0.0150232315
0.02155868 -0.027907092 -0.035121642 -0.08382174 0.044562645 -0.009619638 -0.07942206 -0.0055813417
0.014399469 0.072532214 -0.019849665 -0.044672213 0.013499171 -0.037458085 -0.06081593 0.06968149
-0.07620933 0.023533188 -0.0413899 0.0761333 -0.03426657 0.05459962 -0.054629374 0.04445695
-0.020443372 -0.051043984 0.015567824 -0.0020505711 0.036483943 -0.038938787 0.06259041 -0.0011096075
-0.030574083 0.0724509 -0.084309995 -0.053349175 -0.052928403 -0.04201007 -0.055901017 0.06739379
0.029804848 0.070839725 -0.024444811 -0.03386023 0.06793814 0.00329189 0.06690518 0.05560278
-0.07641804 -0.051501866 0.0012248307 -0.022856608 0.07812262 -0.051840086 -0.016685508 0.08496999
0.0060852394 0.0831259 0.06938217 0.049165122 -0.01415468 0.013095371 -0.009547591 -0.058906257
0.07162248 -0.0025210455 0.07271812 0.0010297 -0.042299442 -0.033095043 -0.034884702 -0.07659941
0.03393054 0.018460795 0.0017064661 -0.082047656 -0.0013342425 0.013893843 0.034404933 -0.044633448
-0.08673681 0.08663542 -0.0044454187 0.086064406 0.036324292 -0.026365813 -0.084450595 0.006504953
-0.038752224 0.02893731 0.06872346 -0.02677153 0.0054191276 0.057432704 -0.044635534 0.029827125
-0.0069527626 0.020259075 -0.07789756 0.049280904 0.06323659 -0.017982587 -0.048188966 0.081882946
00000000: c1f6 60bd f0d1 833c c093 f63c 60cf 84bb
00000010: 0059 f8bb b23a 753d 4e56 7e3d d0e0 bebc
00000020: 4f92 873d 560e 593d 6adb 3c3d aeb2 4f3d
00000030: 08a9 1dbc a099 7c3b 4e1b 173d c205 aabd
00000040: 7df2 893d 8ce3 9bbd d6cc 79bd f85a 1fbc
00000050: 99a4 823d 0cff d2bc 6d36 13bd 0024 76bc
00000060: d49b b03c 6a9d e4bc b6db 0fbd bbaa abbd
00000070: 5287 363d b09b 1dbc 08a8 a2bd b0e3 b6bb
00000080: c0eb 6b3c c58b 943d c49b a2bc 36fa 36bd
00000090: a02b 5d3c a66d 19bd 201a 79bd 2bb5 8e3d
000000a0: a313 9cbd acc8 c03c 7588 29bd c7eb 9b3d
000000b0: 1a5b 0cbd daa3 5f3d 0dc3 5fbd 7e18 363d
000000c0: dc78 a7bc 7f13 51bd 3010 7f3c e062 06bb
000000d0: 3070 153d 477e 1fbd 672f 803d 4070 91ba
000000e0: 8076 fabc 2361 943d b8aa acbd aa84 5abd
000000f0: 74cb 58bd c012 2cbd 77f8 64bd c105 8a3d
00000100: 4c29 f43c 6b14 913d 7c40 c8bc 06b1 0abd
00000110: 2723 8b3d c0bc 573b 9505 893d bebf 633d
00000120: 1081 9cbd 9ff3 52bd 808a a03a c83d bbbc
00000130: c1fe 9f3d 4556 54bd 0cb0 88bc bf04 ae3d
00000140: b066 c73b e93d aa3d 3d18 8e3d 5e61 493d
00000150: 08e9 67bc f88d 563c 806d 1cbc b047 71bd
00000160: cfae 923d 2038 25bb 3ded 943d 00f7 863a
00000170: 2e42 2dbd ab8e 07bd 43e3 0ebd 27e0 9cbd
00000180: c0fa 0a3d 183b 973c 80ab df3a 9a08 a8bd
00000190: c0e1 aeba 00a3 633c 30ec 0c3d 90d1 36bd
000001a0: 12a3 b1bd e96d b13d e0aa 91bb 8942 b03d
000001b0: c8c8 143d 1efd d7bc 6ff4 acbd 8027 d53b
000001c0: a7ba 1ebd f00d ed3c e3be 8c3d f84f dbbc
000001d0: f092 b13b 8e3e 6b3d c0d3 36bd 0458 f43c
000001e0: 00d4 e3bb 5cf6 a53c c288 9fbd c6da 493d
000001f0: 2f82 813d 3850 93bc cb61 45bd 3fb2 a73d

default.encoder_fc.3.weight f4 [128, 128]
-0.0027884543 0.086082496 -0.053594176 -0.06689469 0.034568757 -0.049315386 -0.04892363 -0.07853608
0.05601815 -0.027753025 0.04246124 -0.010019928 -0.029072002 0.028119504 -0.004579738 0.038843624
-0.0110488385 -0.06298411 -0.053294163 0.011198945 0.025660403 -0.011505634 0.030219883 -0.079383396
0.045380466 0.0322709 -0.07023507 -0.05363316 -0.0125258565 0.079755224 -0.053228647 -0.08061367
-0.06573767 0.04058533 0.054204248 -0.07450235 -0.08267665 0.07018184 0.07885996 -0.08131623
-0.031448092 0.06045104 -0.039632313 0.059939317 0.04862524 -0.03272997 0.04868325 0.06200943
0.054663636 0.08248576 -0.044696763 -0.06127645 0.06915162 0.039578296 -0.0017184764 -0.08177655
-0.059976786 -0.06017311 0.08040302 0.048823662 0.05805003 0.042780407 0.046218596 -0.030328512
0.011733018 -0.018602178 -0.083831966 0.083615325 0.07841722 -0.054643482 -0.08709753 -0.083272986
-0.082405835 -0.052576445 0.026196249 0.021752052 -0.035340067 0.014521852 0.010932848 -0.018249482
0.062878795 -0.056227665 0.050552882 0.04716336 -0.009888917 -0.033827987 0.0025350824 -0.040127855
-0.029485967 0.06869077 0.046020992 0.021655872 -0.08368755 -0.06551318 -0.038603857 0.023428127
0.028641649 -0.055516567 0.017257072 -0.014883138 0.007568285 -0.046332724 -0.03811372 -0.025593601
0.06516751 -0.024312355 0.026820779 -0.047044903 -0.051323216 -0.062480837 0.06601217 -0.02671403
-0.00925269 0.013571762 0.0038295537 -0.034187805 0.04162159 -0.012790486 0.056808837 0.032036737
-0.07534613 -0.0052233934 -0.06499555 0.013539672 0.025470436 -0.03594117 -0.037954416 0.080370076
0.041010417 0.01626207 0.026873484 0.07353642 -0.045728285 0.07198026 0.009464443 0.061751746
-0.021929786 0.00081627816 -0.0728164 0.034521364 0.020675011 -0.035056304 -0.06682611 -0.019653581
0.0684114 -0.05322187 0.075159006 -0.017951332 0.0266871 -0.082511224 -0.07740656 -0.023090586
0.068480365 0.03387537 -0.06393721 0.025815316 -0.08120968 -0.04793046 -0.03982428 0.054589935
0.067475654 -0.038042314 -0.04124305 0.083413936 -0.077177644 0.023825109 -0.055495754 0.04797522
0.0622826 -0.08787489 -0.033669747 0.008140348 0.056772463 -0.07147811 -0.034136932 -0.017150566
-0.052486207 -0.05281451 0.08750052 -0.01618947 -0.046285722 -0.019574448 0.064168505 0.026169136
-0.07146855 -0.070663646 -0.06648839 0.059458904 0.050571553 -0.07859787 0.07389525 -0.083509155
-0.031184293 -0.024925835 -0.053757578 -0.074084096 0.051526718 -0.039001346 0.07090493 0.076314114
-0.07146672 0.06653593 -0.0657885 -0.07561998 0.01795245 -0.013689853 -0.045809176 -0.011603713
-0.011936486 0.0036509633 0.0069679692 0.064402066 -0.029237386 0.085161485 -0.05703558 -0.08608086
-0.0020034164 0.054976992 0.068986006 -0.08581788 -0.07068437 0.0121882185 -0.0002946034 0.0011403784
0.011282258 -0.007749118 -0.0085978955 -0.08615226 -0.06183131 -0.035090633 -0.013090357 -0.0009202361
-0.048779108 0.040799417 -0.030004669 -0.04578509 -0.01933965 0.036215335 -0.0012502 0.051264532
-0.03467985 -0.007267162 -0.06515643 0.063908674 -0.04243625 0.075739644 0.08062587 0.046880998
-0.05839606 0.06706656 -0.055764485 -0.017030507 -0.017801352 -0.0052574426 -0.020175278 0.054701798
00000000: 80be 36bb 054c b03d 9185 5bbd 1500 89bd
00000010: f897 0d3d eefe 49bd 2564 48bd 86d7 a0bd
00000020: 4a73 653d 505a e3bc d6eb 2d3d a02a 24bc
00000030: 6828 eebc e05a e63c a011 96bb 7e1a 1f3d
00000040: 3006 35bc d0fd 80bd fb4a 5abd c87b 373c
00000050: c435 d23c 2082 3cbc b08f f73c c393 a2bd
00000060: dee0 393d 7e2e 043d 68d7 8fbd 72ae 5bbd
00000070: 4039 4dbc b556 a33d 4806 5abd c818 a5bd
00000080: 79a1 86bd ce3c 263d 4605 5e3d b094 98bd
00000090: 6052 a9bd 7fbb 8f3d 5581 a13d 2089 a6bd
000000a0: b7cf 00bd 829b 773d 7e55 22bd ee82 753d
000000b0: 422b 473d dc0f 06bd 1668 473d 9afd 7d3d
000000c0: fae6 5f3d 4bee a83d f413 37bd 04fd 7abd
000000d0: 5d9f 8d3d da1c 223d 803e e1ba 777a a7bd
000000e0: 38aa 75bd 1478 76bd 57aa a43d 52fb 473d
000000f0: dec5 6d3d 823a 2f3d b64f 3d3d 8073 f8bc
00000100: d83b 403c 9863 98bc 18b0 abbd 833e ab3d
00000110: 3599 a03d d8d1 5fbd 3160 b2bd 078b aabd
00000120: 64c4 a8bd 665a 57bd 8499 d63c 5c31 b23c
00000130: bfc0 10bd 10ed 6d3c b01f 333c f07f 95bc
00000140: 99c6 803d fb4e 66bd 8a10 4f3d 5e2e 413d
00000150: 2005 22bc 378f 0abd a023 263b 1b5d 24bd
00000160: 8e8c f1bc bfad 8c3d 8280 3c3d a867 b13c
00000170: 6164 abbd c62b 86bd 141f 1ebd 58ec bf3c
00000180: e4a1 ea3c 5765 63bd b45e 8d3c 68d8 73bc
00000190: 60ff f73b 62c7 3dbd 221d 1cbd aca9 d1bc
000001a0: 8b76 853d b42a c7bc 40b7 db3c 28b2 40bd
000001b0: 4b38 52bd e8eb 7fbd 6331 873d 62d7 dabc
000001c0: 9898 17bc 185c 5e3c 40f9 7a3b 8308 0cbd
000001d0: 667b 2a3d 308f 51bc 62b0 683d f438 033d
000001e0: 124f 9abd 0029 abbb 631c 85bd 80d5 5d3c
000001f0: 60a7 d03c 0c37 13bd 1776 1bbd 1199 a43d
00000200: 8afa 273d 0838 853c c825 dc3c 439a 963d
00000210: 954d 3bbd 636a 933d c010 1b3c 66ef 7c3d
00000220: 18a6 b3bc 80fb 553a c420 95bd 4666 0d3d
00000230: a45e a93c 3397 0fbd 21dc 88bd 8c00 a1bc
00000240: 471b 8c3d 2dff 59bd f7ec 993d ac0e 93bc
00000250: e89e da3c a5fb a8bd 5587 9ebd 7828 bdbc
00000260: 6f3f 8c3d e6c0 0a3d 83f1 82bd a47a d33c
00000270: 4351 a6bd bb52 44bd c91e 23bd b299 5f3d
00000280: ad30 8a3d 42d2 1bbd 79ee 28bd edd4 aa3d
00000290: 500f 9ebd e02c c33c 844f 63bd aa81 443d
000002a0: 0a1c 7f3d c0f7 b3bd 4ae9 09bd 185f 053c
000002b0: 3e8a 683d 1e63 92bd 2bd3 0bbd 587f 8cbc
000002c0: c7fb 56bd 0754 58bd 7933 b33d c89f 84bc
000002d0: 1996 3dbd 985a a0bc c76a 833d a860 d63c
000002e0: 1a5e 92bd 1ab8 90bd 112b 88bd 2e8b 733d
000002f0: 1e24 4f3d ecf7 a0bd 6556 973d d906 abbd
00000300: 3476 ffbc 4431 ccbc e830 5cbd 67b9 97bd
00000310: ae0d 533d e0bf 1fbd 9b36 913d 934a 9c3d
00000320: 255d 92bd fd43 883d 1fbc 86bd a6de 9abd
00000330: 0411 933c 684b 60bc 67a2 3bbd 801d 3ebc
00000340: 4091 43bc 0045 6f3b 9053 e43b 3be5 833d
00000350: 3e83 efbc 2569 ae3d 249e 69bd 294b b0bd
00000360: c04b 03bb 8e2f 613d 8948 8d3d 49c1 afbd
00000370: f8c2 90bd 18b1 473c 0075 9ab9 c078 953a
00000380: 38d9 383c 50ec fdbb 30de 0cbc 9970 b0bd
00000390: d442 7dbd 32bb 0fbd f078 56bc 003c 71ba
000003a0: 9acc 47bd 4a1d 273d 5acc f5bc 2689 3bbd
000003b0: 306e 9ebc 8856 143d c0dd a3ba c2fa 513d
000003c0: 750c 0ebd 6021 eebb bc70 85bd 8de2 823d
000003d0: a2d1 2dbd 631d 9b3d 2d1f a53d 4a06 403d
000003e0: b530 6fbd 315a 893d 4d69 64bd 9083 8bbc
000003f0: 24d4 91bc a046 acbb a046 a5bc fe0e 603d

default.encoder_fc.3.bias f4 [128]
0.05725742 -0.048751805 0.08279238 -0.008488968 0.00959865 -0.004458301 0.05265244 -0.0070886463
-0.042945784 -0.071003094 0.00913927 0.004916452 0.07071491 -0.030862313 0.04879176 0.0516294
0.037106432 -0.07219423 0.059477963 -0.027777564 -0.012375034 0.003199838 0.08127277 0.01890403
0.085248865 0.080909066 0.049576603 0.06559498 -0.02648785 0.035540543 -0.07044889 0.06258131
0.008752786 0.025260516 0.06593952 0.037973724 -0.07629134 -0.026639443 0.076099835 0.025378995
0.052728213 -0.0516356 -0.020531014 0.023229234 -0.07482515 0.007431604 0.042848386 -0.074893
-0.060912803 -0.024943821 0.08355685 0.07389071 -0.0880066 0.08825246 -0.086973235 0.048558645
0.051068656 -0.05382246 0.050123103 -0.03866814 0.08605897 0.016214669 -0.036470596 -0.075151265
-0.0014382899 0.015365243 -0.08769816 -0.0747746 -0.052899964 0.043026023 -0.040468033 -0.06767573
0.0335896 0.036978863 0.008796342 0.00021072477 0.039582603 0.06211079 0.079424925 0.022242948
-0.03907156 0.08757562 0.067293726 -0.044360578 0.077198975 -0.08812 -0.01987034 0.048756458
-0.08497548 0.028356776 0.04996147 0.062354572 0.07543749 -0.039744444 0.0035285875 -0.052345984
-0.07766446 0.017679073 -0.031656582 0.020050846 0.07695212 0.008097887 -0.071508616 0.06468157
-0.034683358 0.057243414 -0.057548013 0.019972853 0.054827206 -0.026528437 0.061661802 0.033515796
-0.051770765 -0.028097935 -0.07286417 -0.010248236 -0.06858199 -0.04659113 0.032268934 0.052931406
0.011768736 0.046846993 -0.01583951 0.065369524 0.035779685 -0.07615836 -0.064817615 -0.07995627
00000000: c286 6a3d f9af 47bd 0d8f a93d 5015 0bbc
00000010: a843 1d3c f016 92bb 16aa 573d e047 e8bb
00000020: ebe7 2fbd 126a 91bd e0bc 153c 301a a13b
00000030: fbd2 903d f6d2 fcbc ded9 473d 5a79 533d
00000040: eafc 173d 92da 93bd 2a9f 733d c68d e3bc
00000050: a8c0 4abc 60b4 513b 5772 a63d a0dc 9a3c
00000060: f596 ae3d a7b3 a53d d610 4b3d a956 863d
00000070: 0cfd d8bc f692 113d 8247 90bd a12a 803d
00000080: d867 0f3c 24ef ce3c 4d0b 873d 568a 1b3d
00000090: a23e 9cbd f63a dabc 3bda 9b3d 9ce7 cf3c
000000a0: 8af9 573d da7f 53bd a830 a8bc 3c4b be3c
000000b0: ee3d 99bd d084 f33b ca81 2f3d 8061 99bd
000000c0: b47f 79bd fc56 ccbc db1f ab3d 0354 973d
000000d0: ce3c b4bd b5bd b43d 061f b2bd 6ee5 463d
000000e0: 5e2d 513d f174 5cbd e24d 4d3d 7c62 1ebd
000000f0: af3f b03d a0d4 843c 3162 15bd e8e8 99bd
00000100: 0085 bcba 80be 7b3c 189b b3bd 6d23 99bd
00000110: a2ad 58bd 0e3c 303d cfc1 25bd 9399 8abd
00000120: 4095 093d 2677 173d 881e 103c 00f6 5c39
00000130: 5e21 223d e267 7e3d 89a9 a23d d836 b63c
00000140: 8009 20bd d95a b33d 4bd1 893d 70b3 35bd
00000150: 7f1a 9e3d 4278 b4bd 20c7 a2bc dab4 473d
00000160: a007 aebd 784c e83c 66a4 4c3d 8267 7f3d
00000170: f97e 9a3d 12cb 22bd e03f 673b be68 56bd
00000180: 8b0e 9fbd b4d3 903c 55aa 01bd ac41 a43c
00000190: 1399 9d3d 00ad 043c 1c73 92bd c577 843d
000001a0: 2310 0ebd 1278 6a3d 77b7 6bbd 1c9e a33c
000001b0: 7e92 603d 2a52 d9bc 1691 7c3d dc47 093d
000001c0: 950d 54bd a42d e6bc cf39 95bd 38e8 27bc
000001d0: b774 8cbd 57d6 3ebd 6e2c 043d 9ace 583d
000001e0: a8d1 403c a2e2 3f3d dcc1 81bc 75e0 853d
000001f0: b88d 123d eaf8 9bbd 19bf 84bd 1dc0 a3bd

default.mean_encoder.weight f4 [10, 128]
0.023030363 -0.08311854 -0.0743723 -0.054301217 -0.010818625 -0.104380585 -0.026613194 0.022283003
0.03763495 0.037345134 -0.10494045 -0.03004624 -0.0749695 -0.01317414 -0.025336774 0.0781943
-0.0711219 -0.02571244 -0.051102344 0.042934794 0.061697453 -0.0006098137 0.020591695 -0.09442274
-0.02511435 0.020265091 -0.057632964 0.052939314 0.015788553 0.0651133 -0.061093844 -0.084646046
-0.03408774 -0.05623437 -0.0058815493 -0.05817936 0.039726947 -0.052857224 0.05637032 0.0012910571
0.007688975 0.013954304 0.005827737 0.090856105 0.043906238 -0.099979684 -0.012765147 -0.14021443
-0.06707867 0.05433151 0.11609169 -0.0435515 -0.06869075 0.014493503 0.0125844795 -0.07914936
-0.06086432 0.11623554 -0.12162988 0.045424458 -0.0007853299 -0.035236917 -0.1488531 -0.04388715
-0.048124414 -0.1592743 -0.07533158 -0.0454623 -0.0039055345 -0.010349415 -0.09814487 -0.022591138
0.101865165 0.014752037 0.12459302 -0.0803579 -0.03849184 -0.09596258 -0.06478745 0.06869468
-0.06782806 -0.0019081105 -0.011975281 -0.010632751 0.062027365 0.036780834 0.042972468 -0.11438815
-0.03244355 0.010851822 -0.02475978 0.0011630144 0.03888211 -0.066234425 -0.025984965 0.018807149
-0.072183385 -0.04144369 0.09108806 -0.101558246 -0.036475223 -0.058464475 0.093032256 0.10590743
-0.11821627 -0.038488355 0.09859788 0.09632479 -0.097110264 0.0076451134 -0.03876409 -0.023627201
0.045209307 0.047894854 0.0848662 -0.058438405 0.0407157 -0.06693803 -0.07841053 0.121809915
-0.12698948 0.037149657 0.10998993 0.001910614 0.13486668 0.016501294 -0.022310747 0.09986632
0.012939579 0.033937905 -0.09344076 -0.0336334 -0.072882585 0.08478537 0.06301142 -0.080450915
-0.013505308 -0.11907688 -0.11619159 0.040953442 0.04837545 -0.040001262 -0.008669273 0.12844028
0.067660496 0.0827395 0.004025894 0.12508023 0.00022134124 -0.01859782 0.059933607 0.046078235
0.09592635 -0.07352576 -0.035924092 -0.102538966 0.020271603 0.09942033 0.097246185 -0.0063050324
-0.046789903 0.04023145 -0.09014202 0.06861833 0.10555863 0.046491534 -0.10102007 -0.0571476
-0.054452855 0.12338159 -0.11796306 -0.024740241 0.06347131 0.056565672 0.07142246 -0.076058045
0.0013322221 -0.03145399 -0.124358766 0.07027493 0.11122175 0.07715611 0.09778855 -0.032154217
0.119361624 -0.15887736 -0.026913716 0.14303008 0.07717802 -0.06249846 0.057976007 0.066399306
0.08016877 -5.3153723e-05 0.06899247 0.01715144 -0.08303369 -0.06188719 0.030567065 0.034641054
0.016951988 0.10835056 0.05652187 -0.18781142 -0.06589567 0.095533006 -0.1382811 -0.009434931
-0.085727416 0.038309418 0.09423632 0.058670558 0.10231871 -0.0067092143 0.03127994 -0.17755485
0.022177447 0.07529635 0.1434416 -0.07833438 0.026465284 -0.16565938 0.022514846 0.051231384
-0.0142281605 0.09632943 0.05299432 -0.0638859 -0.018495949 0.014447931 0.116101265 -0.1615318
0.048738394 0.050233644 0.10499649 -0.08450058 0.015587994 0.027389234 0.09576719 0.036079403
-0.05435363 -0.07233477 0.0741834 -0.07340022 -0.05361107 0.0384842 -0.033770796 0.02913495
0.041441176 0.07033591 -0.15140152 0.0888362 0.010599632 0.021115752 0.1256629 0.045406304
00000000: 2caa bc3c 0e3a aabd 8150 98bd f46a 5ebd
00000010: 9a40 31bc 7dc5 d5bd ea03 dabc d88a b63c
00000020: 1b27 1a3d 36f7 183d 05eb d6bd 8823 f6bc
00000030: 9c89 99bd 59d8 57bc 118f cfbc 5524 a03d
00000040: 5ca8 91bd e5a2 d2bc b150 51bd 65dc 2f3d
00000050: 78b6 7c3d e8db 1fba eaaf a83c b660 c1bd
00000060: 9cbc cdbc fa02 a63c 8b10 6cbd e5d6 583d
00000070: ff56 813c 1f5a 853d 8a3d 7abd e85a adbd
00000080: 969f 0bbd 0356 66bd 03ba c0bb 7b4d 6ebd
00000090: b9b8 223d d180 58bd 91e4 663d b038 a93a
000000a0: ccf3 fb3b 98a0 643c 9af6 be3b c412 ba3d
000000b0: 07d7 333d 26c2 ccbd e824 51bc 5f94 0fbe
000000c0: 8b60 89bd b88a 5e3d 7bc1 ed3d 0f63 32bd
000000d0: bcad 8cbd 2876 6d3c 222f 4e3c 0f19 a2bd
000000e0: dd4c 79bd e60c ee3d 1619 f9bd ff0e 3a3d
000000f0: 99de 4dba 9654 10bd f26c 18be 03c3 33bd
00000100: 1b1e 45bd cd18 23be 7247 9abd ad36 3abd
00000110: fff3 7fbb 9890 29bc 2d00 c9bd 0d11 b9bc
00000120: af9e d03d 87b2 713c a02a ff3d af92 a4bd
00000130: 9fa9 1dbd 0788 c4bd 48af 84bd ccaf 8c3d
00000140: 70e9 8abd 9019 faba f833 44bc fd34 2ebc
00000150: 6810 7e3d 80a7 163d e603 303d 5644 eabd
00000160: 87e3 04bd d7cb 313c 06d5 cabc 4a70 983a
00000170: d942 1f3d eaa5 87bd 6cde d4bc 7311 9a3c
00000180: e2d4 93bd dcc0 29bd 608c ba3d c5fd cfbd
00000190: 0b67 15bd 7278 6fbd b287 be3d ffe5 d83d
000001a0: 5f1b f2bd f7a5 1dbd afed c93d ee45 c53d
000001b0: bfe1 c6bd dc83 fa3b 18c7 1ebd d58d c1bc
000001c0: 652d 393d 652d 443d 55ce ad3d 1c5d 6fbd
000001d0: 81c5 263d ce16 89bd b395 a0bd 7a77 f93d
000001e0: 8809 02be 3d2a 183d 6742 e13d 916d fa3a
000001f0: 7e1a 0a3e b92d 873c 07c5 b6bc b786 cc3d
00000200: 8700 543c 7902 0b3d df5d bfbd 2dc3 09bd
00000210: 7743 95bd f4a3 ad3d 220c 813d 73c3 a4bd
00000220: 5e45 5dbc 94de f3bd dbf5 edbd ccbe 273d
00000230: 5625 463d 5dd8 23bd 9109 0ebc d985 033e
00000240: 9691 8a3d 5473 a93d a6eb 833b 0815 003e
00000250: d617 6839 755a 98bc f17c 753d 88bc 3c3d
00000260: 0975 c43d ac94 96bd 2425 13bd f3ff d1bd
00000270: a210 a63c e39c cb3d 0229 c73d 729a cebb
00000280: c5a6 3fbd bcc9 243d 619c b8bd c487 8c3d
00000290: 1f2f d83d e86d 3e3d 9ce3 cebd 9a13 6abd
000002a0: f509 5fbd 7daf fc3d 9e96 f1bd 0cac cabc
000002b0: 3ffd 813d 68b1 673d f045 923d 52c4 9bbd
000002c0: f59d ae3a e6d5 00bd cfaf febd 4dec 8f3d
000002d0: 3bc8 e33d 0604 9e3d 5d45 c83d 24b4 03bd
000002e0: de73 f43d bfb0 22be 277a dcbc 7a76 123e
000002f0: 820f 9e3d 63fe 7fbd 4078 6d3d 5cfc 873d
00000300: 862f a43d 60f1 5eb8 ed4b 8d3d 2d81 8c3c
00000310: 910d aabd 6c7d 7dbd c867 fa3c c7e3 0d3d
00000320: e5de 8a3c e6e6 dd3d 7a83 673d a351 40be
00000330: 4ff4 86bd cfa6 c33d 9099 0dbe f894 1abc
00000340: db91 afbd 56ea 1c3d f9fe c03d 8a50 703d
00000350: 798c d13d f8d8 dbbb 651f 003d f0d0 35be
00000360: 7aad b53c f934 9a3d 5be2 123e c76d a0bd
00000370: b9cd d83c 9da2 29be 0e71 b83c 00d8 513d
00000380: 3b1d 69bc 5d48 c53d 9210 593d 9cd6 82bd
00000390: d184 97bc 04b7 6c3c 80c6 ed3d 9868 25be
000003a0: e9a1 473d cbc1 4d3d 6608 d73d a40e adbd
000003b0: c964 7f3c 635f e03c 9721 c43d ffc7 133d
000003c0: e9a1 5ebd 4024 94bd 77ed 973d db52 96bd
000003d0: 4897 5bbd 9ca1 1d3d 3f53 0abd 6bac ee3c
000003e0: 39be 293d 460c 903d 0009 1bbe c1ef b53d
000003f0: 14aa 2d3c f1fa ac3c c6ad 003e f6fb 393d

default.mean_encoder.bias f4 [10]
-0.07077223 0.1966973 -0.0050411853 -0.016819559 0.1105939 -0.075531065 0.05769833 -0.21647516
0.051138695 -0.19707453
00000000: 08f1 90bd 046b 493e 8730 a5bb 2cc9 89bc
00000010: 0e7f e23d 08b0 9abd 1655 6c3d aaab 5dbe
00000020: cf76 513d e8cd 49be
