models/mnist-relaxed1E/encoder_z1_-2605077031886239214.pt (torch_old, 516075 bytes, 14 tensors)

default.encoder_cv.0.weight f4 [32, 1, 3, 3]
00000000: 4666 793e fae6 30be fd4e a3bd 78ef 5ebe
00000010: f283 6d3d 1be9 88be c8c9 24be c9a0 84be
00000020: 834f bdbc 7b8c 87be fcef c7be 156f bcbe
00000030: 772a 44be e6ae a6bb 19e2 553e 14e2 14be
00000040: b5f4 f33d c2a6 9d3e f112 55be 6281 a6be
00000050: 3e95 ab3e 7fac f6bd 9389 b3bc 45f0 6dbc
00000060: 92d3 0cbe 5307 b3bd 52a7 2ebc 5acd 5abe
00000070: 51b8 26be 0998 77be 9029 09bc e581 0a3e
00000080: 7bfe 28be 64a3 8b3c cbb9 093e bc95 b23e
00000090: b961 193e 5105 04be 2fac a9be 0902 21bd
000000a0: 6c47 10be eeea 68be f32b 81be ea7a b2be
000000b0: c103 f63d 8d11 0f3e d2fb 5f3e 5735 c23e
000000c0: 7869 7c3e 0a53 58be 28e5 78be becb 27be
000000d0: c167 213e 655f 5cbe f41c a5be 7d61 12bd
000000e0: 187d 96b8 f90c 1a3e 50f9 1ebe 7117 973e
000000f0: 38cb 1e3e 7241 3c3e 341e 7a3e 79da 463e
00000100: c19b 2f3d 362e e13e 5fba f1bd 1654 96bd
00000110: e2a5 9e3d 3638 c8be dfc2 85be 66e4 58bc
00000120: 142e 19be d2ed 89be 28cc ae3d ed57 65be
00000130: 0000 753c d3f1 953e 91ad aa3e 488e 973e
00000140: e471 73bd dc9a 68bc fc3a 37bd fb65 403e
00000150: 6c37 bfbd 981b 30bd ecc1 8a3e c6b9 153b
00000160: eb91 603e 2764 293e 34e6 31bd 06a5 dabd
00000170: e6b0 1e3e ac28 61be c893 66be 615f 6e3e
00000180: 6287 85bb 93b4 d9bc 18a5 8a3e 0bf4 57be
00000190: 867d ddbd 6b17 773e 02b7 50be bac7 973e
000001a0: 7a4d 183c 1350 06be 4df5 223e bcd6 e63d
000001b0: e5d1 d23d d2c9 4f3e 42b7 a83e 781c 933d
000001c0: a4db e3be e7bc b1be 9922 d1be 893b fc3d
000001d0: 6298 1ebd b157 233e c21a febb 44d5 b43e
000001e0: 50e7 c3bc b12b c3be 598c a73e faf3 29be
000001f0: b0b5 293e 9e31 743e 8404 823c 5cbd 32be
00000200: bcff 5cbe e28c 42bd f30a 58be 021d 99be
00000210: c814 6ebe 4e46 b63e dd6a 83be f656 a3bd
00000220: 27cb 3f3e 82d0 78be fcfb 663e 3bbd 33be
00000230: a7ab a6be 3084 7d3e 820a a93e 4566 2cbe
00000240: 9735 7e3e 8796 e6bd de79 153e 863b 98bc
00000250: 26b1 4ebe e756 593d 48ab 2e3d e96d 163e
00000260: 97a6 c53e fe20 4abe eb59 483e 9ef6 4a3d
00000270: ee11 70be bfc4 9d3e 4350 e2bd 1d34 9d3e
00000280: 31e5 e23d e730 97be 0237 19be 1c01 7bbe
00000290: 5ec2 8d3e aa0a d7be 18be c4bd 03d3 973e
000002a0: c07e 853e 0c14 03be ed1c 313e 1f10 4fbe
000002b0: 99a0 633e ea84 5bbe 6cf9 01be 6e82 a2be
000002c0: 752b 70be 72b0 443e a9cc c73e 88cc 0abe
000002d0: 05b9 cc3d 2b6d c93d 8c71 98be 46f0 223e
000002e0: f39e 863e 0982 8e3e bf41 16be d8b3 f43d
000002f0: 7433 ed38 12f6 91be a406 d9bd 799e bcbe
00000300: ddad 63be 3885 693d a623 8fbe dd76 cd3e
00000310: 7dac b03e 4744 733e 683a 88be 7b77 16bd
00000320: b65a 4dbe 57ce 39be d2a9 a33c ca4f 48be
00000330: 0795 8e3e 2318 0dbe 53ca aabe 70f7 a5be
00000340: fac7 923d 742c e8be c2e8 b03e a307 81bd
00000350: 804b 843d 44f5 a93c b527 7b3d 6237 b3be
00000360: dda4 093e e89e 8e3e 1f3f b6bd ee25 b6bd
00000370: 8058 353e 37d7 7e3e 1fe0 04be 460f 7ebd
00000380: 7221 18be d421 f3bd 6ed4 e43d 52e4 d3bc
00000390: f19a 38be 8bfa 913e b915 56be 3f65 7c3e
000003a0: e7dc 6f3d 6649 9e3e 0ff8 91bd 4d1d 1f3e
000003b0: d258 2ebe a82c b43e ff56 043c 91b1 63be
000003c0: 6f38 94be 938e babd 3e0e 90be 5e7f 56be
000003d0: b6c7 82be e0c7 8cbc 4f86 4b3c 2c49 89bd
000003e0: 58ec a1be 09e9 923e a21d ccbd c021 c83e
000003f0: 0a1e 333e 5ae5 0cbe 24d1 183e fae8 54bb
0.2435542 -0.1727561 -0.0797405 -0.21771038 0.05798716 -0.26740345 -0.16092598 -0.2590392
-0.023109203 -0.26474366 -0.3905028 -0.368035 -0.19156824 -0.0050867675 0.2088703 -0.14539367
0.119119085 0.3079129 -0.20808007 -0.32520586 0.335123 -0.1204462 -0.021916186 -0.014522617
-0.13752583 -0.08741631 -0.010660009 -0.21367398 -0.16281249 -0.2417909 -0.008371726 0.13526113
-0.16503327 0.017045684 0.1344978 0.34879863 0.14978684 -0.12892653 -0.33139178 -0.03930858
-0.14089745 -0.22745869 -0.25228843 -0.348594 0.12012435 0.13971539 0.21873406 0.3793132
0.24649608 -0.21125427 -0.24306166 -0.16386315 0.15762235 -0.21520765 -0.32248652 -0.035737503
-7.175858e-05 0.15044011 -0.15524793 0.29510072 0.1550721 0.1838434 0.24425584 0.19419278
0.042873148 0.4398057 -0.118031256 -0.07340257 0.077464834 -0.39105386 -0.26125237 -0.013238048
-0.14958984 -0.26939255 0.085350335 -0.22396822 0.014953613 0.2928606 0.33335546 0.2960074
-0.059434786 -0.014197078 -0.044733986 0.18788902 -0.09336743 -0.042995065 0.27101076 0.0022846325
0.21930663 0.16542111 -0.04343243 -0.10676007 0.15497169 -0.21988171 -0.22517312 0.23278572
-0.004074977 -0.026575362 0.27079082 -0.21089189 -0.10814957 0.24130027 -0.20382312 0.29644567
0.009295816 -0.13116483 0.15913887 0.11271426 0.102939405 0.20291832 0.32952315 0.07183164
-0.4450351 -0.34714434 -0.40846708 0.12316043 -0.038719542 0.1595142 -0.0077546546 0.3531896
-0.02391401 -0.3811927 0.32724264 -0.16596976 0.16573215 0.23847052 0.015871294 -0.17455047
-0.2158193 -0.047497638 -0.21097927 -0.29904944 -0.23250115 0.35600513 -0.25667468 -0.07975571
0.1872984 -0.2429829 0.22557062 -0.17552654 -0.32552835 0.24757457 0.3301583 -0.16835888
0.2482513 -0.112591796 0.1459727 -0.01858307 -0.20184764 0.053061392 0.042643815 0.14690365
0.3860366 -0.19739148 0.19565551 0.0495516 -0.2344434 0.30814168 -0.11050465 0.30703822
0.11078871 -0.29529497 -0.1496239 -0.24512142 0.27687353 -0.42000324 -0.0960657 0.29653177
0.26073265 -0.12800616 0.1729619 -0.20220993 0.22229232 -0.21437421 -0.12692803 -0.31740135
-0.23454078 0.19207934 0.3902333 -0.13554585 0.09996227 0.09835275 -0.2977413 0.1591197
0.26293144 0.27833584 -0.14673518 0.11948365 0.000113106245 -0.2850805 -0.1059697 -0.36839655
-0.22234292 0.057011813 -0.27956885 0.40129748 0.34506598 0.23756514 -0.2660706 -0.03673504
-0.20054135 -0.18145119 0.019978438 -0.19561687 0.27848074 -0.13778739 -0.33357486 -0.32415342
0.07167049 -0.45346415 0.3455258 -0.06300285 0.06459713 0.020746835 0.061317164 -0.3500319
0.13441797 0.2785561 -0.08898758 -0.08893953 0.17709541 0.24886785 -0.1297612 -0.062026285
-0.14856508 -0.118716866 0.1117333 -0.025865708 -0.18027855 0.28511462 -0.20906724 0.24647997
0.05856028 0.30915374 -0.071273915 0.15538521 -0.1702607 0.3519032 0.008077382 -0.22235705
-0.28949305 -0.09109225 -0.28135866 -0.20947024 -0.25542992 -0.017185152 0.012422158 -0.067034096
-0.31625628 0.28693417 -0.099665895 0.3908825 0.17491928 -0.13759366 0.14923531 -0.0032487498

default.encoder_cv.0.bias f4 [32]
00000000: 522c 4f3e 5783 14be bfe9 083e 9ad4 32be
00000010: b870 b73d 45b9 c7bd 555f cdbd 09c2 d6bd
00000020: 24ff 95be e9af 2fbe 8ceb 17be c952 83be
00000030: bba2 f63d 1ffa 55be 75a5 8b3e a325 42be
00000040: cf6e 9ebe 7707 8dbe 30a0 353b 385a 16be
00000050: 22a6 57be 5635 48bd bda7 0a3e 6540 d43d
00000060: d1a1 33be ebee f2bd a9b6 093e d8b0 f7bd
00000070: a8e7 39be 6144 ce3d 72bc 16be 3f30 233e
0.2023175 -0.14503227 0.13370417 -0.17463914 0.08957046 -0.09752134 -0.10027949 -0.10486228
-0.2929622 -0.17156948 -0.14835948 -0.25649098 0.12042757 -0.20896195 0.2727467 -0.1895967
-0.30943915 -0.27544758 0.0027713887 -0.14682853 -0.21059468 -0.04887899 0.1354055 0.10363845
-0.17542197 -0.11861976 0.13448586 -0.12094277 -0.18154776 0.10071636 -0.14720324 0.15936373

default.encoder_cv.4.weight f4 [64, 32, 3, 3]
00000000: 2f01 113c be69 9e3b 0657 70bd 4e69 7a3c
00000010: d990 d93c 6fd3 87bc beef 22bd 6a8e eabb
00000020: 6977 8b3d 4819 bbbd 3a54 953c 309a a2bd
00000030: 7efc b0bc ea82 463d 839c 41bd bc29 723d
00000040: 3c9b bf3d 3857 0e3e 73ec ffba d5d2 f43c
00000050: 64ec a03c 967d 6ebd 3e60 e63b a517 7e3d
00000060: c854 5dbd f79b cfbd 374f 65bd 950b 273c
00000070: b06b 9d3b e9ad 2b3d aa49 a63d 0656 183d
00000080: 6f52 c7bc 3d7c 953d fe27 103e 9630 513e
00000090: a078 b0ba dc1e b83c 925a 19bd 49b0 443d
000000a0: 2720 213d b3bd abbd 2994 0b3d 619b 26bd
000000b0: d39f a53d 7e88 4abc 31a2 1dbd b42b dabc
000000c0: 4208 24bd 3941 2ebd 7635 433d 80a1 183e
000000d0: 687e 1d3d dcb6 a0bd e610 cabd 0991 84bd
000000e0: ed01 74bc 1a22 3cbc 7640 3a3c 30e3 91bd
000000f0: 0728 973c 4eb2 b93c b9ba c63d 91e2 84bc
00000100: 40cd 2c3b b8a0 e13d f24c 81bd 4576 1fbd
00000110: 8caa 413c 622b a03d 3b4a 32bc 3f29 7fbd
00000120: d888 84bc 10d3 5dbd 5250 753b 9022 1ebc
00000130: b4a9 eb39 dd19 47bd 10d3 803d 7ebb de3d
00000140: 8719 543e 1fa5 98bb cd10 0abd b8e7 75bd
00000150: 3663 5cbd 75db 73bd a150 c5bd 86e5 a83d
00000160: 3d67 733d 0e80 e93d 7718 9dbd 35b4 573d
00000170: 6867 32bd fc37 643b 3584 e03c a953 d5bd
00000180: 6162 4c3d d76d 833d c91b 8f3d 0466 e4bc
00000190: 9d66 5dbb 702d 493c c2f8 29bd 1263 663d
000001a0: c536 513c d5d8 2e3d 7ade 903c ea53 0bbc
000001b0: 1eb8 f5bd cc9d 5abd 455d 6ebc fe58 193d
000001c0: a2cb 513c f2d8 9bbc 540c 2d3d 7bdc 61bc
000001d0: 5479 073e 0db6 cebc 137e 4e3c 2ebc adbd
000001e0: 45d8 663c 7c75 aebd fd00 c7bd 0d0b 923d
000001f0: e943 7a3d 8886 08bb 420a 493b 5f38 5f3d
00000200: 94f0 55bd 3279 323c 3d2b 9d3d 28e9 fcba
00000210: 74ed 6cbd 3eaf ddbc fa24 b53d 503f 573d
00000220: 7747 103d a3cb 933c 207f 183d 0abb 9c3d
00000230: 2734 63bb d062 31ba 5995 a73d 2aac 2a3e
00000240: e7f3 3abc 2019 f73c 1c9a b9bc eca1 973c
00000250: 1b24 abbd 9b47 d7bd 420a a63d cc10 353e
00000260: 6d72 5b3e 20da a13b ca12 0e3b d85b 9f3c
00000270: a479 633d 5fa4 02bd 9650 ed3b 7852 93bc
00000280: cb0a 1bbd 1f7b 843c 8e12 f1bd b333 98bd
00000290: 3a0b ffbd c6dd febc f7a0 a7bc bd3a 82bd
000002a0: f18c b63c 8b8b 043d 03ad ea3c 60ea 923d
000002b0: 6149 fa3b 74f3 243d 2d1c 0b3d 0f38 fd3d
000002c0: 83cb b33d eb9f 88bd 36b5 8abc 0a66 073e
000002d0: 8dbf c7bd c922 86bd 272c e23c d986 573d
000002e0: 8ddd 64bd 7e53 ffbc 77b5 633c c0f3 a03c
000002f0: 2d15 c63d 683b ffbd c022 503c af74 99bd
00000300: 133f cb3d a699 b63d 3ed6 eebc 6636 803c
00000310: 6849 a13d 2e2b 193e c782 c5bb 0104 bbbc
00000320: ca9e 14bd 8482 173d 2e5b 193e 4afe 243d
00000330: 0ce3 76bd 7b20 00bd 022c b73c 9c4d 5ebd
00000340: 3553 90bc 0245 d6bc 2cc8 8e3b 91ee f33d
00000350: b8ec 013d 2265 d3bd 4eb4 30bd f361 783d
00000360: 0503 a03c a108 a13c 6c36 17bd bbb5 47bd
00000370: ff68 1cbd de60 833d ed0b 0b3d 07dc 91bd
00000380: a1cc f7bd dc4a 98bb 6cd9 21bd a4a9 a9bd
00000390: 428c ab3c e8c7 2fbd d75a 01be e288 6d3d
000003a0: 1a77 903d a426 f63d 8c2f 2cbd 5de2 013e
000003b0: 1ac9 f23b 4d1a 4dbd ebc5 093c c6d5 32bd
000003c0: c89f 6fbd 1220 d1bb 08f4 7f3d 9ffb 63bd
000003d0: 9522 9a3d 724e 243d a4bb 233d 34a1 9f3d
000003e0: 351f a43c 93cd 793c 0dbc 243e 8ab1 493e
000003f0: 745a cbbc 11fe 41bb 7c23 843c 519b e73c
0.00885038 0.004834383 -0.058676742 0.015283896 0.026558327 -0.016580312 -0.039779417 -0.0071580904
0.06809885 -0.091356814 0.018228639 -0.07939565 -0.021604773 0.048464693 -0.0472684 0.059121832
0.093557805 0.13900459 -0.0019525423 0.029885689 0.01964397 -0.058225237 0.007030516 0.062034268
-0.05403593 -0.1013717 -0.05598375 0.010195632 0.004804097 0.0419139 0.08119519 0.037191413
-0.0243313 0.07299087 0.14077756 0.2042869 -0.0013463683 0.022475652 -0.03743989 0.04801968
0.039337303 -0.08385792 0.034076843 -0.040675525 0.08087125 -0.012361644 -0.038484756 -0.026632167
-0.040046938 -0.04254267 0.047658406 0.14905357 0.03845063 -0.07847378 -0.09866504 -0.06472976
-0.014893037 -0.01148274 0.011367908 -0.07123411 0.018451704 0.02266803 0.09703583 -0.016221317
0.0026367456 0.11016983 -0.06313504 -0.03893115 0.011820447 0.078207746 -0.010881956 -0.062295195
-0.016178533 -0.054156363 0.0037431908 -0.009651795 0.00044949132 -0.04860865 0.06290257 0.10875605
0.20712863 -0.004658356 -0.03370743 -0.060035437 -0.053805552 -0.059535462 -0.09634519 0.08246903
0.059424628 0.114013776 -0.07670682 0.052662093 -0.043555647 0.0034823408 0.027406791 -0.104163475
0.04989851 0.06417435 0.069877215 -0.027880676 -0.0033783086 0.0122789 -0.041497 0.056246825
0.012769406 0.042687256 0.01768421 -0.008503893 -0.11998008 -0.053373143 -0.014548604 0.037438385
0.0128048975 -0.019024346 0.042248085 -0.013785477 0.13229877 -0.025233293 0.012603301 -0.08483158
0.014089649 -0.08518502 -0.097169854 0.07131014 0.06109992 -0.002083214 0.003067628 0.05449712
-0.052231386 0.010893153 0.07674263 -0.001929556 -0.05784364 -0.027061101 0.08844943 0.052550614
0.035224404 0.018041437 0.03723061 0.07652862 -0.0034668536 -0.00067667384 0.08182783 0.16667238
-0.01141069 0.030163348 -0.022656493 0.018509828 -0.08356496 -0.105117045 0.08107425 0.17682189
0.21430369 0.0049393326 0.002167868 0.019452974 0.055535927 -0.031895038 0.0072422726 -0.01798366
-0.03785209 0.01617199 -0.11771117 -0.07431736 -0.12453313 -0.03111161 -0.020462496 -0.0635886
0.022284003 0.03235964 0.028646952 0.0717361 0.007638142 0.040271237 0.033962417 0.12364208
0.08779051 -0.06671127 -0.016932111 0.13222519 -0.09753332 -0.065496035 0.027608944 0.052618835
-0.05587535 -0.031167742 0.013898245 0.019647479 0.09672008 -0.12462503 0.012703598 -0.07492959
0.0992414 0.08916025 -0.029154893 0.01565094 0.07875329 0.14957878 -0.0060275528 -0.022829058
-0.036284246 0.036989704 0.14976189 0.04028157 -0.060275123 -0.031280976 0.022359852 -0.054273233
-0.017617801 -0.026155952 0.0043573584 0.11910737 0.031719893 -0.10322024 -0.043140702 0.060640287
0.01953269 0.019657435 -0.036917135 -0.048757296 -0.03818607 0.0641496 0.03394692 -0.07122045
-0.12099577 -0.004647596 -0.03951399 -0.082843095 0.020940904 -0.042915255 -0.12632309 0.05799187
0.07053967 0.12019089 -0.04203753 0.12684007 0.007409227 -0.05007391 0.008409004 -0.0436609
-0.05850199 -0.006381997 0.062488586 -0.055659886 0.07526127 0.040113874 0.03997387 0.07794419
0.020034412 0.015246767 0.1608736 0.19696632 -0.024823405 -0.0029600898 0.016130202 0.028272303

default.encoder_cv.4.bias f4 [64]
00000000: 8e28 7d3c cd1e 213b 3932 50bd 63dd 4dbd
00000010: b56b 61bd 1a9c 863c 7ef7 c6bd e775 7cbd
00000020: 3863 303d 05b4 3c3d 0dd7 8bbd 406e 7bbd
00000030: 9a79 6a3b 290f 3cbd c378 c0bb 5b3b efbc
00000040: 6650 57bd 82c6 8bbd 0eb0 83bc 2333 0b3c
00000050: ecdd 77bd a4bb 8eba 6385 ef3c e4d8 ea3c
00000060: f558 11bd f2a9 913c e623 b1bd 2e6a 313d
00000070: 79f0 3e3d 13f9 17bd d608 54ba 17df dcbd
00000080: 21be 29bd fcb3 09bd a4b5 2ebc 28f1 c6bc
00000090: 5c5b cabc 9cfd 46bd b11a f03c 6a4f fdbc
000000a0: 35f0 28bd cc6d f9bb 1dcd 66bd 0912 ccbc
000000b0: 294a b0bc 9853 22bd 5d69 87bd ca21 60bd
000000c0: 3287 cdba 9a0e b93b be72 acbc e989 99bc
000000d0: 931e ac3c 49f1 24bb 6190 143d dea4 a2bc
000000e0: 45d9 4fbd 422a 2eba 854a 09bb 78c9 3c3c
000000f0: 546e 3d3d 1ac3 58bd 2290 80bd d082 e33c
0.0154515635 0.002458501 -0.050829146 -0.05025996 -0.055034358 0.016431857 -0.09715174 -0.061635878
0.043063372 0.046070118 -0.06828127 -0.06138444 0.0035778047 -0.045912895 -0.005873771 -0.029203108
-0.05256691 -0.06824972 -0.01607516 0.008496079 -0.060514376 -0.0010889661 0.029238408 0.028667875
-0.035485227 0.017781232 -0.08649425 0.04331415 0.04661605 -0.03710277 -0.0008088475 -0.107847385
-0.041441087 -0.033618912 -0.010663424 -0.024284914 -0.024701767 -0.048581704 0.029309602 -0.030921657
-0.041244704 -0.0076119658 -0.056347955 -0.024910944 -0.021519737 -0.039630502 -0.06611893 -0.054719724
-0.001568055 0.0056474926 -0.021050807 -0.018742518 0.021010673 -0.0025168231 0.036270503 -0.019854005
-0.050744314 -0.000664387 -0.0020948958 0.011522643 0.046247795 -0.05292044 -0.06277491 0.027772337

default.encoder_cv.8.weight f4 [128, 64, 3, 3]
00000000: 794e 34bb 3491 7e3d 4482 b93d 919b b6bc
00000010: a6e8 123c 9f13 a53c 80ca f83d b8d7 433c
00000020: c239 303e c2d9 fb3c 9f1e 8b3d 4585 c9ba
00000030: 6f15 7e3c 826c 1c3d 16d3 023d 7810 1f3d
00000040: 73bb a2bc 21a0 3a3d fdb2 8b3d 190c 4f3d
00000050: 5e09 b2bc cdff 743d 5e06 c4bd d022 13bc
00000060: f42a 293d c19d 6f3c 74e9 bf3d 2d39 853d
00000070: f730 973d 447e 80bd fae8 fc3c 37d2 4d3d
00000080: e12e 3f3d 49cc dd3d 20a8 133d 6ca2 b13d
00000090: b7a6 f83d 21b5 4f3d 4c83 303d 1dc8 2abd
000000a0: 8cc7 2e3c 4e41 2abd c573 023c 9cff 0d3d
000000b0: 477f 4f3d cdf9 3d3c 997b f7bb b333 dbbc
000000c0: 6b80 6ebd e9ad 85bc 045d 3a3c 4fdd 86bc
000000d0: 74a7 a2bc 1e44 27bd 6faa 313d bf1e 713d
000000e0: a1e6 5e3d b261 8e3c f566 b6bb 120e c6bc
000000f0: cad5 b1bb 7297 e43c 06f4 68bd c032 babc
00000100: c6ff 6d3d 9f9c 1f3d 082b 51bc c4ed 23bc
00000110: 524c 80bd 0d16 043e 0cc9 ad3c 3642 6a3c
00000120: b740 d2bc a6e5 0bbd 9599 93bd 15c9 1bbd
00000130: 4c1c 56bd d044 a53b afb4 5bbd de6f a1bc
00000140: ed82 d23d ce5c 41bd f397 893c b9a6 c33c
00000150: ddce 1abd 7733 2ebd 0c24 a3bc 8c9f 6c3d
00000160: 2aa6 533c 025c 5b3d 5388 da3c 7ac7 26bb
00000170: a43b 90bc c7c2 01bd ae12 a3bb c487 643c
00000180: f209 a13d a33c 0f3d 1662 063d 129a 77bd
00000190: 9712 203c 53b0 6339 faaa 653d 4294 2c3d
000001a0: 5ac9 e7bc 3373 a23a c44c 70bb e19a 0bbd
000001b0: 011e cc3c 459b 04bd 2c57 11bd 16fe 5b3d
000001c0: 9b64 ac3d 263f 7a3d bf15 f63b 00bf dfbd
000001d0: a149 373d 5448 2f3d 63d9 88bb 8a68 31bc
000001e0: bdea 23bd 13fa 063d cc67 03bd 040c e3bd
000001f0: 7fef 01bd aa6b 903c 2d8b 3d3d 9204 a33a
00000200: 62de 243c 08bd 32bd 0303 d0bb 0b69 dbbc
00000210: 023f 2abd 9589 b43c abfc 85bb 1182 fa3c
00000220: d86d 123d fdde ca3c d152 8bbc c9ef 2b3c
00000230: 6a3f 703d 1279 b2ba 9a8b 05bd 74ea 44bb
00000240: b265 dc3c 8c8d 883d d7a9 27bc 98d6 54bd
00000250: 8ef1 a9bc f687 b13d 6bf0 e23c 73e5 0abd
00000260: db23 0dbc 6f0c b03d bb81 2e3c a7e0 663d
00000270: 299d 98bd 8102 9d3a 9d51 933d 6035 cc3c
00000280: 37fc 703a 63ca 3dbd f093 6bbd 638f 013d
00000290: 4268 a73c f858 9c3c 71c3 89bd 83e5 39bd
000002a0: 9add 943d 69d3 243d 5ec8 a6bd a101 b23d
000002b0: 67d3 d9bb 8964 ee39 971d 00bd 2fc3 e3bb
000002c0: d598 d03b 0d87 c23c d251 323d 88c6 abbc
000002d0: 7a80 693d 4c31 b3bb 0695 cb3b d8f2 d1bc
000002e0: e467 e1bc 5020 d43c 0720 1e3d 0e76 113d
000002f0: 1913 4a3d 3ca6 9bbb 4e87 5a3d e244 9d3c
00000300: adfb 84bc 8c4b ea3c 57bf e3bc f922 26bd
00000310: 4565 72bd 4114 d7bd 1423 1a3c 3084 1ebc
00000320: dfce 08bc 1875 0b3d 9c0f d9bc 1644 c0bc
00000330: 7b16 103d 892f 5fbc c16a 2db9 1771 08bd
00000340: b9d1 31bb 2379 6f3d bc58 cd3c a93f 3cbd
00000350: 1ee8 39bc 37b3 6f3d a735 253c 2dea bcbd
00000360: d5d9 683d d690 39bd f5a0 91bc b028 40bd
00000370: 10b2 91ba 3769 413d bf25 273d cb16 3ebd
00000380: 483b 023c f65a 81bd 5da7 dd3a b432 dfbc
00000390: 8ddf 03bd 8d7c 1cbd 8dbd d2bd 7654 47bd
000003a0: d5ac 5fbd fa85 303d 41af de3c 1a54 cdba
000003b0: d55c 55bd a8a0 f33c 28f1 46bc 6b18 453d
000003c0: 0953 013c b2b7 b5bd 7caf 9c3c 7e4d 533c
000003d0: a06d ea3d cbfb 1fbd 0e33 21bd 7f44 f4bc
000003e0: 464f bf3c f0a4 84bd 210e ad3b 2537 9bbd
000003f0: 4ad1 8a3d 5b9c a6bc 2310 b2bc edc9 9f3d
-0.0027512594 0.062150195 0.09058049 -0.022290977 0.0089666005 0.020150958 0.12147999 0.011953287
0.17209533 0.030743483 0.0679295 -0.00153748 0.01550804 0.03818942 0.03193959 0.038834065
-0.019864773 0.045562867 0.06821249 0.050548647 -0.021732982 0.059814263 -0.09571527 -0.008980468
0.04130073 0.014625014 0.093706995 0.06505046 0.07382386 -0.06274083 0.03087281 0.050249305
0.046675567 0.1082998 0.03604901 0.08673558 0.12141173 0.050709847 0.043093964 -0.04169475
0.010667693 -0.041566186 0.007962172 0.034667596 0.05065849 0.011595202 -0.007552576 -0.02675805
-0.058227938 -0.016318278 0.011374716 -0.01646295 -0.019855238 -0.040836446 0.04337543 0.058867212
0.054419164 0.01738057 -0.0055664727 -0.024176631 -0.005427097 0.027904246 -0.056873344 -0.022729278
0.058105253 0.038967725 -0.012766607 -0.010005418 -0.06264557 0.12899037 0.02121403 0.0142980125
-0.025665624 -0.034154557 -0.07207028 -0.038033564 -0.05227308 0.0050436035 -0.05363911 -0.019706663
0.10278878 -0.047207646 0.016796088 0.02388321 -0.037794936 -0.04252955 -0.01991465 0.057769343
0.012918035 0.053554542 0.026676333 -0.0025448487 -0.017606564 -0.031679895 -0.004976592 0.013948385
0.07863225 0.034969937 0.032808386 -0.060449667 0.009770057 0.00021714093 0.05607126 0.042133577
-0.028294254 0.0012393951 -0.003666685 -0.03408325 0.02491665 -0.03237464 -0.035483524 0.053709112
0.084176265 0.06109538 0.0075099166 -0.10925102 0.044747952 0.042793587 -0.004176305 -0.010828147
-0.040018786 0.032953333 -0.03208141 -0.11086276 -0.031722542 0.017629463 0.046275306 0.0012437275
0.010062786 -0.043637305 -0.0063480153 -0.026783487 -0.041563995 0.02203826 -0.0040889583 0.030579599
0.035749286 0.024764532 -0.017007263 0.010494181 0.058654226 -0.0013616404 -0.032603838 -0.0030046972
0.02690396 0.06667623 -0.010233364 -0.051962465 -0.020745065 0.086685106 0.02770253 -0.033910226
-0.008614506 0.085961215 0.010651047 0.05636659 -0.07451851 0.0011978896 0.07193301 0.024927795
0.00091928564 -0.04633559 -0.05751413 0.031630885 0.020435456 0.019085392 -0.067267306 -0.045384895
0.0726883 0.04024068 -0.08143686 0.08691717 -0.0066475156 0.00045469802 -0.03127822 -0.006950758
0.0063658752 0.023746038 0.04353506 -0.02096869 0.05700729 -0.005468523 0.0062128333 -0.025628492
-0.02751536 0.025894314 0.038604762 0.035512976 0.04933462 -0.0047500413 0.053351693 0.019197885
-0.01623329 0.028600477 -0.027801199 -0.040560696 -0.05917861 -0.1050191 0.009407777 -0.009675071
-0.008350103 0.034047216 -0.026496701 -0.023469966 0.03517769 -0.013622173 -0.00016538335 -0.033310976
-0.002713306 0.058465134 0.025066726 -0.04595915 -0.011346845 0.058520522 0.0100835925 -0.09224353
0.056848366 -0.045304142 -0.017776946 -0.046913803 -0.0011115689 0.04721948 0.04080748 -0.046408456
0.007948704 -0.063161775 0.001691084 -0.027245857 -0.032195617 -0.03820472 -0.1029006 -0.048664533
-0.054608185 0.04309652 0.027183177 -0.0015665323 -0.052090485 0.029739693 -0.012142457 0.04811899
0.007893332 -0.08872928 0.019126646 0.012896894 0.114466906 -0.039058488 -0.03935533 -0.029817818
0.02335323 -0.06476772 0.0052812253 -0.07578877 0.067782 -0.020338228 -0.02173621 0.07802186

default.encoder_cv.8.bias f4 [128]
00000000: f225 dabc cd03 83bc b9f6 fbbc 5862 94bd
00000010: 9f8f 12bc 7f6e 5ebc c3ec 9c3c e5d8 81bb
00000020: c8ef 59bd 757b 7dbd 9a79 6ebd 6815 04bb
00000030: 26b4 91bb cc69 513d f242 86bd 596d 12bd
00000040: 04c9 1abd 802c 82bd ed97 d4bd 91f3 06bb
00000050: eccc 1bbd 1b5c 063d f6d3 26bd 8f06 3d3b
00000060: 0458 e1bb 0ab0 4abc 94d3 d9bc cb76 a1bd
00000070: b627 25bd e6a3 8fbc 2b87 babc ac01 a3bd
00000080: 0545 adbd f80c 87bd 405a 9bbd da32 73bd
00000090: f158 c93c 4219 1abd 3640 a4bd 62c9 06bb
000000a0: 2760 fcbd 83b8 273c fcf2 3b3c f96a c33b
000000b0: e5ee 6b3b c316 c6bb 1bfc 36bd 2ec6 e1bc
000000c0: 45fa 71bc a157 a93c fc31 1ebc 6e89 89bd
000000d0: ef18 adbd 6ca2 2d3b 69d5 a4bc 43ab edbb
000000e0: d4a0 68bc cf8a 72bd aacd 46bd e153 0cbd
000000f0: f322 34bd 3de4 c73b 84bf 54bc 3c89 13bd
00000100: 5cfb 243c c5e9 c8bd fff1 9fbc 3603 683c
00000110: 6568 1bbc 173e 33bd a8c0 d3bc eaf1 bebd
00000120: e882 96bb 3109 523c 7677 c7bd b917 a0bd
00000130: 9acc 5ebd f43d d7bd 05b5 34bc eff6 98bd
00000140: 52cc 443d 7deb b4bd 4112 87bd d5e3 a23c
00000150: 9ae5 83bc ff15 a03b f321 6dbd 6956 1cbd
00000160: af49 bdbd 8f8c 84bd 568d 5abc de51 a5bd
00000170: 1947 4dbd ef06 9bbd 4f24 b9bc c5a6 a7bd
00000180: e995 25bc 35aa efbc 02be 8e3c 10c6 34bd
00000190: 2be7 383d 67cf febc 5427 513c 9f30 c6bc
000001a0: 380a 1dbd 7f0b 093d 1ff8 82bd e01e 08bd
000001b0: a306 1d3b 2953 14bb dd26 1abd 4a2e 9abc
000001c0: fba5 c1bc e1d3 8dbd a1e0 3fbd aa5f 163d
000001d0: 623b d1bd b65f 81bd 3a9b b4bd a928 4abd
000001e0: 3e4d b1bd 7488 f83b f149 9ebd 44a8 a6bc
000001f0: 13aa d6bb c75d e0bd 214f 41bc 1810 23bd
-0.026629422 -0.015993023 -0.030757295 -0.0724532 -0.008945375 -0.013576149 0.019155866 -0.0039626234
-0.05320719 -0.061885316 -0.058221437 -0.002015436 -0.004446524 0.051126286 -0.065557376 -0.035748813
-0.03778936 -0.06356144 -0.1038054 -0.0020591954 -0.038037226 0.032802682 -0.040729485 0.002884302
-0.0068769474 -0.012371073 -0.026590146 -0.07883986 -0.040321074 -0.017534208 -0.022769531 -0.07959303
-0.0846043 -0.065942705 -0.07585573 -0.059374668 0.024578543 -0.037621744 -0.0802006 -0.002056681
-0.12323027 0.010236862 0.011471506 0.00596368 0.0036000547 -0.006045194 -0.04467402 -0.02756032
-0.014769142 0.020671668 -0.009655472 -0.06715666 -0.08452021 0.0026494516 -0.020121293 -0.007253082
-0.014198501 -0.05921441 -0.04853598 -0.03425968 -0.043978643 0.006100206 -0.012985114 -0.03601955
0.010069694 -0.09810213 -0.019524572 0.014160922 -0.009485339 -0.043760385 -0.025848702 -0.09323485
-0.004593242 0.012819574 -0.09739582 -0.07817025 -0.054394342 -0.105098635 -0.011029487 -0.07468974
0.048046418 -0.08833978 -0.065952785 0.01988403 -0.016100693 0.0048854346 -0.057893705 -0.038168345
-0.0924257 -0.06472122 -0.013339361 -0.080722556 -0.050116632 -0.07569682 -0.022600321 -0.08186106
-0.010106542 -0.029255966 0.017424587 -0.0441342 0.045142334 -0.031104757 0.012765724 -0.024193106
-0.038339823 0.03345823 -0.063949816 -0.03323257 0.0023960255 -0.0022632575 -0.03763472 -0.0188209
-0.023638716 -0.06925178 -0.046845082 0.036712326 -0.102164045 -0.063170835 -0.088186696 -0.049355183
-0.08657311 0.007584626 -0.07728947 -0.020343907 -0.006551036 -0.109553866 -0.011798651 -0.03981027

default.encoder_fc.0.weight f4 [128, 128]
00000000: f246 8fbd e87f a2bc ccef d13c c944 a33d
00000010: 5eee a8bd 400b ec3a 7867 99bd 46a4 563d
00000020: f1c9 55bd 209d acbd 64b1 68bd 4de1 72bd
00000030: 7c07 fd3c 2ed7 a3bd 1877 11bd 8052 48bd
00000040: 6050 3ebc 146c d6bc 84c0 34bd 0c8a 80bd
00000050: c83a 8a3c 9668 efbc 894a 84bd cdf1 a1bd
00000060: a3a9 8c3d 363b abbd 46a8 98bd 4855 9fbc
00000070: 9898 c03c 18fb 9cbc ed01 87bd 00ba 79bc
00000080: 2878 393c 9863 96bc 7084 363c e8d0 a3bc
00000090: c216 3b3d b0c2 d13c 20ac 52bb a07a 82bd
000000a0: 5006 4e3c 64e4 f93c 6f02 903d 90f8 74bc
000000b0: d04a 41bc 6fce 54bd 72aa 8abd b656 3dbd
000000c0: 7070 7fbc 5cb6 28bd 38b2 2ebc 4019 41bb
000000d0: e869 3cbc dba1 843d cb47 b2bd b243 263d
000000e0: 8b7e 8f3d 967d 1c3d 959a 00bd 4586 953d
000000f0: 443c d2bc e93b ae3d 0cd8 7ebd 2c50 d93c
00000100: e7d8 adbd 5f09 06bd 001d af3b 56a0 703d
00000110: 4eeb 19bd 406f e0ba 642f d03c 8a30 6f3d
00000120: aea4 723d 9c6d fb3c 7d85 943d 2e23 533d
00000130: 6876 153d 0049 49ba 6f43 8c3d 504c 0abc
00000140: 22ee 7d3d 8014 e9bb 7a1e 4e3d 66b2 5f3d
00000150: 2078 303c c15e 8b3d 6f72 a2bd d032 3abc
00000160: 4c58 2bbd 23bc 24bd b24c a4bd d620 37bd
00000170: 8de0 963d 5a6a 3e3d ff83 5dbd bc81 d1bc
00000180: 7b5d 963d 580d 29bd e874 74bc 0440 c9bc
00000190: 531e b33d 612a 3cbd 8e7a 713d a6c3 97bd
000001a0: 00e8 9bb9 e863 a83c f8a0 4bbc a034 733b
000001b0: 7cfa 85bc b0c6 703c ba9b 68bd 7ad9 03bd
000001c0: 80e8 ff3b a37f 0ebd 09f1 9e3d c85f 15bd
000001d0: 6430 0f3d ba99 89bd 0041 8fbd ae57 5c3d
000001e0: 1d33 2cbd 8696 173d 09ea a93d c051 47bb
000001f0: b08a c83c ae84 5f3d 7f45 22bd f627 5e3d
00000200: ee60 7abd 0412 ebbc b5be 59bd 38f6 65bd
00000210: e6af d9bc 7247 103d 58c7 75bc 22df 433d
00000220: a443 8cbc 449e cc3c e8a8 edbc 4be3 893d
00000230: 3639 783d 7a23 86bd c01d 8dba 30da 25bc
00000240: ce1f 543d 840d bc3c 242d c6bc 8028 c2bc
00000250: b5fd b0bd c8fc 63bc 4069 1fbb bb11 85bd
00000260: 00f9 7f3b 8e09 2e3d 949b d33c 4ffe 8fbd
00000270: 15fe 39bd 22ad 45bd 9e7f 5ebd f5cd 8f3d
00000280: 9d43 12bd 64b3 6cbd 7b02 813d d2a2 abbd
00000290: 8cab f43c 6141 b13d e09d 72bc 89ca 88bd
000002a0: 18ed 7e3c fb83 843d 7f67 a53d 7c26 a73c
000002b0: 3132 97bd f0ca 1e3c c868 62bc c064 433b
000002c0: 7721 913d 4888 21bc 443b 083d 01c4 7ebd
000002d0: 4aab 693d c69b 28bd 126b 363d e204 7fbd
000002e0: 3071 313c 64d8 a5bc 4dfa 943d 9005 093c
000002f0: c0cb 0fbc 20dc a5bd af6c b23d 1ec7 7ebd
00000300: 429e 383d 7672 253d a93a afbd 7c14 b23c
00000310: c305 9c3d 7caa 86bc 2eb0 713d be52 9dbd
00000320: bb3a 81bd 0331 20bd bb49 3fbd 9986 833d
00000330: f09c b33b 9423 a5bc 48c1 83bc a83b e4bc
00000340: bf2b 823d 2082 113c 28ac a1bd a084 e53b
00000350: 25f9 1cbd 324a 763d b695 1b3d 9f38 a03d
00000360: 80c8 c7bc 30b8 37bc 031a 853d ca32 653d
00000370: d4de a7bc 321f 0a3d 5a13 293d a84e 7cbc
00000380: 0a55 37bd adc9 b23d 8281 6ebd 7851 3ebc
00000390: 92c9 95bd 6582 a33d 57f4 4ebd fe72 1b3d
000003a0: c003 a03a 90bf 93bd 51d4 953d 9f3f a93d
000003b0: 76b3 a0bd 50d4 fbbb fd88 913d 67d4 92bd
000003c0: c093 77bb a8e2 a3bd 0e37 febc 704b 87bb
000003d0: 846f 80bd ba80 50bd d41b 8bbd 6dba 9c3d
000003e0: 2c86 05bd c58a 873d 0223 2bbd a0b4 f23c
000003f0: 49c2 8e3d f83a 923c b863 1fbd 95dc 923d
-0.069959536 -0.019836381 0.02562704 0.07972104 -0.0824859 0.0018008724 -0.07490438 0.052402757
-0.05219454 -0.08428407 -0.056809798 -0.059296895 0.030887358 -0.08000027 -0.035513967 -0.048906803
-0.011615843 -0.026174583 -0.04412891 -0.0627633 0.016873732 -0.029224675 -0.06459529 -0.07907448
0.06868293 -0.08360903 -0.074539706 -0.019449845 0.023510262 -0.0191627 -0.06592164 -0.0152421
0.011320151 -0.018358037 0.011139974 -0.019997075 0.045676 0.02560553 -0.0032146052 -0.06371045
0.012574747 0.030504413 0.07031714 -0.01495184 -0.011797622 -0.051954683 -0.06770791 -0.046225272
-0.015590772 -0.041189536 -0.010662608 -0.0029464513 -0.011499859 0.06476184 -0.087051 0.040591903
0.07006558 0.038205706 -0.03139742 0.073010005 -0.025663503 0.08507521 -0.062217757 0.026527487
-0.084886365 -0.03272378 0.0053440332 0.05874666 -0.03757792 -0.0017122999 0.025413223 0.0583959
0.059239082 0.030691914 0.07252023 0.05154722 0.036489874 -0.00076784194 0.068487994 -0.008441046
0.06199468 -0.0071130395 0.050322033 0.054613493 0.0107708275 0.06805182 -0.07931983 -0.011364654
-0.041832253 -0.040218484 -0.08022441 -0.04470905 0.073670484 0.046488144 -0.05408096 -0.025574557
0.07342049 -0.04127249 -0.014920451 -0.024566658 0.08746018 -0.045938853 0.058954768 -0.07410364
-0.00029736757 0.020555452 -0.012428515 0.0037110224 -0.016354792 0.014695808 -0.056789137 -0.032189824
0.0078096986 -0.034789693 0.077608176 -0.036468297 0.03495826 -0.06718774 -0.0699482 0.053794555
-0.042040933 0.037008785 0.08296592 -0.0030413717 0.024480194 0.054569893 -0.039617058 0.05423733
-0.061127596 -0.028695114 -0.053160388 -0.056143016 -0.026573133 0.035224386 -0.015001141 0.047820218
-0.017122097 0.02497781 -0.029011205 0.06732806 0.060601436 -0.06549735 -0.0010766312 -0.010122821
0.051788144 0.022955664 -0.024191447 -0.023700953 -0.08642141 -0.013915248 -0.0024324208 -0.064975224
0.0039058328 0.04248958 0.025831021 -0.070309274 -0.045408327 -0.048260815 -0.054320924 0.07021705
-0.035709012 -0.057788268 0.06299301 -0.08380665 0.029866956 0.08655048 -0.014808148 -0.066792555
0.015559457 0.06470486 0.08076381 0.020404093 -0.0738262 0.009691939 -0.013818927 0.002981469
0.07086461 -0.009859152 0.033259645 -0.062198643 0.05704812 -0.041164182 0.044535704 -0.062260516
0.010830209 -0.020244785 0.072743036 0.008363143 -0.008776605 -0.08098626 0.08712136 -0.06220161
0.0450728 0.04039236 -0.085561104 0.021738283 0.076182865 -0.016438715 0.05900591 -0.076817974
-0.0631003 -0.03910924 -0.046701174 0.06422157 0.005481355 -0.020158567 -0.016083375 -0.027860478
0.06356 0.008881122 -0.07894164 0.0070043355 -0.03832354 0.060129352 0.037984572 0.078232996
-0.024387598 -0.011213347 0.06499102 0.05595664 -0.020491995 0.033721156 0.04127822 -0.0153996125
-0.044758834 0.08729873 -0.058228977 -0.011616103 -0.07313837 0.07983855 -0.05052599 0.037951462
0.0012208149 -0.07214272 0.07315887 0.08264088 -0.078467295 -0.0076852217 0.071062066 -0.07169419
-0.0037777275 -0.080022156 -0.031032111 -0.004128866 -0.0627127 -0.050904013 -0.06792417 0.076527454
-0.03259866 0.06618265 -0.041781433 0.029627144 0.06970651 0.017850384 -0.03891346 0.07170979

default.encoder_fc.0.bias f4 [128]
00000000: 3673 51bd b83e 4ebc 589d 04bd 767f 003d
00000010: fec4 42bd b8d2 003d 208f 36bb d3ff b4bd
00000020: aa5c 48bd a581 893d 023f 5c3d 77af 17bd
00000030: 4f4f aebd 225f 613d 307d c03c 1d16 43bd
00000040: 61c2 9bbd 1163 9b3d 3e44 693d 5488 9ebd
00000050: 2503 8b3d ae18 423d a70e 82bd 18be c8bc
00000060: a67d 08bd d1fc 9dbd b9c4 903d 697d 96bd
00000070: ec1b 9cbc d520 9d3d 4478 84bd 5d4f 69bd
00000080: 22c4 093d dea1 84bd 0a5b 493d ef23 02bd
00000090: 1dc7 b03d 848a e6bc b485 afbd eada 96bd
000000a0: b665 96bd d83f 08bc 6447 953c a207 33bd
000000b0: 640b e13c 23a4 9f3d cdad a73d 0815 1bbc
000000c0: c838 9a3c 44a6 bcbc 2e57 aebd fac4 663d
000000d0: 66d5 743d 318a 16bd 5434 d73c 20e0 83bb
000000e0: 24da 093d d36c 92bd 3669 373d fbb5 b03d
000000f0: 054d 9a3d d0bf 44bd 96b6 53bd 8769 96bd
00000100: b11e 9cbd 4b15 9abd 4914 b23d 3c90 87bd
00000110: 3811 8dbc 7025 f43b 32b9 3a3d 9a1b aebd
00000120: acf8 bcbc 3dea 8f3d e806 3dbd 6457 88bd
00000130: 7fb6 4fbd d61c b1bd 2497 6cbd 62b5 5fbd
00000140: b0b1 dbbb e576 a2bd d28d 523d 6286 5a3d
00000150: 9754 903d a632 293d 8f02 b03d a664 6ebd
00000160: af72 9ebd 59e6 59bd b21d f5bc 2019 3a3b
00000170: 7df1 a5bd a41b ba3c b0a6 9bbb 18c4 203c
00000180: 13af 973d e6d1 77bd 85c8 a1bd c5b6 86bd
00000190: 8062 4ebc 4334 9bbd c25e 08bd 00a1 92ba
000001a0: 2852 c6bc 3bfe 943d 7c21 96bd 44c1 91bd
000001b0: 6e55 08bd a2ef 623d 5371 1ebd a788 863d
000001c0: 8084 d6ba 061f 403d 8157 33bd 121b 43bd
000001d0: 5c39 68bd 648d 8dbc eed2 153d 1544 ad3d
000001e0: ee78 2f3d 2588 b33d cea2 593d c0ac 953c
000001f0: b7e4 883d c0d2 ee3b 2345 90bd 107f 8bbc
-0.051135264 -0.0125881955 -0.032376617 0.031371556 -0.047551148 0.031450957 -0.0027856305 -0.08837857
-0.048916496 0.06714181 0.053771026 -0.03703257 -0.08511221 0.055022366 0.023497194 -0.04762851
-0.07605434 0.07587255 0.056949846 -0.07740846 0.06787709 0.047386818 -0.06350451 -0.024504706
-0.033322953 -0.077142365 0.07068772 -0.07348139 -0.019056283 0.07672278 -0.06468251 -0.056960452
0.033634312 -0.06476186 0.049159087 -0.03177255 0.08631728 -0.028142221 -0.08570424 -0.07365973
-0.073436186 -0.008316003 0.018222518 -0.04370845 0.027471252 0.077949785 0.08187447 -0.009465463
0.018825904 -0.0230285 -0.08512722 0.056340195 0.059773825 -0.036752883 0.02627007 -0.0040245205
0.0336553 -0.07149663 0.04477807 0.0862846 0.075342216 -0.04803449 -0.0516878 -0.073443465
-0.076230414 -0.075235926 0.08695275 -0.066193074 -0.017220125 0.007450752 0.045586772 -0.08501358
-0.023067795 0.07027099 -0.046149164 -0.066572934 -0.05071115 -0.08648078 -0.057761326 -0.05461634
-0.0067045316 -0.079328336 0.05140478 0.053350814 0.07047384 0.041308068 0.08594238 -0.058201455
-0.07736718 -0.053198192 -0.029921386 0.0028396323 -0.08102701 0.022718258 -0.0047500953 0.009812377
0.0740644 -0.06050291 -0.07899574 -0.06577829 -0.012596726 -0.075783275 -0.033293493 -0.0011186898
-0.024209097 0.07275053 -0.073306054 -0.071169406 -0.033284597 0.055404313 -0.038682293 0.06569033
-0.0016366392 0.046904586 -0.043784622 -0.047633238 -0.056695327 -0.017279334 0.03657811 0.08460251
0.042839937 0.08766202 0.05313378 0.01827085 0.06684249 0.007288307 -0.07044437 -0.017028362

default.encoder_fc.3.weight f4 [128, 128]
00000000: e86d 4fbc 4e6a 7a3d 26f6 99bd b4f2 d83c
00000010: 8019 4fbc 7794 9b3d ef87 9a3d 0392 5abd
00000020: 84d6 fa3c 2903 35bd a900 903d cfc9 a33d
00000030: cc8f cc3c 67a2 8a3d bbd8 41bd 00b5 a83a
00000040: 7614 253d e7e8 8abd 331a a23d d695 81bd
00000050: e0be fa3b 1807 0c3c 9acd 253d ce1c 5c3d
00000060: a3e3 99bd 0056 f8bb 0020 67bb 8455 963c
00000070: 764b a0bd 0080 9e36 d036 1ebc 4939 933d
00000080: b039 3c3c 00fe 1bbb 58da a4bc 00a7 bcb9
00000090: e309 31bd e693 adbd 9029 babb bbc5 843d
000000a0: e6d2 793d 1007 e23c d29a 31bd b3ad a2bd
000000b0: 3477 e93c 33fc 1dbd a88e 843c a734 23bd
000000c0: 60a5 bbbb 7a72 333d 367d 413d 263a 0fbd
000000d0: 68f6 683c d640 ebbc 0665 93bd 6440 adbc
000000e0: 9966 a3bd a486 2abd 6dde 853d 2ad1 1b3d
000000f0: 0033 f63b 6efb 473d 116e a3bd 3664 2e3d
00000100: 5862 363c 0944 823d bca6 a7bc 5aa6 d6bc
00000110: 74e0 9c3c 24e0 92bd f3bc 53bd bccb 93bc
00000120: b08b adbc 7e5b 0fbd 40cd ebba 0702 863d
00000130: 0fbd 9d3d be22 45bd 29d4 4dbd c1d7 a93d
00000140: f2ba 5b3d 1dd9 abbd ede6 a43d 6ae4 363d
00000150: 290f b33d 655a a73d d0e0 fd3b 93e7 09bd
00000160: 54cf c4bc 6fd0 13bd f06a cbbb 6eaf 653d
00000170: 0422 cebc a4a0 b1bc 1932 56bd 87ac a63d
00000180: 48a5 0c3d 678e 87bd e0a8 d33b f8e8 683c
00000190: f2c7 0fbd c797 843d 8e0c 183d a1aa 66bd
000001a0: 5207 653d 7020 d3bb 6856 62bd 902a 86bc
000001b0: 170c a33d 89e3 863d 186f 453c d911 8a3d
000001c0: e8c7 73bc 5f41 a5bd 0d0f 2abd 163e 473d
000001d0: 5033 3b3c 4e34 583d 5a4e 333d c58c 65bd
000001e0: 58e2 2abc a68b 263d ba72 83bd af87 b13d
000001f0: 788a 99bc 4ca6 c83c d0f1 023c 4856 c33c
00000200: f867 52bd efcf 9fbd 38c4 93bd 98cf 5b3c
00000210: c4aa a6bd b1b0 a9bd ddb2 37bd 424b 063d
00000220: c083 01bc e2ee 9cbd c0ec 22bb c668 513d
00000230: 8427 d53c b0c7 343c bbab 8b3d 99d8 15bd
00000240: cf81 953d 8c63 f03c 33df a33d c616 573d
00000250: 81d6 893d b282 3c3d 4b1d 923d 7abf dabc
00000260: 0063 b13a 1320 a4bd 308e d3bc 8ae2 65bd
00000270: 4840 adbd 604b 17bc ec9e a6bd 7c45 e03c
00000280: d4b8 99bc 82ca 91bd a15b 923d d0b3 0cbc
00000290: 9cc7 cdbc 78ca b5bc a0dc 6e3b 5c96 90bc
000002a0: bf5a 823d b6be 1c3d eed0 433d 80b5 973a
000002b0: 23a8 9f3d dd63 b43d 61b7 933d c8eb d03c
000002c0: 8157 803d aa6b 8fbd ec7a 75bd 2dd0 8cbd
000002d0: e14f a83d d036 d3bc 4c58 e13c 8eb1 85bd
000002e0: 5430 7cbd 489d 80bd 0cfb 8b3c 8bc6 24bd
000002f0: f062 f7bc 2478 8ebd 782d 763c eca5 88bc
00000300: ae61 513d d444 05bd 2c4d d0bc 85f8 923d
00000310: 5d63 1dbd 6da0 aabd bcc2 9ebc f084 ac3c
00000320: a440 8dbd d97b aa3d 463a 473d 3bd3 b33d
00000330: e0de 4a3b 780a d03c c5f1 1bbd 8807 87bc
00000340: 911b 4cbd 2cbc b93c 00a4 95b8 185e 293c
00000350: dada 82bd 4b85 58bd a44a f43c 484a 1bbc
00000360: 164e 253d 663a 95bd aece 2a3d 6045 40bb
00000370: 87f2 803d ba8a 99bd 10b7 fc3b 199c 0ebd
00000380: e87f d9bc 1c88 00bd 40d5 4ebc 8eab afbd
00000390: 382e 52bc c0f5 75bd 2a68 1d3d 2a30 103d
000003a0: c4b3 12bd 39df 01bd a3d8 88bd c9d2 50bd
000003b0: 6882 78bc fbe2 22bd bbec 9d3d c257 9ebd
000003c0: 2828 343c 9190 68bd 672c 5dbd e5bf 88bd
000003d0: e580 1bbd b851 9abc 9a0a 213d 226e 3d3d
000003e0: 8c09 b2bc 4481 db3c 0d77 8c3d b61c 083d
000003f0: 0f2b 803d 3314 ad3d d06a b1bc 90e3 f13b
-0.012660481 0.061136536 -0.07517652 0.026482917 -0.012640357 0.07596677 0.075454585 -0.053361904
0.030619867 -0.044192467 0.07031376 0.07997476 0.024970911 0.06769257 -0.04732583 0.0012871325
0.040302716 -0.06782704 0.07915153 -0.06327407 0.0076521486 0.008546613 0.04047928 0.053738408
-0.075141214 -0.0075786114 -0.0035266876 0.018351324 -0.07826893 4.723668e-06 -0.009656623 0.07188661
0.011488363 -0.002380252 -0.020123646 -0.0003598258 -0.04322232 -0.08475475 -0.005681224 0.064830266
0.060992144 0.027591258 -0.04336054 -0.07943287 0.028499223 -0.038570594 0.016181305 -0.039845135
-0.0057265013 0.043810345 0.04723855 -0.034967564 0.014218904 -0.02871744 -0.07197003 -0.021148868
-0.07978553 -0.04163231 0.06536565 0.03804127 0.007513404 0.048823766 -0.07979978 0.042576037
0.011131845 0.06360633 -0.020465247 -0.02620237 0.019149996 -0.07171658 -0.051693868 -0.018041484
-0.021184772 -0.034999363 -0.0017990246 0.065433554 0.07702076 -0.048128836 -0.05025116 0.08293105
0.05364508 -0.083910204 0.08051858 0.044651426 0.08743126 0.08171538 0.007747747 -0.033668112
-0.024024643 -0.03608745 -0.0062078163 0.056075506 -0.025162704 -0.021683045 -0.05229387 0.08138376
0.034337312 -0.06618958 0.0064593405 0.0142157 -0.035102792 0.06474262 0.037121348 -0.05631507
0.055915184 -0.006443076 -0.055258185 -0.016377717 0.0796129 0.06586368 0.012050413 0.067416854
-0.014879204 -0.08069109 -0.04151826 0.048643194 0.011425808 0.052784257 0.043775894 -0.05604245
-0.010429941 0.040660523 -0.06418367 0.08668458 -0.018742785 0.024493359 0.007992223 0.023844853
-0.051368684 -0.07803332 -0.0721516 0.013416193 -0.0813804 -0.08285654 -0.04484831 0.032786615
-0.007904947 -0.07662751 -0.0024860352 0.05112531 0.02601982 0.011033937 0.06819864 -0.036583517
0.0730015 0.029344343 0.08001556 0.052511953 0.067303665 0.04602308 0.071344934 -0.026702631
0.0013533533 -0.0801393 -0.025824636 -0.056124248 -0.08459526 -0.009234279 -0.08135781 0.027376883
-0.01876489 -0.071187034 0.07146383 -0.0085877925 -0.025119595 -0.022191271 0.003644742 -0.017649822
0.06364965 0.038267814 0.047806673 0.0011574477 0.077957414 0.0880811 0.07212711 0.025503054
0.0626669 -0.07002957 -0.05993168 -0.06875644 0.08218361 -0.025782973 0.027507924 -0.065280065
-0.061569527 -0.06279999 0.017087482 -0.040228408 -0.030198544 -0.06956509 0.015025489 -0.01668068
0.051118545 -0.032536343 -0.025427423 0.071763076 -0.03842484 -0.0833138 -0.019379966 0.021059483
-0.06897095 0.08324403 0.04863956 0.087805234 0.0030955598 0.025395617 -0.038072366 -0.016483083
-0.049830977 0.022672735 -7.135421e-05 0.010337375 -0.06389399 -0.052861493 0.029820748 -0.009478159
0.04035767 -0.07286529 0.04170101 -0.0029338226 0.062962584 -0.07497163 0.0077122524 -0.034816835
-0.026550248 -0.031379804 -0.012624085 -0.08577643 -0.012828402 -0.06004882 0.038429417 0.035202183
-0.03581597 -0.031707022 -0.06681945 -0.05098227 -0.01516781 -0.039767247 0.077111684 -0.07731582
0.010995902 -0.056778494 -0.053997423 -0.06677226 -0.03796472 -0.018837795 0.03931675 0.04624761
-0.021733068 0.026795037 0.06858645 0.033230506 0.06258213 0.08451118 -0.021657377 0.007381864

default.encoder_fc.3.bias f4 [128]
00000000: d312 b23d d408 7fbd e1a8 aebd c0da a1bd
00000010: 32cd 3e3d c6ea f1bc c73c 11bd 0ddc 16bd
00000020: f3fa ae3d b49f 4dbd 5fd8 b33d 1769 1abd
00000030: bc45 073d 3025 4c3c 64c5 89bd 3fc4 54bd
00000040: 8c12 bbbc d6eb 1a3d 40d7 fb3b e914 b33d
00000050: a093 903c 98b9 72bd c020 b03b 9744 a4bd
00000060: 0f1a 81bd ac13 a2bd 40b7 87bb b807 593c
00000070: 1dc0 9b3d d5a4 8dbd 1497 fcbc 0cbc a3bc
00000080: 3a7d 273d dab3 163d 401b 8fbd c076 adbb
00000090: d072 67bc 5212 2e3d b4c6 b8bc 40d7 ba3c
000000a0: a831 efbc 9827 233c 7bf1 883d 9604 99bd
000000b0: a85b acbd 23d5 a63d 1810 43bc ac63 c43c
000000c0: 1173 9a3d 5cea 9cbc edcd a73d 081f 4bbc
000000d0: 1a83 303d 5a31 343d 8a6d 683d 4468 89bc
000000e0: 6aa6 d7bc becd 29bd c048 f8ba c9ee 58bd
000000f0: 2f7e 8abd eeb4 143d b820 383c a03d bd3b
00000100: ba01 673d ce7d 303d 8274 643d cc2c 7dbd
00000110: f81a ddbc 03cb 4dbd 0017 e3b9 e832 a6bc
00000120: 4c3a 963c 3884 8bbd da34 393d 8018 41ba
00000130: 802c 563b 80f4 493c 8412 933c 8e49 5b3d
00000140: 081b e33c 222f 273d f455 83bd ec7e b53c
00000150: 4c9c a4bd 8cc5 82bd 58ee 33bc 24cd adbd
00000160: a1e2 94bd 6cf9 76bd c881 25bc b4e0 6cbd
00000170: 0b1a 893d 059a b43d 9217 0ebd 24fb 87bd
00000180: 0c4f d9bc ea00 55bd 7c98 8cbd 15c2 30bd
00000190: 50d4 7c3c 4baa 883d 4c3b 26bd 20d3 5fbd
000001a0: 9b30 50bd d428 103d 56f3 603d 9048 8cbd
000001b0: f754 82bd f6d8 023d e89a c6bc 207f ab3c
000001c0: e013 1d3c c0ce 5abc b444 0cbd 0c34 9fbd
000001d0: 4803 4abc 608c 27bb c265 2cbd 36a5 093d
000001e0: f111 84bd 14e9 abbd efd5 ad3d 22bc 223d
000001f0: a835 d93c 5e1b 313d f022 a4bd 59b9 863d
0.08694997 -0.06226428 -0.08528305 -0.079030514 0.04658241 -0.029530894 -0.035458352 -0.03683095
0.085439585 -0.050201133 0.08781504 -0.037697878 0.03302549 0.012460038 -0.067271024 -0.051944967
-0.022835992 0.037822567 0.007685572 0.08744223 0.017648518 -0.059259027 0.005374998 -0.08020895
-0.063037984 -0.07913908 -0.004141718 0.013246469 0.07605002 -0.06916205 -0.030833758 -0.019987129
0.04089091 0.036792614 -0.069876194 -0.005293697 -0.0141264945 0.04249794 -0.022555687 0.022807717
-0.029198483 0.00995817 0.06686684 -0.07471578 -0.084159195 0.08146121 -0.0119056925 0.023973309
0.075414784 -0.01915472 0.08193574 -0.012397535 0.04309378 0.043992378 0.05674509 -0.01677335
-0.02632447 -0.041455977 -0.001894258 -0.0529621 -0.06762349 0.03630536 0.0112382695 0.0057751685
0.05639813 0.043088727 0.055775173 -0.0618103 -0.026990399 -0.050242435 -0.0004331395 -0.020287946
0.018338345 -0.06812328 0.04521642 -0.00073660165 0.0032680333 0.01232636 0.017953165 0.053536944
0.02772285 0.040816434 -0.06412879 0.022155248 -0.08037624 -0.06385335 -0.010982119 -0.08486393
-0.072697885 -0.06029646 -0.010101743 -0.05783148 0.066944204 0.088184394 -0.034690447 -0.06639698
-0.02652695 -0.052002825 -0.068650216 -0.04315384 0.015431479 0.06673106 -0.040583894 -0.054644704
-0.050827604 0.035195187 0.054919563 -0.06849778 -0.06363862 0.03194519 -0.024243787 0.020934641
0.009587258 -0.013354957 -0.034245208 -0.07773599 -0.012329884 -0.0025565848 -0.04208923 0.033604823
-0.064487346 -0.083940655 0.0848807 0.0397302 0.026514843 0.04323899 -0.08014476 0.06578321

default.mean_encoder.weight f4 [10, 128]
00000000: 90cb eab9 f45d ce3c b9a6 f2bd 8a91 3f3e
00000010: 4538 e53c 48b7 65bc 408f 99bd dbd0 54bb
00000020: 5bbc 563d ee6b b5bd 66aa 16be b5ab 523b
00000030: 2fbe ffbc a934 05bd 636d 0d3d 5fd0 073d
00000040: 1864 a0bd 8a27 9eba 3382 c2bd d98d 7a3d
00000050: f500 fa3d 9419 b43d a2b9 cbbd b92d 2abd
00000060: 3841 c2bd ed7a bbbd 52dc 1ebd 436f 59bd
00000070: e27a 343a 3a42 ec3c 5e3f e53c f609 2fbc
00000080: f54c 9cbc 01cb 17bc b784 e63d d27c b2bd
00000090: 392c 283c 95d8 55bc deed 2b3b c3ea c63d
000000a0: 0d22 f5bd fd62 993d 8e0f 81bb e900 9bbd
000000b0: 43a1 c7bd fca8 3fbd 41bd ac3d b580 80bd
000000c0: f72e 2dbd e62a 293d b349 953d 16e7 bc3c
000000d0: e11c 7fbb 8d39 9e3c 99fd dabb ced9 dc3d
000000e0: 8d63 e43d 97cb 33bd 2ee5 403e 4239 983d
000000f0: e14b 943c 2935 d13d e940 6dbd e75b e0bd
00000100: 8428 90bd a7a8 bb3c ea38 023d 3b49 2d3d
00000110: 6298 7f3d 5f52 3bbd 00ab 393c 75e4 93bc
00000120: d82b 613d 67cc 8a3d 38ee febd bcfe 353c
00000130: 1fb1 68bd 3f6e 293d 6003 8ebd d092 9b3c
00000140: e909 be3d 7b32 503d 9f8c 133e bd92 afbd
00000150: b5c9 ab3c c5fe a03d eea6 b33b 810b 083d
00000160: ae92 ce3d a2bf d8bc 17bf c6bd 6b04 933d
00000170: a277 84bd 94d8 eabd a909 45be c1f1 f03c
00000180: 6b8f 153e 34e8 7fbd f407 373d 1bc5 03be
00000190: 34be c7bd 1dd0 09be 8f33 6d3c 3b57 fcbd
000001a0: 933d ee3c f8ba 763d 077a bbbd 75c6 b63c
000001b0: 2664 a6bd 9817 20bd ddfa 10be 2f94 95bd
000001c0: c8c3 0abe 9d3b 803d fcf6 38bd e037 d53d
000001d0: 4520 8abd b99e dfbd a0ca c7bd 5886 e7bd
000001e0: d54b bb3c 3667 9c3d 9777 27bd 24c4 d73d
000001f0: 59f0 fd3b 00aa e8bc 509d 2abd 1f97 02be
00000200: 1d26 32bb 744d 153e ee79 1a3d 319e 21be
00000210: 0e52 57bc fca6 8e3d daf8 003e 955e 803c
00000220: acfe 28bd 5af0 33bd 8048 6bbd 7d1b 8b3d
00000230: bc52 2e3d 32f0 923d 9c43 ea3d dadc 0abd
00000240: a400 d5bd 35ae 753d 394c b43d e1c4 903d
00000250: 9127 1e3e 30f7 0d3e 1be8 7a3d a991 7dbd
00000260: dc38 b6bd 56d1 4f3d ab32 aebd aad4 a23c
00000270: f8f5 39bc 13c6 1bbd b194 593d edae 13be
00000280: 2d5e b9bd fe4b 783d 589f 6a3d 5f57 b13c
00000290: 4c87 d53d 3c19 b9bd 314d 3bbe dc88 923d
000002a0: 3aa0 26be dcf9 22bc 4c86 44bd 1883 b6bd
000002b0: d096 bc3d 1d4c 82bc 1ac4 26bd f9fc edbd
000002c0: 4cc0 703c 5b46 a33d 4411 dcbd d793 24bd
000002d0: b54d adbc c483 113e ece5 c2bd 7d3d 15bd
000002e0: 560e af3d d6f3 ebbc f9bd f9bd c27c fb3d
000002f0: 4a6e 0ebc 97c7 1f3d a8c8 323d f599 2bbd
00000300: 1b4a 44bd edf9 cf3d afa4 013d 69c1 fa3d
00000310: 24a9 fa3d 133e 86bd 18ab 713d 0660 193e
00000320: b7c7 d4bd 882a f13a 6a9b 8b3d d429 fabb
00000330: e040 9ebc d6f1 1bbe 7dad 05bd 8e3e cfbd
00000340: 7876 10ba b48c 06be 1735 07be e2b3 c53d
00000350: 43cb 6abd 2be6 f63c 5016 5fbd 2af5 813a
00000360: 0d22 cf3c d182 b4bd de11 7b3d 0999 4bbd
00000370: 7e72 05bd cfa8 c1bd f6fb abbc f4f0 303e
00000380: 8e47 86bd e2c0 8d3d 9a52 bdbb 940b 0bbe
00000390: b648 09bd 7dc0 9a38 01a0 273e 154a 993d
000003a0: 65d7 003e 1420 babd 18c9 023e 8735 753d
000003b0: 1c75 d93d f4e0 8b3d d3c3 31be effc 693d
000003c0: 8275 a33d 3bc5 fe3d 03b9 30bd 4a5a 3a3b
000003d0: 6f14 993d 8aa2 d03d 3c71 f43d b91b d43d
000003e0: c902 e93d 69da bb3d f5d4 43be 4092 81bb
000003f0: 97b6 4a3d 37e6 bcbd 87a8 073e 708e dd3c
-0.00044783624 0.025191285 -0.11848206 0.18707862 0.027980933 -0.014020748 -0.07498026 -0.003247312
0.052425724 -0.088584766 -0.1471344 0.0032145802 -0.031218616 -0.032520924 0.034528147 0.033157703
-0.07831591 -0.0012066227 -0.0949749 0.061170433 0.12207214 0.08793941 -0.09947516 -0.04154751
-0.09485096 -0.091543056 -0.038784333 -0.053084623 0.0006884766 0.028840173 0.027984317 -0.010683527
-0.019079665 -0.0092647085 0.11255782 -0.08715214 0.01026445 -0.013052125 0.002623431 0.09712746
-0.11969385 0.07489584 -0.003938622 -0.07568533 -0.09747555 -0.046792015 0.08434535 -0.06274549
-0.042281117 0.041300677 0.07289448 0.02305941 -0.0038927125 0.019314552 -0.006683063 0.107837304
0.111518 -0.04389533 0.18837425 0.07432796 0.018102588 0.102152176 -0.05792323 -0.10955029
-0.07038978 0.022907568 0.03179256 0.042306166 0.062401183 -0.045732852 0.0113322735 -0.018053273
0.054973453 0.06777268 -0.1244778 0.011108097 -0.05680954 0.041364904 -0.069342375 0.018990904
0.09279234 0.050829392 0.14409111 -0.0857291 0.020970205 0.078610934 0.005482546 0.033214096
0.10086571 -0.026458565 -0.09704416 0.07178577 -0.06468131 -0.1146709 -0.19241966 0.029412152
0.14605491 -0.062477306 0.04468532 -0.12868159 -0.09753075 -0.13458295 0.014477625 -0.123213254
0.029082095 0.0602369 -0.09154134 0.022311429 -0.081245705 -0.039085 -0.14158197 -0.073036544
-0.13551247 0.0626137 -0.045157418 0.10411048 -0.06744436 -0.10918946 -0.097554445 -0.11304921
0.022863308 0.076368734 -0.040885534 0.10535458 0.007749599 -0.028401375 -0.04165393 -0.1275296
-0.0027183362 0.14580327 0.037713937 -0.15783001 -0.013142122 0.069654435 0.1259493 0.0156701
-0.0412585 -0.04393039 -0.05744219 0.06792352 0.04255937 0.0717472 0.11438677 -0.033902027
-0.10400513 0.05998059 0.08803601 0.07068802 0.15444781 0.13863826 0.06125651 -0.06190649
-0.08897564 0.050736748 -0.08505758 0.019876797 -0.011350147 -0.038030695 0.05312032 -0.14422198
-0.09051166 0.060619347 0.05728087 0.021648107 0.104261965 -0.09038016 -0.18291165 0.0715501
-0.16272059 -0.009947266 -0.047979638 -0.08911723 0.09208453 -0.015905434 -0.04071436 -0.11620516
0.014694285 0.079724036 -0.10745481 -0.040180054 -0.021155218 0.14210421 -0.0951651 -0.036435593
0.08547656 -0.028802793 -0.121944375 0.12279655 -0.008693287 0.039008703 0.043648392 -0.04189487
-0.047922235 0.101550914 0.031651195 0.12243921 0.12239292 -0.065548085 0.05900106 0.14978036
-0.10389655 0.0018399516 0.06816752 -0.007634381 -0.019318044 -0.15228972 -0.032636154 -0.10119353
-0.0005510817 -0.13139611 -0.13203846 0.096534505 -0.05732275 0.03013905 -0.05446464 0.0009914984
0.025284791 -0.08814014 0.061296336 -0.049706493 -0.03257989 -0.09456026 -0.020994168 0.17279416
-0.06556617 0.06921555 -0.005777669 -0.13578635 -0.03351661 7.379146e-05 0.1636963 0.07484833
0.12582166 -0.0908815 0.12772024 0.0598655 0.1061804 0.06830016 -0.17359857 0.057125982
0.07981397 0.124399625 -0.04314519 0.0028435164 0.074746005 0.10187252 0.1193566 0.1035685
0.11377484 0.09172518 -0.19124205 -0.003954202 0.049490537 -0.092235975 0.13247882 0.027045459

default.mean_encoder.bias f4 [10]
00000000: f61f 14be ec43 c03d 2550 88bd 3484 7c3d
00000010: c89a 2bbd 16e1 c4bd 40a2 aebb 7c83 0abe
00000020: 2a46 7d3c 4080 3dbd
-0.14465317 0.09387955 -0.06655911 0.061649516 -0.041895658 -0.09613244 -0.0053294003 -0.1352672
0.015458623 -0.046264887
