models/mnist-relaxed1E/encoder_z2_z1_-4105537841436810383.pt (torch_old, 88270 bytes, 8 tensors)

default.encoder.to_hidden.weight f4 [128, 19]
0.39480993 -0.068696976 0.017530525 0.012193674 0.005187387 0.13105455 -0.042519942 0.032173894
0.0973881 -0.066092856 0.15606193 0.092669874 0.01094372 0.0015064589 0.04936198 0.1677214
-0.09661022 0.14321916 0.23160361 -0.0514894 0.021925164 0.017463041 0.021134684 0.011452878
-0.0036747425 0.02939635 -0.0012243105 0.00697487 -0.00021570385 0.61315197 -0.7006279 0.53151304
-0.32807982 -0.29498637 -0.11484468 -0.0075133666 -0.3152959 -0.017852062 0.013483731 0.030412644
0.049478143 -0.056138586 -0.0016251262 -0.0050448086 -0.04754557 0.048309136 -0.022106633 0.003097859
0.23617293 -0.7249374 0.12899144 0.45235023 0.5752366 -0.022815408 -0.09186288 0.5998141
-0.082113884 0.1789536 -0.1993367 0.11431306 -0.11493867 -0.044979446 0.09803632 0.18536082
0.0021330197 -0.12910843 0.04261738 -0.08807534 0.13310295 -0.18487959 0.16311611 0.029180827
-0.2793445 0.00042911415 -0.23107564 0.13822572 -0.030790813 -0.017836861 -0.06465977 -0.06850964
-0.0086438535 0.01869831 0.08529442 0.029777106 -0.0924774 0.021420617 -0.13766514 -0.047136143
0.057198126 0.49599263 0.43016198 -0.08317095 0.036747932 0.378219 0.141844 0.017213045
0.036211263 0.024280455 -0.07519033 -0.008623749 0.008281005 0.055387244 0.035555482 -0.03608258
0.097466804 -0.18183866 0.046246406 -0.030825859 0.23092858 0.3321118 -0.45405918 0.0064605316
0.29808763 -0.19677944 -0.04032241 -0.28527486 -0.028551908 0.150462 0.002483603 -0.023347804
0.19391663 0.11103157 -0.293034 0.10051322 -0.61887777 -0.20618697 0.18588877 0.11509179
0.09788075 -0.13619469 -0.0038045489 0.2655824 -0.040472697 -0.040388912 0.03447061 0.011997116
0.15685745 -0.07486249 0.038439866 0.010063569 0.038236156 0.068248704 -0.03896542 0.19156383
-0.3810205 -0.3358918 -0.18278165 -0.14949638 -0.15683335 -0.17331207 0.028964818 -0.038789622
0.060549315 -0.014972095 -0.13560441 -0.0178355 0.10548466 0.035905108 0.005335366 0.10153195
-0.11984009 -0.019862644 0.15744705 -0.34444037 0.29374114 0.1808793 -0.15527052 -0.1844764
-0.37441486 0.16686831 -0.4520531 0.029225014 -0.08236853 -0.02961918 -0.0016989446 0.013389638
0.09762754 0.15173078 -0.02041826 0.058009367 -0.07130307 0.21098833 -0.2927567 0.20578839
0.43530777 0.18783337 -0.024876785 -0.010743254 0.1731033 -0.17086408 0.24926041 0.029746028
0.11535735 -0.15092205 -0.021557651 -0.033928536 -0.08728192 0.050358623 0.019092081 -0.056313023
-0.27681276 0.07940267 -0.6164461 0.53125906 0.039109398 -0.08699071 0.029436817 0.12746868
-0.13754508 -0.040148042 0.006901583 -0.04099965 0.028695567 -0.05948463 0.037453353 0.017980427
0.024811922 -0.05384128 -0.017631868 0.27535525 -0.32241258 0.3727745 0.2703441 -0.53985596
0.08601482 -0.35247043 0.4771012 -0.5109783 0.028100327 -0.03860438 -0.03033518 -0.16058707
-0.035311103 0.0074753934 0.006475996 -0.024020957 0.05005051 -0.008397865 -0.30953866 -0.006028155
-0.49102882 0.6050234 0.60705554 -0.0753435 0.33485442 -0.09231626 -0.3672551 -0.038835716
0.07047976 -0.063989386 0.095772006 0.037420325 -0.08576008 -0.0035790766 0.014443658 -0.058299314
00000000: 8724 ca3e 00b1 8cbd 2d9c 8f3c fac7 473c
00000010: f5fa a93b 2a33 063e 6429 2ebd c6c8 033d
00000020: 6a73 c73d b15b 87bd b3ce 1f3e b4c9 bd3d
00000030: 4a4d 333c 5f74 c53a ca2f 4a3d 29bf 2b3e
00000040: 94db c5bd 0ba8 123e 7f29 6d3e 8de6 52bd
00000050: 679c b33c a70e 8f3c a522 ad3c daa4 3b3c
00000060: f3d3 70bb 9dd0 f03c 0b79 a0ba 738d e43b
00000070: 902e 62b9 87f7 1c3f 5a5c 33bf 3d11 083f
00000080: 14fa a7be 7408 97be b033 ebbd b032 f6bb
00000090: 776e a1be 7d3e 92bc deea 5c3c f023 f93c
000000a0: 98a9 4a3d 93f1 65bd 3002 d5ba ec4e a5bb
000000b0: 25bf 42bd cddf 453d f818 b5bc 7305 4b3b
000000c0: 51d7 713e 7f95 39bf 5516 043e 739a e73e
000000d0: b542 133f 61e7 babc 9b22 bcbd 6b8d 193f
000000e0: 532b a8bd 9d3f 373e eb1e 4cbe f71c ea3d
000000f0: f764 ebbd 5e3c 38bd 44c7 c83d 3acf 3d3e
00000100: 22ca 0b3b 0035 04be 908f 2e3d d860 b4bd
00000110: 244c 083e 1351 3dbe e907 273e a10c ef3c
00000120: 3e06 8fbe bafa e039 189f 6cbe 0b8b 0d3e
00000130: 043d fcbc 9c1e 92bc 576c 84bd c84e 8cbd
00000140: f39e 0dbc 332d 993c d7ae ae3d 1eef f33c
00000150: cb64 bdbd 4a7a af3c 17f8 0cbe d411 41bd
00000160: 9548 6a3d bff2 fd3e 313e dc3e 8855 aabd
00000170: 0085 163d eca5 c13e 8e3f 113e 5f02 8d3c
00000180: 4352 143d cee7 c63c 63fd 99bd a04a 0dbc
00000190: 0dad 073c bcdd 623d a0a2 113d 54cb 13bd
000001a0: ad9c c73d ea33 3abe df6c 3d3d 8386 fcbc
000001b0: 8b78 6c3e 8f0a aa3e 727a e8be deb2 d33b
000001c0: f19e 983e 8d80 49be 1d29 25bd 8c0f 92be
000001d0: b1e5 e9bc b612 1a3e f2c3 223b e543 bfbc
000001e0: 1592 463e 8564 e33d 8d08 96be e0d9 cd3d
000001f0: c66e 1ebf ad22 53be a059 3e3e 3fb5 eb3d
00000200: b475 c83d 9f76 0bbe bd55 79bb 6bfa 873e
00000210: b3c6 25bd d86e 25bd 0e31 0d3d 8d8f 443c
00000220: 3d9f 203e 8151 99bd 1f73 1d3d abe1 243c
00000230: 849d 1c3d fac5 8b3d 349a 1fbd 4f29 443e
00000240: 1e15 c3be 03fa abbe 1d2b 3bbe 9415 19be
00000250: ec98 20be b878 31be a047 ed3c dee1 1ebd
00000260: 8f02 783d 854d 75bc e2db 0abe c11b 92bc
00000270: 5708 d83d 3c11 133d 4bd4 ae3b fcef cf3d
00000280: b96e f5bd fcb6 a2bc cd39 213e 7d5a b0be
00000290: 3d65 963e 6c38 393e 3cff 1ebe 62e7 3cbe
000002a0: 4eb3 bfbe 87df 2a3e 8173 e7be 4c69 ef3c
000002b0: d5b0 a8bd eca3 f2bc 1faf deba 3660 5b3c
000002c0: f3f0 c73d 505f 1b3e 3244 a7bc 3b9b 6d3d
000002d0: 5807 92bd 530d 583e 35e4 95be 31ba 523e
000002e0: a9e0 de3e 6457 403e 66ca cbbc 7904 30bc
000002f0: fe41 313e fef6 2ebe 1f3e 7f3e f1ad f33c
00000300: 7940 ec3d 4f8b 1abe ac99 b0bc a6f8 0abd
00000310: ddc0 b2bd d844 4e3d ff66 9c3c 7ca8 66bd
00000320: 67ba 8dbe de9d a23d 69cf 1dbf 9800 083f
00000330: 2d31 203d 2f28 b2bd 7b25 f13c 2687 023e
00000340: 9ed8 0cbe 4672 24bd ad26 e23b 40ef 27bd
00000350: f712 eb3c 28a6 73bd b068 193d b04b 933c
00000360: 5f42 cb3c ad88 5cbd b570 90bc 5dfb 8c3e
00000370: 4313 a5be 4ddc be3e 8b6a 8a3e 0034 0abf
00000380: 8a28 b03d 0177 b4be 9c46 f43e 79cf 02bf
00000390: a832 e63c a01f 1ebd 7c81 f8bc f070 24be
000003a0: 60a2 10bd 25f4 f43b 9834 d43b 99c7 c4bc
000003b0: c301 4d3d 3397 09bc da7b 9ebe d487 c5bb
000003c0: 2168 fbbe d0e2 1a3f fe67 1b3f b14d 9abd
000003d0: 0a72 ab3e 4f10 bdbd dc08 bcbe 3312 1fbd
000003e0: b157 903d de0c 83bd 1d24 c43d 0e46 193d
000003f0: fba2 afbd f18e 6abb 18a5 6c3c 43cb 6ebd

default.encoder.to_hidden.bias f4 [128]
0.057471287 -0.30030155 0.056618024 0.1825198 0.17548095 0.12737635 0.08245157 -0.17422947
-0.258088 -0.22903939 -0.011142247 -0.066803716 -0.103823766 -0.1295603 -0.3053659 -0.079617776
-0.1977544 -0.046794843 0.107764564 -0.23511997 -0.07582452 -0.0011781154 0.08243414 -0.34208256
-0.32227734 -0.15543248 0.078228645 0.10550804 0.36571553 0.20813881 -0.015853986 -0.1510219
-0.22103392 0.13635796 -0.29487985 -0.28065142 -0.03226529 -0.24769258 -0.22038293 -0.3090474
-0.2448324 0.018558681 -0.25096622 0.035257727 -0.1767567 0.05474473 0.044773187 0.0689101
0.21435668 -0.24191599 0.24409427 0.23816249 -0.33335742 0.14245439 -0.17971611 -0.27670738
0.010098647 0.06389496 0.2260369 -0.10007128 -0.11139563 0.0018963672 -0.120716624 0.14893405
-0.009232287 0.06507564 -0.1840712 0.11417376 0.08497964 0.074417844 -0.15927097 -0.13089086
0.10873889 -0.23078668 -0.18377914 -0.21920122 -0.06611346 -0.30516654 0.08091727 0.18911037
0.08343357 -0.03625475 -0.09731665 0.048075296 -0.15859474 0.29586133 -0.16262808 0.1742602
0.077138565 -0.015533073 -0.032346234 0.21692559 0.14433886 0.2319042 -0.26017517 -0.1604462
-0.015036691 0.112085834 -0.1443884 0.109949276 0.23145176 0.13365111 0.089521304 0.0988282
0.03562588 -0.09940019 0.14047983 0.15068671 -0.25366855 0.048162628 0.040208615 -0.23515001
-0.1551006 0.11047562 0.17701772 -0.13817023 0.033799674 -0.017750187 0.015595804 0.13600291
0.25522855 0.056562707 0.09839368 -0.26721948 -0.07186761 0.047496874 0.15509248 -0.28014746
00000000: 0367 6b3d 20c1 99be 4de8 673d 78e6 3a3e
00000010: 47b1 333e f26e 023e 5edc a83d 3669 32be
00000020: 1c24 84be 4d89 6abe f98d 36bc 63d0 88bd
00000030: 8ea1 d4bd 75ab 04be eb58 9cbe a50e a3bd
00000040: 2180 4abe f3ab 3fbd abb3 dc3d 4ac3 70be
00000050: e349 9bbd fe6a 9aba 3bd3 a83d 7225 afbe
00000060: 8901 a5be b129 1fbe 5736 a03d 9914 d83d
00000070: 113f bb3e 5722 553e 38e0 81bc 7ca5 1abe
00000080: b756 62be 6ca1 0b3e 7efa 96be 8bb1 8fbe
00000090: 9c28 04bd 20a3 7dbe 10ac 61be 763b 9ebe
000000a0: 58b5 7abe 6008 983c a57e 80be 686a 103d
000000b0: b5ff 34be 033c 603d 1764 373d bd20 8d3d
000000c0: 5180 5b3e d3b8 77be d9f3 793e dee0 733e
000000d0: d3ad aabe 90df 113e 8007 38be 97ac 8dbe
000000e0: cc74 253c 5cdb 823d 3876 673e 2cf2 ccbd
000000f0: 6423 e4bd 868f f83a 473a f7bd 2b82 183e
00000100: 0543 17bc 6146 853d 297d 3cbe efd3 e93d
00000110: ce09 ae3d 6268 983d ee17 23be 4108 06be
00000120: 7fb2 de3d 5853 6cbe 9930 3cbe 4976 60be
00000130: 7e66 87bd ca3e 9cbe f4b7 a53d 26a6 413e
00000140: 38df aa3d dc7f 14bd f44d c7bd 9aea 443d
00000150: a966 22be 237b 973e fa87 26be 4471 323e
00000160: d3fa 9d3d 6e7e 7ebc 7c7d 04bd be21 5e3e
00000170: 91cd 133e 4b78 6d3e ae35 85be 024c 24be
00000180: 745c 76bc 428d e53d 8dda 13be 162d e13d
00000190: b101 6d3e d6db 083e f256 b73d 7066 ca3d
000001a0: 71ec 113d 5492 cbbd f2d9 0f3e 9e4d 1a3e
000001b0: d8e0 81be 2d46 453d cab1 243d 2acb 70be
000001c0: b1d2 1ebe 0b41 e23d 2244 353e 7f7c 0dbe
000001d0: 8771 0a3d d768 91bc 8b85 7f3c 5944 0b3e
000001e0: 51ad 823e 4cae 673d a082 c93d fed0 88be
000001f0: 532f 93bd 158c 423d 90d0 1e3e 7d6f 8fbe

default.encoder.to_out.weight f4 [128, 128]
-0.06903242 0.049270418 0.015922261 0.018811984 -0.030280266 0.003761615 -0.04056112 0.059648618
-0.0024596127 0.053558722 -0.017433865 0.0050393003 -0.032688912 -0.061276283 0.05567904 0.049123727
-0.036439054 -0.09312774 -0.019558085 -0.040763978 0.06491495 -0.066938415 -0.021052843 -0.024160787
-0.0071715796 0.018324161 -0.08277643 0.03015902 -0.022158714 -0.0545989 -0.017568778 0.063155845
0.0079609305 0.07105241 -0.024470977 0.047424328 -0.015024038 0.016896605 0.018901328 0.044946454
-0.020279111 -0.040680844 -0.024113728 -0.0165495 0.05099243 0.080353685 -0.04028223 -0.022395713
0.024183739 0.025966173 -0.01551027 -0.008809623 0.034025628 0.038372636 0.041934945 0.07080815
-0.07301779 0.009349176 0.014541084 -0.055646397 0.092972614 0.0070642815 -0.026791876 0.057478216
0.08401105 -0.011489195 0.04606214 -0.0032448033 -0.05869876 0.07500696 0.054362427 0.010211294
0.044738974 -0.030989304 -0.00049176643 -0.0040554423 0.0023064557 -0.07769266 0.058538914 0.059772808
0.0037916843 -0.06427492 0.015735975 -0.052532673 0.056718856 0.018971948 0.004664287 0.004858305
0.06014029 0.0937989 -0.08108771 0.08106021 0.07547732 0.031360876 0.010974461 -0.013746192
-0.03067931 -0.061556574 -0.0497866 0.06166892 -0.0037018782 -0.035269212 0.052012168 -0.013726017
0.057713315 0.049691267 -0.031016272 0.05227409 -0.0562247 -0.06043715 -0.0026056683 -0.041287422
0.07690498 0.045392662 -0.061362058 0.07679361 0.00121318 0.010867055 -0.051506206 0.018206717
0.04464545 -0.006559886 -0.04187443 -0.036489766 0.086121015 -0.06501299 -0.030502748 0.059074406
-0.0034831988 -0.052100267 -0.021753544 -0.014112922 0.025499066 -0.07991063 -0.0077567054 -0.01781692
-0.051467344 -0.020229151 0.07019763 -0.06841933 -0.041416027 0.00988557 -0.03470261 -0.015393741
0.07830845 -0.02226911 0.054593775 -0.07038659 0.019955887 0.010092328 -0.07550465 -0.040211193
-0.005605995 0.079349056 -0.04779191 -0.04621671 0.0627476 0.021364545 0.028962871 0.06394563
-0.05292708 0.014942851 0.04073653 -0.07079404 -0.016167376 0.023836873 -0.07412338 0.06160775
-0.0003753649 -0.067094736 -0.009770943 -0.06676065 0.056818128 -0.060368937 0.009872586 -0.07039073
0.027306829 -0.0610114 -0.026089812 -0.062592134 -0.09167656 0.011867439 0.027877849 -0.056429207
-0.009288535 0.02646007 0.039407294 0.04617116 0.0009603419 -0.0075369873 -0.051676765 -0.060519602
-0.013673708 0.036077566 0.0394504 0.006962676 0.041525267 0.0015716084 0.07282374 0.093769304
-0.0067447564 -0.00035626543 0.058002923 -0.030742189 0.057210635 0.05406355 0.07510255 0.06243898
0.056180324 0.049526386 0.0865002 -0.035402093 0.008265462 0.0033549832 0.029355787 -0.054054152
-0.072267815 0.08622801 -0.027437545 0.07395643 0.018924732 0.07394331 0.07197343 0.0069331266
0.051708985 -0.026824657 0.0012873232 -0.039177164 -0.03894793 -0.00476764 0.020895528 0.047530506
-0.014180709 0.013845953 0.047110625 0.015912773 -0.07966568 -0.065524094 0.07336735 0.006168589
-0.008391903 -0.022664024 0.01747477 -0.03818554 0.020542078 0.03834528 -0.07623773 -0.002707594
-0.07181616 0.06203813 -0.058626413 -0.02139985 -0.028291939 -0.033200577 -0.012368708 -0.043092005
00000000: df60 8dbd c7cf 493d 676f 823c 971b 9a3c
00000010: 520e f8bc 6d85 763b 6b23 26bd 1c52 743d
00000020: 7431 21bb 6460 5b3d 77d1 8ebc b720 a53b
00000030: cfe4 05bd d7fc 7abd b40f 643d f635 493d
00000040: 1e41 15bd c2b9 bebd 4738 a0bc 21f8 26bd
00000050: 21f2 843d 0217 89bd 0377 acbc d8ec c5bc
00000060: 92ff eabb 8d1c 963c b086 a9bd 0d10 f73c
00000070: 3186 b5bc 19a3 5fbd 66ec 8fbc da57 813d
00000080: 906e 023c ed83 913d 5c77 c8bc 0340 423d
00000090: 6227 76bc c06a 8a3c f5d6 9a3c c619 383d
000000a0: 6120 a6bc f5a0 26bd 278a c5bc d192 87bc
000000b0: 70dd 503d 7990 a43d fbfe 24bd 3777 b7bc
000000c0: fa1c c63c 03b7 d43c ca1e 7ebc 3d56 10bc
000000d0: 755e 0b3d a02c 1d3d fac3 2b3d dd03 913d
000000e0: 5a8a 95bd 492d 193c ba3d 6e3c 7aed 63bd
000000f0: 6d68 be3d 7d7b e73b a37a dbbc 476e 6b3d
00000100: fc0d ac3d 2d3d 3cbc a8ab 3c3d c4a6 54bb
00000110: 1c6e 70bd 409d 993d 23ab 5e3d 454d 273c
00000120: 3740 373d 48dd fdbc e3e9 00ba 84e3 84bb
00000130: e827 173b 541d 9fbd 80c6 6f3d 55d4 743d
00000140: e87d 783b 92a2 83bd bbe8 803c 802c 57bd
00000150: 0852 683d 0f6b 9b3c e0d6 983b 6b32 9f3b
00000160: aa55 763d a319 c03d 5011 a6bd e502 a63d
00000170: da93 9a3d 4374 003d 3ace 333c b537 61bc
00000180: 2d53 fbbc bf22 7cbd 09ed 4bbd 8d98 7c3d
00000190: 369b 72bb 7376 10bd b60a 553d 17e3 60bc
000001a0: cc64 6c3d 1289 4b3d d615 febc 5b1d 563d
000001b0: df4b 66bd f28c 77bd dcc3 2abb 001d 29bd
000001c0: 5c80 9d3d a8ed 393d c856 7bbd f845 9d3d
000001d0: 9103 9f3a bb0b 323c 2cf8 52bd 4126 953c
000001e0: 26de 363d 50f4 d6bb 8684 2bbd 4b76 15bd
000001f0: 3760 b03d 8825 85bd e6e0 f9bc 01f8 713d
00000200: 6146 64bb 1767 55bd 7d34 b2bc e339 67bc
00000210: 6be3 d03c 2fa8 a3bd f62b febb caf4 91bc
00000220: 6ccf 52bd 9bb7 a5bc c6c3 8f3d 6f1f 8cbd
00000230: daa3 29bd 16f7 213c 5324 0ebd 0836 7cbc
00000240: 2e60 a03d b56d b6bc b99d 5f3d d826 90bd
00000250: 877a a33c 4b5a 253c 2fa2 9abd 7eb4 24bd
00000260: 7fb2 b7bb c281 a23d 73c1 43bd bc4d 3dbd
00000270: d081 803d b304 af3c 8b43 ed3c edf5 823d
00000280: 11ca 58bd dcd2 743c 59db 263d 77fc 90bd
00000290: 7271 84bc 8c45 c33c 00ce 97bd 6858 7c3d
000002a0: a0cc c4b9 f768 89bd 4e16 20bc cfb9 88bd
000002b0: 20ba 683d 6b45 77bd a0c0 213c 0429 90bd
000002c0: 92b2 df3c 17e7 79bd 4dba d5bc 4e30 80bd
000002d0: ecc0 bbbd a66f 423c 1660 e43c 5022 67bd
000002e0: f12e 18bc cac2 d83c 8b69 213d f81d 3d3d
000002f0: 74bf 7b3a d5f8 f6bb 04ab 53bd 67e3 77bd
00000300: b007 60bc 12c6 133d be96 213d 2927 e43b
00000310: 6616 2a3d 6dfe cd3a 9d24 953d 1f0a c03d
00000320: 1e03 ddbb 23c9 bab9 7994 6d3d 0bd7 fbbc
00000330: b355 6a3d be71 5d3d 5ecf 993d 04c0 7f3d
00000340: 571d 663d 2edc 4a3d 0427 b13d c901 11bd
00000350: dc6b 073c 47df 5b3b 8c7b f03c e367 5dbd
00000360: 2601 94bd 5098 b03d b4c4 e0bc 7876 973d
00000370: 0a08 9b3c 976f 973d ce66 933d 482f e33b
00000380: cdcc 533d 62bf dbbc 66bb a83a 3c78 20bd
00000390: dd87 1fbd dd39 9cbb 192d ab3c 59af 423d
000003a0: 3456 68bc 23da 623c 12f7 403d 815b 823c
000003b0: c327 a3bd 7f31 86bd 9f41 963d e021 ca3b
000003c0: 317e 09bc e7a9 b9bc 4027 8f3c 7168 1cbd
000003d0: dc47 a83c f10f 1d3d 8722 9cbd e471 31bb
000003e0: 5a14 93bd b21b 7e3d 4022 70bd bd4e afbc
000003f0: 7fc4 e7bc 54fd 07bd 1fa6 4abc 3e81 30bd

default.encoder.to_out.bias f4 [128]
0.15842146 0.09560824 0.15545832 -0.059811294 0.12166655 -0.23986396 -0.038167156 -0.037334185
-0.13405965 0.15933658 -0.21006837 -0.012756359 0.10813832 0.046674903 -0.25371528 0.15283224
0.20559266 0.04769945 -0.08519182 0.05413503 0.04447361 -0.0742753 0.16033724 0.12571998
-0.20331298 -0.20036809 0.12647602 0.06171568 -0.22851633 -0.03158117 -0.0075382125 -0.16856673
-0.101576045 0.2480216 -0.06910902 0.052435532 0.1353248 0.020030249 0.063506395 0.034893636
0.10566134 -0.008912843 -0.11862842 0.09743656 -0.11528188 -0.24849626 0.06353953 -0.06301953
-0.1135903 0.10611953 0.008122741 0.032642085 -0.1805648 -0.0260445 0.053910576 -0.07068482
-0.065112576 0.20391253 -0.10503429 0.06967659 -0.11203257 0.019029744 -0.17920078 0.096667625
0.15751745 0.00033259916 -0.043054994 0.2104545 -0.030914387 0.053398326 0.053855136 0.032846715
-0.12883621 -0.1380281 -0.09332105 -0.005593536 0.08169447 -0.0077168113 0.12425223 -0.034821436
0.03569798 -0.15390044 0.09083401 -0.19516788 0.00964403 0.031443108 0.19233496 0.14156291
-0.00254354 0.031932034 0.1834793 0.10886963 -0.07060488 -0.13671039 -0.09259179 -0.16053256
0.16649716 0.02818418 -0.16628045 0.05266689 0.057774834 0.065420404 -0.023032831 0.0017301737
0.22687916 -0.025631353 -0.025103876 0.20406991 0.10394295 0.05006519 -0.16665553 -0.0010742415
-0.07159412 -0.20648098 -0.035367664 -0.21613659 -0.043394916 0.13739325 -0.004759108 -0.18868661
0.19602871 -0.112760335 -0.15193725 -0.15745632 -0.065835856 0.14642167 -0.16203423 -0.05394708
00000000: 3c39 223e 41ce c33d 7730 1f3e b0fc 74bd
00000010: 502c f93d e69e 75be 2a55 1cbd bbeb 18bd
00000020: ef46 09be 2129 233e 2a1c 57be 0c00 51bc
00000030: a077 dd3d 2f2e 3f3d f8e6 81be 0e80 1c3e
00000040: e286 523e 8060 433d 0d79 aebd b1bc 5d3d
00000050: f629 363d a61d 98bd 722f 243e bdbc 003e
00000060: 4731 50be 4b2d 4dbe ee82 013e 95c9 7c3d
00000070: 2f00 6abe 425b 01bd 1c03 f7bb c29c 2cbe
00000080: 1a07 d0bd 60f9 7d3e 0889 8dbd a4c6 563d
00000090: 9692 0a3e 7a16 a43c a40f 823d a1ec 0e3d
000000a0: f964 d83d 2c07 12bc 75f3 f2bd d28c c73d
000000b0: e818 ecbd ce75 7ebe 0321 823d 6210 81bd
000000c0: 08a2 e8bd 3255 d93d 3f15 053c b5b3 053d
000000d0: fbe5 38be 465b d5bc 56d1 5c3d 34c3 90bd
000000e0: be59 85bd 72ce 503e 381c d7bd 9ab2 8e3d
000000f0: 5571 e5bd 44e4 9b3c 6980 37be adf9 c53d
00000100: 414c 213e b460 ae39 6f5a 30bd 6281 573e
00000110: 2b40 fdbc 34b8 5a3d 3497 5c3d 478a 063d
00000120: a4ed 03be 3d57 0dbe 1b1f bfbd fb49 b7bb
00000130: 6e4f a73d 4edd fcbb f477 fe3d eca0 0ebd
00000140: 0c38 123d 1498 1dbe 2e07 ba3d 17da 47be
00000150: fe01 1e3c 7dca 003d 75f3 443e def5 103e
00000160: 85b1 26bb 2acb 023d ffe1 3b3e 0af7 de3d
00000170: 4b99 90bd cffd 0bbe c4a0 bdbd a662 24be
00000180: 3b7e 2a3e 82e2 e63c 6c45 2abe 3db9 573d
00000190: 4ea5 6c3d 22fb 853d 59af bcbc ffc6 e23a
000001a0: 0353 683e d8f8 d1bc a5a6 cdbc b4f7 503e
000001b0: 0be0 d43d 2811 4d3d bfa7 2abe 90cd 8cba
000001c0: f09f 92bd c06f 53be afdd 10bd e952 5dbe
000001d0: debe 31bd d1b0 0c3e 4bf2 9bbb 1037 41be
000001e0: c0bb 483e e4ee e6bd 7095 1bbe 3b3c 21be
000001f0: f3d4 86bd 90ef 153e 4dec 25be 9df7 5cbd

default.mean_encoder.weight f4 [10, 128]
0.022570461 -0.007339241 0.00783219 -0.0046773385 0.0057064327 -0.0010999962 -0.007696539 0.011082214
-0.0057904166 0.015097451 0.010600292 0.026332818 0.004314839 -0.010279985 -0.0005224479 0.00049889693
0.011459894 0.0012726283 0.01203603 0.017028006 -0.006463932 -0.01810668 -0.0028633145 0.03338764
-0.024451032 -0.016009321 -0.011857296 0.0009217021 0.0060486807 0.009137915 0.0026285728 0.011440027
0.008431051 -0.00767892 0.02030662 -0.0060959514 0.0013330451 0.015741134 -0.00676008 -0.013008324
0.024093939 0.0051776036 0.0018226437 -0.004154784 0.0049010427 0.004067401 -0.00054029725 0.013423245
0.011789991 -0.008652524 -0.012573799 -0.021932801 -0.0020846035 0.004059405 0.010573666 -0.035701863
-0.010262489 -0.005619421 -0.019315293 0.017790796 0.0051860767 -0.002784099 -0.035442248 -0.0058742403
0.008086677 -0.0346533 -0.0054886737 -0.016469216 0.009785229 0.012872777 0.0020338094 -0.0011100217
-0.031961847 -0.011090257 -0.019256666 0.0021068412 -0.022376517 -0.016551001 0.012324758 0.018209415
-0.015122553 -0.0037132795 -0.0021765612 -0.00964948 0.019123407 0.0063340156 0.01871099 0.011301619
0.01676529 -0.008151637 -0.023003554 -0.013583536 -0.00011141269 -0.008244522 0.0073607503 -0.000743945
-0.008692378 -0.02149232 -0.012446316 0.0060085836 0.014522018 0.008721931 -0.008694 0.010713421
0.005488495 -0.01501566 0.005509869 -0.022463022 -0.016136752 0.009480382 -0.0010933741 -0.013925024
-0.0042475336 0.011699411 0.012008899 -0.009181667 -0.0229724 -0.026188856 0.02139935 -0.010914666
0.017502612 -0.044876944 0.0199236 -0.0015645169 -0.020068446 -0.011650717 0.0035705143 -0.0067144777
0.018435316 -0.024465678 -0.017187065 0.0010713356 0.0039398195 -0.011163254 0.00427281 -0.008570232
0.017509181 -0.00013582349 -0.0021438007 0.018260052 -0.0029455083 -0.019545319 -0.01096352 0.00022529892
-0.002914944 -0.012959013 -0.015865674 0.0056017498 0.0043281945 -0.011357486 0.0014622295 -0.0035452433
0.012135582 -0.009157992 -0.015231632 -0.020645697 0.005689034 -0.004203866 -0.010835371 -0.00551809
0.0017765029 0.00055039604 -0.00031407765 0.012923273 -0.006177416 -0.011718879 0.021266652 -0.006792044
0.0059629823 0.0023118502 -0.0009378251 -0.0013717763 0.005684199 -0.00874027 -0.016802138 0.0109441085
0.0042157886 0.008744907 -0.0010798963 0.020749027 0.01151649 -0.008982861 0.0021005503 0.010874957
-0.0054919864 0.014790341 -0.007130075 0.03537127 -0.0034233877 -0.008127223 0.0026616135 -0.008427464
-0.007726035 0.024796423 -0.012189869 0.01504765 -0.007254737 0.0015783741 0.0018604903 0.022289056
0.02609512 -0.012903274 0.009685756 -0.0014630946 0.0041773105 -0.014425176 -0.011095813 -0.025606023
-0.0040959558 -0.029251898 -0.021784836 0.012231844 -0.0005051436 -0.010341996 -0.009081776 0.003968078
-0.01308323 0.002012957 0.0078746965 -0.0019701375 0.0032538783 -0.0070224726 0.011818558 -0.0038741822
0.011289874 -0.0047108317 -0.0047140378 -0.004742143 0.015488947 -0.005178681 -0.009970003 -0.0074926927
0.00748468 -0.00027608272 0.014373062 -0.017560314 -0.027979843 0.009076541 0.009790111 0.0020213495
-0.015865076 0.009657681 0.0041364613 0.00030956673 0.016607635 -0.012697521 -0.015518909 0.0029416862
-0.0026295532 -0.012451443 -0.009252861 0.0008067612 -0.0034480735 -0.010434156 -0.0038713191 -0.00095500186
00000000: b0e5 b83c 047e f0bb 9652 003c 5c44 99bb
00000010: 07fd ba3b bf2d 90ba 4033 fcbb 2d92 353c
00000020: 89bd bdbb 4d5b 773c d9ac 2d3c ecb7 d73c
00000030: 7e63 8d3b 626d 28bc e3f4 08ba 68c8 023a
00000040: 47c2 3b3c 52ce a63a c532 453c 517e 8b3c
00000050: 64cf d3bb 7654 94bc 72a6 3bbb 7ac1 083d
00000060: 884d c8bc fb25 83bc 1b45 42bc 629e 713a
00000070: 0334 c63b 32b7 153c 2244 2c3b f36e 3b3c
00000080: 6422 0a3c 739f fbbb 125a a63c 8cc0 c7bb
00000090: 92b9 ae3a 8df3 803c a983 ddbb de20 55bc
000000a0: a760 c53c e3a8 a93b c6e5 ee3a db24 88bb
000000b0: ed98 a03b d547 853b bca2 0dba 2ced 5b3c
000000c0: ce2a 413c 51c3 0dbc 5602 4ebc 6bac b3bc
000000d0: d89d 08bb c204 853b 2b3d 2d3c 1e3c 12bd
000000e0: 0024 28bc 1f23 b8bb 1b3b 9ebc 01be 913c
000000f0: f7ef a93b 6e75 36bb e42b 11bd b37c c0bb
00000100: fb7d 043c 9ef0 0dbd 55da b3bb 73ea 86bc
00000110: 3a52 203c 57e8 523c a949 053b 267e 91ba
00000120: 6dea 02bd e9b3 35bc 28c0 9dbc ee12 0a3b
00000130: f54e b7bc f795 87bc c8ed 493c e92b 953c
00000140: 96c4 77bc 7e5a 73bb a3a4 0ebb da18 1ebc
00000150: b1a8 9c3c 938d cf3b ca47 993c 6d2a 393c
00000160: 5d57 893c 728e 05bc f371 bcbc 7b8d 5ebc
00000170: 3ca6 e9b8 0814 07bc 7332 f13b 4e05 43ba
00000180: 7a6a 0ebc a910 b0bc a2eb 4bbc a7e3 c43b
00000190: c2ed 6d3c 6ee6 0e3c 4771 0ebc 5887 2f3c
000001a0: d5d8 b33b 3e04 76bc 228c b43b 5f04 b8bc
000001b0: 3931 84bc 9b53 1b3c 8c4f 8fba c925 64bc
000001c0: e52e 8bbb e3ae 3f3c f9c0 443c b46e 16bc
000001d0: 9d30 bcbc 038a d6bc b14d af3c 6dd3 32bc
000001e0: a361 8f3c e3d0 37bd d136 a33c 7a10 cdba
000001f0: 9566 a4bc a6e2 3ebc 4aff 693b 1f05 dcbb
00000200: a905 973c 3f6c c8bc e3cb 8cbc 0f6c 8c3a
00000210: 9a19 813b 15e6 36bc ee02 8c3b 296a 0cbc
00000220: 6a6f 8f3c d76b 0eb9 027f 0cbb 1b96 953c
00000230: 6e09 41bb 811d a0bc 56a0 33bc 383e 6c39
00000240: a508 3fbb 0a52 54bc bbf8 81bc e28e b73b
00000250: 87d3 8d3b c014 3abc 48a8 bf3a 5057 68bb
00000260: 52d4 463c 670b 16bc 188e 79bc 2a21 a9bc
00000270: 136b ba3b 95c0 89bb d786 31bc 18d1 b4bb
00000280: 8cd9 e83a 7448 103a caaa a4b9 23bc 533c
00000290: ec6b cabb 8b00 40bc 6737 ae3c cb8f debb
000002a0: 1f65 c33b 6982 173b 61d8 75ba 2dcd b3ba
000002b0: 8442 ba3b 5933 0fbc a3a4 89bc eb4e 333c
000002c0: 9924 8a3b cc46 0f3c 4f8b 8dba ddf9 a93c
000002d0: a9af 3c3c da2c 13bc 63a9 093b e02c 323c
000002e0: 1ff6 b3bb 3053 723c 67a3 e9bb 77e1 103d
000002f0: ea5a 60bb 0b28 05bc 776e 2e3b 5913 0abc
00000300: ae2a fdbb de21 cb3c 04b8 47bc 6b8a 763c
00000310: 25b9 edbb 72e1 ce3a b2db f33a 8a97 b63c
00000320: 6fc5 d53c 4168 53bc 01b1 1e3c 4fc5 bfba
00000330: d2e1 883b 9357 6cbc 36cb 35bc b9c3 d1bc
00000340: 5e37 86bb ada1 efbc 1d76 b2bc 1268 483c
00000350: 9d6b 04ba 7a71 29bc bbcb 14bc a706 823b
00000360: 0b5b 56bc d0eb 033b df04 013c 6c1d 01bb
00000370: 053f 553b c51c e6bb a0a2 413c fee5 7dbb
00000380: 2af9 383c 525d 9abb 3778 9abb fb63 9bbb
00000390: 5ac5 7d3c edb1 a9bb 3959 23bc 4385 f5bb
000003a0: 0c42 f53b 32bf 90b9 fe7c 6b3c a6da 8fbc
000003b0: fc35 e5bc c6b5 143c b466 203c 9e78 043b
000003c0: 7af7 81bc 403b 1e3c 278b 873b 584d a239
000003d0: bc0c 883c 4309 50bc 0643 7ebc 4ec9 403b
000003e0: 9554 2cbb 2301 4cbc 5099 17bc d47c 533a
000003f0: 13f9 61bb 06f4 2abc f5b5 7dbb 1759 7aba

default.mean_encoder.bias f4 [10]
-0.014282234 -0.025403613 -0.13281403 -0.020194124 -0.028252305 0.08268373 0.0123394 -0.019817417
-0.032482307 -0.04075638
00000000: 0800 6abc 3d1b d0bc 6700 08be 266e a5bc
00000010: 6171 e7bc 1656 a93d 322b 4a3c 2358 a2bc
00000020: 2b0c 05bd 29f0 26bd

default.var_encoder.weight f4 [10, 128]
-0.019764101 0.00046277652 -0.005478244 -0.0075084683 0.00038809027 -0.0069431476 0.009468162 -0.0017146734
-0.007269526 -0.034695175 0.013550059 -0.023847947 -0.012293448 -0.017210675 0.0045312485 0.009725586
0.011062382 0.0064467215 -0.012310883 0.012202472 -0.013929878 -0.025309049 0.005414563 -0.00065525726
-0.00327217 0.004834361 0.0036183302 -0.009552808 -0.010269175 0.00894439 0.0131754475 0.002333586
0.017456327 -0.006790567 0.0015601517 0.0021228427 0.0062052277 -0.013680215 0.00847206 0.013698432
-0.0020974372 0.0017230667 -0.0027220736 -0.011880753 -0.0025429116 0.006218897 0.0029309813 -0.037515182
0.02767129 0.005810434 -0.008788679 -0.009369468 -0.0006892487 -0.019557528 -0.002994527 -0.006238854
0.0014856312 -0.008239827 0.016879074 -0.017591098 0.009192487 -0.009528716 -0.0071268347 0.008983414
0.0013669408 0.007953911 0.007925504 -0.0052233576 -0.0069715623 0.00027020345 -0.008471333 -0.005528828
0.019112585 0.017654235 -0.016242899 0.008569355 0.007592753 0.0020061752 -0.003818738 -0.013045625
0.025327263 0.022905167 -0.0018337024 0.0010831692 -0.007338743 0.008487128 -0.016094383 0.0034558396
-0.024197385 -0.02706816 0.003638875 0.017415224 0.011843008 0.00053788075 0.015971793 0.024531482
-0.014331713 0.02906351 0.0022244314 -0.006200275 0.018568985 0.013206122 0.002188387 0.0017134384
-0.007583699 -0.014035207 0.0060708127 0.003694043 0.012617951 -0.011024579 -0.014659957 -0.020480867
0.009069869 0.020696135 -0.0022087516 0.027748652 0.009203681 0.0076863933 -0.011424438 -0.018546898
-0.0019918417 0.022890083 -0.0043322435 -0.0083250245 0.0063866638 0.0028438654 0.004731931 0.003373692
0.013768994 -0.016309647 0.009879859 -0.0024429348 0.012003679 0.006028688 -0.004472366 0.0022384976
-0.00025369908 -0.008857485 0.010324894 -0.018140817 -0.00096793345 -0.015014259 0.011752158 0.011234848
0.007268411 0.013688248 -0.00038519513 0.0012094063 -0.018568812 -0.01756527 0.004133756 -0.0014575106
0.0053627472 -0.0041797776 -0.0021321082 0.0073375567 0.022074798 -0.0058976053 0.010870892 -0.0005000418
-0.007967165 -0.006596707 -0.00010527581 0.0018442955 -0.014255425 0.0014847196 0.00058512826 0.0029398492
-0.0035990146 -0.002277021 0.0006458809 -0.0013725555 0.0069263545 0.005766103 0.0044750557 0.008396572
-0.014601859 -0.012863084 0.016215794 0.0070151123 0.0012312629 -0.003889537 -0.0011406249 0.014110449
0.012311577 -0.009832152 0.016679168 -0.025733782 0.011484564 0.0015054484 0.01835991 -0.007286901
-0.007338396 0.009978534 0.011477789 -0.002722609 0.002135478 -0.00920024 -0.009092002 0.023534847
-0.00893855 0.02064443 0.0107625425 -0.0065369736 -0.0066201873 0.0035088405 -0.0068842224 0.005975827
-0.0057946676 -0.005712951 0.009784123 0.0032541736 0.009595829 0.024008077 0.016307242 0.0059287916
4.7044246e-05 0.011770857 -0.0006380796 -0.011438861 -0.010257527 -0.006415924 0.00828218 -0.009740493
-0.005039257 -0.00422546 0.01721178 -0.015040203 0.013389542 0.0054663434 0.008118941 0.0003483288
-0.012615603 -0.002922133 0.008943526 -0.0129519 0.0016637396 -0.008854518 -0.004534826 0.004460142
-0.0063015195 -0.014493532 0.011358472 0.018040482 -0.01204181 0.018703768 0.0048084026 0.0024172184
0.016717197 -0.012693805 0.013348416 0.010628077 0.0059123076 -0.020825744 -0.0150293475 -0.0016026979
00000000: 53e8 a1bc d0a0 f239 d782 b3bb 9909 f6bb
00000010: 9878 cb39 5883 e3bb 5a20 1b3c e4be e0ba
00000020: 3435 eebb 871c 0ebd 1101 5e3c c55c c3bc
00000030: 756a 49bc 67fd 8cbc de7a 943b 1058 1f3c
00000040: fe3e 353c 053f d33b 96b3 49bc e1ec 473c
00000050: 253a 64bc ec54 cfbc a66c b13b 92c5 2bba
00000060: e771 56bb 8f69 9e3b 8221 6d3b 6183 1cbc
00000070: 0b40 28bc 7e8b 123c d5dd 573c 14ef 183b
00000080: 9200 8f3c 6883 debb 017e cc3a 641f 0b3b
00000090: 3955 cb3b fb22 60bc 65ce 0a3c 636f 603c
000000a0: 2875 09bb 86d8 e13a d164 32bb 7da7 42bc
000000b0: faa6 26bb e4c7 cb3b b515 403b 85a9 19bd
000000c0: e7ae e23c 7465 be3b 64fe 0fbc 6682 19bc
000000d0: b3ae 34ba 1c37 a0bc d43f 44bb 4d6f ccbb
000000e0: 83b9 c23a 5700 07bc fc45 8a3c 351b 90bc
000000f0: 169c 163c 551e 1cbc 3988 e9bb 2b2f 133c
00000100: ec2a b33a 1f51 023c f9d9 013c b328 abbb
00000110: b471 e4bb 18aa 8d39 59cb 0abc 2c2b b5bb
00000120: ff91 9c3c 9d9f 903c d40f 85bc 7b66 0c3c
00000130: a1cc f83b 097a 033b cb43 7abb 51bd 55bc
00000140: 1f7b cf3c 9ea3 bb3c d858 f0ba 21f9 8d3a
00000150: d779 f0bb 980d 0b3c 5ed8 83bc 5e7b 623b
00000160: 9839 c6bc 0cbe ddbc 317a 6e3b 5faa 8e3c
00000170: 2d09 423c 9100 0d3a 47d7 823c 3ff6 c83c
00000180: 90cf 6abc 9916 ee3c c4c7 113b ad2b cbbb
00000190: fc1d 983c 7e5e 583c 0b6b 0f3b 7495 e03a
000001a0: ae80 f8bb edf3 65bc abed c63b c217 723b
000001b0: 86bb 4e3c 70a0 34bc 5130 70bc 7ec7 a7bc
000001c0: ca99 143c f18a a93c b4c0 10bb 2451 e33c
000001d0: 09cb 163c 24de fb3b 912d 3bbc aaef 97bc
000001e0: 8f89 02bb fc83 bb3c 7ef5 8dbb af65 08bc
000001f0: 3847 d13b 2560 3a3b 500e 9b3b 2919 5d3b
00000200: 5997 613c cf9b 85bc 22df 213c a519 20bb
00000210: 14ab 443c 4d8c c53b ed8c 92bb c2b3 123b
00000220: ea02 85b9 fc1e 11bc bf29 293c 0d9c 94bc
00000230: eabc 7dba 5efe 75bc 208c 403c 5e12 383c
00000240: da2b ee3b ac44 603c 04f4 c9b9 f184 9e3a
00000250: 9f1d 98bc 0be5 8fbc 7574 873b f109 bfba
00000260: fcb9 af3b 84f6 88bb d7ba 0bbb e36f f03b
00000270: 35d6 b43c b340 c1bb d31b 323c 3d15 03ba
00000280: b688 02bc 3029 d8bb 85c7 dcb8 4abc f13a
00000290: 968f 69bc ec9a c23a 4b63 193a 7caa 403b
000002a0: 72dd 6bbb 133a 15bb 5550 293a 52e7 b3ba
000002b0: 79f6 e23b 94f1 bc3b 7da3 923b c791 093c
000002c0: a33c 6fbc afbf 52bc fcd6 843c 07df e53b
000002d0: 5462 a13a 9ae7 7ebb 0581 95ba 832f 673c
000002e0: 7fb6 493c 0917 21bc c0a2 883c a7cf d2bc
000002f0: c129 3c3c 7752 c53a 8667 963c f5c6 eebb
00000300: ed76 f0bb 017d 233c 560d 3c3c cd6d 32bb
00000310: 60f3 0b3b 9abc 16bc 9ff6 14bc 27cc c03c
00000320: ff72 12bc 821e a93c 6055 303c 1c34 d6bb
00000330: 28ee d8bb 93f4 653b 0b95 e1bb dfd0 c33b
00000340: 32e1 bdbb b533 bbbb 964d 203c f943 553b
00000350: d337 1d3c 96ac c43c c496 853c 4f46 c23b
00000360: 6051 4538 8dda 403c cc44 27ba 0f6a 3bbc
00000370: 300f 28bc ac3c d2bb fbb1 073c 9796 1fbc
00000380: 5a20 a5bb ba75 8abb b8ff 8c3c 2f6b 76bc
00000390: cf5f 5b3c 031f b33b 4f05 053c e69f b639
000003a0: adb1 4ebc 4281 3fbb de87 123c 3534 54bc
000003b0: d611 da3a 8a12 11bc e198 94bb 6226 923b
000003c0: fa7c cebb 4776 6dbc e218 3a3c a2c9 933c
000003d0: 034b 45bc a538 993c ce8f 9d3b 326a 1e3b
000003e0: 81f2 883c adf9 4fbc 51b3 5a3c 6321 2e3c
000003f0: 08bc c13b c09a aabc a73d 76bc 9e11 d2ba

default.var_encoder.bias f4 [10]
0.0151010165 0.014203322 -0.13906011 -0.03023661 0.010953086 -0.20459309 0.044893272 -0.004479075
0.0012953421 -0.021979444
00000000: 416a 773c 0db5 683c c665 0ebe c4b2 f7bc
00000010: 9374 333c da80 51be 02e2 373d 34c5 92bb
00000020: 78c8 a93a 3c0e b4bc
