models/mnist-relaxed1E/encoder_z2_z1_-5715881879979088570.pt (torch_old, 88270 bytes, 8 tensors)

default.encoder.to_hidden.weight f4 [128, 19]
0.05411844 0.024276076 -0.0023023135 0.0007108688 0.04897695 -0.06210598 -0.05309727 0.03719236
-0.01862003 0.021831043 -0.3086042 0.7861696 -0.54999804 -0.22153318 -0.37853336 0.04629668
0.07399959 -0.07341218 0.28953138 -0.06394194 0.017176544 0.111066826 0.116713904 -0.06276585
0.096686974 -0.09329812 0.015429445 0.048321668 -0.017813276 0.5012591 -0.3700931 -0.48577306
0.023533072 -0.06075497 0.0863403 0.30529952 -0.39672768 0.11578486 0.028167292 0.0695601
-0.031616125 0.09694509 -0.053961337 0.12612033 -0.046402093 -0.02048933 0.03361889 -0.07446987
-0.14304395 0.4323318 -0.18215352 -0.40162235 0.11177584 -0.104081415 -0.43140447 0.07146976
0.2787479 -0.036473587 0.09422088 0.077969655 -0.0027016732 0.029441273 0.04180843 -0.058202345
0.050005235 -0.038483772 0.04297441 0.47093332 -0.37816074 0.05206667 -0.29465178 -0.13900702
-0.054099135 -0.13856705 -0.02848758 -0.18523704 0.104749955 -0.20857434 -0.023016628 0.08249457
-0.017278858 0.0848191 0.24370793 -0.022531055 -0.09649751 0.01020468 -0.48844555 0.235936
0.032767113 0.5743455 0.13077244 0.17385915 -0.14424732 0.13332547 -0.05434196 -0.088174194
0.12141153 -0.10656761 -0.06611579 -0.09866804 0.039016858 -0.08540799 0.11562104 -0.1436284
-0.057090167 -0.40202782 0.42164916 -0.3264703 -0.38751084 0.38840652 -0.10657343 0.03668655
0.07325001 0.07651576 -0.037755553 -0.12061678 -0.12375764 0.0076236986 -0.10441815 -0.22441486
-0.16580597 0.11006579 -0.07787385 0.17216538 -0.24364462 0.4854239 -0.10108589 0.13638565
0.07004752 -0.019933477 -0.19365326 -0.6506732 0.58367205 -0.00014306516 0.013628833 -0.0027303698
0.036972452 -0.0072936635 -0.009701625 -0.012857407 -0.0022612612 -0.0042504263 -0.005120944 0.0042078346
-0.091061786 0.43112233 -0.10148805 -0.20389394 -0.16266347 -0.30125213 0.21363807 0.5624521
-0.072223075 0.047390446 -0.0052006794 0.027327668 0.00807744 0.039617293 -0.004940173 -0.021626467
0.03872338 -0.025225002 -0.03710345 -0.34339052 0.34289017 -0.61183524 0.01694349 -0.08792283
0.07013438 -0.11027993 -0.21914192 0.093742445 -0.16119832 -0.04225712 0.16917452 -0.1953356
0.15164761 -0.2127239 -0.050071493 0.010410543 -0.04838745 0.1635801 0.13234816 -0.069543175
-0.21935625 -0.009203084 -0.28873527 -0.019392796 -0.18613273 -0.19759904 -0.07390789 0.0550074
0.0043882104 0.034250375 0.025376106 0.013599084 -0.060544558 0.003012664 0.077884264 0.021012994
0.18256046 -0.19759203 -0.27265486 -0.23522423 0.072215535 0.18646082 0.18747088 -0.093544744
0.02804094 -0.079314955 0.14765628 0.02088344 -0.0076838257 -0.06418286 -0.035186097 -0.12889425
0.16009411 -0.03504763 0.017627386 -0.20461233 0.15341748 0.25253612 -0.24861084 -0.24032567
-0.37038603 -0.21480028 0.070760876 0.15043038 0.06886534 -0.07271545 -0.0002470291 0.019455679
-0.03245873 -0.100628 0.0074758963 -0.09246393 0.04864236 -0.056830604 0.042825963 0.22136481
-0.02130425 -0.12000018 -0.18580253 0.07105478 0.1104261 -0.0641117 0.07758214 0.070614606
-0.080696136 -0.03827992 -0.19264029 -0.07882751 -0.17419149 -0.035878398 0.023199325 -0.007744581
00000000: 4cab 5d3d 9fde c63c 69e2 16bb 9959 3a3a
00000010: 0e9c 483d d762 7ebd 867c 59bd 0457 183d
00000020: 0889 98bc 04d7 b23c 5f01 9ebe 6942 493f
00000030: accc 0cbf 98d9 62be 20cf c1be 96a1 3d3d
00000040: 198d 973d 2059 96bd 753d 943e fef3 82bd
00000050: d3b5 8c3c 0177 e33d b307 ef3d 628b 80bd
00000060: d203 c63d 1613 bfbd c8cb 7c3c f1ec 453d
00000070: 26ed 91bc 8452 003f d87c bdbe 3fb7 f8be
00000080: 6ec8 c03c 34da 78bd 2fd3 b03d 3850 9c3e
00000090: e41f cbbe 9d20 ed3d 18bf e63c 8775 8e3d
000000a0: e97f 01bd 268b c63d 9006 5dbd b025 013e
000000b0: 1f10 3ebd 3dd9 a7bc f6b3 093d a983 98bd
000000c0: 1d7a 12be 985a dd3e 7486 3abe 72a1 cdbe
000000d0: bbea e43d a328 d5bd 0ce1 dcbe bd5e 923d
000000e0: 0bb8 8e3e 5465 15bd e0f6 c03d 8eae 9f3d
000000f0: 8e0e 31bb d32e f13c 513f 2b3d 9565 6ebd
00000100: 4ad2 4c3d 29a1 1dbd ef05 303d 2c1e f13e
00000110: 499e c1be dc43 553d 99dc 96be db57 0ebe
00000120: 0e97 5dbd 85e4 0dbe c95e e9bc c7ae 3dbe
00000130: 2587 d63d 8394 55be 5e8d bcbc eaf2 a83d
00000140: 648c 8dbc a3b5 ad3d 928e 793e 0c93 b8bc
00000150: 7da0 c5bd 8831 273c 8915 fabe 3599 713e
00000160: cf36 063d 4f08 133f 36e9 053e 2208 323e
00000170: 92b5 13be 7986 083e ad95 5ebd ac94 b4bd
00000180: 9ca6 f83d 1e40 dabd b767 87bd 7812 cabd
00000190: 24d0 1f3d 62ea aebd b9ca ec3d 5313 13be
000001a0: 61d7 69bd 97d6 cdbe 66e2 d73e 1d27 a7be
000001b0: d267 c6be 38dd c63e 2c43 dabd a344 163d
000001c0: 1a04 963d 4bb4 9c3d 91a5 1abd ee05 f7bd
000001d0: a574 fdbd 38d0 f93b 2fd9 d5bd 02cd 65be
000001e0: 0ac9 29be 2c6a e13d 537c 9fbd 1f4c 303e
000001f0: fa7d 79be 7b89 f83e 1e06 cfbd aea8 0b3e
00000200: 1375 8f3d 884b a3bc 0a4d 46be 8592 26bf
00000210: 886b 153f c303 16b9 784b 5f3c 01f0 32bb
00000220: 6d70 173d afff eebb 91f3 1ebc e0a7 52bc
00000230: ab31 14bb 2947 8bbb 98cd a7bb e0e1 893b
00000240: 9a7e babd 11bc dc3e f7d8 cfbd 93c9 50be
00000250: 4191 26be b83d 9abe f0c3 5a3e dcfc 0f3f
00000260: b1e9 93bd 7c1c 423d 766a aabb 46de df3c
00000270: 3d57 043c be45 223d 2de1 a1bb fd29 b1bc
00000280: 689c 1e3d aaa4 cebc caf9 17bd e2d0 afbe
00000290: 4d8f af3e 3ca1 1cbf 13cd 8a3c e210 b4bd
000002a0: 9da2 8f3d 72da e1bd bd66 60be 0afc bf3d
000002b0: 2c11 25be cd15 2dbd 163c 2d3e 0e06 48be
000002c0: 8349 1b3e 4bd4 59be c417 4dbd fb90 2a3c
000002d0: eb31 46bd 8b81 273e 4786 073e a76c 8ebd
000002e0: ed9e 60be 88c8 16bc 1cd5 93be a4dd 9ebc
000002f0: 9499 3ebe 6757 4abe 055d 97bd 714f 613d
00000300: faca 8f3b 1f4a 0c3d 8de1 cf3c b1ce 5e3c
00000310: 92fd 77bd 1d70 453b c981 9f3d 7123 ac3c
00000320: 21f1 3a3e 9155 4abe 6b99 8bbe 9fde 70be
00000330: bde5 933d 96ef 3e3e 5ef8 3f3e 6394 bfbd
00000340: 1db6 e53c e16f a2bd 3533 173e bf13 ab3c
00000350: 9ac8 fbbb 4e72 83bd 4c1f 10bd dbfc 03be
00000360: b6ef 233e 1b8e 0fbd 4f67 903c e585 51be
00000370: 7919 1d3e 6a4c 813e d793 7ebe ef17 76be
00000380: 3da3 bdbe 9bf4 5bbe 14eb 903d 6c0a 1a3e
00000390: 4509 8d3d d6eb 94bd af83 81b9 8461 9f3c
000003a0: 72f3 04bd 0e16 cebd 5df8 f43b bb5d bdbd
000003b0: 363d 473d 35c7 68bd 476a 2f3d 75ad 623e
000003c0: 4086 aebc a8c2 f5bd 0543 3ebe 2b85 913d
000003d0: 1427 e23d ff4c 83bd 63e3 9e3d 649e 903d
000003e0: 0444 a5bd 68cb 1cbd 7f43 45be 5170 a1bd
000003f0: 415f 32be 3af5 12bd 830c be3c 41c6 fdbb

default.encoder.to_hidden.bias f4 [128]
0.2032248 0.03233958 -0.06424311 0.08352939 0.20175633 0.030564647 0.2114981 -0.14434265
-0.41427156 -0.13834861 -0.23277822 -0.13582274 0.13027033 -0.038039897 -0.060608987 -0.030891303
0.21989685 -0.08550083 0.20209707 0.16884965 -0.2707617 -0.13414735 0.09994745 0.06668613
-0.020050405 0.028408263 -0.06679163 -0.049980816 -0.08933758 0.15691571 0.059594005 -0.15954526
0.14889185 0.06109944 -0.2139027 -0.13873586 -0.0074875033 -0.21207266 0.04548369 -0.26953185
0.16215862 -0.27049166 0.19158998 -0.31433964 0.1995554 -0.23408759 -0.009490388 -0.05846976
-0.34973958 -0.030586954 0.10242575 0.17270517 0.14701043 0.19864705 -0.09636066 0.11359626
0.21570621 -0.20426449 -0.018467221 -0.13231355 0.254593 -0.1429619 0.18479991 -0.024176659
0.09554985 0.096879594 -0.2694397 -0.109077565 0.1714871 0.03650102 -0.23806295 0.10914544
-0.32883573 -0.27111965 0.13167737 -0.112748995 -0.08074715 -0.09457917 -0.16327773 0.121088535
-0.09219675 -0.088162825 -0.23265979 -0.24731296 -0.012925989 0.13803558 0.11734274 0.03305279
-0.16640425 -0.14146127 0.13380246 0.1612048 0.21928199 -0.10958063 0.20193247 -0.1592313
-0.09655252 -0.22747807 -0.13814697 0.0872512 0.18509576 0.2156832 0.1296419 0.22587128
-0.2112267 0.31276605 -0.14625111 -0.27577883 -0.20362027 0.13487616 0.24012026 -0.19784054
-0.23858057 -0.12188683 -0.15384719 0.18278208 -0.08822391 0.10402706 0.08630275 0.011033111
-0.11360962 -0.16095331 -0.24530219 -0.07763778 -0.20016246 0.054330226 0.2536115 0.079849064
00000000: 291a 503e 8276 043d e491 83bd 7511 ab3d
00000010: 3699 4e3e b662 fa3c f592 583e 8fce 13be
00000020: 671b d4be 42ab 0dbe 6a5d 6ebe 1e15 0bbe
00000030: 9665 053e b9cf 1bbd 2141 78bd c20f fdbc
00000040: a42c 613e 0f1b afbd 89f2 4e3e ece6 2c3e
00000050: 47a1 8abe ec5d 09be 40b1 cc3d bd92 883d
00000060: bf40 a4bc 72b8 e83c 0dca 88bd afb8 4cbd
00000070: 9ff6 b6bd 83ae 203e d818 743d d55f 23be
00000080: 1b77 183e 6843 7a3d 4f09 5bbe c610 0ebe
00000090: bb59 f5bb 9329 59be 1b4d 3a3d 1400 8abe
000000a0: e90c 263e e27d 8abe 2a30 443e 20f1 a0be
000000b0: 4058 4c3e a8b4 6fbe 937d 1bbc fd7d 6fbd
000000c0: 1111 b3be 7e91 fabc 97c4 d13d a0d9 303e
000000d0: e789 163e 226a 4b3e bd58 c5bd 28a5 e83d
000000e0: 17e2 5c3e b62a 51be 9248 97bc 347d 07be
000000f0: 045a 823e 9b64 12be 303c 3d3e 210e c6bc
00000100: a4af c33d cf68 c63d 00f4 89be 0f64 dfbd
00000110: 509a 2f3e 1882 153d c6c6 73be a587 df3d
00000120: 285d a8be 32d0 8abe 6fd6 063e f2e8 e6bd
00000130: c35e a5bd b9b2 c1bd 4732 27be 44fd f73d
00000140: a6d1 bcbd b68e b4bd 5e3e 6ebe 9c3f 7dbe
00000150: 87c7 53bc 3359 0d3e 6451 f03d 5d62 073d
00000160: e065 2abe 39db 10be 8303 093e df12 253e
00000170: 758b 603e cf6b e0bd 63c7 4e3e 880d 23be
00000180: 54bd c5bd 03f0 68be 6676 0dbe c2b0 b23d
00000190: be89 3d3e 0fdc 5c3e d9c0 043e cd4a 673e
000001a0: d04b 58be df22 a03e dac2 15be e232 8dbe
000001b0: d581 50be fa1c 0a3e 16e2 753e b696 4abe
000001c0: 774e 74be cd9f f9bd 1e8a 1dbe 3a2b 3b3e
000001d0: bdae b4bd 240c d53d 7fbf b03d 39c4 343c
000001e0: 29ac e8bd f2d0 24be 7f30 7bbe 8e00 9fbd
000001f0: 63f7 4cbe 5f89 5e3d 5ed9 813e e887 a33d

default.encoder.to_out.weight f4 [128, 128]
0.095922604 0.010847551 -0.01390838 -0.06672417 -0.033409506 0.031034801 -0.021690449 0.03085619
0.0061560394 0.014960501 -0.009389628 0.06960796 -0.01975838 -0.039916974 0.03398797 -0.05309106
-0.06777112 -0.051344234 0.00072864356 0.04640993 -0.0608298 0.066553295 -0.04848497 0.059474308
-0.040469505 -0.00948225 -0.022200726 0.07042264 -0.026925113 0.055483576 0.05013355 0.07687233
-0.019933898 -0.026160872 0.0033880325 0.06654983 0.027442835 -0.04278673 0.011468678 0.043493286
0.0428365 -0.016906485 0.04737673 -0.04566412 0.00024742092 -0.004520923 -0.14815532 -0.031468965
-0.067039065 0.019725775 -0.032629438 -0.08952303 -0.053396832 -0.006471899 0.024716785 0.05210249
0.03087974 -0.047516182 -0.050830267 -0.0122431815 0.037454296 0.0452104 0.08472411 -0.027458739
-0.07380267 0.019818503 -0.06303068 -0.05485124 -0.02176396 0.046784893 0.0012744348 -0.033743624
-0.011400994 -0.10719786 -0.07597273 0.00019217996 0.053646877 -0.045112327 -0.028345495 -0.07751579
-0.09414616 0.061292443 0.06756249 0.03909143 -0.029728735 0.016057106 0.07821033 -0.020830384
0.05086762 -0.064235814 0.018622784 0.041663066 0.064346544 -0.08232646 0.070879094 -0.005957526
0.08264793 -0.0948466 -0.035289798 0.020965302 -0.06546045 -0.051236425 0.05810502 0.011306726
-0.02836067 -0.053554785 0.06152394 -0.15671983 0.071341746 0.07409918 0.041172683 -0.022475727
-0.051404253 0.004834422 0.050402615 -0.03478753 -0.05663109 0.031535886 -0.013906732 0.06329958
0.04687532 -0.008281808 0.010464961 -0.007282943 -0.031540923 -0.054303493 -0.047638297 -0.0034982718
0.0076256776 -0.038715962 0.044951912 -0.05872974 -0.07615999 0.08663248 -0.003684466 0.020500928
0.024499213 0.03787801 0.024547217 0.057825785 0.004491427 0.0024341606 0.055029124 -0.06670731
0.04260951 0.025479315 0.033822954 0.06559568 -0.010224354 0.070486985 0.03639771 -0.04423966
-0.031520374 0.027921906 0.053618245 -0.01803575 0.0014643621 0.014010308 0.054595962 -0.06817919
-0.020913973 0.0132871 -0.021659197 -0.059902947 0.06378282 -0.003949668 0.0345204 0.041436136
0.04272423 0.056858767 -0.04543141 -0.060653012 -0.020558791 -0.036588553 -0.11539931 -0.017694596
0.05634386 0.054145828 -0.020943075 -0.015386668 -0.070079304 -0.03932894 0.02146396 0.03732367
0.06473804 0.067216925 -0.112052426 0.05109331 -0.101428956 0.035817552 -0.06294544 -0.00022009159
-0.038724437 -0.0045014806 -0.046685945 -0.049132682 -0.0692483 -0.06923093 -0.03138288 0.0640825
0.027078472 -0.05469599 0.036319666 0.090366066 0.015198481 -0.031063847 0.0035681447 -0.021523997
0.06249011 -0.033556893 -0.01118522 0.06050578 0.023546984 -0.06734719 0.029939106 0.09347356
0.027825415 -0.053120513 0.05549001 -0.043123137 0.019391917 0.052961603 -0.017684542 0.0057447013
0.029280424 -0.030840972 0.081199236 -0.01622658 0.033732284 -0.03157947 0.016194474 -0.026379107
-0.04755637 -0.00018595743 0.024336271 -0.030963706 -0.029453961 0.02152654 -0.08344825 0.053085342
0.018350191 -0.017621942 0.018935567 0.0024387531 -0.023286091 -0.0029857159 -0.027039176 0.069601096
0.031516384 -0.049887564 0.037004247 0.06904309 -0.062165022 -0.028970245 0.05947763 0.035922512
00000000: 1273 c43d edb9 313c f9df 63bc afa6 88bd
00000010: 68d8 08bd b23c fe3c 2bb0 b1bc 1fc6 fc3c
00000020: 9ab8 c93b e41c 753c f4d6 19bc 9e8e 8e3d
00000030: 53dc a1bc fb7f 23bd f836 0b3d 0376 59bd
00000040: 96cb 8abd 554e 52bd 7102 3f3a 5718 3e3d
00000050: ab28 79bd 184d 883d 2d98 46bd 559b 733d
00000060: 5ac3 25bd 705b 1bbc 4cde b5bc bf39 903d
00000070: 0e92 dcbc bf42 633d d658 4d3d 3d6f 9d3d
00000080: 6a4c a3bc 534f d6bc c109 5e3b 474b 883d
00000090: cccf e03c 2341 2fbd 1fe7 3b3c 0426 323d
000000a0: 5375 2f3d 787f 8abc 1a0e 423d 4d0a 3bbd
000000b0: 46b8 8139 4024 94bb 07b6 17be 9ae5 00bd
000000c0: c74b 89bd f397 a13c 72a6 05bd da57 b7bd
000000d0: a3b6 5abd 3912 d4bb db7a ca3c 6c69 553d
000000e0: 82f7 fc3c 54a0 42bd 6633 50bd a097 48bc
000000f0: ad69 193d 8a2e 393d d683 ad3d 26f1 e0bc
00000100: db25 97bd 6a5a a23c 3b16 81bd b2ab 60bd
00000110: 554a b2bc 84a1 3f3d f00a a73a c136 0abd
00000120: 3ccb 3abc 8d8a dbbd 9797 9bbd ea83 4939
00000130: d4bc 5b3d b4c7 38bd d034 e8bc 99c0 9ebd
00000140: b4cf c0bd c90d 7b3d 345e 8a3d 561e 203d
00000150: ad89 f3bc 318a 833c bd2c a03d 7ba4 aabc
00000160: 915a 503d 118e 83bd cf8e 983c e4a6 2a3d
00000170: 1fc8 833d c69a a8bd 0f29 913d 5a37 c3bb
00000180: 5143 a93d ef3e c2bd 098c 10bd 6dbf ab3c
00000190: 2110 86bd 49dd 51bd 88ff 6d3d d93f 393c
000001a0: a354 e8bc 435c 5bbd 8700 7c3d 2a7b 20be
000001b0: 9f1b 923d 50c1 973d b0a4 283d 041f b8bc
000001c0: 448d 52bd 126a 9e3b f972 4e3d 5e7d 0ebd
000001d0: 00f6 67bd c62b 013d 10d9 63bc 36a3 813d
000001e0: 5600 403d 6cb0 07bc 3a75 2b3c c1a5 eebb
000001f0: 0e31 01bd 576d 5ebd 6020 43bd 4343 65bb
00000200: d2e0 f93b a194 1ebd 7f1f 383d 998e 70bd
00000210: c5f9 9bbd 5f6c b13d 1577 71bb 90f1 a73c
00000220: 93b2 c83c f925 1b3d 3f17 c93c bbda 6c3d
00000230: d22c 933b 7086 1f3b 3866 613d d89d 88bd
00000240: 4f87 2e3d ffb9 d03c f089 0a3d 0757 863d
00000250: 0d84 27bc 7b5b 903d c415 153d a534 35bd
00000260: 821b 01bd 7bbc e43c ce9e 5b3d b6bf 93bc
00000270: d7ef bf3a 7e8b 653c 04a0 5f3d 88a1 8bbd
00000280: c853 abbc 23b2 593c a16e b1bc cb5c 75bd
00000290: 91a0 823d 376c 81bb 4365 0d3d f0b8 293d
000002a0: 9aff 2e3d bde4 683d 4916 3abd 4b6f 78bd
000002b0: e96a a8bc e1dd 15bd 7956 ecbd 42f4 90bc
000002c0: d2c8 663d 04c8 5d3d d090 abbc 5d18 7cbc
000002d0: bd85 8fbd 6217 21bd 30d5 af3c b4e0 183d
000002e0: 6195 843d 07a9 893d be7b e5bd 3847 513d
000002f0: fcb9 cfbd 6db5 123d 8ae9 80bd 63c8 66b9
00000300: 849d 1ebd 2881 93bb c339 3fbd 5a3f 49bd
00000310: 0dd2 8dbd f2c8 8dbd 568b 00bd b03d 833d
00000320: acd3 dd3c e708 60bd eec3 143d d811 b93d
00000330: 0d03 793c 9c79 febc 89d7 693b 1853 b0bc
00000340: a1f5 7f3d f472 09bd 3742 37bc e9d4 773d
00000350: 9be5 c03c 53ed 89bd db42 f53c 116f bf3d
00000360: 20f2 e33c e594 59bd 7e49 633d e3a1 30bd
00000370: ccdb 9e3c 44ee 583d 2cdf 90bc 0c3e bc3b
00000380: 80dd ef3c 35a6 fcbc c94b a63d 9bed 84bc
00000390: dd2a 0a3d 7959 01bd 46aa 843c ff18 d8bc
000003a0: 78ca 42bd 91fd 42b9 dc5c c73c 99a7 fdbc
000003b0: 6f49 f1bc 6d58 b03c ebe6 aabd 0470 593d
000003c0: 2453 963c e45b 90bc c31e 9b3c 7dd3 1f3b
000003d0: 79c2 bebc 00ac 43bb 4381 ddbc 058b 8e3d
000003e0: 5317 013d e756 4cbd c491 173d 7766 8d3d
000003f0: c0a0 7ebd 0253 edbc d19e 733d 7c23 133d

default.encoder.to_out.bias f4 [128]
0.102724016 0.16828567 0.18923667 0.03343225 0.036174063 -0.08889501 -0.030173907 0.23002605
-0.098836616 -0.025823198 -0.05968599 0.13636355 -0.13612077 0.0367074 -0.06760463 -0.00036438604
-0.020960163 0.11830549 -0.086444624 0.22855085 -0.15401089 0.21533903 0.018456232 0.04538544
0.04940079 0.036160845 -0.04260131 0.19135956 0.04683229 0.096666954 -0.033317488 0.11528114
0.18823396 -0.1866518 0.043294135 0.15933798 0.036709607 0.03162628 -0.14887844 -0.2061488
0.06855454 0.28126058 0.08520188 0.06664127 0.19842556 0.13634476 0.057460167 0.1415681
-0.07131979 0.09228871 0.05406719 0.07907851 0.03081222 0.14973749 -0.09147858 0.08862161
0.08265449 0.0065236087 -0.061941452 -0.06125367 -0.042705566 0.031766843 0.04767792 -0.1894632
-0.19530879 0.25985646 0.037478816 0.061586283 -0.013817677 -0.22594963 -0.106452964 0.040754203
0.18471503 -0.10249585 0.125734 0.06253175 0.013446965 -0.16263439 0.041220218 -0.021316668
0.07961939 0.17558393 0.038092785 -0.081049316 0.2666627 -0.09164488 -0.13912603 -0.13189276
-0.08187223 0.21000151 -0.0015400265 0.15510403 0.031707786 -0.0847593 0.0621139 0.07878199
-0.18204246 0.08863341 0.1765495 -0.06021626 -0.038168848 -0.23532614 -0.026625756 0.0494716
-0.06292314 -0.14157782 -0.17864442 0.1557291 0.16201147 0.118853025 -0.029537706 0.039892204
-0.1446397 0.012748076 -0.07242551 0.1331171 0.12653188 -0.083578 -0.12433952 -0.21442142
0.09691014 -0.10423153 0.09925642 0.0070153456 0.12110155 -0.012830226 -0.042520616 -0.2547946
00000000: f860 d23d 1453 2c3e 42c7 413e 41f0 083d
00000010: 412b 143d 960e b6bd 452f f7bc f38b 6b3e
00000020: da6a cabd 2c8b d3bc 4c79 74bd e3a2 0b3e
00000030: 3e63 0bbe 805a 163d 4c74 8abd 110b bfb9
00000040: a6b4 abbc 264a f23d e109 b1bd 3c09 6a3e
00000050: 08b5 1dbe d681 5c3e 8631 973c 15e6 393d
00000060: 7c58 4a3d 651d 143d b67e 2ebd c3f3 433e
00000070: 37d3 3f3d 53f9 c53d eb77 08bd 8518 ec3d
00000080: 67c0 403e a621 3fbe 3155 313d 7f29 233e
00000090: d05c 163d 8f8a 013d 9773 18be ac18 53be
000000a0: 5366 8c3d 6301 903e 537e ae3d 387b 883d
000000b0: 1230 4b3e f69d 0b3e 5a5b 6b3d 3af7 103e
000000c0: 1c10 92bd dd01 bd3d 8f75 5d3d eaf3 a13d
000000d0: e969 fc3c c954 193e 1f59 bbbd 3f7f b53d
000000e0: c246 a93d ffc3 d53b 52b6 7dbd 21e5 7abd
000000f0: 08ec 2ebd f31d 023d ec49 433d a402 42be
00000100: 07ff 47be e80b 853e 6383 193d e641 7c3d
00000110: 8a63 62bc 575f 67be 0304 dabd e1ed 263d
00000120: f025 3d3e 58e9 d1bd 6ac0 003e a510 803d
00000130: a950 5c3c a189 26be 88d6 283d 4ba0 aebc
00000140: 7e0f a33d 46cc 333e 2e07 1c3d 2ffd a5bd
00000150: 0388 883e 50b0 bbbd 0e77 0ebe e50e 07be
00000160: a1ac a7bd a30a 573e b7da c9ba 97d3 1e3e
00000170: 06e0 013d 4996 adbd 256b 7e3d 7458 a13d
00000180: 5769 3abe 6f85 b53d 64c9 343e 53a5 76bd
00000190: f056 1cbd 56f9 70be 421e dabc bca2 4a3d
000001a0: d9dd 80bd c7f9 10be 90ee 36be 7377 1f3e
000001b0: 56e6 253e 3769 f33d 0ff9 f1bc 0266 233d
000001c0: 6e1c 14be 4edd 503c d353 94bd d94f 083e
000001d0: 9391 013e f12a abbd b8a5 febd 4a91 5bbe
000001e0: d378 c63d 5777 d5bd f346 cb3d fce0 e53b
000001f0: 1704 f83d de35 52bc 192a 2ebd 7074 82be

default.mean_encoder.weight f4 [10, 128]
0.006765108 0.017985323 0.004302995 -0.0056010056 0.00981889 0.008482444 0.024233898 -0.013680544
0.00090570265 0.0038815245 0.01676688 0.015608012 -0.013444119 -0.013664239 0.0067059714 -0.0052854447
0.018941838 0.010491127 -0.00786808 -0.009449924 0.025888026 -0.025832674 0.005865174 -0.006418697
-0.015754044 -0.019188061 0.009358466 -0.024900582 0.02277251 0.0043500396 -0.013902394 -0.033346385
0.01967276 -0.008897006 0.0043769525 0.004352426 0.01731555 0.0028706698 -0.0005757754 -0.0038938273
0.0009936418 -0.015989512 0.020496015 0.006288253 -0.02042667 0.031907324 0.010318659 -0.018295411
-0.0006599073 -0.017217351 0.002295289 0.00130946 0.0006042463 0.011475005 0.006491415 -0.0040230174
-0.010150733 0.008491682 0.004244189 -0.009134573 -0.003399646 0.039676584 -0.008569926 0.00022600786
-0.007972875 -0.0064335377 -0.001530351 0.00065703515 0.008894832 0.036360923 -0.0056810314 0.010276623
0.008362552 0.03442311 -0.0033307516 -0.011586347 0.025789982 0.02367058 0.00035035732 -0.0022917697
0.023315834 0.009699314 -0.0156227285 -0.022995852 -0.0032817463 0.01019918 0.0038667808 -0.015050596
0.002655528 -0.010820503 -0.0084708 -0.011674416 0.014603578 -0.0032886988 0.031043053 0.00865122
0.011584111 -0.003239023 -0.018636849 0.0032969983 -0.007607789 0.0052445605 0.019939503 0.0076048467
-0.0016911093 -0.011331527 -0.014265783 -0.00048507474 0.011742343 0.0036053776 -0.001045546 0.00041730033
0.023746438 -0.0064259786 0.009146154 0.0027521893 0.01762482 -0.00711403 0.021254348 0.022312671
-0.005390682 -0.0042674635 -0.022592595 -0.005022586 -0.021459652 0.006126996 -0.0016358453 0.013944137
-0.008224029 0.0039141634 -0.0054733204 0.010032477 -0.025084399 0.0031984376 -0.008886079 -0.01783804
0.014122995 0.012159903 0.01800401 -0.004955375 -0.00490067 -0.0032391755 0.0042566243 0.006278112
-0.009864617 0.009447748 0.009048817 -0.032245997 0.0057609165 0.0020192778 -0.0009539436 -0.023707438
-0.007410169 -0.011035675 0.0063561783 -0.0105127115 0.024482477 -0.012121236 0.0068685138 -0.025128366
0.017582726 0.009062126 0.013406319 -0.0066843336 -0.014398989 -0.012279532 -0.005981496 -0.0010590692
0.0036454725 -0.008949527 0.017324483 0.019890057 -0.0025370535 -0.013906772 -0.006322192 0.0068389247
0.01696249 0.017467817 0.004755967 0.0026059153 0.021513134 -0.018040275 0.0072624595 -0.0062530423
0.004513001 -0.008902486 0.003829792 -0.009880541 -0.012420464 0.0116280485 -0.0064752386 0.013558414
0.0052755377 0.022939906 -0.006180792 -0.01511482 0.0017068041 0.016927186 0.0036621233 -0.01416385
-0.0029700114 -0.016224496 -0.015532505 0.0063780663 0.0010876968 0.016261585 0.0025651392 -0.013635516
-0.021615934 0.018906655 0.03323118 -0.01132029 -0.02426132 0.010875343 0.007327159 -0.022204146
-0.017290669 0.013107368 0.0072248746 -0.008026656 -0.008585138 -0.013467946 0.0055110436 -0.0016541377
-0.0076082046 -0.023730408 0.0031322956 0.0032691858 -0.008212416 0.014299515 -0.0018364333 0.009227877
-1.8486517e-05 -0.016434709 0.0062571797 0.01592538 0.0149922175 0.010163117 0.022028115 -0.003258384
0.014268893 -0.0019594855 0.008379994 0.004424393 -0.001162763 -0.005998962 0.0122686485 0.030357929
0.01609255 0.0067175804 -0.0028991946 -0.0069245542 -0.008820929 -0.005221331 -0.008845303 0.020618483
00000000: d7ad dd3b f555 933c 2300 8d3b a488 b7bb
00000010: 69df 203c f3f9 0a3c 2b86 c63c 5c24 60bc
00000020: ad6c 6d3a 2d61 7e3b b25a 893c bfb8 7f3c
00000030: b944 5cbc f9df 5fbc c4bd db3b 8631 adbb
00000040: ea2b 9b3c fae2 2b3c 1fe9 00bc dbd3 1abc
00000050: 2013 d43c 0b9f d3bc a530 c03b ef53 d2bb
00000060: a00e 81bc 4830 9dbc 4054 193c 4efc cbbc
00000070: 6a8d ba3c c78a 8e3b dec6 63bc 3896 08bd
00000080: c528 a13c bfc4 11bc 8a6c 8f3b cc9e 8e3b
00000090: 57d9 8d3c d921 3c3b a2ef 16ba 952f 7fbb
000000a0: 163d 823a 70fc 82bc 42e7 a73c b00d ce3b
000000b0: d555 a7bc 41b1 023d 980f 293c 42e0 95bc
000000c0: a1fd 2cba 670b 8dbc 8f6c 163b 30a2 ab3a
000000d0: 4866 1e3a a901 3c3c f0b5 d43b 84d3 83bb
000000e0: 434f 26bc b220 0b3c d612 8b3b 2da9 15bc
000000f0: 98cc 5ebb ea83 223d e068 0cbc 86fc 6c39
00000100: a9a0 02bc 6dd0 d2bb 0f96 c8ba e23c 2c3a
00000110: a1bb 113c 31ef 143d f227 babb 485f 283c
00000120: 1603 093c 3fff 0c3d bd48 5abb a9d4 3dbc
00000130: 8345 d33c cee8 c13c 2ab0 b739 8431 16bb
00000140: d900 bf3c dfe9 1e3c 79f6 7fbc cc61 bcbc
00000150: 9112 57bb 761a 273c d169 7d3b c696 76bc
00000160: 5e08 2e3b 7b48 31bc 1cc9 0abc 0d46 3fbc
00000170: d843 6f3c 3687 57bb 004e fe3c d9bd 0d3c
00000180: 48cb 3d3c ca45 54bb 4eac 98bc 7412 583b
00000190: c24a f9bb 90da ab3b 2b58 a33c 1432 f93b
000001a0: 36a8 ddba dea7 39bc 08bb 69bc a151 feb9
000001b0: f562 403c 3348 6c3b b40a 89ba 1ac9 da39
000001c0: e487 c23c 0491 d2bb c0d9 153c 135e 343b
000001d0: ed61 903c cf1c e9bb 991d ae3c 10c9 b63c
000001e0: 51a4 b0bb 14d6 8bbb 1b14 b9bc 8194 a4bb
000001f0: 27cc afbc f8c4 c83b dc69 d6ba f375 643c
00000200: 14be 06bc 6242 803b 8a59 b3bb 425f 243c
00000210: cc7d cdbc e19c 513b eb96 11bc 1521 92bc
00000220: 2264 673c 543a 473c 257d 933c b360 a2bb
00000230: cd95 a0bb 5948 54bb 277b 8b3b 9fb8 cd3b
00000240: 349f 21bc baca 1a3c 7d41 143c 6114 04bd
00000250: 12c6 bc3b dc55 043b 1212 7aba 1a36 c2bc
00000260: 01d1 f2bb face 34bc 7d47 d03b 823d 2cbc
00000270: 7a8f c83c 2698 46bc 4511 e13b 01da cdbc
00000280: a609 903c 5079 143c 2da6 5b3c 4108 dbbb
00000290: bde9 6bbc 1730 49bc 6d00 c4bb 77d0 8aba
000002a0: e1e8 6e3b 09a1 12bc 13ec 8d3c 79f0 a23c
000002b0: b244 26bb 3bd9 63bc 642a cfbb 0f19 e03b
000002c0: ebf4 8a3c ab18 8f3c f1d7 9b3b 01c8 2a3b
000002d0: 503c b03c 33c9 93bc edf9 ed3b 52e6 ccbb
000002e0: cce1 933b bcdb 11bc 3ffd 7a3b fee1 21bc
000002f0: 347f 4bbc 9283 3e3c 3d2e d4bb 1c24 5e3c
00000300: 6bde ac3b 78ec bb3c 3e88 cabb 26a4 77bc
00000310: d8b6 df3a e2aa 8a3c 3c00 703b 7e0f 68bc
00000320: 86a4 42bb 3ce9 84bc 0c7c 7ebc 19ff d03b
00000330: 0c91 8e3a 0437 853c e51b 283b 8067 5fbc
00000340: e613 b1bc 21e2 9a3c 6b1d 083d bd78 39bc
00000350: adbf c6bc 7f2e 323c aa18 f03b 78e5 b5bc
00000360: 29a5 8dbc 49c0 563c a4be ec3b 3c82 03bc
00000370: aea8 0cbc a9a8 5cbc fc95 b43b a7cf d8ba
00000380: 3f4e f9bb 4666 c2bc 3347 4d3b d63f 563b
00000390: 5f8d 06bc 8348 6a3c 7ab4 f0ba 8530 173c
000003a0: 7e13 9bb7 15a2 86bc 0709 cd3b f175 823c
000003b0: eba1 753c 3483 263c 4e74 b43c 9d8a 55bb
000003c0: 13c8 693c b66a 00bb 3e4c 093c 80fa 903b
000003d0: da67 98ba f192 c4bb 7102 493c 31b1 f83c
000003e0: 86d4 833c 261f dc3b 6a00 3ebb 5fe7 e2bb
000003f0: a885 10bc b317 abbb e4eb 10bc 18e8 a83c

default.mean_encoder.bias f4 [10]
0.027023587 0.01695607 -0.005298857 0.004157799 0.012319122 0.05778085 0.0068772356 0.015347315
0.034598943 0.0042226063
00000000: 9260 dd3c 75e7 8a3c 09a2 adbb 253e 883b
00000010: 25d6 493c 9dab 6c3d 6f5a e13b 4e73 7b3c
00000020: 9fb7 0d3d ca5d 8a3b

default.var_encoder.weight f4 [10, 128]
0.0040264484 -0.00056361395 -0.018191777 0.021719197 0.011544568 0.007553165 0.014343466 -0.00073483627
-0.0024460258 0.012178586 -0.015251301 0.007827368 0.013990623 0.011404849 -0.00376533 -0.017177388
-0.011328429 0.02436156 0.01747612 -0.0037465375 -0.0071339076 0.0012601052 0.018161835 0.0013560764
-0.011380526 -0.011280759 0.001171777 0.014556104 -0.0031636294 0.0017464269 0.00828501 0.0011890924
-0.012857472 0.005994908 0.026971003 0.0032045234 -0.0037118734 -0.003808732 0.00090533495 0.0064769117
0.000425367 0.004927914 0.01847915 -0.01065669 -0.0021702866 0.00887332 0.015038142 -0.0008740337
-0.012299462 -0.0040216725 -0.0057396693 0.0066290693 -0.010954202 0.014816732 -0.020416556 0.017160429
-0.008543438 0.0021397308 0.022240127 0.0101305 -0.016360275 -0.0007965348 0.008514867 0.0015338695
0.01997988 -0.013979313 0.009067971 -0.012337466 0.008144343 0.0028534941 0.027116666 0.010379174
-0.0070697623 -0.020899411 -0.014193046 -0.011211043 0.004868567 -0.029807802 -0.0155766085 0.005601901
0.0049426686 -0.018259035 0.012825301 0.020608073 -0.0037664084 0.009126155 -0.008522078 -0.015888577
0.0017303877 -0.010848804 -0.0023206172 0.004242285 -0.004071047 0.00022268618 -0.013237782 -0.008030811
-0.0017059051 0.024363028 -0.0023104665 -0.015042875 0.013310196 -0.018025056 0.0007457058 0.016151564
-0.017470008 -0.02195313 0.011011882 -0.030941263 -0.01036572 0.0071040057 0.003130364 0.004365004
-0.024460511 -0.0033051919 0.013188496 -0.021498503 -0.006791839 0.011545301 0.007761479 0.0075988052
0.0019447466 0.015470704 0.003787685 -0.0063395635 -0.01792923 -0.008098791 0.0023125384 0.011314232
0.015474834 0.0050151735 -0.019029712 -0.007892664 0.0076893317 0.007864004 0.012798023 0.0098149
0.0024643128 -0.012288122 0.013828982 0.005530253 -0.004804712 0.0026085228 -0.0006136879 0.00024600737
0.0011102695 0.026730496 -0.012747982 -0.021166103 -0.018546589 -0.008278383 0.008470808 -0.0068917274
-0.008621222 -0.003586154 0.0044032545 0.013130719 -0.024492482 -0.0147256935 -0.0051007783 0.013868542
-0.018055307 0.013082925 -0.016767165 0.0052777175 0.0014325276 -0.015789595 0.00078784797 -0.0011721681
0.015991226 -0.00062624644 -0.0061450633 -0.02181659 0.0025576602 -0.006340803 0.0094313705 0.0070543042
0.017578797 -0.019888349 0.0048050988 -0.01843131 -0.009565569 -0.00088671054 -0.0019601278 0.021133488
-0.008703306 -0.014050683 0.016838377 0.02052949 0.013383271 0.007999247 -0.0011099367 -0.011691821
1.1157208e-05 0.0021076892 -0.0049304273 0.0025282481 0.007718938 -0.009082006 -0.022731137 0.004690628
-0.0014664724 -0.005064443 0.00419069 -0.0124515705 -0.020243673 0.007302843 0.014079516 0.007540997
0.0046798005 -0.007877806 0.010153811 0.007136276 -0.011919808 0.008851223 0.0018388561 0.018678777
-0.0092685325 -0.034551956 0.0061587878 0.011551619 0.009416474 0.013684329 -0.012305276 0.006005874
-0.010930026 -0.0013806403 0.006178635 -0.011495304 0.0072486782 0.0039800964 0.007233388 -0.015982304
0.00903041 0.0043163844 0.0078112306 -0.00479027 -0.02768995 -0.0054332498 0.009965569 -0.008894357
-0.00982213 0.0074493987 0.019897502 -0.017362026 -0.0018437651 -0.00057476934 -0.018633094 -0.013283407
0.019805096 0.0007105359 -0.0040723486 -0.024477134 -0.0025928244 -0.0009636112 -0.0016767345 0.003645858
00000000: 4cf0 833b 7ebf 13ba ec06 95bc 75ec b13c
00000010: 6e25 3d3c 8a80 f73b db00 6b3c 07a2 40ba
00000020: 814d 20bb b188 473c 98e0 79bc 5c3e 003c
00000030: ed38 653c 67db 3a3c c1c3 76bb 98b7 8cbc
00000040: e09a 39bc e591 c73c 142a 8f3c 7888 75bb
00000050: 8ec3 e9bb 1d2a a53a 21c8 943c 60be b13a
00000060: 6375 3abc efd2 38bc 5096 993a ba7c 6e3c
00000070: e554 4fbb 5de8 e43a dabd 073c 52db 9b3a
00000080: 25a8 52bc ef70 c43b 4bf2 dc3c fb02 523b
00000090: e742 73bb eb9b 79bb 0054 6d3a 463c d43b
000000a0: cb03 df39 577a a13b 9661 973c 6699 2ebc
000000b0: 5e3b 0ebb 6761 113c 8a62 763c 691f 65ba
000000c0: af83 49bc 3cc8 83bb d613 bcbb aa38 d93b
000000d0: 4179 33bc e1c1 723c 9f40 a7bc 0794 8c3c
000000e0: c7f9 0bbc ba3a 0c3b ed30 b63c 66fa 253c
000000f0: fc05 86bc 8cce 50ba f181 0b3c 1f0c c93a
00000100: d8ac a33c 7d09 65bc d491 143c 1523 4abc
00000110: da6f 053c b001 3b3b c523 de3c 690d 2a3c
00000120: 77a9 e7bb 3e35 abbc f389 68bc 86ae 37bc
00000130: 8088 9f3b 7e2f f4bc 0835 7fbc 2790 b73b
00000140: 1cf6 a13b f993 95bc 3621 523c 43d2 a83c
00000150: d9d5 76bb de85 153c 30a0 0bbc c328 82bc
00000160: 2dce e23a 2fbf 31bc 7f15 18bb de02 8b3b
00000170: 6b66 85bb de80 6939 48e3 58bc aa93 03bc
00000180: ad98 dfba f994 c73c 326b 17bb 6476 76bc
00000190: 0213 5a3c 48a9 93bc 787b 433a 4950 843c
000001a0: 431d 8fbc 0dd7 b3bc 2e6b 343c 8878 fdbc
000001b0: fbd4 29bc b8c8 e83b cb26 4d3b 4f08 8f3b
000001c0: 6961 c8bc eb9b 58bb 9014 583c a11d b0bc
000001d0: 138e debb 8128 3d3c 0154 fe3b 66ff f83b
000001e0: dee6 fe3a d678 7d3c cf3a 783b 1dbc cfbb
000001f0: 52e0 92bc cbb0 04bc f58d 173b 545f 393c
00000200: 288a 7d3c 5356 a43b 33e4 9bbc 3b50 01bc
00000210: caf6 fb3b 06d8 003c cdae 513c adce 203c
00000220: 4f80 213b 1f54 49bc f492 623c 2037 b53b
00000230: d870 9dbb c0f3 2a3b e6df 20ba 8dfa 8039
00000240: 7686 913a eaf9 da3c e9dc 50bc 8964 adbc
00000250: 04ef 97bc 0ea2 07bc 25c9 0a3c 00d4 e1bb
00000260: 0740 0dbc ae05 6bbb 2d49 903b 3a22 573c
00000270: 75a4 c8bc 0944 71bc 6e24 a7bb e238 633c
00000280: b9e8 93bc c459 563c 4b5b 89bc b4f0 ac3b
00000290: a6c3 bb3a 2e59 81bc 9587 4e3a 6fa3 99ba
000002a0: 0800 833c b02a 24ba 875c c9bb b5b8 b2bc
000002b0: 6b9e 273b 83c6 cfbb 0986 1a3c cb27 e73b
000002c0: 6901 903c e4ec a2bc 1774 9d3b 42fd 96bc
000002d0: e8b8 1cbc 2372 68ba 7d75 00bb 2320 ad3c
000002e0: 5098 0ebc d634 66bc a3f0 893c 762d a83c
000002f0: 8245 5b3c 460f 033c 4c7b 91ba 0d8f 3fbc
00000300: d82f 3b37 2821 0a3b 6c8f a1bb f7b0 253b
00000310: 25ef fc3b b2cc 14bc a636 babc d7b3 993b
00000320: a636 c0ba a1f3 a5bb 0e52 893b ac01 4cbc
00000330: 0fd6 a5bc b04c ef3b c5ad 663c 781a f73b
00000340: 0359 993b ea11 01bc 2c5c 263c 6cd7 e93b
00000350: 4c4b 43bc b804 113c c605 f13a 3c04 993c
00000360: 0bdb 17bc 5a86 0dbd a8cf c93b 0043 3d3c
00000370: 8e47 1a3c 3c34 603c 119c 49bc eccc c43b
00000380: da13 33bc 9af6 b4ba 2676 ca3b cd56 3cbc
00000390: 5286 ed3b 786b 823b 0e06 ed3b 52ed 82bc
000003a0: 49f4 133c 7570 8d3b 5af5 ff3b b2f7 9cbb
000003b0: 09d6 e2bc 6709 b2bb a046 233c a3b9 11bc
000003c0: 00ed 20bc 161a f43b 1600 a33c cf3a 8ebc
000003d0: 7eaa f1ba 1eac 16ba 6ea4 98bc a6a2 59bc
000003e0: 4c3e a23c 4243 3a3a 5671 85bb 4584 c8bc
000003f0: 60ec 29bb da9a 7cba e0c5 dbba 59ef 6e3b

default.var_encoder.bias f4 [10]
-0.006015345 0.009214242 -0.13235946 -0.024656098 0.010867672 -0.28414333 0.016828919 6.4305845e-05
-0.016572002 0.010377885
00000000: 5f1c c5bb 55f7 163c 3d89 07be 96fb c9bc
00000010: 520e 323c 3c7b 91be cddc 893c f0db 8638
00000020: 02c2 87bc 0108 2a3c
