models/mnist-relaxed1E/encoder_z2_z1_9138812618953800544.pt (torch_old, 264930 bytes, 25 tensors)

CUBO.df_val.weight f4 [1, 128]
-0.1314677 -0.10310414 -0.15187886 0.054669436 0.0757412 0.02567144 -0.1608577 0.06560652
0.16508736 0.10225143 0.13888203 -0.10050111 0.113222696 -0.20027518 -0.12196984 -0.12237303
-0.18239956 -0.060620856 0.08358802 0.04951105 -0.06059468 -0.06926822 -0.23159489 0.19039086
0.107414305 -0.045667153 -0.01600045 -0.018236388 0.18172444 -0.022045346 -0.12106405 0.0070569147
0.23744787 0.22974005 0.11286858 0.1410993 0.11151746 -0.124131195 0.12644973 0.10467704
0.03139257 -0.19194141 0.17117697 -0.07183299 0.056066897 0.10746946 0.17406215 0.19440176
0.03621843 -0.06502973 -0.13326469 0.13790736 0.096016906 -0.1113068 -0.09881885 -0.12960252
-0.111679204 0.09653075 0.03512887 0.16473287 0.0787594 0.116692275 0.15183961 0.09802085
-0.015407641 -0.10192911 -0.09216251 -0.12931988 -0.14460321 0.1798005 -0.18605494 0.16606611
0.017157128 -0.027963137 -0.1513619 0.15716396 -0.2009699 0.023353571 0.09907671 0.047355082
-0.092433915 0.119329095 -0.059818245 -0.1846929 -0.036003537 -0.022215191 -0.124231935 -0.1261114
-0.12108526 -0.03716789 0.037509497 -0.061133303 0.24860719 0.07993688 0.042262018 -0.0011140698
0.2005113 -0.15088238 -0.038311925 -0.09655777 -0.12532791 -0.15065947 0.09132852 -0.0021259782
-0.08198726 -0.08505474 -0.09165796 -0.065809906 -0.11324899 0.10823654 0.163522 -0.15207766
0.23768719 -0.14891087 0.06610306 0.108334176 0.23291309 -0.11790536 0.15283749 -0.050794832
0.12351983 -0.14804834 -0.07307532 -0.05018204 -0.16568899 -0.14182617 -0.022539938 0.097361565
00000000: 789f 06be 4328 d3bd 2286 1bbe 0fed 5f3d
00000010: 341e 9b3d e94c d23c e2b7 24be b65c 863d
00000020: a90c 293e 3369 d13d 1737 0e3e 87d3 cdbd
00000030: 4de1 e73d f014 4dbe 53cb f9bd b69e fabd
00000040: f3c6 3abe 934d 78bd 3230 ab3d 19cc 4a3d
00000050: 2132 78bd 7fdc 8dbd 3627 6dbe d2f5 423e
00000060: 08fc db3d 7b0d 3bbd 6013 83bc 7a64 95bc
00000070: f915 3a3e 7198 b4bc 6ef0 f7bd b13d e73b
00000080: 8925 733e fa40 6b3e a427 e73d 567c 103e
00000090: 4463 e43d 7f38 febd 0a7c 013e ea60 d63d
000000a0: 7f95 003d 4a8c 44be 0449 2f3e 2d1d 93bd
000000b0: 67a6 653d f318 dc3d 593d 323e 4111 473e
000000c0: c759 143d 4f2e 85bd 8a76 08be 9637 0d3e
000000d0: 83a4 c43d d2f4 e3bd 8a61 cabd 86b6 04be
000000e0: 11b8 e4bd eab1 c53d 4ae3 0f3d bcaf 283e
000000f0: 9c4c a13d 5cfc ee3d d87b 1b3e 28bf c83d
00000100: 5570 7cbc 36c0 d0bd b3bf bcbd 6e6c 04be
00000110: dd12 14be 9f1d 383e 3085 3ebe 3c0d 2a3e
00000120: 1b8d 8c3c f312 e5bc 9dfe 1abe 97ef 203e
00000130: 0ecb 4dbe fd4f bf3c bbe8 ca3d 67f7 413d
00000140: fe4d bdbd d062 f43d fa03 75bd 2320 3dbe
00000150: 7278 13bd a2fc b5bc 506d febd 5923 01be
00000160: 8cfb f7bd 5c3d 18bd 8fa3 193d ea66 7abd
00000170: e292 7e3e f2b5 a33d f01a 2d3d fb05 92ba
00000180: d652 4d3e e980 1abe f7ec 1cbd 15c0 c5bd
00000190: f655 00be 7a46 1abe 720a bb3d ff53 0bbb
000001a0: f0e8 a7bd 2e31 aebd 2bb7 bbbd 58c7 86bd
000001b0: 16ef e7bd 1eab dd3d 5072 273e 3fba 1bbe
000001c0: 4564 733e 177c 18be 0b61 873d 4fde dd3d
000001d0: c580 6e3e 5e78 f1bd 6e81 1c3e 3e0e 50bd
000001e0: f7f7 fc3d fc99 17be 83a8 95bd af8b 4dbd
000001f0: 60aa 29be e13a 11be ada5 b8bc 8065 c73d

CUBO.encoder.to_hidden.weight f4 [128, 19]
0.11627711 -0.13414381 -0.088133715 0.20149608 -0.10796841 0.10360327 0.105125844 0.16687857
0.10929009 0.08353126 -0.1349515 0.4539743 0.035181295 -0.20179193 0.114950545 -0.082714394
0.18390785 -0.26401657 0.34364846 -0.028985642 -0.06800026 0.023746228 0.08490977 0.021227447
0.09730961 -0.1480367 -0.068432756 0.04863841 -0.03780307 0.21641704 -0.2941812 0.29307202
-0.14589779 -0.14805372 -0.10739018 0.11752863 0.066124 0.13935925 0.07172632 -0.16451867
0.06076813 0.018851934 0.036120426 0.048800718 0.12485613 0.07260838 -0.051149365 -0.11256073
-0.12787227 -0.12918769 -0.15261838 0.12425586 0.07499297 -0.25456756 0.21805122 0.051799297
-0.043921236 -0.0341808 -0.061464623 -0.07598939 0.02320516 0.054420657 -0.03918198 -0.04967857
-0.11751081 0.046208326 -0.067431405 -0.25077465 0.27833125 0.14010331 -0.14054397 0.11109223
0.28119093 0.23116465 -0.28154764 0.053393163 0.18752642 -0.27890375 0.098036654 0.133477
-0.012421723 0.13243471 -0.17148304 0.1560314 -0.08288469 -0.102564216 -0.17580423 -0.30044362
-0.17755051 -0.16058885 -0.27709395 0.07515719 -0.2916726 -0.066767804 0.04923594 -0.0066194353
0.03553447 -0.15132563 -0.03110251 -0.077388175 -0.012834352 0.12291465 0.015681084 0.0040996056
0.19273598 -0.49342018 0.41217053 -0.16122724 0.15344338 0.029256796 0.11668256 0.12081697
0.055134416 0.3185939 0.054268856 -0.18650658 -0.14189678 -0.017604599 -0.10454756 -0.18017988
0.053715263 -0.011202856 -0.11991198 0.053821787 -0.1253428 0.14497839 -0.22143397 -0.033211432
-0.14547932 -0.100849435 -0.13057677 0.08615733 0.06277711 -0.0829955 0.0712756 0.09634442
0.040789504 -0.040175393 -0.017427426 0.036955383 0.06426243 -0.062516294 0.03334674 0.111192405
-0.10605457 0.09482295 0.34317195 -0.12528847 -0.02757377 0.003469376 -0.115912564 -0.14974323
0.114183195 -0.04969006 -0.07386432 -0.07059358 0.09163717 0.028424017 0.048073087 0.10132748
0.030797873 0.010777432 0.35216528 -0.047417607 0.014834764 0.26070467 0.077875026 -0.018448137
-0.102492854 -0.21763511 -0.028442124 0.14500423 -0.16720825 0.02129351 -0.021730077 0.0058701904
0.06725893 0.073579505 -0.11176091 0.028541185 0.08786781 -0.21606484 0.42353064 0.029533666
-0.010578332 -0.09524633 -0.038750745 0.16649552 0.1329927 0.2657459 -0.021671943 0.061924953
0.10028821 -0.030441284 0.0321128 0.05034796 0.024748849 0.045590777 -0.102611914 0.10156336
-0.27987435 -0.05069393 -0.20384175 0.18277104 0.10884932 -0.18840224 -0.122135736 0.17351139
0.0015265262 -0.039939817 -0.09209158 -0.10665646 -0.175367 0.023882538 -0.14769599 -0.08007779
-0.06348658 0.061564825 0.12720737 -0.10417199 0.3721427 -0.37344703 0.1043763 0.17751996
0.14594625 0.20711365 0.08742326 0.17922434 0.050087687 -0.1608466 -0.1807749 -0.05230147
-0.15210186 0.08672452 0.10476441 0.14137702 0.12896156 0.06696992 -0.22659697 -0.28083166
-0.08574274 -0.016202416 0.12768412 -0.06282869 -0.008064203 0.2894753 0.056863252 0.28358817
-0.15650018 -0.09502897 -0.06088054 0.16567764 -0.066733085 -0.099633545 0.11788747 0.036807235
00000000: b222 ee3d ff5c 09be 737f b4bd fd54 4e3e
00000010: 8b1e ddbd f42d d43d 384c d73d 37e2 2a3e
00000020: 7cd3 df3d 7012 ab3d ba30 0abe 526f e83e
00000030: 431a 103d 8ba2 4ebe 316b eb3d 2a66 a9bd
00000040: 5752 3c3e 2e2d 87be b1f2 af3e 4c73 edbc
00000050: b843 8bbd 7387 c23c 2ce5 ad3d 2fe5 ad3c
00000060: 434a c73d ef96 17be 7926 8cbd 1239 473d
00000070: 64d7 1abd 6e9c 5d3e eb9e 96be 890d 963e
00000080: 3b66 15be 659b 17be 62ef dbbd dab2 f03d
00000090: 056c 873d 31b4 0e3e 40e5 923d 9577 28be
000000a0: 01e8 783d 5f6f 9a3c 03f3 133d 43e3 473d
000000b0: 92b4 ff3d b4b3 943d ff81 51bd 3d86 e6bd
000000c0: f3f0 02be c749 04be fe47 1cbe db79 fe3d
000000d0: ea95 993d ae56 82be d248 5f3e 802b 543d
000000e0: c1e6 33bd 2b01 0cbd 54c2 7bbd 53a0 9bbd
000000f0: bf18 be3c 32e8 5e3d 497d 20bd c27b 4bbd
00000100: 82a9 f0bd f144 3d3d 7a19 8abd 8965 80be
00000110: 6f81 8e3e 3e77 0f3e c2ea 0fbe 5384 e33d
00000120: 42f8 8f3e 6db6 6c3e 0327 90be cab2 5a3d
00000130: ed06 403e 79cc 8ebe 71c7 c83d 32ae 083e
00000140: 7c84 4bbc f79c 073e 4099 2fbe b2c6 1f3e
00000150: 73bf a9bd 300d d2bd 0606 34be bfd3 99be
00000160: cdcf 35be 6771 24be 42df 8dbe 03ec 993d
00000170: 1c56 95be 8fbd 88bd a0ab 493d d9e7 d8bb
00000180: 988c 113d 1bf5 1abe b1ca febc b17d 9ebd
00000190: 2d47 52bc adba fb3d 9e75 803c fc55 863b
000001a0: 955c 453e 92a1 fcbe 0408 d33e c118 25be
000001b0: 4320 1d3e f3ab ef3c 44f7 ee3d e36e f73d
000001c0: a0d4 613d bd1e a33e 0549 5e3d 95fb 3ebe
000001d0: 644d 11be 8537 90bc 081d d6bd 1381 38be
000001e0: 8904 5c3d 2f8c 37bc 6a94 f5bd 3c74 5c3d
000001f0: dd59 00be 3775 143e 96bf 62be b608 08bd
00000200: 88f8 14be 268a cebd ebb5 05be 4173 b03d
00000210: 4991 803d 8bf9 a9bd f1f8 913d 3950 c53d
00000220: e512 273d f48e 24bd f6c3 8ebc 875e 173d
00000230: 059c 833d 8b08 80bd 9796 083d d8b8 e33d
00000240: 2333 d9bd 8932 c23d 3cb4 af3e 9f4b 00be
00000250: 63e2 e1bc 785e 633b 9163 edbd 4a56 19be
00000260: e1d8 e93d ce87 4bbd 2d46 97bd 5e93 90bd
00000270: 45ac bb3d 7cd9 e83c 49e8 443d c884 cf3d
00000280: d24b fc3c d393 303c 024f b43e f738 42bd
00000290: 830d 733c 157b 853e f17c 9f3d 8c20 97bc
000002a0: c6e7 d1bd bddb 5ebe 75ff e8bc fd7b 143e
000002b0: a438 2bbe ba6f ae3c 4603 b2bc ba5a c03b
000002c0: 0dbf 893d dab0 963d e7e2 e4bd 34cf e93c
000002d0: 0af4 b33d 1a40 5dbe 02d9 d83e 96f0 f13c
000002e0: bd50 2dbc 8210 c3bd 1ab9 1ebd cd7d 2a3e
000002f0: 3d2f 083e d90f 883e 5c89 b1bc 05a5 7d3d
00000300: e863 cd3d 0060 f9bc b688 033d aa39 4e3d
00000310: 19be ca3c 65bd 3a3d 3226 d2bd 7300 d03d
00000320: b14b 8fbe 70a4 4fbd e4bb 50be 5528 3b3e
00000330: 64ec de3d 84ec 40be 4d22 fabd f8ac 313e
00000340: b815 c83a ef97 23bd 839a bcbd b46e dabd
00000350: 6893 33be 50a5 c33c 9e3d 17be d3ff a3bd
00000360: 4105 82bd 662b 7c3d a642 023e 2058 d5bd
00000370: 7d89 be3e 7334 bfbe 3ec3 d53d cbc7 353e
00000380: ef72 153e 9a15 543e f70a b33d 9686 373e
00000390: bf28 4d3d f9b4 24be 0e1d 39be 113a 56bd
000003a0: 97c0 1bbe a09c b13d b98e d63d 23c5 103e
000003b0: 800e 043e 8727 893d 0909 68be 2bc9 8fbe
000003c0: e499 afbd eeba 84bc a0bf 023e 54ac 80bd
000003d0: b81f 04bc 1b36 943e 71e9 683d 7832 913e
000003e0: 9541 20be 8c9e c2bd e05d 79bd 66a7 293e
000003f0: 5bab 88bd ac0c ccbd fc6e f13d 2fc3 163d

CUBO.encoder.to_hidden.bias f4 [128]
-0.08296861 0.12261943 0.11118023 0.044533316 -0.2657208 -0.04221894 0.13180126 0.19220047
-0.1258979 -0.007600356 -0.13034928 0.029329717 0.25145462 0.21495582 0.09084421 -0.17619109
0.33286408 0.15647705 -0.14223424 -0.14554393 0.087756395 0.14414452 -0.07668553 0.13548012
-0.1992659 -0.2974831 0.059592698 0.19381545 -0.2778337 0.19275048 -0.09211086 -0.22652061
-0.23014873 -0.4011608 -0.19309872 0.108352706 -0.30022028 0.17998716 -0.114310056 0.09897918
0.07459586 -0.086850986 0.15205096 -0.2957723 0.15157197 0.08874969 0.0017398671 0.11344406
-0.19369379 0.21546398 -0.21421841 0.21422997 -0.0056261024 0.1476129 -0.07231931 -0.07535875
0.05600115 0.12114884 0.013748879 -0.033663593 -0.079200655 0.08120845 0.36425418 0.16170546
-0.29783392 -0.39154604 0.15409765 -0.18759221 -0.16546533 -0.029687554 -0.21503706 -0.31805938
0.102408014 0.09188713 0.11224012 0.21381503 -0.28898227 -0.06961372 0.33527672 -0.16621828
-0.26025364 -0.03506469 0.30301356 0.13220662 0.26448712 -0.20782503 -0.008631713 0.12852356
0.13856658 -0.06580292 0.13626532 0.15455206 0.13176054 0.22601786 -0.33193123 -0.10596124
0.16232406 -0.2801795 -0.099550284 -0.26394263 -0.27065802 0.2324514 -0.026485326 0.005943751
0.023722345 0.16577953 0.113925576 -0.47096154 0.12250162 -0.23501879 -0.27825934 -0.13413526
-0.12377399 0.15447868 -0.31672454 -0.04906761 -0.06429742 -0.06393015 -0.04838716 -0.43202162
0.27786237 -0.12983552 -0.18531321 -0.14943287 0.07304608 0.007596792 -0.09606684 0.23486243
00000000: 72eb a9bd e51f fb3d 76b2 e33d 9168 363d
00000010: 8f0c 88be c4ed 2cbd e9f6 063e 33d0 443e
00000020: 61eb 00be 680c f9bb 487a 05be e044 f03c
00000030: a9be 803e 611d 5c3e 870c ba3d 706b 34be
00000040: 296d aa3e 853b 203e daa5 11be 7809 15be
00000050: a0b9 b33d 9f9a 133e 4e0d 9dbd 4dbb 0a3e
00000060: 5c0c 4cbe b44f 98be 7917 743d 8f77 463e
00000070: 3840 8ebe 6260 453e 9ea4 bcbd 05f5 67be
00000080: 1cac 6bbe f364 cdbe acbb 45be 06e8 dd3d
00000090: 79b6 99be 8e4e 383e 641b eabd 99b5 ca3d
000000a0: b7c5 983d eede b1bd 3fb3 1b3e 786f 97be
000000b0: af35 1b3e 66c2 b53d 410c e43a 5c55 e83d
000000c0: aa57 46be 97a2 5c3e 125c 5bbe 1a5f 5b3e
000000d0: 2b5b b8bb d627 173e 251c 94bd b055 9abd
000000e0: 7661 653d e21c f83d fa42 613c d6e2 09bd
000000f0: f433 a2bd 9e50 a63d 867f ba3e 1e96 253e
00000100: b07d 98be b978 c8be c6cb 1d3e 2c18 40be
00000110: be6f 29be 5033 f3bc ad32 5cbe aed8 a2be
00000120: 4bbb d13d 522f bc3d 26de e53d 54f2 5a3e
00000130: 7cf5 93be a391 8ebd 64a9 ab3e 2035 2abe
00000140: f73f 85be fe9f 0fbd 9824 9b3e 2c61 073e
00000150: db6a 873e 16d0 54be 076c 0dbc ae9b 033e
00000160: 66e4 0d3e aec3 86bd 2389 0b3e e542 1e3e
00000170: 3cec 063e 3a71 673e e4f2 a9be 3502 d9bd
00000180: 4738 263e b073 8fbe 05e1 cbbd 7d23 87be
00000190: b093 8abe bd07 6e3e c1f7 d8bc ccc3 c23b
000001a0: 5d55 c23c 1cc2 293e d051 e93d df21 f1be
000001b0: 21e2 fa3d c4a8 70be 0278 8ebe c15a 09be
000001c0: 387d fdbd a92f 1e3e b829 a2be 1efb 48bd
000001d0: 5eae 83bd cfed 82bd 9d31 46bd f031 ddbe
000001e0: fa43 8e3e 9af3 04be bfc2 3dbe ee04 19be
000001f0: 2f99 953d 83ee f83b b1be c4bd c77f 703e

CUBO.encoder.to_out.weight f4 [128, 128]
-0.0046666265 0.004827003 -0.02051948 -0.08032312 -0.06517044 0.004837961 0.06728153 -0.014533874
-0.008780348 -0.0033392883 -0.040392023 -0.052861117 -0.006530413 0.015781486 -0.03746459 -0.041577544
-0.06484228 -0.06287204 0.022166518 -0.049502164 0.041094746 -0.0052036126 -0.04152543 0.011771851
0.04405424 -0.036058098 0.02094685 -0.050187144 0.039552547 0.04221096 -0.0039492194 0.020906733
0.014331691 -0.017155178 0.108604655 -0.05307221 0.056399513 0.03829036 0.0138162505 -0.010936029
-0.01733135 -0.0473226 0.048880078 -0.03061492 -0.08709445 -0.03602245 0.00043763 0.049014453
-0.07587677 -0.01295761 0.0053307395 -0.07994939 -0.05067893 0.06923089 0.05529813 0.03517082
0.058847908 0.06897531 -0.013309618 -0.048739202 0.028861264 -0.013030132 -0.048759177 0.062440343
0.05228198 0.029949818 -0.027696831 0.01648138 -0.0021681506 0.045346912 -0.07231138 0.06541134
-0.011873504 -0.007313007 -0.009533445 0.008187006 0.011083459 -0.050419677 0.055847857 0.036349263
0.042041875 0.04403105 -0.053636312 0.06798584 -0.055134073 -0.055576947 -0.074192986 -0.07530302
0.028921839 -0.032412745 0.04439893 -0.05332124 -0.004624537 -0.041392144 0.07261801 0.043923244
-0.06135945 0.058951724 -0.0336722 0.06766533 -0.015108475 -0.017426053 -0.02005721 -0.0027337011
0.034027305 -0.073179245 -0.06902864 -0.015105488 -0.036508843 -0.06502683 -0.02945536 -0.0015979569
0.036770802 0.06887209 -0.001797454 0.03691129 0.063444935 -0.05658968 0.0418379 0.09216345
-0.020510053 -0.05154733 -0.05294603 0.07860519 0.09477519 -0.040742908 -0.01957691 -0.05667137
-0.05160505 -0.030413771 0.028955342 -0.010495676 0.03204826 0.028476374 0.013188516 0.028004194
-0.02383886 -0.035418887 -0.03959578 -0.0877304 0.0030827804 0.04456536 -0.018930547 0.01620492
-0.02405648 0.06225582 -0.06450999 -0.04676217 0.06152542 0.027419021 0.029902404 0.0278015
0.08188319 -0.021719048 -0.0652518 -0.05400301 0.053572044 -0.02647896 0.0696621 -0.0258745
0.026056882 0.019753134 -0.058064856 -0.031699926 0.0319846 -0.035123363 0.012694069 0.06609668
0.029441362 -0.022081347 -0.031970516 -0.07580706 0.017180024 0.051254354 -0.02995563 0.01848187
0.021811342 -0.067999154 -0.08646585 -0.05906266 0.045715254 -0.06637765 0.054913603 0.0036356158
0.078051545 0.042609397 -0.09887608 0.022051873 0.015161904 0.059542254 -0.00017462861 0.03154118
0.015382095 0.06624702 0.056832947 -0.00703068 0.013895179 -0.060939137 0.008877598 -0.06807516
0.04680949 -0.04108527 -0.011185884 -0.05126589 0.008727368 -0.060736462 -0.00010864711 -0.03838902
-0.04207155 -0.070247345 0.017732738 0.007104589 -0.0063389135 -0.06272087 0.06940644 -0.046605326
-0.011120287 -0.037180256 0.0077186967 0.09168286 -0.048588928 -0.010811708 0.01327256 -0.042178772
0.044526037 0.031717908 0.01163267 0.015032362 -0.008231264 -0.025613578 -0.07228564 -0.032620586
0.073167905 0.0005758266 0.054974034 0.02185758 0.026655257 -0.01742801 0.048199758 -0.031133542
0.035871122 0.080385074 0.043860067 0.05041025 -0.042923857 -0.053815566 -0.07769099 0.07760516
-0.026370728 0.030971017 0.028366394 0.019778034 -0.06967732 -0.0507436 0.053139325 0.05481699
00000000: 80ea 98bb d62b 9e3b 7818 a8bc 7380 a4bd
00000010: 1478 85bd c287 9e3b e6ca 893d 7c1f 6ebc
00000020: 73db 0fbc f6d7 5abb 1b72 25bd e684 58bd
00000030: 13fd d5bb 2d48 813c 7874 19bd 374d 2abd
00000040: 07cc 84bd 0ec3 80bd 8f96 b53c c8c2 4abd
00000050: f752 283d 1183 aabb 9216 2abd b9de 403c
00000060: 3872 343d a8b1 13bd ba98 ab3c 0991 4dbd
00000070: da01 223d 66e5 2c3d 7468 81bb 9944 ab3c
00000080: 78cf 6a3c 0489 8cbc 1e6c de3d 3f62 59bd
00000090: 2d03 673d 5ad6 1c3d 8e5d 623c 082d 33bc
000000a0: 7afa 8dbc 58d5 41bd 7a36 483d 24cc fabc
000000b0: 935e b2bd 478c 13bd b471 e539 61c3 483d
000000c0: 4865 9bbd 284c 54bc 7cad ae3b 81bc a3bd
000000d0: b694 4fbd edc8 8d3d 4b80 623d 470f 103d
000000e0: 810a 713d ed42 8d3d 9610 5abc c2a2 47bd
000000f0: 756e ec3c 567c 55bc b4b7 47bd 72c1 7f3d
00000100: a125 563d 5259 f53c 77e4 e2bc f603 873c
00000110: 8817 0ebb afbd 393d fd17 94bd 61f6 853d
00000120: 1689 42bc f3a1 efbb 2b32 1cbc cb22 063c
00000130: 6597 353c dd84 4ebd b9c0 643d f7e2 143d
00000140: 1a34 2c3d e759 343d c0b1 5bbd 293c 8b3d
00000150: 44d4 61bd a7a4 63bd 7ef2 97bd 7838 9abd
00000160: 7eed ec3c 3ac3 04bd a7db 353d 5f67 5abd
00000170: 6e89 97bb cf8a 29bd c0b8 943d dce8 333d
00000180: 0c54 7bbd 5d77 713d dceb 09bd 1f94 8a3d
00000190: 8a89 77bc 15c1 8ebc 054f a4bc e527 33bb
000001a0: 3760 0b3d 00df 95bd e35e 8dbd 027d 77bc
000001b0: 4c8a 15bd c92c 85bd 5e4c f1bc 8972 d1ba
000001c0: fb9c 163d cf0c 8d3d 8c98 ebba 4b30 173d
000001d0: 6bef 813d 95ca 67bd 385e 2b3d 31c0 bc3d
000001e0: b304 a8bc 4b23 53bd f0dd 58bd c2fb a03d
000001f0: 7f19 c23d 09e2 26bd c25f a0bc 3d20 68bd
00000200: d15f 53bd 4d26 f9bc c133 ed3c 0ef6 2bbc
00000210: 0945 033d 4947 e93c a514 583c 0d69 e53c
00000220: b749 c3bc 6513 11bd 2f2f 22bd ffab b3bd
00000230: 7908 4a3b 2b8a 363d 3c14 9bbc 2ec0 843c
00000240: 1812 c5bc f5ff 7e3d d01d 84bd b089 3fbd
00000250: 1402 7c3d db9d e03c e3f5 f43c f9bf e33c
00000260: 60b2 a73d 25ec b1bc bca2 85bd 4332 5dbd
00000270: 5c6e 5b3d 67ea d8bc 01ab 8e3d c2f6 d3bc
00000280: 3e75 d53c 53d1 a13c 6ad5 6dbd c8d7 01bd
00000290: 4902 033d 84dd 0fbd c9fa 4f3c b25d 873d
000002a0: 032f f13c f1e3 b4bc 84f3 02bd bb40 9bbd
000002b0: 1fbd 8c3c 16f0 513d 8265 f5bc 4a67 973c
000002c0: b3ad b23c 2443 8bbd 0215 b1bd b0eb 71bd
000002d0: eb3f 3b3d 01f1 87bd 16ed 603d 8343 6e3b
000002e0: 7dd9 9f3d 3187 2e3d 8b7f cabd 21a6 b43c
000002f0: a269 783c 94e2 733d 831c 37b9 5331 013d
00000300: 2f05 7c3c 85ac 873d aac9 683d 9e61 e6bb
00000310: 9ba8 633c 519b 79bd 5873 113c fd6a 8bbd
00000320: 4fbb 3f3d 0749 28bd ff44 37bc 2ffc 51bd
00000330: 3cfd 0e3c ccc6 78bd 79d9 e3b8 ce3d 1dbd
00000340: 3853 2cbd d7dd 8fbd 3f44 913c 9dcd e83b
00000350: a9b6 cfbb cd73 80bd f724 8e3d 3ae5 3ebd
00000360: dd31 36bc 534a 18bd 1fed fc3b 39c4 bb3d
00000370: 2f05 47bd 9723 31bc 2775 593c a6c3 2cbd
00000380: ef60 363d a3ea 013d f496 3e3c 4c4a 763c
00000390: 6cdc 06bc 91d3 d1bc 7e0a 94bd 2a9d 05bd
000003a0: 0ed9 953d 12f3 163a 742c 613d ab0e b33c
000003b0: 205c da3c 30c5 8ebc 1c6d 453d c50b ffbc
000003c0: 99ed 123d eea0 a43d 9da6 333d fa7a 4e3d
000003d0: edd0 2fbd b66d 5cbd 741c 9fbd 74ef 9e3d
000003e0: 6d07 d8bc eeb6 fd3c a460 e83c 8b05 a23c
000003f0: fcb2 8ebd 85d8 4fbd 9fa8 593d c887 603d

CUBO.encoder.to_out.bias f4 [128]
-0.05683075 -0.0063570687 -0.0014439067 -0.07664946 -0.024292279 0.037268806 -0.046715822 0.057506572
-0.034157522 0.14401339 0.043512467 -0.101122685 0.0745778 -0.13616505 -0.058224946 -0.027754854
0.04359339 -0.026373351 -0.070856296 -0.020664982 0.008625982 -0.025870223 -0.12154706 0.13006315
0.08032899 0.0017847412 0.12332585 -0.06062616 0.07205325 0.012452106 -0.14392482 0.10254842
0.16762388 0.07978319 0.024756549 0.13585187 0.06600508 -0.14626367 0.054937117 -0.041519884
0.05332588 -0.0884053 0.17651767 0.05255988 -0.04926098 -0.06188523 0.08223312 0.055583328
-0.049569264 -0.14191017 0.0074619586 0.005172763 0.015365387 -0.063304625 -0.15327914 -0.11663936
-0.028320098 0.024481678 -0.06267027 -0.0060269698 -0.022640998 0.0023943898 0.16522473 0.043985482
0.148809 -0.10177779 -0.060986485 -0.017986635 -0.08027446 0.17734915 -0.061458062 0.01950376
-0.017485203 -0.044177912 -0.033599544 0.06824999 0.04159701 0.04800612 -0.103488415 -0.03135126
0.07909832 -0.018329602 -0.08338712 -0.06954978 -0.13657379 -0.05136365 -0.013427872 -0.073275425
-0.023120925 -0.03811587 -0.16008131 -0.10123803 0.16242768 0.1445646 0.027340485 -0.009964448
0.12930508 -0.10825947 0.01568993 -0.021589799 -0.15267134 -0.1073322 0.036930837 0.03350529
-0.07158635 0.0119518675 -0.0036869354 -0.05262814 0.083480485 0.04168389 0.21863419 0.078543
0.21007274 -0.06847934 0.031834383 -0.12029724 0.1117787 -0.13353315 0.100602455 -0.058642346
0.08613856 -0.013791809 0.085582055 -0.009782966 -0.06860235 -0.06900694 -0.061133794 0.11481992
00000000: 5cc7 68bd f54e d0bb 7841 bdba 64fa 9cbd
00000010: 9a00 c7bc 2da7 183d 1759 3fbd 038c 6b3d
00000020: c2e8 0bbd 3f78 133e 213a 323d 6919 cfbd
00000030: 3fbc 983d da6e 0bbe 487d 6ebd 265e e3bc
00000040: fc8e 323d ed0c d8bc 1b1d 91bd 9c49 a9bc
00000050: fe53 0d3c caed d3bc aaed f8bd 462f 053e
00000060: 8783 a43d faed e93a 4392 fc3d 2353 78bd
00000070: a890 933d eb03 4c3c 0761 13be e804 d23d
00000080: 98a5 2b3e 5e65 a33d 3fce ca3c c11c 0b3e
00000090: ac2d 873d 25c6 15be be05 613d c110 2abd
000000a0: 3d6c 5a3d d70d b5bd 0cc1 343e 0749 573d
000000b0: e2c5 49bd 5e7b 7dbd d769 a83d 58ab 633d
000000c0: 2409 4bbd e650 11be 7283 f43b 4880 a93b
000000d0: 1bbf 7b3c dba5 81bd 35f5 1cbe 9ee0 eebd
000000e0: 8dff e7bc cd8d c83c 4559 80bd e37d c5bb
000000f0: 9d79 b9bc 32eb 1c3b ac30 293e 1f2a 343d
00000100: 6361 183e e070 d0bd f7cc 79bd b558 93bc
00000110: f066 a4bd 049b 353e 73bb 7bbd 59c6 9f3c
00000120: 213d 8fbc e6f3 34bd ad9f 09bd a7c6 8b3d
00000130: a061 2a3d 11a2 443d bcf1 d3bd 2e6a 00bd
00000140: 4dfe a13d f627 96bc dec6 aabd 1d70 8ebd
00000150: 00da 0bbe b162 52bd 9400 5cbc 6d11 96bd
00000160: 1868 bdbc 631f 1cbd 5bec 23be e255 cfbd
00000170: 7153 263e be08 143e 27f9 df3c ed41 23bc
00000180: 8d68 043e 24b7 ddbd 2b88 803c 17dd b0bc
00000190: e055 1cbe fcd0 dbbd ca44 173d d83c 093d
000001a0: dd9b 92bd c4d1 433c 83a0 71bb 9b90 57bd
000001b0: d1f7 aa3d babc 2a3d a4e1 5f3e 27db a03d
000001c0: 4f1d 573e e53e 8cbd c564 023d 665e f6bd
000001d0: 3bec e43d eabc 08be a908 ce3d f532 70bd
000001e0: 6a69 b03d 0af7 61bc a545 af3d bc48 20bc
000001f0: 647f 8cbd 8353 8dbd 6e67 7abd b526 eb3d

CUBO.mean_encoder.weight f4 [10, 128]
0.01465245 0.00012273219 -0.009015178 -0.008577773 -0.004487167 -0.014969497 -0.012894948 0.0026269818
-0.0030045505 0.0048598745 0.026413402 -0.0050352365 -0.0037788907 0.0047054286 0.016031409 0.026470717
0.00038843421 0.009391324 -0.012380645 0.009598419 -0.02366951 -0.019612364 -0.0029421195 0.0010355164
-0.0034648764 -0.005481278 -0.011340062 0.002308701 0.0027011577 0.0037873446 0.021691842 -0.0029276973
0.007059503 -0.011200899 0.011470072 0.014401835 -0.009167984 0.0030624429 -0.027547106 0.004316526
-0.003589572 -0.0008752372 -0.016187659 0.00077502703 -0.0049739955 0.005006944 0.03094065 0.014590175
-0.0073555456 0.017936213 0.0034081566 -0.020598438 -0.003342919 0.0062240246 0.002660406 -0.0063167396
0.009773627 0.004366458 0.002404698 -0.003440848 0.031492498 0.0015303373 -0.019772824 -0.018484723
-0.0074217194 0.008413907 -0.011412566 -0.008238228 -0.01834462 0.014501936 -0.005153943 0.014046559
0.0099061895 -0.0014655809 0.026985466 0.0138691785 0.03571789 -0.002212705 0.024913568 -0.011759982
0.0037047174 -0.0134948185 0.0011488851 0.022907749 0.010603772 3.567096e-05 0.0019390421 -0.014691996
-0.027045997 0.003709779 -0.0103107905 0.013023222 0.017962925 -0.0032750552 -0.0029232153 -0.0010939481
0.019476892 -0.0016476668 0.004438381 0.023378897 -0.010976193 0.025631037 0.0026604536 0.016146315
-0.006653242 0.0023984914 -0.0026842991 0.017733332 -0.033020023 -0.03215933 -0.01362709 0.018122574
-0.00058515935 0.0086020185 -0.017891731 0.015058047 -0.0339204 0.0135287065 0.004081334 0.013292004
0.0064945347 0.01140723 -0.018267479 0.010714016 -0.016296243 -0.034148786 -0.0037243122 -0.019168304
-0.0047836797 -0.00034008588 0.011700809 0.021135416 0.0021472503 0.006407231 0.0032578607 -0.021665206
0.0180135 -0.02188625 -0.024431165 -0.017279416 -0.009960893 0.009748162 0.025282258 0.020971501
-0.030832546 -0.0052999454 0.017521136 -0.00369577 -0.004554461 -0.020267675 -0.024808858 0.003994615
0.011984749 -0.019407168 -0.026002685 -0.0016125503 -0.020776547 0.0047384864 0.013551667 -0.002147603
-0.011836172 -0.012779289 -0.009833818 -0.013430971 0.0071600922 0.009674491 -0.013958796 -0.00978303
0.0044085784 -0.0066235424 -0.023725055 -0.0062800897 0.006804675 -0.016992563 -0.013715234 0.021575777
0.009911575 0.0042525902 -0.00835386 -0.012082248 -0.0074837836 0.009620155 -0.0147196865 0.013100494
0.019316342 0.0054861405 -0.02153898 2.6848727e-05 -0.009043302 -0.012937064 0.006392379 0.009646597
-0.0055191736 0.011449906 0.016265197 -0.0024042025 0.016581953 -0.021810412 0.018089838 0.022386694
0.0004813933 -0.0029512518 0.007394612 -0.0058876863 -0.025371376 -0.0048413854 -0.02262883 0.0013908523
0.0023032322 0.004055476 0.006802626 -0.016726134 0.008256911 -0.00049937086 -0.015086255 6.5032254e-05
-0.005254672 0.016796185 0.016541995 0.021580879 -0.011563768 -0.018099682 -0.0050468063 -0.00093108905
-0.020881545 0.014646951 -0.01302763 0.0016281424 0.01811708 -0.012322718 0.021176724 -0.014249527
0.008700999 0.0052927043 -0.013979469 0.009185211 0.0152443 0.0025111607 0.0026540013 0.021034844
0.0021422955 -0.014533643 0.009555699 0.00049927697 -0.014268475 -0.034098182 -0.000709143 -0.0072802943
0.0046913605 0.018875413 -0.008544816 0.008927959 0.005246175 -0.041453395 0.008347994 -0.0006152108
00000000: d410 703c acb1 0039 66b4 13bc ca89 0cbc
00000010: 1609 93bb 9f42 75bc 5545 53bc 7129 2c3b
00000020: fee7 44bb 953f 9f3b eb60 d83c a0fe a4bb
00000030: 44a7 77bb ff2f 9a3b 4d54 833c 1ed9 d83c
00000040: c2a6 cb39 11de 193c 30d8 4abc b042 1d3c
00000050: 8fe6 c1bc 1caa a0bc 93d0 40bb 2aba 873a
00000060: fb12 63bb 4b9c b3bb abcb 39bc 934d 173b
00000070: e805 313b 1935 783b 17b3 b13c 9cde 3fbb
00000080: 6753 e73b fa83 37bc f8ec 3b3c adf5 6b3c
00000090: 5035 16bc 44b3 483b 78aa e1bc a571 8d3b
000000a0: 063f 6bbb 2d70 65ba fb9b 84bc 2f2b 4b3a
000000b0: e6fc a2bb 4a11 a43b 3f77 fd3c a10b 6f3c
000000c0: ca06 f1bb f7ee 923c 615b 5f3b 0ebe a8bc
000000d0: e014 5bbb e7f2 cb3b 355a 2e3b a7fc cebb
000000e0: 9021 203c 8114 8f3b 2398 1d3b da7f 61bb
000000f0: 47fe 003d 9995 c83a 9efa a1bc 466d 97bc
00000100: e531 f3bb 7cda 093c c5fb 3abc a2f9 06bc
00000110: 7547 96bc 8799 6d3c 68e2 a8bb 8a23 663c
00000120: 924d 223c bc18 c0ba a010 dd3c 8d3b 633c
00000130: ec4c 123d 0803 11bb 8a17 cc3c f1ac 40bc
00000140: d8ca 723b 5f19 5dbc 3096 963a 08a9 bb3c
00000150: 71bb 2d3c 679d 1538 7527 fe3a b3b6 70bc
00000160: 918f ddbc c31f 733b 97ee 28bc 5a5f 553c
00000170: fc26 933c 4fa2 56bb 6a93 3fbb cf62 8fba
00000180: 018e 9f3c 86f6 d7ba d76f 913b 1a85 bf3c
00000190: 7dd5 33bc 2ef8 d13c 015b 2e3b 4745 843c
000001a0: 7003 dabb 0230 1d3b 11eb 2fbb 7e45 913c
000001b0: 0140 07bd 80b9 03bd 2844 5fbc cb75 943c
000001c0: 6165 19ba 7bef 0c3c ae91 92bc 07b6 763c
000001d0: 1ef0 0abd 82a7 5d3c b6bc 853b b5c6 593c
000001e0: 1bd0 d43b 64e5 3a3c aea5 95bc d789 2f3c
000001f0: b37f 85bc 99df 0bbd 9713 74bb d906 9dbc
00000200: 6ac0 9cbb 8e4d b2b9 c0b4 3f3c 2e24 ad3c
00000210: e2b8 0c3b c0f3 d13b d581 553b 3b7b b1bc
00000220: 0c91 933c cb4a b3bc de23 c8bc 908d 8dbc
00000230: 0333 23bc c1b6 1f3c bd1c cf3c 6dcc ab3c
00000240: 8994 fcbc 2aab adbb 7c88 8f3c bb34 72bb
00000250: 973d 95bb 6508 a6bc f23b cbbc 42e5 823b
00000260: ae5b 443c c8fb 9ebc 9503 d5bc 365c d3ba
00000270: 9433 aabc 4e45 9b3b d007 5e3c cdbe 0cbb
00000280: 81ec 41bc 3960 51bc 061e 21bc 930d 5cbc
00000290: 359f ea3b c281 1e3c 6fb3 64bc 0049 20bc
000002a0: d675 903b 4d0a d9bb 0c5b c2bc 36c9 cdbb
000002b0: c0f9 de3b fd33 8bbc dcb5 60bc afbf b03c
000002c0: 2964 223c 5059 8b3b a1de 08bc 9ff4 45bc
000002d0: 873a f5bb db9d 1d3c d72a 71bc 74a3 563c
000002e0: 4e3d 9e3c 15c5 b33b 8472 b0bc 3439 e137
000002f0: 5c2a 14bc fbf5 53bc 2977 d13b c30c 1e3c
00000300: 2fda b4bb 6398 3b3c 973e 853c d38f 1dbb
00000310: e0d6 873c c0ab b2bc 2431 943c 4d64 b73c
00000320: 8463 fc39 ca69 41bb 804e f23b 7eed c0bb
00000330: a2d7 cfbc 7ca4 9ebb 1960 b9bc 424d b63a
00000340: d3f1 163b cce3 843b 90e8 de3b 3f05 89bc
00000350: ff47 073c 36e8 02ba 572c 77bc ed61 8838
00000360: 622f acbb 2798 893c 1483 873c 62ca b03c
00000370: f575 3dbc c945 94bc ae5f a5bb 5414 74ba
00000380: c60f abbc c4f9 6f3c d771 55bc 6567 d53a
00000390: 456a 943c 3ae5 49bc cf7a ad3c d976 69bc
000003a0: a38e 0e3c 6c6e ad3b 250a 65bc 917d 163c
000003b0: 3ac3 793c 4992 243b c1ee 2d3b 4451 ac3c
000003c0: c165 0c3b 841e 6ebc 828f 1c3c e9e1 023a
000003d0: 52c6 69bc 89aa 0bbd c8e5 39ba 898f eebb
000003e0: fcb9 993b 9ca0 9a3c 8eff 0bbc 9346 123c
000003f0: 1be8 ab3b 09cb 29bd 06c6 083c 1946 21ba

CUBO.mean_encoder.bias f4 [10]
0.033009194 0.046132095 -0.057580657 0.045713805 -0.006271246 0.05626798 -0.020699302 0.009071929
-0.004164836 -0.05289148
00000000: a634 073d 02f5 3c3d b2d9 6bbd 663e 3b3d
00000010: 067f cdbb 4179 663d 9591 a9bc 6ea2 143c
00000020: 2d79 88bb bda4 58bd

CUBO.var_encoder.weight f4 [10, 128]
0.021608008 0.0072998554 -0.0033095547 0.012942996 0.013099974 0.004042701 -0.016388075 -0.054677635
-0.012318914 0.0024565079 -0.035803135 -0.024672773 -0.018079925 -0.011746529 0.013017853 0.02891115
0.011212517 0.018281728 -0.016838646 0.006009302 0.013594176 -0.0085381465 -0.0136074405 0.027336659
0.01867263 0.0132678775 0.0052603474 0.019922804 -0.029864563 0.006654635 -0.005494539 -0.01884077
-0.045461174 0.03857416 -0.004642073 0.017520918 -0.011629181 -0.031185117 0.030912435 0.0057272525
0.014761676 -0.014210053 -0.013643489 -0.008858842 0.009636242 0.0001346882 0.026797254 0.012801799
-0.012168848 0.0030983423 -0.021952052 -0.013002721 0.013363825 -0.012720334 -0.015442853 0.019037185
-0.037695535 -0.00847485 -0.017306544 -0.00321875 -0.01581589 0.0053798384 -0.01891598 -0.011813179
0.015605139 0.008756625 0.0010056457 0.01178972 0.004905193 0.046977837 -0.0017949608 -0.0068287216
-0.024096929 -0.010255498 0.03368078 -0.036811497 0.030382797 0.010417257 0.017944897 0.0099336235
0.0037641022 -0.0056785084 -0.017887611 -0.02716828 -0.0015197245 0.015957847 -0.021709422 -0.0219157
-0.026868878 -0.005438981 -0.021293797 -0.016816929 0.0043230983 0.014776965 -0.0017164161 0.006418732
0.022386294 0.017172877 -0.0073919967 0.0147074815 0.01817503 0.00015366233 0.035692427 0.0058814753
-0.030950734 -0.029708963 -0.0010650636 0.0115497 -0.038752783 -0.021531094 -0.003680505 0.04340709
0.024407385 -0.013689674 -0.03400629 -0.046024255 0.0023947034 0.02524891 0.0009993722 0.0067372937
-0.023006447 0.033325657 0.033441667 0.009491401 0.005605397 -0.04559743 -0.025876343 0.0136479335
0.0040398566 -0.007031273 -0.011289804 -0.020937681 0.019070452 0.008938739 0.016361136 0.022625847
-0.014080173 0.0015147812 -0.013132327 0.010306902 0.031255472 -0.012644792 -0.0070511648 0.000657314
0.025132708 -0.0001271202 0.011459867 -0.023997447 -0.014198848 -0.003918008 -0.032098617 -0.0047391565
0.008277909 0.019136483 0.014306539 -0.000620929 -0.0066886283 0.018775314 -0.010932628 0.012211274
0.034747526 -0.002311564 0.028730057 0.003760991 0.0031561553 0.015202039 -0.024122054 0.025347995
0.017839205 -0.012425738 0.02529087 -0.008609664 0.0046641515 -0.023740644 0.020128828 -0.0003665622
-0.0021407416 -0.030571358 -0.018815434 9.289601e-05 -0.007790651 0.009773121 -0.0008624129 0.007932379
-0.032147445 -0.0005565687 0.01295906 -0.011880168 -0.00028740935 0.0037088513 0.0014597928 -0.0005709461
-0.025695767 4.826489e-05 -0.024120694 0.0030583555 0.014873506 0.026313065 -0.021040065 -0.003269117
-0.011532835 -0.020734627 -0.010508342 0.014974634 -0.012170865 -0.00096815656 -0.0015376608 -0.0041976376
0.0011574168 -0.0002813609 0.028228324 0.010987073 -0.0069724703 0.018559692 0.024741104 -0.028619427
0.0011428978 0.013015594 0.01256533 -0.002128664 0.0034138798 -0.00028107298 0.0044013346 0.006289783
0.0076574506 0.008798597 0.038609307 0.001861915 0.011964147 0.032804064 -0.019333832 0.001968207
0.007398028 -0.035941787 0.029681241 0.006565902 0.049955662 0.017414989 -0.016150448 -0.014413987
-0.025586769 0.035265636 0.011979092 0.0022274747 -0.0143173775 0.015192081 0.0034389636 -0.0077227615
0.014878022 -0.034133416 -0.021497678 -0.017427642 -0.017938178 0.045298163 -0.009315609 0.02067804
00000000: 4703 b13c a033 ef3b 1de5 58bb dc0e 543c
00000010: 46a1 563c a278 843b 4940 86bc a8f5 5fbd
00000020: 45d5 49bc 5dfd 203b 4fa6 12bd 8e1e cabc
00000030: 5a1c 94bc 8374 40bc d548 553c 13d7 ec3c
00000040: b4b4 373c 90c3 953c 33f1 89bc aee9 c43b
00000050: 1bba 5e3c 95e3 0bbc bef1 5ebc 21f1 df3c
00000060: 58f7 983c 8361 593c fe5e ac3b 2635 a33c
00000070: 87a6 f4bc 200f da3b 890b b4bb f557 9abc
00000080: 7f35 3abd f0ff 1d3d 881c 98bb 0788 8f3c
00000090: 5288 3ebc ee77 ffbc 133c fd3c adab bb3b
000000a0: f5da 713c 48d1 68bc f188 5fbc ad24 11bc
000000b0: 54e1 1d3c 173b 0d39 ea85 db3c a3be 513c
000000c0: d95f 47bc 8f0d 4b3b cad4 b3bc 5d09 55bc
000000d0: f2f3 5a3c f368 50bc 0504 7dbc dff3 9b3c
000000e0: a266 1abd 19da 0abc 74c6 8dbc aaf1 52bb
000000f0: 5390 81bc 5b49 b03b aff5 9abc 108c 41bc
00000100: b2ac 7f3c f277 0f3c dfcf 833a ab29 413c
00000110: bebb a03b d56b 403d e444 ebba 78c3 dfbb
00000120: ec66 c5bc ad06 28bc dcf4 093d a7c7 16bd
00000130: 58e5 f83c 25ad 2a3c 2d01 933c a3c0 223c
00000140: 28af 763b c812 babb 0a89 92bc 0390 debc
00000150: 7e31 c7ba 08ba 823c f5d7 b1bc 8e88 b3bc
00000160: 1f1c dcbc 7b39 b2bb 5470 aebc a8c3 89bc
00000170: c7a8 8d3b 151b 723c 5ef9 e0ba 3a54 d23b
00000180: 7663 b73c 22ae 8c3c 9038 f2bb a6f7 703c
00000190: cde3 943c 6b20 2139 3932 123d 64b9 c03b
000001a0: 658c fdbc 3660 f3bc 9b99 8bba f43a 3d3c
000001b0: 3dbb 1ebd fa61 b0bc a134 71bb a2cb 313d
000001c0: fff1 c73c a84a 60bc 2e4a 0bbd ee83 3cbd
000001d0: 75f0 1c3b cdd6 ce3c 5efd 823a 84c4 dc3b
000001e0: 0478 bcbc 7c80 083d 21fa 083d d281 1b3c
000001f0: 7aad b73b 5fc4 3abd a0fa d3bc 959b 5f3c
00000200: c660 843b 9866 e6bb dff8 38bc 8085 abbc
00000210: a339 9c3c ca73 123c ca07 863c d759 b93c
00000220: 87b0 66bc 9f8b c63a f928 57bc 48de 283c
00000230: bd05 003d 1a2c 4fbc 750d e7bb 994f 2c3a
00000240: 1ce3 cd3c 924b 05b9 2ac2 3b3c 4b96 c4bc
00000250: 49a2 68bc a262 80bb d779 03bd ed4a 9bbb
00000260: 11a0 073c 1dc4 9c3c f965 6a3c d7c5 22ba
00000270: 482c dbbb b0ce 993c c41e 33bc cc11 483c
00000280: 6c53 0e3d 9c7d 17bb 4c5b eb3c f57a 763b
00000290: 80d7 4e3b f911 793c 9d9b c5bc 99a6 cf3c
000002a0: 8623 923c 5395 4bbc cc2e cf3c 8c0f 0dbc
000002b0: bdd5 983b bd7b c2bc 36e5 a43c 252f c0b9
000002c0: af4b 0cbb c970 fabc d322 9abc 2ad1 c238
000002d0: b848 ffbb 711f 203c 8d13 62ba cff6 013c
000002e0: 0aad 03bd b1e6 11ba 3d52 543c 09a5 42bc
000002f0: 6eaf 96b9 3310 733b 8556 bf3a 8bab 15ba
00000300: ee7f d2bc 0870 4a38 c398 c5bc b16e 483b
00000310: 01b0 733c 7f8e d73c 375c acbc af3e 56bb
00000320: 37f4 3cbc aadb a9bc 2e2b 2cbc 2b58 753c
00000330: 4f68 47bc e3cb 7dba 568b c9ba 568c 89bb
00000340: 77b4 973a 9f83 93b9 163f e73c 2003 343c
00000350: 5279 e4bb 7f0a 983c dbad ca3c 4a73 eabc
00000360: 49cd 953a 5c3f 553c d0de 4d3c 0e81 0bbb
00000370: 66bb 5f3b fa5c 93b9 1239 903b 861a ce3b
00000380: 5aeb fa3b fe27 103c cb24 1e3d 800b f43a
00000390: 4505 443c 8e5d 063d fc61 9ebc 09fd 003b
000003a0: 286b f23b b237 13bd 1326 f33c c726 d73b
000003b0: 4f9e 4c3d e1a9 8e3c f24d 84bc a528 6cbc
000003c0: 589b d1bc b372 103d f443 443c d3fa 113b
000003d0: 6f93 6abc 35e8 783c 3c60 613b 380f fdbb
000003e0: f2c2 733c 7bcf 0bbd e61b b0bc 6ac4 8ebc
000003f0: 16f3 92bc 918a 393d 7fa0 18bc fe64 a93c

CUBO.var_encoder.bias f4 [10]
-0.07484865 -0.0724377 -0.08954163 0.004515773 0.0064765685 -0.19233128 -0.009768805 0.031853396
-0.07337977 -0.09148461
00000000: 404a 99bd 385a 94bd 9a61 b7bd 0df9 933b
00000010: 6539 d43b 7ef2 44be 560d 20bc b578 023d
00000020: 2248 96bd 495c bbbd

IWELBO.encoder.to_hidden.weight f4 [128, 19]
-0.1316875 0.010879516 -0.12783809 0.09780303 -0.019945 -0.12886372 -0.102703 0.08387912
-0.10248917 -0.07223203 -0.057829753 0.18162568 -0.22330402 -0.43476722 -0.10660312 0.3036688
0.08276682 -0.13760087 -0.12037881 -0.054084066 0.041662548 -0.11949575 -0.04217722 -0.04650765
0.06671577 0.015954277 0.067540035 0.072213136 0.012562577 -0.72103745 0.42232072 -0.0005208843
-0.058357738 0.2807897 -0.278622 0.049778122 -0.060702946 0.25687674 0.0067471764 -0.010890089
0.04379814 0.0013527028 0.078169495 -0.024886185 -0.071449034 0.04630975 0.08273992 0.010197893
-0.02345414 0.43983448 -0.28210235 -0.29228732 -0.225724 -0.12616085 0.096292645 -0.23288985
-0.12749188 -0.14884998 -0.09194458 -0.0066365134 -0.085134685 -0.058189478 0.14515975 -0.18037637
0.10351522 -0.17450069 0.12425713 -0.35019678 0.23730768 -0.16702145 -0.23290405 0.20626646
0.089085 -0.28280863 0.29432347 0.2626104 -0.056043748 0.07260285 0.062277403 -0.045109898
0.0383575 0.16454405 -0.07612499 0.017814672 -0.07135655 -0.046327986 0.29774305 -0.5144041
-0.11962787 -0.10474879 -0.25565392 0.115065806 0.08824196 0.06508529 -0.33681607 0.05438964
-0.076596126 -0.15478885 0.15163872 -0.00010019494 -0.07030886 -0.00023430254 -0.015782148 -0.08307771
-0.041749362 -0.0110288365 0.32409775 -0.09649384 -0.40503824 -0.24555863 -0.08271145 0.20920992
-0.1812279 -0.021485433 0.07553383 0.08161713 -0.009778941 -0.033421062 0.01570028 0.011728603
-0.04136602 0.048343744 0.003667601 0.03391146 -0.48147285 0.28907844 -0.2309094 0.24956745
0.11137562 -0.2919336 0.17988512 0.13862148 0.29804942 -0.12697934 -0.041275438 0.13801894
0.03222756 0.0017746123 0.03953941 0.030135885 0.061237913 -0.096118 0.0218883 -0.05278398
-0.58194596 0.064412236 0.4443824 0.021407194 -0.08157894 -0.019836737 -0.033775594 -0.4062286
0.006735562 -0.18247898 0.12789044 0.07913454 0.007592033 -0.10666045 0.13071468 0.019961614
-0.109336734 -0.07556506 -0.0758283 -0.1283694 -0.031872436 0.036307428 0.0074482495 -0.19549063
0.2684913 0.13160212 -0.1754458 0.10131137 0.08278424 0.0059165 0.07891488 -0.066073574
0.12658435 0.12438327 0.064228624 0.020739589 -0.091672674 -0.42648432 0.02412103 -0.034135524
0.19127466 -0.01605543 -0.013191298 0.22006325 -0.2921254 -0.17884041 -0.049885463 -0.08866132
0.0012417493 -0.06522438 0.053523898 -0.06398485 -0.12604913 0.018384114 0.18105753 0.056440305
-0.36889556 0.2987622 -0.32738212 -0.21617198 -0.2831612 0.19269018 -0.07105949 -0.0746701
0.15031418 -0.064511426 0.031067267 -0.010680151 0.015535101 0.040205214 -0.05986942 -0.13815205
0.05330327 0.016576612 0.011594227 0.035343286 0.36319485 0.17250898 -0.4802677 0.20694889
-0.06409739 0.016759716 -0.105945975 -0.062644765 -0.010635273 0.0072435713 -0.07727191 0.13067305
-0.022512041 -0.036686238 0.016465325 -0.015765881 -0.11585227 -0.025727825 0.09658982 0.046230413
-0.017861454 -0.45071247 -0.21151082 -0.04706879 -0.2597744 -0.2858687 0.41248888 0.09923382
-0.00949988 0.12570317 -0.11690715 0.14058508 -0.091603376 -0.15027055 0.12475357 0.06664571
00000000: 17d9 06be ff3f 323c fde7 02be f44c c83d
00000010: b263 a3bc daf4 03be f355 d2bd d1c8 ab3d
00000020: d8e5 d1bd 63ee 93bd e4de 6cbd 15fc 393e
00000030: cfa9 64be cf99 debe bd52 dabd 7a7a 9b3e
00000040: a781 a93d 3ee7 0cbe 2a89 f6bd 4187 5dbd
00000050: 59a6 2a3d 30ba f4bd 05c2 2cbd ce7e 3ebd
00000060: 47a2 883d 8bb2 823c 6e52 8a3d 7be4 933d
00000070: 44d3 4d3c e995 38bf 6c3a d83e f48b 08ba
00000080: 8608 6fbd abc3 8f3e 8ba7 8ebe 25e4 4b3d
00000090: a7a3 78bd 5985 833e 6b17 dd3b 586c 32bc
000000a0: ae65 333d 2d4d b13a 5417 a03d 1dde cbbc
000000b0: df53 92bd 4baf 3d3d 8c73 a93d 1015 273c
000000c0: e622 c0bc fc31 e13e b86f 90be afa6 95be
000000d0: 3124 67be 4f30 01be 1435 c53d ad7a 6ebe
000000e0: 3b8d 02be 216c 18be 714d bcbd 1c77 d9bb
000000f0: 185b aebd 1758 6ebd c2a4 143e 95b4 38be
00000100: caff d33d 4fb0 32be 867a fe3d fe4c b3be
00000110: c900 733e ac07 2bbe 667e 6ebe 8437 533e
00000120: 3272 b63d 4bcc 90be 91b1 963e df74 863e
00000130: 218e 65bd ceb0 943d 9716 7f3d 28c5 38bd
00000140: c11c 1d3d 3c7e 283e 6be7 9bbd 13f0 913c
00000150: 6223 92bd 6ac2 3dbd c771 983e fdaf 03bf
00000160: 75ff f4bd 8986 d6bd 12e5 82be 9fa7 eb3d
00000170: 33b8 b43d 704b 853d 2873 acbe acc7 5e3d
00000180: 6ede 9cbd f880 1ebe 2e47 1b3e c01f d2b8
00000190: 17fe 8fbd 1caf 75b9 9049 81bc a524 aabd
000001a0: 6101 2bbd 4bb2 34bc 24f0 a53e 909e c5bd
000001b0: 2c61 cfbe b973 7bbe 9f64 a9bd 203b 563e
000001c0: ce93 39be 3802 b0bc 7bb1 9a3d e226 a73d
000001d0: da37 20bc 86e4 08bd e09d 803c 5429 403c
000001e0: 6a6f 29bd 1704 463d 225c 703b bee6 0a3d
000001f0: 9c83 f6be 1702 943e 8473 6cbe 9c8e 7f3e
00000200: e718 e43d 5278 95be ce33 383e caf2 0d3e
00000210: ef99 983e df06 02be 6f10 29bd d654 0d3e
00000220: 0c01 043d 1c9a e83a 14f4 213d 88df f63c
00000230: 9bd4 7a3d 84d9 c4bd 184f b33c 0434 58bd
00000240: 69fa 14bf 90ea 833d 1786 e33e 245e af3c
00000250: dc12 a7bd a780 a2bc 4758 0abd 32fd cfbe
00000260: fdb5 dc3b c5db 3abe b6f5 023e 4a11 a23d
00000270: 97c6 f83b cb70 dabd 12da 053e 8a86 a33c
00000280: f0eb dfbd dbc1 9abd de4b 9bbd 4573 03be
00000290: ac8c 02bd 19b7 143d 7210 f43b b22e 48be
000002a0: b177 893e b5c2 063e 10a8 33be 567c cf3d
000002b0: c98a a93d 33df c13b 209e a13d 9551 87bd
000002c0: 549f 013e a8bc fe3d 4c8a 833d 12e6 a93c
000002d0: e2be bbbd 275c dabe 7799 c53c b1d1 0bbd
000002e0: 81dd 433e ad86 83bc 5020 58bc 4358 613e
000002f0: 7691 95be f121 37be b354 4cbd 1194 b5bd
00000300: 31c2 a23a 5c94 85bd e03b 5b3d 7d0a 83bd
00000310: 0613 01be 489a 963c 2567 393e f32d 673d
00000320: e1df bcbe 5cf7 983e a19e a7be 305c 5dbe
00000330: 81fa 90be 9350 453e a387 91bd a3ec 98bd
00000340: f6eb 193e 911e 84bd c880 fe3c cdfb 2ebc
00000350: f086 7e3c 39ae 243d a339 75bd bb77 0dbe
00000360: 8854 5a3d adcb 873c b6f5 3d3c 1fc4 103d
00000370: adf4 b93e 32a6 303e a6e5 f5be 69ea 533e
00000380: 7e45 83bd ac4b 893c 34fa d8bd e64b 80bd
00000390: 913f 2ebc 7b5b ed3b bc40 9ebd 28cf 053e
000003a0: 2c6b b8bc 4f44 16bd 4ae2 863c 7327 81bc
000003b0: f443 edbd 29c3 d2bc e2d0 c53d 1a5c 3d3d
000003c0: 2f52 92bc c9c3 e6be 4b96 58be 34cb 40bd
000003d0: 2601 85be 625d 92be be31 d33e 1a3b cb3d
000003e0: 62a5 1bbc 55b8 003e 046d efbd 89f5 0f3e
000003f0: 8d9a bbbd 86e0 19be cd7e ff3d 8c7d 883d

IWELBO.encoder.to_hidden.bias f4 [128]
-0.12111653 0.04920404 0.008436565 0.123755604 0.026558135 -0.13163617 -0.09853815 0.113628976
0.010068012 -0.2071558 -0.18639098 -0.062248264 0.076586425 -0.07150544 0.24669038 0.06179724
-0.24847859 -0.028707473 -0.15759757 0.17313997 -0.015897924 0.018417595 -0.27975675 0.076735795
0.121424586 -0.11112595 0.0753091 -0.31850302 0.14112961 0.18502608 0.28814209 -0.28041276
0.20743284 0.25394103 0.046700764 -0.2507499 0.14433481 -0.08519779 0.027891591 -0.1650866
0.1297208 0.08225623 -0.0015554576 -0.29484072 -0.09815691 -0.12736177 0.21584678 0.08116037
0.017432442 -0.04969274 -0.18860981 -0.017233 -0.13947947 -0.15524958 0.22215275 -0.3060493
0.253573 0.16388993 0.10798848 0.13659509 -0.15545255 0.050780933 -0.15852939 -0.26660532
-0.14457333 -0.08679326 0.061252728 0.3048791 -0.32616743 0.20694612 0.22845936 0.04381568
-0.22130878 0.24670382 -0.20746996 -0.077309735 -0.010693997 -0.17770304 -0.1094179 -0.23912457
0.061772358 0.20044565 -0.09602579 0.20652442 -0.24860737 -0.22008309 -0.015998486 -0.094018474
0.07023773 -0.05098702 0.09537039 -0.18863171 -0.28963006 -0.21219878 -0.14417054 0.12607197
0.35219258 -0.1859098 0.011797769 -0.05939573 0.09830983 -0.09283352 0.14149603 0.10479585
0.034356825 -0.12753707 0.1205025 0.09943744 0.3135663 0.10083961 -0.027168503 -0.2281583
0.11079627 0.16887914 0.07965084 -0.16465673 0.051133703 0.06543983 0.20826986 -0.07963417
-0.041208424 0.017635748 0.0575229 -0.20794618 -0.103105985 0.20203212 0.1355513 -0.06453141
00000000: f10b f8bd 2d8a 493d 8539 0a3c 9473 fd3d
00000010: 7290 d93c a2cb 06be 5fce c9bd 4fb6 e83d
00000020: 4ef4 243c a620 54be 47dd 3ebe 09f8 7ebd
00000030: 58d9 9c3d 7271 92bd 679c 7c3e 1a1f 7d3d
00000040: 2c71 7ebe ef2b ebbc 4261 21be 9b4b 313e
00000050: 5d3c 82bc 7fe0 963c 473c 8fbe a827 9d3d
00000060: 74ad f83d 0196 e3bd a83b 9a3d d412 a3be
00000070: 4884 103e 7a77 3d3e 5c87 933e 4392 8fbe
00000080: 4669 543e 8f04 823e 4d49 3f3d 4a62 80be
00000090: 81cc 133e 2e7c aebd e87c e43c 760c 29be
000000a0: 88d5 043e f475 a83d 7fe0 cbba 5df5 96be
000000b0: 7d06 c9bd 206b 02be f006 5d3e 6837 a63d
000000c0: 7bce 8e3c 9d8a 4bbd ee22 41be 382c 8dbc
000000d0: b5d3 0ebe bff9 1ebe 037c 633e 7eb2 9cbe
000000e0: 52d4 813e c3d2 273e 1029 dd3d 95df 0b3e
000000f0: f42e 1fbe abff 4f3d 8755 22be 7e80 88be
00000100: 080b 14be aac0 b1bd 24e4 7a3d 1d19 9c3e
00000110: 6bff a6be afe9 533e 40f1 693e 1278 333d
00000120: c59e 62be ed9f 7c3e 0173 54be 9154 9ebd
00000130: e035 2fbc c9f7 35be 7e16 e0bd 12dd 74be
00000140: 0305 7d3d a041 4d3e 2ba9 c4bd 237b 533e
00000150: ee92 7ebe 765d 61be 420f 83bc c28c c0bd
00000160: cdd8 8f3d c4d7 50bd 8d51 c33d ac28 41be
00000170: 644a 94be a34a 59be 71a1 13be 0319 013e
00000180: 9652 b43e 235f 3ebe 6e4b 413c f048 73bd
00000190: aa56 c93d 801f bebd 56e4 103e 359f d63d
000001a0: beb9 0c3d 1499 02be 04ca f63d dba5 cb3d
000001b0: c38b a03e ff84 ce3d 7b90 debc 54a2 69be
000001c0: 28e9 e23d a7ee 2c3e fb1f a33d c69b 28be
000001d0: 9371 513d 5105 863d b244 553e 3d17 a3bd
000001e0: 2aca 28bd d878 903c 229d 6b3d d8ef 54be
000001f0: 3b29 d3bd 82e1 4e3e f6cd 0a3e 0b29 84bd
