models/mnist-relaxed1E/encoder_z1_-5626122139460126378.pt (torch_old, 516075 bytes, 14 tensors)

default.encoder_cv.0.weight f4 [32, 1, 3, 3]
00000000: f280 9fbd 68b2 8ebe 37b7 573e 1ca4 b03e
00000010: 8013 a53e a775 a83e e979 96be 409e 60be
00000020: d5e4 0bbd 94b5 cebd 133f 193d 1817 bfbd
00000030: 8f44 983e cfb8 4dbd fe81 d63d 8f94 f43d
00000040: 29c7 5b3e 8e33 19bd 11b5 95be 13a6 d33d
00000050: 5690 9d3e 0c9f b9be 5bab 9d3d e720 103e
00000060: f97d a2bb 69f3 143e b68c b2bc 53d8 763e
00000070: 88be 9a3e b846 98be 7a18 6d3e cbe7 ba3d
00000080: dda3 913e af51 a3be 4b52 72be 72cd 89bd
00000090: 9553 cfbc 13ca 92be f480 ae3e 8b2b 0cbe
000000a0: 76a5 953e 8d8b 8f3d edec 5f3e 521c 9fbe
000000b0: 4972 a63e e826 763e a100 fbbd e423 883e
000000c0: 0487 693d ca98 67be 1a6b de3e 720e 943d
000000d0: 4555 68be 3b82 243e 8519 ec3c fe7d d1bc
000000e0: 87e2 cfbe e23d 8fbe a641 30be e87e bcbe
000000f0: ed5d 3cbe 263a 603e 7ee8 b53e d207 cbbe
00000100: e0c8 80be 110d 003e bf51 f9bd 6234 85be
00000110: 8134 51be a11b e03e 07c5 32bd d380 d5be
00000120: 43ef 9bbe ab06 c3bd f422 c3be 09c7 babe
00000130: 3f88 f83d 6bc8 0d3e 0319 843e cf71 633e
00000140: 4231 923e 9e03 533e 0630 833e 3dec a33e
00000150: 3824 a53d c785 a43c 39f7 243e f0e8 8abd
00000160: 729f cabe 397b b2be 97b0 6c3e 806a 713e
00000170: 883e 9cbd 2d2c f63d 3ff9 bc3a 6cde bebc
00000180: 63e2 0b3e 07bb afbe c1f7 2f3e c91a 3ebe
00000190: 1733 a2bd f119 723c 33e1 a23e cd26 353b
000001a0: 72da e63d 50c5 9cbe bf12 483d 70c8 b33e
000001b0: 371a 95bc 80f5 a33e d8c8 c63e faa1 0bbe
000001c0: 8cb7 20be 3171 11be 4236 b9be 8116 1f3d
000001d0: 3acc 9fbe 96f5 6e3d 8adf 1fbe ab01 8b3e
000001e0: 45d9 bcbd 9959 923e 4ba1 c83d ca36 873d
000001f0: 8a60 56bd d000 a23e 5b07 363c b9d4 25be
00000200: 00fb 8c3e fb8e 77bd 72d9 bdbe 65cb 863a
00000210: 63d2 913d 0da8 9d3e 8fb4 b03e 6756 053e
00000220: be5c 6f3e 2cdc d8be 98af bd3e 7edf 7dbe
00000230: b1d9 22be 6d17 ca3c 1f8e 8a3e 03da 39be
00000240: 0461 7ebe e701 c6bd 88fa 833e e942 d5bd
00000250: 6ede d8be b97e 4c3e 22de 45be 4c0c 86be
00000260: 9089 083e e1b7 373d ec6a fcbd 7063 3f3d
00000270: 1fe8 efbd 7d24 4c3e 8637 97bc 79ed 833e
00000280: 5400 b23e 3f9d 38bd 9fb0 3d3e 7586 9ebe
00000290: 8b03 1f3d b848 48bc 84e2 693e 3d96 bb3e
000002a0: 8b9a b2bd 2a76 9e3e 57bb 01bd e10f 97be
000002b0: 43c1 5c3e ad89 b73e 79d9 86be 3b08 ab3e
000002c0: 5e89 5a3d 8716 e0bd 571d 2abe 0789 2fbe
000002d0: df7f 5d3e 5b75 ebbd f057 733d 49bd ac3d
000002e0: cb0f 093d 4e67 b8be 83c7 d0bd 2689 c6be
000002f0: 9485 90be c0eb 44be dc02 5ebe 6389 9dbe
00000300: 03a1 513e 0d58 25bd 6696 233e 3554 a3bc
00000310: b63b cf3e d601 cb3e 133a 21be 7e45 a23e
00000320: eb1a 0cbe 581d ffba af66 bd3e 5ad8 b53d
00000330: 95b6 28bc 90fd 7e3e 9fb0 87be 0842 3e3e
00000340: 0ceb 823e cd12 44be f72a 14bd e6d1 18be
00000350: f15f 32bb 43b5 293e 8860 0cbe 2901 3a3e
00000360: e7b5 753e 4a09 343e 5736 05be 5b8d 5bbe
00000370: a2ff ab3c 60fd 95bd 313e c7be 5f0c bcbe
00000380: a5dc 133e 14c7 ecbd 0281 1d3e 316e e4be
00000390: 5f37 ef3d 9b75 b0be baf2 febd 7c1f 6abe
000003a0: 8e70 97be 4888 ac3e f2ec 5b3e 8d11 b1be
000003b0: 5358 d83d 483b 68be 732b 87be 8d5e dbbe
000003c0: b181 ab3e d351 a73e b76a 2e3e 21ab 8e3e
000003d0: 85bd 92bd 9513 02bf d963 90be 20f3 703e
000003e0: f60b 69be 8b4b 863e 6fc7 d2bc 0e65 cabe
000003f0: 8b21 ab3d 482a 833e 9d71 ca3c af9a 723e
-0.07788266 -0.27870488 0.21065985 0.34500206 0.3224144 0.32902262 -0.29389885 -0.21935368
-0.034153778 -0.10093227 0.037413668 -0.09330577 0.29739806 -0.050225075 0.10474013 0.11942398
0.21462692 -0.037402682 -0.29239705 0.103344105 0.30774182 -0.36254156 0.07698699 0.14075051
-0.0049588648 0.14545979 -0.021795612 0.24105959 0.3022349 -0.29741454 0.23153868 0.09126242
0.2844533 -0.31898257 -0.23664205 -0.06728639 -0.02530841 -0.28669795 0.34082758 -0.13688485
0.292278 0.07009039 0.21867724 -0.31076294 0.32509068 0.24038279 -0.12255979 0.26589882
0.057013527 -0.22616878 0.43441087 0.07229318 -0.22688778 0.16065304 0.028820762 -0.025572773
-0.40602514 -0.279769 -0.17212543 -0.36815572 -0.18395205 0.21897182 0.3552894 -0.39654404
-0.25153255 0.12504984 -0.12173795 -0.26016527 -0.20430185 0.4377108 -0.04364493 -0.41699848
-0.3045598 -0.09522756 -0.38112605 -0.36479977 0.12135362 0.13845985 0.25800332 0.22211383
0.28553206 0.20606849 0.25622576 0.32016173 0.08063549 0.020083321 0.16109933 -0.067827106
-0.39574772 -0.34859636 0.23114239 0.23575783 -0.076291144 0.120201446 0.0014417543 -0.023299418
0.13660578 -0.34322378 0.17184354 -0.18564905 -0.07919901 0.014776693 0.31812438 0.0027641535
0.11272134 -0.30619287 0.048846003 0.3511386 -0.018200977 0.3202324 0.38825107 -0.13636008
-0.15695018 -0.14203335 -0.36174208 0.03883982 -0.312105 0.058339678 -0.15612617 0.2714971
-0.092211284 0.28583983 0.09796389 0.06602247 -0.05233816 0.31641245 0.011110152 -0.16194429
0.27535248 -0.06043909 -0.3707996 0.0010284005 0.07120206 0.30792275 0.34512755 0.13021241
0.23375222 -0.42355478 0.3704803 -0.24792287 -0.15903355 0.024669373 0.27061555 -0.18149571
-0.24841696 -0.096683316 0.25777078 -0.10413153 -0.423572 0.19970216 -0.19323018 -0.26181257
0.13333726 0.044853095 -0.12325081 0.04672569 -0.117141955 0.19935794 -0.018459093 0.25767115
0.34765875 -0.045071837 0.18524407 -0.30961958 0.03882174 -0.012224369 0.22840315 0.3663806
-0.08720883 0.30949527 -0.0316728 -0.29504302 0.21558098 0.35847226 -0.26337793 0.33404717
0.05335366 -0.10941797 -0.16612755 -0.17142116 0.2163081 -0.11496993 0.059410036 0.08434541
0.033462327 -0.36016315 -0.10194304 -0.3877651 -0.28226912 -0.19230556 -0.21680778 -0.3076888
0.20471577 -0.040367175 0.15975341 -0.019937614 0.40475243 0.39649838 -0.1574481 0.31693643
-0.13682143 -0.0019463701 0.36992404 0.088791564 -0.010297437 0.24901414 -0.2650194 0.18579876
0.25569952 -0.19147797 -0.036173787 -0.1492382 -0.002721783 0.16573052 -0.13708699 0.18164505
0.23995171 0.17581668 -0.1300901 -0.21440642 0.020995919 -0.07323718 -0.38914636 -0.36728188
0.14439638 -0.11561409 0.15381244 -0.4461532 0.11680483 -0.34464726 -0.1244864 -0.22863573
-0.2957806 0.33697724 0.21477106 -0.34583703 0.105637215 -0.22678864 -0.26400337 -0.42845574
0.33497384 0.32679614 0.17032896 0.27864936 -0.07165054 -0.5081113 -0.28201178 0.23530245
-0.22758469 0.2622951 -0.025729863 -0.39530224 0.08356007 0.25618196 0.024712378 0.2369182

default.encoder_cv.0.bias f4 [32]
00000000: c0db 87be 4ef0 35be 814e 64be 4b60 463e
00000010: 7e38 1cbe 8c6d 52be ae69 033e 8ba8 713d
00000020: 7a74 833d 2b39 663d fc81 e43c 4749 873c
00000030: 4db3 97bd 054f 59be bf74 3bbe b602 82be
00000040: e474 473e 3fb6 88be d4cd 8bbd 400c ea3d
00000050: 2766 013e 8823 44be a721 83be 05cf c53d
00000060: fa0a 353e 43be 113d efe4 273e 985d 403e
00000070: 6836 18be 64ff 143d 469e 9f3a 56ed 43be
-0.26534843 -0.1776745 -0.22295572 0.1937267 -0.15255925 -0.20549601 0.12833282 0.058998626
0.064187005 0.056206863 0.027894013 0.016514434 -0.07407246 -0.2122155 -0.18306254 -0.25392693
0.19478184 -0.26701543 -0.06826368 0.11428118 0.12636624 -0.19154179 -0.25611612 0.096586265
0.17679968 0.03558184 0.16395925 0.18785703 -0.14864504 0.036376372 0.0012177906 -0.19133505

default.encoder_cv.4.weight f4 [64, 32, 3, 3]
00000000: 29bd a6bb a3b7 453c 5f8c 59bd e313 253b
00000010: e7dc 093d 0b62 0b3d 70ff 063d b7ad 003d
00000020: 1ec8 02bc 9703 c2bd b7b2 79bd 5412 e73c
00000030: 7be4 d3bb 7633 503d 17cc 533d a8f2 14bd
00000040: 37d0 2fbd 82b2 103d c4b0 713d 91ca 1c3e
00000050: 0720 2f3e 51c1 0cbd b93c b53d f761 903d
00000060: 5024 19bd 25ec 413d 3645 103d fb1b 20bd
00000070: 81e0 22bd 7572 84bb 518b 4cbd 0fbe 5bbb
00000080: 505e 37bd 4ff7 543b 1e77 5ebc 5e19 46bd
00000090: 58aa db3c 8bec 7b3d f982 9b3d 1482 343c
000000a0: a0e9 d83c 4ad9 ceba 0fbf fbbc 4df5 fc3c
000000b0: ac30 b6bb 1d98 82bd da39 923d 20bf d93d
000000c0: 952a 3bbd 803f af3d ab32 92bd 86f0 953d
000000d0: 1ca7 183c d990 2fbd c1ca ce3a b834 bdbd
000000e0: dbc9 80bd 8a88 e3bb 2d61 213c 8d24 9fbd
000000f0: 5337 96bd ca38 8a3b 2df4 97bd 3fa5 b03d
00000100: 18bd 66bd cd7f 71bd d312 da3c f8c5 a6bb
00000110: 4eda e9bc 4c18 70bc a40d e8bc 2008 7cbc
00000120: e6d6 1c3c 8948 dabc 51f6 06bd 86e7 0bba
00000130: a536 b3bc 8500 7b3d 17f5 3cbd ee66 eabc
00000140: 85bf 40bd 1c01 bcbc 45c4 d43c c2db aebb
00000150: 5a2c 6dbd 14e7 a1bd c378 3a3d fd88 ec3c
00000160: e4a9 b63c 15a9 0b3d 4586 afbd 6c28 74bd
00000170: ff0c 813c f4c5 0fbd 264e 503c d99f dfbc
00000180: 8b4a 503a be18 3b3d caa3 21bc 5941 64bd
00000190: d8b5 603a 3b1e 8c3c 737c a8bb 3150 72bd
000001a0: 89e5 7abd 8537 153d b00a 533c cafc 70bd
000001b0: 12f2 b7bd a4a2 e63b dc17 513d 6931 46bc
000001c0: 3f43 87bc eeed 0abd 042a 11bd bc97 413d
000001d0: 068b e93c 8dd1 f03b 6153 18bc d67a a13d
000001e0: c308 61bd 7a0c ddbc 9361 af3c 444f f13a
000001f0: ea3f e53c c89d 55bd 6896 c7bc 377b d63d
00000200: 848e 303c a3a4 973d 0abb 9b3d 87a9 03ba
00000210: 188d 283c 6735 53bc 267b 1bbe bf04 81bc
00000220: 3ba8 1f3d f611 a7bc 4577 e3bc 28ab a2bc
00000230: a635 993c ce1c a63d 21d9 ee3c b6e0 3d3d
00000240: a0ac 213e 841d 6a3d 68ca 093d a3c2 2cbd
00000250: 2488 813d 942b 48bc c219 1ebd f874 f73c
00000260: 2d9b f7bd f088 9abb c48a 0abd 4903 d93d
00000270: 3047 31bc 9a03 4c3d d819 3a3c 1166 713c
00000280: 1ce4 f53c 9c06 ad3c e096 69bd df90 0cbd
00000290: dfa1 70bc ecf2 d9bc f4b0 323d 7033 b53c
000002a0: 515d 9fbc 14db 50bd f877 4d3c ff8a 3b3d
000002b0: 9eb6 983d 4f94 3f3d 8ec7 b7bc 8b5e 1fbd
000002c0: 3bf4 513d bf5c 5dbd 5b8b cd3c 3fbc 013d
000002d0: ac22 71bd 76a7 2abd 738b 203d a8fe abbd
000002e0: bf34 c9bb d556 01bc 5362 953c 8764 933c
000002f0: d1a4 193d 2414 59bd 6afd df3b a0b3 23bd
00000300: 5e68 883c 184b b5ba 4ce1 31bd 08ab 1bbd
00000310: d631 01bd 5fda babd e435 9dbd 3c74 5e3c
00000320: ae3b b93d 6670 45bc 2361 cd3d b6ce a53d
00000330: f70f 413d 34dc c83d f495 ecbb 84b7 b7bd
00000340: f6c8 89bb bdf7 993a aea0 88bd 679c 363d
00000350: d076 c3bc 5371 59bd 549f ab3c a5a3 0dbd
00000360: d6cc 96bd 3be9 35bd 7aba 75bd eb03 8fbd
00000370: aa43 90b9 42c6 86bd 2e2d b53d 8519 973d
00000380: 87b2 d9bc 7a9e 953d f9bd 18bd 9163 7f3c
00000390: 8273 c63c 8ea2 2e3d af06 3f3c 220b 62bb
000003a0: a04c b4bc 8206 5fbd 9b92 e53c 5712 5fbc
000003b0: fe83 4c3b 20b1 debb a0b8 7d3a e221 48bd
000003c0: cb65 86bd 80eb 81bd 6c34 41bd 7490 5dbc
000003d0: b8d2 3d3d a6ec d0bd 993f 22bd d76e 413d
000003e0: 3a04 09be 25f4 803d 0952 283a 2061 26bd
000003f0: 719f c4bd 57b3 a0bc 0674 bc3d f464 9ebd
-0.0050884676 0.012067708 -0.053112384 0.0025188855 0.033657935 0.034029048 0.032958448 0.031415667
-0.007982282 -0.09473341 -0.06096145 0.028206982 -0.006466446 0.050830327 0.051708307 -0.036364228
-0.04292318 0.03532649 0.059006467 0.15311648 0.17102061 -0.03436405 0.088494726 0.07049935
-0.037388146 0.047344346 0.035222255 -0.039089184 -0.039764885 -0.0040419647 -0.04993755 -0.0033530032
-0.044767678 0.003249604 -0.013578204 -0.048364036 0.026814625 0.06150488 0.075933404 0.011017341
0.026478589 -0.001578131 -0.030730752 0.030878687 -0.0055600014 -0.063766696 0.071399406 0.10632157
-0.045694906 0.085570335 -0.071385704 0.07321267 0.009317186 -0.042862747 0.0015776978 -0.09238571
-0.06288501 -0.006943767 0.009849829 -0.077706434 -0.07334771 0.0042181956 -0.0741962 0.08625268
-0.056332678 -0.05895977 0.026620304 -0.0050895177 -0.028546479 -0.01465423 -0.028326817 -0.0153827965
0.00957272 -0.026645916 -0.03294975 -0.0005336929 -0.021876642 0.061279792 -0.046132173 -0.028613534
-0.047057647 -0.022949748 0.025972495 -0.0053362558 -0.057903625 -0.07905403 0.045525324 0.028873915
0.022297807 0.034096796 -0.08570532 -0.05960886 0.015753267 -0.035100892 0.012713945 -0.027297901
0.0007945678 0.045677893 -0.0098657105 -0.055726383 0.00085720187 0.017104259 -0.0051417886 -0.059158508
-0.061254058 0.0364299 0.012880966 -0.05883483 -0.08981718 0.0070384312 0.051048145 -0.012096741
-0.016511558 -0.033918314 -0.03544046 0.047263846 0.028508674 0.007349199 -0.009297223 0.07884757
-0.054939996 -0.026983488 0.021408832 0.0018410464 0.027984578 -0.052152425 -0.024363711 0.1047272
0.010776166 0.07404449 0.07604034 -0.0005022515 0.010287546 -0.01289115 -0.15183696 -0.015749333
0.038978796 -0.020394307 -0.027766833 -0.019857004 0.01870234 0.08110963 0.02915627 0.04635688
0.15788507 0.057157055 0.033640295 -0.042177808 0.06324795 -0.012217421 -0.038598783 0.030207142
-0.12090144 -0.0047160313 -0.033823743 0.1059633 -0.010820195 0.049808122 0.011358701 0.014733807
0.030015998 0.021121316 -0.05702865 -0.034317847 -0.014687031 -0.026605092 0.043625787 0.022119254
-0.019453676 -0.05099018 0.01254081 0.045786854 0.074567065 0.046772297 -0.022434022 -0.038908523
0.051258307 -0.054043528 0.025090864 0.031673666 -0.058870956 -0.04166361 0.03919549 -0.08398181
-0.006140321 -0.0078942375 0.018235361 0.017992271 0.037510697 -0.052997723 0.006835629 -0.039966226
0.016651329 -0.0013831584 -0.04342775 -0.038004905 -0.031541668 -0.09123682 -0.076762944 0.013577517
0.09044586 -0.012050724 0.10028293 0.080960676 0.047134366 0.098076254 -0.0072200242 -0.0897055
-0.0042048646 0.0011746805 -0.06671272 0.04458275 -0.023860365 -0.05308659 0.020949997 -0.03457989
-0.07363288 -0.04441188 -0.05999229 -0.06983169 -0.00027516234 -0.065807834 0.08846508 0.07377914
-0.026574386 0.07305618 -0.037290547 0.015587703 0.024225 0.042635493 0.011659308 -0.00344915
-0.022009194 -0.054449566 0.028024008 -0.013615212 0.0031206603 -0.0067960173 0.00096786954 -0.04886044
-0.06562384 -0.06343746 -0.047169134 -0.01352321 0.046343535 -0.10201387 -0.039611433 0.047224846
-0.13380519 0.06296567 0.00064209156 -0.04061997 -0.096007235 -0.019616766 0.09201817 -0.07734099

default.encoder_cv.4.bias f4 [64]
00000000: 5ed3 f7bb 9a19 0dbe d652 aabd a8d5 91bd
00000010: 7748 bebd 470f 1fbd 2b6c c1bd 6ae5 463d
00000020: f52d cbbc d84e c0bd 3b08 9e3d 7e4e 84bd
00000030: ba0d 6539 3a35 173d 39c7 40bd 56ce 403d
00000040: 4917 03bd 74ef e1bc fd01 51bc 898f 4dbd
00000050: c34a a03c b460 5b39 3b6e f0bc d8e9 253d
00000060: c935 303c dad4 4d3c 6683 803c 9a6a 16bd
00000070: b4ff 7dbd c4f4 e4bd 90b7 bd3c b967 cdbc
00000080: c95d 1b3c 1798 f33b 3541 ccbb 29e0 153d
00000090: b86a cabd d98f 82bd 0646 c4bd cdae 5abd
000000a0: a36d a9bd e69f 7dbc 8808 d1bb 7667 f9bc
000000b0: 9b92 da3c b6b3 b0bc fcf6 943b 9c7a 0cbd
000000c0: 5efa 5abd 2ec4 ddbb fdbf 9abd e0a3 a4bc
000000d0: 8689 8bbd decc 8bbd 9ed9 053b b3ae e03c
000000e0: 97b0 dabc beba f3bb ffca 1cbd 4526 a73b
000000f0: 1a85 923c af2d dc3b 71b1 0dbc 2752 8dbd
-0.0075630387 -0.13779297 -0.08316581 -0.0712083 -0.09291165 -0.03883293 -0.094444595 0.04855863
-0.024802187 -0.09390038 0.077164136 -0.06460284 0.00021844255 0.036915995 -0.047064994 0.047071777
-0.03200463 -0.02758 -0.012756822 -0.050185714 0.0195669 0.00020921492 -0.029349437 0.040506214
0.010755011 0.012562955 0.015687656 -0.036722757 -0.062011436 -0.11179498 0.023158818 -0.025073873
0.009482809 0.007433902 -0.006233359 0.03659073 -0.09883636 -0.06375093 -0.095836684 -0.05338936
-0.08272865 -0.015480017 -0.006379191 -0.030444842 0.026681235 -0.021570068 0.0045460444 -0.034296617
-0.053461425 -0.006767771 -0.0755615 -0.020097673 -0.0681334 -0.06826185 0.00204239 0.027427053
-0.026695533 -0.007438033 -0.03827953 0.0051009976 0.017885733 0.006719313 -0.008648262 -0.06900435

default.encoder_cv.8.weight f4 [128, 64, 3, 3]
00000000: e055 2a3d dd5d 193d e1de 9e3d be8d 3a3d
00000010: 2873 b8bc 8b5f 1d3d 51de bcbc 404b aa3d
00000020: f37a 7cbd 334a a73d c07b 483c 14d2 783d
00000030: 6053 8c3d 027e cd3c 8183 d23d 6f08 6cbc
00000040: d2b5 0b3d 4415 e4bd 75a3 b73d b8a6 1c3c
00000050: d197 dd3d bfe0 ec3c f6ca 6f3d 0538 e43d
00000060: 596a 083e 1c56 563d fe35 a9bc ece7 d93d
00000070: 8479 cfbc b3cd 893d 189e 383c d3c7 533d
00000080: e930 8b3d 9114 d8bc 464a c0bb af8d f9bd
00000090: ea51 963d 02d7 9f3d e238 253d 68ef fa3c
000000a0: 9f4a 0c3d abf9 8e3d 9998 613d 17d8 1f3e
000000b0: 5125 78bc 4970 723d 25b7 aa3c b9f8 073d
000000c0: d468 ba3c 2500 3f3d 99a1 2a3c a336 823c
000000d0: 8af6 323c f25d 24be 90bb 373d a426 b93c
000000e0: 84cd 6d3d 6168 8d3d 1000 923d ee6e 593c
000000f0: 4a6e 963d a238 f13c 43bd 96bd 1b47 003c
00000100: d83e b6bc 8ce7 f439 849d 1bbd 3974 5dbd
00000110: a1fe a13c 8b25 97bc 4500 34bd a034 5e3c
00000120: 7103 0f3c ed73 acbc 26d8 48bd 28e9 44bc
00000130: 4aff 903c 56ce 6a3d 92b4 ccba 319f 81bd
00000140: 2b1c 90bb 61fd 973d d8f9 d5bc b70e 383d
00000150: 2571 b33d ec61 21bb 96e9 0d3d 9661 6f3d
00000160: 1299 c2bc 86b6 fdbd 7024 56bd 48b6 c6bd
00000170: 712f 51bd 3ba1 a0bd b2f7 80bd ffae 90bc
00000180: d455 ebbd b50e 843b 0434 14bd a1c2 103e
00000190: 4cc3 783c 9eeb 02bd ca1c 1e3d c529 08bd
000001a0: 5e7b e4bc e1fb 303c be26 02bc 9bd8 a83c
000001b0: 022e f5bc ebf0 2ebd a39d aebd 1170 693d
000001c0: 9262 493d a61a 18bd 4661 05bd 6928 833d
000001d0: ce0a 003c 3840 0c3e ab81 fc3c 5519 fb3a
000001e0: 0620 f639 17d3 99bc b789 cd3c 0448 c63d
000001f0: f91a 313d 3096 043d 547a 3fbd a235 e13c
00000200: bb20 37bd 415e 84bb dfcb bd3d b606 1dbc
00000210: bd77 013d f388 3cbc 23b9 f2bc e968 09be
00000220: 1533 40bd 72c7 33be 08a6 27bd 04b1 26bd
00000230: 7970 54ba b558 ecbd 1ac1 72bc a4a0 813d
00000240: 4557 07bd 8409 49bd 77db 623c 0a1a 353c
00000250: b133 013c 5545 0abd eb03 3c3c 47b5 6dbc
00000260: 5660 1a3c 8041 ebbb 62b1 593a 416d 6dbd
00000270: 1382 a4bd d425 e3bc 1871 b1bd c3b0 34bd
00000280: 0aff b5bc 3f20 23bd ebf2 ac3d 8f15 893d
00000290: d2b5 4abb ca91 4ebc 2452 b33c 3e70 41bc
000002a0: 3368 133d 83de 373b 50b7 273d 11dc af3d
000002b0: 1be9 6b3d d579 84ba 38e7 e9bc 0aad 83bd
000002c0: c5b0 b63d eccc c13d 0f46 213d 2f35 653d
000002d0: 498e 403d a694 e7bc 2796 233d bd56 1f3d
000002e0: 0823 a6bb 6851 deba d04d bb3b 56ad 30bc
000002f0: 1345 0fbe 936d 97bc 190e 3c3d fa21 093d
00000300: 362a 3bbd 153c 85bd f6ac 96bc f056 07bd
00000310: 3f47 4ebb eacf a43d 23a1 a3bc 5387 5b3d
00000320: fd43 4b3d bff9 963d 307d 5fbc 5fa1 3c3d
00000330: 4264 4d3d 3796 dabd 1dc0 a83c 80e8 853d
00000340: 8109 0bbc 6162 9bb9 e7e6 e63c 081b 4fbd
00000350: 50b5 a73d eb0b 283d 92f3 a0bc f65e 5bbd
00000360: 3019 9dbd 3910 5bbd aee5 45bd cc6b c1bd
00000370: 49f0 89ba c887 c33c 1a12 3dbd 75c4 fcbd
00000380: ee32 a0bd 7bea d73c 07b4 a33c cfb8 8b3c
00000390: c4a5 763d c4d7 7e3d 4797 863c 78ed 6dbc
000003a0: 52f0 f6bc cba1 6fbd bb6f ddbb 5e55 b9bc
000003b0: 9cd4 2cbd 3e93 5e3a b135 9fbd a191 6c3d
000003c0: 5e81 843b 7df4 01bb b67a 1cbd ca13 dfbc
000003d0: f255 83bd 3b60 bb3c 92bb 76bc 3bee 48bd
000003e0: b79f 9c3d c969 e0bc 06b7 80bc 30d0 adbd
000003f0: ea7f b1bc b275 0e3c 35e6 7a3d c18b 07bd
0.041585803 0.03744303 0.077573545 0.045545332 -0.022515848 0.038421195 -0.023055227 0.08315134
-0.06164069 0.08168449 0.012236536 0.06074722 0.0685184 0.0250845 0.10278989 -0.014406308
0.034108944 -0.111368686 0.08966724 0.009561233 0.10819972 0.028915761 0.058543168 0.111434974
0.13321818 0.052328214 -0.020655628 0.10639939 -0.025326498 0.06728687 0.011268161 0.05170424
0.06796438 -0.026376994 -0.005868229 -0.12185227 0.073398426 0.07804681 0.04033745 0.030631736
0.03425085 0.06981214 0.05507717 0.15609775 -0.015145616 0.059189115 0.020839283 0.033196185
0.022755064 0.046630997 0.010414504 0.015895193 0.010923037 -0.16051462 0.044856608 0.022601433
0.058057323 0.06904674 0.07128918 0.013271077 0.07345255 0.02944595 -0.073603176 0.007829453
-0.022246763 0.00046711823 -0.037992015 -0.054065917 0.019774737 -0.01845052 -0.04394557 0.013562351
0.008728848 -0.021051371 -0.04903426 -0.012018479 0.017699856 0.057325684 -0.0015617779 -0.063291915
-0.004397889 0.07421375 -0.026120111 0.04493591 0.08761815 -0.0024625016 0.034646593 0.058442675
-0.02375463 -0.12388329 -0.052280843 -0.09702736 -0.051070634 -0.07843252 -0.06297244 -0.01766157
-0.1149098 0.0040300735 -0.03618242 0.14136745 0.015183281 -0.031962983 0.038601674 -0.03324296
-0.027890857 0.01080224 -0.007943807 0.020611098 -0.029929165 -0.042710226 -0.085261606 0.05699164
0.04916627 -0.03713479 -0.03256347 0.06404192 0.007815076 0.13696373 0.03082355 0.001915733
0.00046944636 -0.018777413 0.025090082 0.09681705 0.043238614 0.032369792 -0.04674752 0.027491394
-0.04470895 -0.0040395563 0.09267401 -0.00958412 0.031608332 -0.011507261 -0.029629296 -0.13418926
-0.046923716 -0.17556551 -0.040929824 -0.04069616 -0.0008103918 -0.11540357 -0.014816547 0.06329468
-0.03304221 -0.04908134 0.01384627 0.0110535715 0.007885859 -0.033757526 0.0114755435 -0.014508552
0.009422382 -0.007179439 0.0008304325 -0.05796552 -0.08032622 -0.027727999 -0.08664149 -0.044113886
-0.022216339 -0.039825674 0.084447704 0.06693565 -0.0030931127 -0.012608001 0.021889754 -0.011806546
0.035988044 0.0028056211 0.040946305 0.08586896 0.057595354 -0.001010711 -0.028552637 -0.06429489
0.08920435 0.09462914 0.039373454 0.055958923 0.047010694 -0.028269123 0.03993812 0.03890108
-0.005070094 -0.0016961517 0.005716063 -0.010783514 -0.13991193 -0.018484866 0.045911882 0.03347967
-0.045694552 -0.065056 -0.018393021 -0.033041894 -0.0031475571 0.08047469 -0.019974297 0.053595852
0.049625386 0.07371854 -0.013640687 0.046052333 0.05014444 -0.106731825 0.02059942 0.065384865
-0.008486153 -0.00029637202 0.028186275 -0.05056289 0.081888795 0.04102699 -0.019647393 -0.05355736
-0.0767082 -0.053482268 -0.048314743 -0.09444389 -0.0010523881 0.023868456 -0.04615984 -0.12342159
-0.07822214 0.026356926 0.019983305 0.017055897 0.06021668 0.06221749 0.016429557 -0.014521949
-0.03014389 -0.058503907 -0.006757704 -0.022623714 -0.042194948 0.0008490569 -0.07773913 0.05775607
0.004043742 -0.0019829564 -0.038202964 -0.027231116 -0.06412877 0.022873035 -0.015059369 -0.04905532
0.07647651 -0.027394192 -0.015712272 -0.08486974 -0.02166744 0.008695053 0.0612547 -0.033092264

default.encoder_cv.8.bias f4 [128]
00000000: b536 07bd 2baf c33c 3605 a73c e0ce 7e3c
00000010: 3a36 30bd 0885 053b 000b 42bd a307 74bd
00000020: 265b cebc fda5 113d 6dcd 40bc 7a26 aabb
00000030: 77d6 60bd 2c28 cb3c f360 6bbd 0aa1 2cbd
00000040: f79e 6c3c 6683 dabc 8bfa 763d 4a72 7abd
00000050: 4f7a fdbc df19 2cbd a61f d33c 41fb 5abd
00000060: 802a 64bd c84d e4bc 9f8b c3bd b71b 50bd
00000070: 084c e6bb 2f8e 82bd 5bd3 683c 8016 54bb
00000080: ac98 9abd 277f b63c f7d7 303c bd38 4ebd
00000090: b71c f3bc c8eb 50bd 56d2 d93c 6dde 8cbd
000000a0: 211b 1c3c 173d 6bbd 0477 523c ef2f 8abc
000000b0: 3a2e 6bbc 276f 74bd 3f4b 70bd 1136 dfbc
000000c0: 0618 32bd 0c4f d23c 580a 7bbd b06c 4a3d
000000d0: 0cd8 c1bc 8655 0bbc d667 be3c b128 c9bd
000000e0: b092 82bd b738 d1bd f764 103d 7575 58bd
000000f0: 4790 20bd e1b0 5c3c b278 373d cb5e ecbd
00000100: d956 8fbb aa83 82bd f937 91bd 202e 4fbd
00000110: 9945 22bd 0ebe 3abc 99a9 27bd 7933 febc
00000120: 2ea2 d43c 3d6d 4cbd d46d 37bd 22fc c3bd
00000130: dae1 edbd 5512 59bb b81d 56bd 315e 1a3c
00000140: 1851 9abd ded2 f4bb f085 1dbd 7169 333d
00000150: 63e6 a2bd 21d3 8dbc b417 8bbd 9ba6 38bd
00000160: c07e 3ebd 54e6 a53c 6df0 a6bd a4c3 c73c
00000170: ba3b d3bc 54c8 32bd 3fd7 a1bc 32ac 6b3c
00000180: e860 b9bc 0aa8 2ebd 0f8c 11bd e750 1dbc
00000190: 51ab c0bd 77f7 11bd 9ea5 0cbd 7de8 b7bc
000001a0: 3124 76bd 0956 8bbd e144 a6bd 5f4e 4bbd
000001b0: 5316 f3ba d690 853b 858c d7bd f798 f6bc
000001c0: f677 673d 8fed 42bd fb03 bbbd a6d5 18bc
000001d0: f0a5 81bc 5e30 b03c 3889 adbd 014b 48bb
000001e0: d68e 4cbd ed17 10bd 32c9 6ebd 6e9d 67bd
000001f0: 086a 12bc 75dd 853c 1a3f 71bd 669d 14bd
-0.033011157 0.023887238 0.020388227 0.0155522525 -0.043020464 0.0020373482 -0.04737377 -0.059577595
-0.025189947 0.03555869 -0.011767727 -0.005192575 -0.05489203 0.024799429 -0.057465505 -0.042145766
0.014442197 -0.026673984 0.06029753 -0.06114415 -0.03094211 -0.04201686 0.025771927 -0.05346227
-0.055704594 -0.02786912 -0.09548115 -0.05080768 -0.0070281066 -0.063747756 0.014210547 -0.0032362044
-0.07548651 0.022277428 0.0107936775 -0.05034708 -0.029676778 -0.05100611 0.026589554 -0.06878362
0.009527952 -0.057431307 0.012845758 -0.01686856 -0.014354283 -0.059676316 -0.05866551 -0.02724746
-0.04347994 0.025672458 -0.06128916 0.04942006 -0.02366259 -0.008504277 0.023242872 -0.098222144
-0.06375635 -0.102158956 0.035252538 -0.05284639 -0.039200094 0.013469906 0.04479284 -0.11541518
-0.0043743667 -0.06372769 -0.07090754 -0.050581098 -0.039617155 -0.011397852 -0.040933225 -0.031030403
0.02595624 -0.049908865 -0.044782475 -0.09569575 -0.116153434 -0.00331225 -0.052274436 0.009421871
-0.07534999 -0.0074714264 -0.03845781 0.04380173 -0.07954099 -0.017312588 -0.067916304 -0.045080762
-0.046507597 0.02025143 -0.08151326 0.02438528 -0.025785316 -0.04364808 -0.019755958 0.014384316
-0.022629216 -0.042640723 -0.03553396 -0.009601808 -0.09407676 -0.03563639 -0.034337632 -0.022449726
-0.06009311 -0.06803519 -0.08118606 -0.049635287 -0.0018546082 0.0040761037 -0.10524849 -0.030102236
0.056510888 -0.047589835 -0.091316186 -0.0093282815 -0.015826195 0.021507438 -0.08473438 -0.0030562284
-0.049940906 -0.035179067 -0.058297344 -0.05654662 -0.008936413 0.01634095 -0.05889807 -0.03628292

default.encoder_fc.0.weight f4 [128, 128]
00000000: 9c39 063d 26a8 0bbd 580f 4e3c a1eb 84bd
00000010: 59de 3ebd 701f a53c 8adf 513d 26d2 23bd
00000020: 90fd f43c 6327 99bd 1881 7c3c a894 68bd
00000030: 4037 c0bc b042 84bc 60e4 a1bd 9542 b13d
00000040: f17a a83d 1c45 d9bc 4836 9abc 6698 353d
00000050: 0012 a5bd 0866 6e3c 0000 70ba 16f8 a4bd
00000060: 4fa1 8c3d 3fd5 823d 066a 4b3d 749c 9c3c
00000070: c678 613d 6c27 ef3c afaf 9c3d 48e9 003d
00000080: 2e83 593d 39f8 b4bd 2736 1fbd 68aa 043d
00000090: abb3 66bd 706b afbd 5033 65bc 4339 983d
000000a0: 6c96 803c 4fcc 993d 0064 8eba ee72 233d
000000b0: 07dc b13d 00c9 513a 6072 e8bb e516 a13d
000000c0: 8d80 893d 2ee5 00bd 506a 1dbd f2a4 1a3d
000000d0: 894c abbd 6ef1 88bd 5f2a 9a3d aab4 80bd
000000e0: 5bd4 a43d 3247 1a3d f6f6 223d 6e54 b1bd
000000f0: 91b2 ae3d 00bd 4bba 1706 04bd e27e 193d
00000100: b483 acbc f0af e7bb 50df f8bb 86c7 5e3d
00000110: 8cfa b03c b813 923c 609e 62bb e0e3 d9bb
00000120: a758 5bbd f221 e3bc 910a 953d dc1a c7bc
00000130: 0e2b 1f3d f29b ffbc 80fa b2bc 503b d93c
00000140: 57df 893d 7070 8e3c 34cf 8dbd 2454 aabd
00000150: 264e 95bd 93f7 b23d 0017 2c3b 2ef1 97bd
00000160: 0064 963c ff05 8b3d f4b4 c9bc 1e90 723d
00000170: 861e 3d3d 6451 a3bd 5e1c 3b3d 50e1 98bb
00000180: 4f43 52bd 8441 bb3c 4827 67bd b21c 653d
00000190: 881c ebbc 7b03 8d3d 4026 a8bb 07de 9a3d
000001a0: 40d3 cb3b 3d85 0cbd 5029 c2bc 225a 333d
000001b0: f0e9 d4bb c0a7 d9bc beee 003d f8d8 59bd
000001c0: f858 80bd 3d1b aabd ec73 b2bc fc8a d73c
000001d0: 929d 463d 187d 8e3c 801a f43c e8a1 a2bd
000001e0: 622a 6b3d 24e8 bc3c 20e2 033c ef05 b2bd
000001f0: ad64 90bd 0001 8739 0052 90bc ea06 523d
00000200: c1af 8d3d 8b50 b43d 9862 3b3c f074 923c
00000210: 1067 d5bb af68 9f3d 8c4a 893c 04bd bf3c
00000220: 773f 993d caf5 513d 8672 edbc 6039 ffbc
00000230: 0022 613b d0bc ea3c 2cd1 37bd 8a1b 4bbd
00000240: 517c 44bd 60c9 5ebd 8051 d1bc 0050 88b9
00000250: 9079 ff3c 7223 f0bc ba12 413d b550 97bd
00000260: 9d2d 73bd c7dd ac3d 5854 2cbc 6084 94bc
00000270: c486 79bd 208a 9abd e8c5 913c e2eb f4bc
00000280: f026 673c 02b1 8abd 189c 92bd f3de a63d
00000290: c95a 823d 0722 6cbd 8805 7ebc 10e3 553c
000002a0: 9e84 5fbd 9be2 843d c05d 90bc 3cab 88bd
000002b0: 4050 c43c b492 a1bc 4a54 353d 1e90 023d
000002c0: 89b5 62bd b072 f4bb 48a9 343c 5d09 32bd
000002d0: ab08 973d a0bc 99bd 03cd 1fbd a0b8 56bd
000002e0: 500e e93b b8c5 f5bc 3078 af3b 10ed a0bd
000002f0: 3f44 9cbd 8a42 5b3d 80e1 c43a a59b 52bd
00000300: f092 b33c 20a4 b03c 1685 5f3d 53db 8cbd
00000310: 0032 d43b b593 88bd 1254 393d 6a36 4c3d
00000320: d0ab 8f3b 3f89 8c3d e8e1 80bc 8256 2d3d
00000330: e409 d13c 7875 0a3d aa29 9fbd d87b 46bc
00000340: 6403 e03c 008e 5bba 11ca 0bbd 1430 d8bc
00000350: 0e48 2a3d d855 173c 4c13 96bd 9135 06bd
00000360: 1720 953d 9e9f 4ebd a02e c9bb 1c8f adbd
00000370: aa0e 293d 3727 b33d 24d3 cdbc b319 20bd
00000380: fea1 1f3d af14 913d e3fc a8bd 5aac 3d3d
00000390: 0dcd 4abd baeb 613d 440c d3bc ec45 fa3c
000003a0: e059 923c c8f7 61bc c273 6bbd c0b3 b9bb
000003b0: 0bc9 58bd 0f15 833d c004 fbba c056 a9bb
000003c0: 54ea 9cbd 00de cab9 da42 323d b6b5 433d
000003d0: 128a 703d 8869 b3bc 427e 723d 8fc4 803d
000003e0: 6f1b a83d e0ab 05bb 0ef7 03bd 67f3 993d
000003f0: a7b9 953d 60e0 47bb 702e 98bd 2e95 b1bd
0.032769784 -0.034095906 0.0125769 -0.06490255 -0.046598766 0.020156592 0.051238574 -0.039995335
0.029906064 -0.074782155 0.015411638 -0.056782395 -0.023463845 -0.01614508 -0.07904887 0.08655278
0.08226574 -0.026522212 -0.018824711 0.04433479 -0.08060074 0.014550693 -0.00091552734 -0.08055131
0.06866705 0.0638833 0.04966166 0.019117571 0.05504682 0.029193603 0.076506965 0.031472474
0.05310362 -0.08836407 -0.038870003 0.032389075 -0.05632369 -0.08565414 -0.013989285 0.07432797
0.015696727 0.07509672 -0.0010863543 0.039904527 0.08684545 0.00080026686 -0.0070937127 0.07865695
0.06713972 -0.031468563 -0.038431466 0.03775496 -0.08364207 -0.06686674 0.07527613 -0.06284459
0.08048316 0.037665553 0.0397863 -0.08658682 0.085301526 -0.00077719986 -0.03223237 0.03747452
-0.021058895 -0.007070534 -0.0075949803 0.0543895 0.021603845 0.017831668 -0.0034579262 -0.0066494793
-0.053551342 -0.027726147 0.07277406 -0.0243048 0.03885942 -0.03120229 -0.021847963 0.02651754
0.06732052 0.017387599 -0.069242865 -0.0831683 -0.07290296 0.08738627 0.0026258826 -0.07419048
0.01835823 0.06788253 -0.024622418 0.059219472 0.046171688 -0.079745084 0.04568135 -0.004665531
-0.05133372 0.022858389 -0.056433946 0.05593557 -0.028700128 0.068854295 -0.005131513 0.075618796
0.0062202513 -0.034306753 -0.02370134 0.04378713 -0.006497614 -0.026569247 0.031477682 -0.053185433
-0.062669694 -0.083059765 -0.021783791 0.02631139 0.048490115 0.017393634 0.029797792 -0.079410374
0.057413466 0.023059912 0.008049518 -0.08692538 -0.070504524 0.00025749952 -0.017617226 0.051276125
0.06918288 0.08804425 0.011437081 0.017878026 -0.00651253 0.07783639 0.01675918 0.02340556
0.07482808 0.051259793 -0.028985273 -0.031155288 0.003435254 0.028654486 -0.044877216 -0.04958681
-0.04797012 -0.054391265 -0.025551558 -0.00025999546 0.031185895 -0.029313777 0.047137 -0.073884405
-0.059369672 0.08440738 -0.010518156 -0.018129528 -0.06091954 -0.075458765 0.017794564 -0.029897634
0.0141084045 -0.06772043 -0.07158679 0.08147993 0.06364972 -0.05764964 -0.015504248 0.013054624
-0.054569833 0.06488534 -0.017622828 -0.06673285 0.023964047 -0.019723274 0.044269837 0.031875722
-0.055348907 -0.007459961 0.011026688 -0.04346596 0.073747 -0.075066805 -0.039013874 -0.052422166
0.007112302 -0.030001506 0.0053549036 -0.07857716 -0.076302044 0.053530253 0.0015020818 -0.051417965
0.021920651 0.021562636 0.05457028 -0.0687777 0.006475687 -0.06668798 0.04524619 0.04985658
0.0043844953 0.06862115 -0.01573272 0.04231883 0.025517412 0.033803433 -0.07771619 -0.012114488
0.027345367 -0.00083753467 -0.034128252 -0.026390113 0.041572623 0.009236775 -0.07327899 -0.03276593
0.07281511 -0.05044519 -0.0061395913 -0.084745616 0.04127375 0.08747714 -0.025125094 -0.03908701
0.038972847 0.07084023 -0.08251359 0.046306945 -0.049511958 0.055156447 -0.025762685 0.03055092
0.017865121 -0.013791986 -0.057483442 -0.00566718 -0.052926105 0.06400501 -0.0019151196 -0.005167812
-0.07661882 -0.00038693845 0.043520786 0.047780715 0.058725424 -0.021900907 0.05920244 0.062874906
0.082083575 -0.0020396635 -0.03221803 0.075171284 0.07310801 -0.0030498728 -0.07430732 -0.08671032

default.encoder_fc.0.bias f4 [128]
00000000: 905e b83b 28fc 9abc 2065 9e3c 242e a7bd
00000010: 6b75 943d 4ac2 643d 0a95 523d e272 583d
00000020: 9156 8e3d 6797 863d 0a1b 19bd 94a7 21bd
00000030: 89c7 a83d b409 9f3c db5f a53d 5816 c63c
00000040: 80b7 213c 26d7 483d 0b65 ad3d d8af 25bd
00000050: a027 57bc 5ba6 98bd e736 a5bd c23a a6bd
00000060: 5f60 45bd f09d e23c d8dd 393c 0422 7fbd
00000070: 52b5 623d 0685 e4bc fe58 0e3d 8096 653a
00000080: 37f7 8b3d 3885 cbbc 4731 91bd 4d90 9d3d
00000090: 5634 7bbd 2bd3 a53d 1da1 b23d f8e1 8d3c
000000a0: 4d80 853d e353 36bd 0c50 093d e1f4 983d
000000b0: cffa 863d 4751 9abd a8a8 3fbd 145f 983c
000000c0: 785e 7ebc 5584 67bd 81a8 2ebd 557e b13d
000000d0: c703 59bd 36e5 83bd 1ace 483d 527b 433d
000000e0: 7694 9cbd d978 af3d 04e6 ca3c a993 ab3d
000000f0: 9e39 f6bc 3e94 693d b802 6a3c 07a9 8d3d
00000100: cca3 f73c 6cdd 07bd 50db 393c ae20 313d
00000110: 204d a0bb 7255 323d aefd 32bd 78dc 51bd
00000120: ea9c 30bd a660 62bd be92 40bd b1e1 adbd
00000130: 43b1 a53d a850 b0bc 2888 88bd 5239 603d
00000140: e09d b8bb 9367 4fbd 0c6b 973c 0428 a9bd
00000150: 02c3 373d 7705 ae3d 1389 32bd f83e 043d
00000160: f81a 9dbc 42ea 4a3d c883 6f3c 0403 2fbd
00000170: ecef a7bd 12c8 00bd c0aa 41bc 2e7e e7bc
00000180: cf19 90bd 425c 3c3d 64d7 153d 220f 573d
00000190: 881d 6a3c d5ff 923d 6651 393d bc45 42bd
000001a0: 3017 73bc f004 acbb 0e5d b3bd 97a4 9a3d
000001b0: 5068 7c3c ebb1 abbd 2328 803d c85a cc3c
000001c0: 8a1a 67bd 1a52 363d 6059 703c fb15 4fbd
000001d0: 69a9 adbd 9030 9dbb 40e1 9abd be4f 393d
000001e0: 4673 573d 11dc 92bd 3899 2b3c 008a 943c
000001f0: 80ca dfbc 9e93 7a3d fb85 38bd 2f99 ad3d
0.005626507 -0.018919066 0.01933533 -0.081630975 0.07248958 0.05584935 0.051411666 0.052843936
0.06950105 0.065718465 -0.037379302 -0.039466456 0.08241183 0.019413806 0.080749236 0.024180576
0.00987041 0.049033307 0.08466538 -0.0404509 -0.013132006 -0.07453605 -0.080671124 -0.08116676
-0.04818761 0.027663201 0.011344396 -0.0622883 0.0553487 -0.027895462 0.03475284 0.0008758083
0.06834262 -0.024843797 -0.07089477 0.07693539 -0.06132921 0.08096918 0.08722136 0.017319664
0.06518612 -0.044513594 0.033523604 0.07468582 0.06590807 -0.07535034 -0.046791703 0.018600024
-0.015525453 -0.056522686 -0.042641167 0.08666674 -0.052982118 -0.06440203 0.04902468 0.04772503
-0.07645504 0.08567972 0.024767883 0.08377773 -0.03005677 0.05702614 0.014282875 0.06917005
0.030229472 -0.03317015 0.011343792 0.043244056 -0.0048920065 0.04353852 -0.04369896 -0.051235646
-0.043118395 -0.055267952 -0.047014944 -0.08490313 0.080904506 -0.021522835 -0.06666595 0.054742165
-0.0056340545 -0.050635885 0.018483661 -0.082595855 0.04486371 0.08497136 -0.043587755 0.032286614
-0.019177899 0.049539812 0.014618821 -0.042727485 -0.08200058 -0.031440802 -0.011820495 -0.02825841
-0.070361726 0.04598642 0.036582366 0.052504666 0.014289267 0.07177702 0.045243643 -0.047429785
-0.014837071 -0.005249612 -0.08757983 0.07550924 0.015405729 -0.083835445 0.062576555 0.024945632
-0.056421794 0.044511892 0.014669746 -0.05055807 -0.08479578 -0.004797049 -0.07562494 0.045242064
0.052600168 -0.071708806 0.010473542 0.01813221 -0.02731824 0.061175935 -0.04504965 0.08476483

default.encoder_fc.3.weight f4 [128, 128]
00000000: ff07 81bd e731 40bd b840 103d 3867 b0bd
00000010: c479 f63c d47d 90bd 07f0 a23d e3f8 80bd
00000020: 88d2 73bc cba2 8b3d 2ec3 aabd 2f9b 9f3d
00000030: 609e ffbc 98d3 91bd 3329 8c3d a506 25bd
00000040: 1122 08bd 9811 5ebd 95a7 923d 1892 17bc
00000050: a61a 78bd 21e9 9dbd c072 c5bb b2bc 6b3d
00000060: 2a71 1c3d 003c 0bba dc9b 133d 28df 123d
00000070: a5a2 b2bd 710a 993d d844 a1bd 5d54 87bd
00000080: 40e8 d23c 80ab dd3a 0e84 673d ac7a a6bd
00000090: 37a9 2dbd 18d4 30bc fe5d 63bd 1070 9b3b
000000a0: f86e 22bc a7a2 a5bd 385d 49bc 9e5b 5f3d
000000b0: 20b4 ecbb a23a 773d 604b 6c3b 0058 b939
000000c0: acde acbc 52d3 283d c0c0 243c e465 ba3c
000000d0: 90a4 b8bb 00de 213a 9851 4a3c b277 2c3d
000000e0: 7850 78bd 50f0 3a3c de72 03bd 3a0f 91bd
000000f0: d4b7 b43c 92b5 543d 0048 253a b915 54bd
00000100: 26dd a1bd c011 a9ba 0484 95bc 4e45 64bd
00000110: d190 00bd ea68 7dbd 2cf4 57bd ee5f 323d
00000120: 03c6 b03d 700e 47bc d2b5 5d3d 7078 51bd
00000130: 0de5 893d f0a9 b0bc c0a1 b9ba bca9 ef3c
00000140: 53a2 ad3d 2ab3 503d 9ac2 743d c27f 7ebd
00000150: 671a 933d ae24 1c3d af24 a7bd 1823 7a3c
00000160: 86d6 433d 464a 143d 97fc 16bd 41b7 96bd
00000170: 8d06 aebd edc4 8a3d 7ac5 5e3d f05a d8bb
00000180: 20d8 7fbc b8d4 c23c 7067 eabb 0fa3 9a3d
00000190: 74b4 eabc 6851 30bc 8294 7a3d c022 d93a
000001a0: b0c1 a43c 506a 5c3c 8482 ccbc 1e2a 173d
000001b0: ec94 ea3c a600 653d 8056 a43a 4245 2c3d
000001c0: 5d52 03bd 50c0 abbd 47fd a4bd c026 90bb
000001d0: 5c2c b23c 11cd 9e3d 04d8 9e3c 1c1a dd3c
000001e0: 281f 45bc 2ab6 85bd e839 ab3c 6be5 14bd
000001f0: e459 89bd a8f1 b93c 034e 923d 008f ae3a
00000200: 407d 7e3c 9cf1 9cbc bf40 04bd 325f 623d
00000210: 202c 88bc 1830 303c 36a8 373d 9f8d 3dbd
00000220: 1b3c 843d d56b 84bd 0a61 8cbd 8075 ab3b
00000230: d643 713d 3f5b 85bd 4a1f 703d dbd7 09bd
00000240: 8eea 7f3d 6463 aabc 51d1 82bd c2d7 213d
00000250: d0b9 943c bd51 a73d 5abf d8bc e547 4ebd
00000260: 3b36 973d e5f1 6ebd 5cb0 813c f87d 74bc
00000270: 207a 39bc 46b1 013d 5411 853c fa45 313d
00000280: ee5b 283d 3fb0 a43d 606b 653c 305e 99bb
00000290: 7050 57bc 1a6c 333d 64b2 963c 057f 93bd
000002a0: 35d1 a23d 768e 753d 081d 3fbc 1c18 94bc
000002b0: 7667 513d f505 06bd c507 8c3d 2849 4e3c
000002c0: a287 773d 385b b13c 1173 9c3d 46e7 7a3d
000002d0: 342f 67bd 844d 4ebd 3876 89bd 804c 3b3c
000002e0: f084 98bd ab5f 9d3d 4810 4cbc 6c02 81bd
000002f0: 2aef 8dbd a7fc 853d d253 32bd 7a56 643d
00000300: f5cf 943d 2ad2 98bd 05b6 53bd 2ad6 593d
00000310: 0edb 393d b685 6c3d ec90 883c 383c 23bd
00000320: 2ecf 523d d31b 38bd 2a26 513d 609e ca3c
00000330: 8050 a2bb a0e4 ca3b d9d1 9e3d 9490 62bd
00000340: dce4 ac3c 1e84 5e3d 8030 71ba d0d4 173c
00000350: cca7 d83c 5c7d 8bbc 809d 1bbd 0a3f 333d
00000360: 1a3e 523d e070 84bb 8ac1 98bd a073 a7bb
00000370: b3bc ac3d c004 ccbb 782a 823c 407e 353c
00000380: b858 02bc 00a3 feb9 522a 6f3d e22b 7b3d
00000390: 7eb0 473d a038 053d 030d 8c3d 6018 75bc
000003a0: 80d4 e93c c40b 92bd 9af2 f0bc e83e 5b3c
000003b0: f671 1e3d 7007 e83c 5c59 843c 3248 203d
000003c0: b0c6 f93b 3059 76bc b9cb a43d bff2 a83d
000003d0: 0bbd 853d 2922 ad3d 8b8a a73d 1bc4 0abd
000003e0: cc6b 38bd 718f aabd 92e1 87bd ea16 3bbd
000003f0: 26d6 64bd 3678 683d 4008 fe3c 40c4 32bb
-0.06300353 -0.04692259 0.03521797 -0.086134374 0.03008736 -0.0705525 0.07955938 -0.062974714
-0.0148817375 0.0681816 -0.08338009 0.07793271 -0.031203449 -0.071204364 0.068437956 -0.04028954
-0.033235613 -0.054215997 0.0716087 -0.00925114 -0.06057229 -0.077104814 -0.006025642 0.057553
0.03819386 -0.000531137 0.03603731 0.03585735 -0.08722428 0.07472695 -0.07874459 -0.06607888
0.025745511 0.0016912073 0.05652242 -0.081288666 -0.042397704 -0.010792755 -0.05550956 0.0047435835
-0.009914152 -0.08087664 -0.0122902915 0.054530732 -0.007223621 0.06035865 0.003605567 0.00035351515
-0.021102272 0.041217156 0.010055721 0.022753663 -0.0056348518 0.0006174743 0.012348555 0.042106338
-0.060623616 0.011409834 -0.032091968 -0.07082982 0.022060312 0.05193097 0.00063049793 -0.05177853
-0.07903509 -0.0012898967 -0.018251427 -0.055730157 -0.031388108 -0.061867632 -0.052723095 0.043548517
0.08631518 -0.012149438 0.054128475 -0.05114025 0.06733141 -0.021565408 -0.0014162585 0.02925574
0.084782265 0.050952114 0.0597559 -0.062133558 0.0718277 0.038120918 -0.08161294 0.015267156
0.047812007 0.036203645 -0.036861982 -0.07359172 -0.08497343 0.06775842 0.054387547 -0.0066026375
-0.015615493 0.023783073 -0.007153444 0.07550632 -0.0286505 -0.010761596 0.061176784 0.0016566142
0.020111889 0.013453081 -0.024964578 0.0369054 0.028635465 0.05590882 0.0012537986 0.042058237
-0.03206097 -0.0838629 -0.08056121 -0.0043991506 0.021749668 0.07753957 0.019390114 0.026989989
-0.012031354 -0.06528886 0.020901635 -0.036351603 -0.067065984 0.022698238 0.07143786 0.0013317764
0.015532792 -0.019158177 -0.03228831 0.055266567 -0.016622603 0.010753654 0.044838153 -0.04627764
0.06456777 -0.0646588 -0.06854446 0.005232513 0.058902584 -0.065115444 0.05862359 -0.03365312
0.06247955 -0.020799346 -0.0638758 0.039512403 0.018155009 0.08169887 -0.026458431 -0.050361533
0.073833905 -0.058336157 0.015831165 -0.014922611 -0.011320621 0.0316632 0.016243614 0.043279625
0.041103296 0.08041429 0.014002651 -0.0046804175 -0.013141736 0.043804266 0.01839561 -0.072019614
0.07950059 0.059950314 -0.011664636 -0.018077902 0.05112406 -0.032720525 0.068374194 0.012590684
0.060432084 0.021649942 0.07639135 0.061255716 -0.0564415 -0.050366893 -0.067120016 0.011431813
-0.07447231 0.07684263 -0.012455054 -0.0629929 -0.069303825 0.0654233 -0.04353697 0.055746533
0.07266227 -0.074619606 -0.05168726 0.05318276 0.045374922 0.057744704 0.016670667 -0.03985235
0.051467113 -0.04494841 0.051061787 0.024733722 -0.004953444 0.006191805 0.07754869 -0.05531366
0.021105222 0.054325216 -0.00092006475 0.009267047 0.0264472 -0.01702755 -0.037992 0.04376129
0.051328756 -0.004041776 -0.0745879 -0.005110219 0.08434429 -0.006226152 0.015889391 0.011077464
-0.0079557225 -0.000485681 0.05838997 0.061321147 0.0487523 0.032524705 0.06838419 -0.014959425
0.02854371 -0.0713115 -0.029412556 0.013381697 0.0386829 0.028323859 0.016155891 0.03913135
0.0076225623 -0.015035912 0.080466695 0.08249425 0.06530198 0.08453781 0.08180722 -0.033878427
-0.045024678 -0.083281405 -0.06634821 -0.04567615 -0.05586829 0.056755267 0.031009793 -0.0027277619

default.encoder_fc.3.bias f4 [128]
00000000: ecdf 8dbc 0657 4f3d a54a 67bd ff24 843d
00000010: 2ac2 d7bc b3d3 8e3d 40d9 4fbc 8aa7 183d
00000020: 146e 11bd bc3e b9bc da0d 84bd e8b2 8a3c
00000030: 70bf 1cbd 6005 92bc 40b4 e13b 3543 903d
00000040: 71fb 55bd 93c6 a43d 081d ec3c f216 543d
00000050: 5801 cebc 6852 25bd 0f65 aebd 3df0 893d
00000060: d3a1 963d b57c a6bd 232f 913d c0fc f8bb
00000070: 104e e03c 3507 ad3d fa66 703d e68f 323d
00000080: c048 053d 2a55 483d 4c91 8d3c 3877 75bd
00000090: bd1f ab3d b42d e73c 2468 b0bd 721d ffbc
000000a0: 2985 b13d 8fed 8d3d 90d2 e8bb 819d 03bd
000000b0: 6198 abbd e0eb af3c 8ab4 173d 1636 413d
000000c0: d80f a3bc 0f74 8a3d 9e45 7a3d a028 1e3c
000000d0: 4057 bebc 0165 943d d67b 1c3d 374a 9abd
000000e0: 5072 21bc 61c0 873d 422f 083d c4f4 dbbc
000000f0: adeb ae3d c0c8 b8ba 4547 5ebd b66b 1b3d
00000100: b2bd 333d 1879 903c 3b01 a73d 9de7 b13d
00000110: fee1 003d 38d8 263c 351f af3d b0f8 c4bb
00000120: cdc2 8b3d 8002 29bb 146a e93c e06e 813c
00000130: a37a 16bd cdfa a43d a8bd 17bc 1fab 993d
00000140: d088 9fbd adaf 873d b4e0 9f3c 7652 793d
00000150: dca4 1fbd ffac 5fbd c75f a53d 0a43 2dbd
00000160: f4fa ce3c fc63 9ebc 964f 3a3d 240d e03c
00000170: b036 9d3c 944c 89bd 944d 90bc b059 a43c
00000180: 881d 403c 2a68 f0bc 5ec4 4cbd f2a9 613d
00000190: ecac 8dbc 5a04 263d 1e30 743d c753 9b3d
000001a0: dc44 f63c 71d0 2fbd ef44 b23d 8ea2 3b3d
000001b0: 4002 86bd 6e10 4c3d 447e b3bd b04a 233c
000001c0: 8d41 a43d a37a 01bd fc49 3fbd e2d2 72bd
000001d0: 50ac 8c3b 0683 173d b6b5 763d 2486 893c
000001e0: 355d 933d 6abb b4bd 9422 92bd feef 94bd
000001f0: 1339 abbd 83cb a53d 800d 113d 364f 143d
-0.017318688 0.0506201 -0.05646767 0.06452369 -0.026337702 0.06973972 -0.012686074 0.037269153
-0.03550537 -0.022612922 -0.064479545 0.016931012 -0.038268507 -0.017824829 0.0068879426 0.07044069
-0.052241746 0.080456875 0.028822437 0.051779695 -0.025147125 -0.04036179 -0.08515369 0.06735275
0.07355084 -0.08129255 0.07089069 -0.0075984895 0.027380973 0.0844864 0.058691956 0.043594263
0.032540083 0.048909344 0.017281197 -0.05992815 0.08355663 0.028220035 -0.08613613 -0.03114197
0.086679764 0.06930076 -0.007105179 -0.03213263 -0.08378673 0.021474779 0.03703741 0.04717072
-0.019905016 0.06760418 0.06110155 0.00965324 -0.023234963 0.072458275 0.038204037 -0.075336866
-0.009853914 0.0662849 0.033248194 -0.026850112 0.08541045 -0.0014097914 -0.054267187 0.037944518
0.04388208 0.017635867 0.081545316 0.08686755 0.031465523 0.0101833865 0.08550874 -0.006011091
0.06824265 -0.0025788844 0.028492965 0.01579994 -0.03673805 0.08055649 -0.009261526 0.07503342
-0.07789767 0.06625304 0.019516326 0.060869657 -0.03897558 -0.05460834 0.08074909 -0.04230026
0.025266148 -0.019334786 0.045486055 0.027350016 0.019191116 -0.06704059 -0.017615117 0.020062298
0.011725791 -0.029346544 -0.049991958 0.055093713 -0.01729437 0.040531494 0.0596162 0.07584339
0.030062132 -0.042923395 0.08704554 0.04580932 -0.06543398 0.049820356 -0.08764318 0.009966537
0.08020315 -0.031611096 -0.046701416 -0.059283145 0.004293002 0.036990188 0.060231887 0.016787596
0.07195512 -0.08824809 -0.071355015 -0.072723374 -0.083604954 0.080954574 0.035413265 0.036208354

default.mean_encoder.weight f4 [10, 128]
00000000: 4cc0 0b3e 15e7 b63d 01cc 893c 71a9 e13c
00000010: 052b 203c c890 b6bd 1b80 843c 1ea4 ad3d
00000020: 45c9 293c 15c2 c7bd aa62 7c3d a25f e23d
00000030: 7eca 7dbd c53a 1e3e b348 fa3c 1242 9fbd
00000040: 95e0 be3d b6d9 9bbd 0f09 8e3c 165c e93c
00000050: 3f53 673d 23b2 c23d b1d5 f0bd 016b 2f3d
00000060: f3ba 8a3d ed20 043e ba49 27bd 4bb2 d13c
00000070: bf02 96bd 44b3 37bd 13be afbc 3fda e13d
00000080: 4682 85bd 0410 3b3d 59b0 e0bd bbfc 90bc
00000090: 7ad9 2ebd a995 86b9 8f3f ab3c 822a 993d
000000a0: 4418 f8bd 175f 2b3d 1b8a a53c 8e5f e53d
000000b0: 0783 893d a1f3 01be bd3f 2a3d ddec 3e3d
000000c0: bf1f bbbd f4a9 713c f07d 8a3d c1d5 5ebd
000000d0: 4127 403d 5ac1 8bbc 93dd 8cbd 328e f53c
000000e0: e9d3 823d 4b00 9ebd 2044 eebc a902 48bd
000000f0: f8b3 28bd de05 35bd 6a2c 16bd deb9 e1bd
00000100: 75d2 663d fccf 75bc e418 cd3c a4d4 acbd
00000110: ebd8 06bb 2038 4cbd 36e9 80bd 4276 10be
00000120: 2be3 913d 246d 743d c9c4 0cbe 58c5 c53d
00000130: 1881 c43d f834 bdbd ff8c b43d 8896 e23c
00000140: d5b0 11be 0072 fb3c 3c00 efbc 4f36 c5bd
00000150: a885 e2bd 598c c73d f05c 3fbd 9c21 9e3c
00000160: 4b83 b23d c627 823d 74c3 2cbc e343 b7bd
00000170: 6eb0 85bc 3f02 663d 7dd5 b63b 3b4c ad3d
00000180: 3f43 02be ac1b 7abc 4822 b93d 4f03 933c
00000190: 71d0 95bc 6a11 b73c c303 a43d f694 0a3d
000001a0: 6c14 b83c 2938 273d d152 093e 8f46 dfbd
000001b0: 6a9b 1d3e 4312 17bd 84f4 84bd 19b5 193c
000001c0: 2827 b8bc e729 683d d787 c0bd 6b89 81bc
000001d0: 0e7c 81bd 5f93 f9bc 4306 bebd 6c12 2f3d
000001e0: beb0 97bd bd9e 953c 8a9f 8d3c 5c36 c03d
000001f0: 9cf4 9e3d f11f ec3d d27a 28bd a87d b33d
00000200: 1bf3 813c a3d8 cc3d 86ec e0bc 594f 43bd
00000210: aa4e a83b 3bc2 e7bd cbbc d43c fb41 3a3d
00000220: b836 b63d 3513 e1bd ccbc 5cbd 0818 2b3b
00000230: 41bb b03c 6fa1 af3d 60c8 893d e6cc 48bd
00000240: 002c 8a3b c31c 34bd 5015 df3d b2b7 9ebc
00000250: 84cf 88bc 1fd3 4f3c 6408 033d 2432 e03c
00000260: 9e70 f33d b5c1 babc 8996 2a3d 9fed 51bd
00000270: b43b 8a3b 7906 1b3c e6d2 a2bd 98c0 c63a
00000280: 7b0f 3dbc 176c 57bd f3e9 213d 1988 8c3d
00000290: d270 9ebd 50bc e83d b8d1 e73d 8b69 8d3d
000002a0: ea0c 903d 7150 4d3d d7fd ad3d 3945 1ebc
000002b0: 86e4 0c3c b1c8 16be bfc0 94bc 42c7 953c
000002c0: bef6 91bd 89ac 0dbd c8a5 013d e441 af3b
000002d0: 4f51 89bc 620c 2d3d 42ca e03d 7fae 0ebc
000002e0: a82e babd 4066 3cbd d82e ecbb a875 79bd
000002f0: e74d 3dbd 414c 11be d3a5 49bb b748 4abc
00000300: 7c66 bebd 2c22 fd3a a54e fc3c ec68 b0bd
00000310: 8ec8 a2bc 40ff a03d 4aee b8bc d4de 19bd
00000320: f8dd 33bc fac1 833d 9f73 2b3d 00e0 2abc
00000330: 8c6c 20bd cdab a9bc 480f fe3d ba43 8b3d
00000340: 3ecd 1cbe 7df9 e8bc a8c9 1ebe 0a81 6bbc
00000350: ddcc b13c 4104 7bbd 6eb8 33bc f058 de3d
00000360: 7bc2 373d 103b fd3d 094c 913d a5fd 5cbd
00000370: 4305 013e c99d 92bd 6022 0abe 6554 9e3d
00000380: 7235 2e3d 66be a53d 8292 ad39 399f 093d
00000390: 0400 4cbb 95f5 f53d 9c73 57bd 53f5 bbbc
000003a0: 3a3e 1ebc 0947 b73d 531d 313c 3a4f 963c
000003b0: 7e9d cbbd e7c9 0f3d 7085 3b3d b278 b9bb
000003c0: 9e9c 8fbd 28c2 aebc 8528 7e39 d7e9 ae3d
000003d0: c905 a63d f645 4abd 067f cdbd 0784 293d
000003e0: 5421 283c 51c7 39be ae74 893d b7f6 70bd
000003f0: 7db4 a5bd 3a01 3a3d ebb4 713d 57eb 683c
0.13647574 0.08930794 0.01682091 0.027546616 0.009775882 -0.089143336 0.016174367 0.084785685
0.010362928 -0.09753815 0.06161753 0.11053397 -0.06196069 0.15452106 0.030552244 -0.07776274
0.093201794 -0.076098844 0.017338304 0.028486293 0.056475874 0.09506633 -0.117595084 0.042826656
0.06773939 0.12903185 -0.040841796 0.025597712 -0.073247425 -0.044848695 -0.02145294 0.11027955
-0.06518988 0.04566957 -0.10971136 -0.017698636 -0.04268787 -0.00025669977 0.02090433 0.07478811
-0.12114003 0.04183873 0.020207455 0.11199866 0.067144446 -0.12690593 0.04156469 0.04661261
-0.091369145 0.014749993 0.06762302 -0.05440307 0.046912435 -0.01705997 -0.068781994 0.02997503
0.06388075 -0.077149 -0.029085219 -0.048830662 -0.041187257 -0.04419505 -0.03666345 -0.110217795
0.05635305 -0.015003201 0.025036283 -0.084389955 -0.002057607 -0.049858212 -0.062944815 -0.14107612
0.07123407 0.059674397 -0.13746943 0.09656781 0.09594935 -0.092386186 0.08815955 0.02765967
-0.14227612 0.030694008 -0.029174916 -0.09629499 -0.11060649 0.09743566 -0.04671949 0.019303136
0.087164484 0.063552424 -0.0105446465 -0.08948495 -0.01631948 0.056154486 0.005579649 0.084618054
-0.12720965 -0.015265387 0.09039742 0.017945914 -0.01828787 0.02234717 0.0800853 0.033833466
0.022470675 0.040825043 0.13410498 -0.1090213 0.15391317 -0.03688265 -0.0649195 0.009381556
-0.022479609 0.056680586 -0.094009094 -0.015812596 -0.0632249 -0.03046578 -0.09278538 0.042742178
-0.07406758 0.018264169 0.017287988 0.09385368 0.07761499 0.1152953 -0.041132756 0.087642014
0.015862992 0.10002258 -0.027456533 -0.047683094 0.0051363306 -0.113163434 0.02596893 0.04547308
0.088971555 -0.109899916 -0.05389099 0.0026106853 0.021573665 0.08575713 0.067276716 -0.04902353
0.004216671 -0.04397274 0.10892737 -0.019374702 -0.016700514 0.012684613 0.031990424 0.027367659
0.118867144 -0.022797445 0.041647468 -0.051252004 0.004218543 0.009461992 -0.07950382 0.0015163599
-0.011539335 -0.052593317 0.039529752 0.06861896 -0.077363625 0.11364043 0.113192976 0.06904896
0.07033713 0.050125543 0.08495682 -0.009660059 0.008599406 -0.14724995 -0.018158315 0.01828349
-0.071271405 -0.03458837 0.031652242 0.005348431 -0.016762404 0.042248137 0.109760776 -0.008708595
-0.0909093 -0.04599595 -0.0072077326 -0.06090322 -0.04621687 -0.14189245 -0.0030769005 -0.012346438
-0.09296891 0.0019312552 0.03079922 -0.08613762 -0.019871023 0.07861185 -0.022574563 -0.03756602
-0.010978214 0.064334825 0.04185831 -0.010429382 -0.03916602 -0.020711804 0.124052584 0.06800027
-0.15312669 -0.028439278 -0.15506613 -0.014374027 0.021704132 -0.061283354 -0.010969264 0.10856807
0.044863205 0.12364781 0.07094581 -0.05395283 0.12599663 -0.071590014 -0.13489676 0.07730941
0.04253144 0.08092956 0.00033106288 0.033599112 -0.003112794 0.12009732 -0.052600488 -0.022944128
-0.009658391 0.08949096 0.010810214 0.018348325 -0.099421486 0.03510466 0.045781553 -0.00566014
-0.07012294 -0.021332815 0.00024238422 0.08540695 0.08106572 -0.049383126 -0.100339934 0.041385677
0.010261852 -0.1814244 0.06711708 -0.058829036 -0.08091066 0.045411326 0.059010427 0.014216266

default.mean_encoder.bias f4 [10]
00000000: 7fe3 d8bc ce55 103e 366e 973d 7e0b 173e
00000010: 00fd d1bd 26e3 113e 0f29 cd3c f29a a43d
00000020: 268c 71bc 7683 3b3e
-0.026475666 0.14095232 0.07394068 0.14750478 -0.10253334 0.14246807 0.025043992 0.08037366
-0.014742887 0.18311867
