models/mnist-relaxed1E/encoder_z2_z1_-3763521829053186460.pt (torch_old, 89061 bytes, 9 tensors)

default.df_val.weight f4 [1, 128]
-0.1553744 -0.093370445 -0.0351581 0.047417622 -0.15778597 -0.16910563 -0.085868746 -0.0010492675
-0.13537148 -0.023855189 -0.0060682823 -0.05135722 -0.20218648 -0.11694923 0.13033096 0.3088064
0.104297794 0.15343983 0.11251449 -0.14358349 -0.112854116 0.0010768183 -0.09263729 0.1513152
0.1359699 0.051650677 0.094694 -0.12095473 -0.17372091 0.1603823 -0.10825408 -0.16141951
0.020967562 -0.015769925 0.077906795 0.18069841 -0.18508743 0.098389454 0.14885357 0.04404246
-0.085825175 -0.14833754 -0.14015311 -0.047817267 -0.04485386 0.09277711 0.14912146 0.102559365
-0.16660516 -0.023483664 -0.19451372 0.15252523 0.12514582 0.031695124 -0.08337599 0.0999785
0.092625834 -0.13474353 0.037107676 0.1269669 -0.10951813 0.032841515 0.09015118 0.1757766
-0.20996024 0.110141866 -0.043145686 0.06416692 -0.07378134 -0.121241115 0.04399358 -0.17061615
0.11727236 -0.19964355 -0.04038774 -0.096615285 -0.13838522 -0.12855408 0.16251469 0.112300076
-0.2502612 0.10543392 -0.07464985 -0.08799962 -0.050706986 -0.063605845 -0.084599234 0.21879293
-0.10659879 -0.009321485 0.05529375 0.15265064 0.18933012 0.17696208 0.14396656 0.11489144
-0.17440638 0.17804986 -0.13406833 0.10360079 0.12528586 -0.1373981 -0.03665658 -0.020824108
-0.05350434 -0.09931459 -0.02637777 0.09340304 -0.17722537 -0.088230394 -0.082314454 0.10986404
0.12232672 -0.13811918 -0.1609961 0.05765818 0.07755643 0.025924983 0.11741257 0.15466154
0.06708391 0.120264806 -0.052205786 -0.097088315 -0.09885137 0.099821255 -0.1286198 -0.10676515
00000000: 771a 1fbe 0139 bfbd f101 10bd fb38 423d
00000010: a592 21be 072a 2dbe f4db afbd 9387 89ba
00000020: d29e 0abe f56b c3bc 71d8 c6bb f35b 52bd
00000030: f909 4fbe 1483 efbd 7b75 053e df1b 9e3e
00000040: 159a d53d 551f 1d3e ff6d e63d 8d07 13be
00000050: 0f20 e7bd 0724 8d3a 9fb8 bdbd 5ff2 1a3e
00000060: b23b 0b3e a98f 533d eeee c13d 1db7 f7bd
00000070: e5e3 31be 423b 243e 51b4 ddbd 284b 25be
00000080: 2ac4 ab3c ee2f 81bc 998d 9f3d 0109 393e
00000090: 8f87 3dbe 6980 c93d 126d 183e de65 343d
000000a0: 1cc5 afbd cce5 17be 4c84 0fbe 0adc 43bd
000000b0: aeb8 37bd ed01 be3d 4cb3 183e a50a d23d
000000c0: 8b9a 2abe d060 c0bc 9b2e 47be 932f 1c3e
000000d0: 3a26 003e bfd2 013d 08c1 aabd 87c1 cc3d
000000e0: 9db2 bd3d 35fa 09be 38fe 173d 9c03 023e
000000f0: 0b4b e0bd d384 063d 2fa1 b83d c8fe 333e
00000100: d1ff 56be 0f92 e13d 88b9 30bd f269 833d
00000110: ac1a 97bd 434d f8bd 9d32 343d 00b6 2ebe
00000120: 7e2c f03d 5c6f 4cbe 9d6d 25bd 3cde c5bd
00000130: dbb4 0dbe aea3 03be 406a 263e 95fd e53d
00000140: 3c22 80be bded d73d 05e2 98bd 2539 b4bd
00000150: 21b2 4fbd c843 82bd 5d42 adbd 410b 603e
00000160: 7750 dabd 24b9 18bc b37b 623d 7350 1c3e
00000170: c1df 413e 8c35 353e f86b 133e 344c eb3d
00000180: 9697 32be b452 363e 3549 09be a72c d43d
00000190: f04a 003e 16b2 0cbe 3625 16bd 5297 aabc
000001a0: 5e27 5bbd 7365 cbbd 3116 d8bc 184a bf3d
000001b0: 917a 35be 23b2 b4bd 7b94 a8bd 6600 e13d
000001c0: 6e86 fa3d 1d6f 0dbe 29dc 24be fc2a 6c3d
000001d0: e8d5 9e3d a160 d43c 0076 f03d 985f 1e3e
000001e0: 4a63 893d 654d f63d bcd5 55bd 3dd6 c6bd
000001f0: 9672 cabd 166f cc3d e9b4 03be b0a7 dabd

default.encoder.to_hidden.weight f4 [128, 19]
0.009565923 -0.10924229 -0.03731352 0.099628426 -0.04244268 -0.0679493 -0.16124067 0.1007843
0.107879385 -0.04927291 -0.47871384 0.64770424 -0.09639051 -0.40538627 0.12601827 -0.06584096
-0.14482504 -0.04256591 -0.054865036 0.076306805 -0.026841514 0.0137076555 -0.05199085 -0.045292545
0.060039368 -0.11817454 -0.0040808627 0.07982491 0.09353274 -0.44401103 0.603397 -0.042605788
-0.3638253 0.042691022 -0.32494068 -0.25000516 0.45725626 -0.17779143 0.09916171 -0.062251892
-0.09591748 -0.13718306 0.15192415 0.0478787 0.019565944 0.13127565 -0.04667079 -0.102850765
0.05343116 -0.20811576 0.07875359 0.17424703 0.18997501 0.25128922 0.09649187 -0.06611441
0.026699703 0.011074559 -0.13491832 0.006452951 -0.14681543 0.18595827 -0.1431344 0.07678888
-0.1703956 -0.15472834 0.09107584 0.0071734693 0.17311184 -0.23962285 -0.058780517 -0.09712901
0.13764791 -0.19148812 0.1441128 0.14104591 0.2443558 0.015816612 -0.109300226 -0.1337203
0.14588672 0.0637574 0.012635583 0.117099166 -0.1324834 0.028366227 0.056518067 -0.44821656
-0.32033616 0.5637705 -0.077735156 0.04456659 0.4429291 -0.43513572 -0.09170064 0.04322809
-0.08016714 -0.11907264 0.0726997 -0.07510839 -0.049867913 0.15892228 0.11021649 0.11650736
-0.005396774 -0.006922797 -0.18915913 0.13539593 0.09976164 -0.22797044 0.28903323 -0.0023138982
-0.074665084 0.014535342 0.06136842 0.1672919 0.069408886 -0.038266983 0.16299295 0.0015708975
0.03531279 -0.15416116 -0.0018540164 0.08398103 0.4186157 -0.14560227 0.37578002 -0.12481224
0.24878655 0.03869141 -0.34370452 -0.05097247 -0.04226211 0.18107852 -0.09001791 -0.13289934
-0.044806723 -0.04221635 0.04090849 -0.0077051017 0.032127965 -0.006576544 -0.02735901 -0.123973206
0.21102807 -0.26800287 0.11369034 0.07829231 -0.18537115 -0.06202107 0.11785182 0.03422239
-0.01698088 -0.03537808 0.037467528 0.08983409 0.0014340609 0.068070404 -0.031056315 -0.0022019064
-0.00059591257 0.018328637 0.2859656 0.31027856 0.056792405 0.049940214 0.0011704941 0.012276655
0.211694 -0.046111505 0.14312261 0.10395241 0.12117877 -0.08380394 0.048195906 0.041064084
-0.07293068 -0.16197348 -0.06554343 0.065395094 -0.049939588 0.19850188 0.088748805 0.15424414
-0.118516 -0.036780745 -0.2926589 0.14018874 0.04634806 -0.13365157 0.05357107 -0.07200272
0.027183069 0.07998306 0.06167664 -0.01875143 -0.04866683 0.012514972 0.10676467 -0.0046293084
0.18202515 -0.3070621 0.19114143 -0.13176863 0.1897535 -0.09091861 -0.059140127 -0.0029849303
-0.05384471 -0.023684088 0.027182538 -0.0037175212 -0.04256118 -0.15978996 -0.16185613 0.12108442
0.08989546 -0.007279096 0.0214192 0.040069427 0.41951883 0.27887696 -0.3094295 0.01832979
-0.22810681 0.00075962255 0.105020605 -0.057095937 -0.10716727 0.23613462 0.0142471455 -0.16846274
-0.08423865 -0.04334813 0.12226792 0.06319835 -0.07542748 0.041408177 0.17506097 -0.057684913
0.46505484 -0.5236685 -0.17503642 0.09027898 0.009177434 0.16826524 -0.012221491 -0.018879395
-0.039767977 0.049799312 0.13120613 -0.08678702 0.07842952 -0.013138841 -0.09573562 0.043842785
00000000: 64ba 1c3c 6cba dfbd 10d6 18bd fd09 cc3d
00000010: 60d8 2dbd 0129 8bbd 461c 25be 0068 ce3d
00000020: deef dc3d 64d2 49bd fb19 f5be f2cf 253f
00000030: 6368 c5bd ca8e cfbe ef0a 013e a0d7 86bd
00000040: 044d 14be 9759 2ebd 29ba 60bd be46 9c3d
00000050: bce2 dbbc 1396 603c 5cf4 54bd ad84 39bd
00000060: d7eb 753d 7e05 f2bd c2b8 85bb 3e7b a33d
00000070: 188e bf3d 6a55 e3be 3a78 1a3f 6883 2ebd
00000080: 4f47 babe c8dc 2e3d a05e a6be ad00 80be
00000090: 7e1d ea3e f50e 36be 4b15 cb3d d7fb 7ebd
000000a0: 6270 c4bd b779 0cbe 0192 1b3e 751c 443d
000000b0: c248 a03c 206d 063e df29 3fbd 6ca3 d2bd
000000c0: a2da 5a3d 4c1c 55be 9049 a13d d06d 323e
000000d0: cf88 423e fba8 803e 889d c53d fe66 87bd
000000e0: 56b9 da3c 1172 353c 0728 0abe 4773 d33b
000000f0: c956 16be d86b 3e3e d391 12be 7d43 9d3d
00000100: 2f7c 2ebe 1b71 1ebe f885 ba3d 6c0f eb3b
00000110: 3b44 313e b15f 75be d7c3 70bd 93eb c6bd
00000120: 93f3 0c3e 7615 44be 4e92 133e 576e 103e
00000130: 6838 7a3e d791 813c ccd8 dfbd f9ed 08be
00000140: 5463 153e 3d93 823d 7a05 4f3c b0d1 ef3d
00000150: baa9 07be 4a60 e83c 7d7f 673d a47c e5be
00000160: 1a03 a4be 4353 103f 9c33 9fbd 758b 363d
00000170: 9ac7 e23e 1cca debe 8ccd bbbd f00f 313d
00000180: ab2e a4bd 5bdc f3bd 95e3 943d 6dd2 99bd
00000190: 4c42 4cbd 86bc 223e 2fb9 e13d 699b ee3d
000001a0: 6cd7 b0bb a1d8 e2bb eeb2 41be 3ba5 0a3e
000001b0: d54f cc3d 1571 69be 2afc 933e c5a4 17bb
000001c0: 02ea 98bd a525 6e3c 745d 7b3d 914e 2b3e
000001d0: 3f26 8e3d d7bd 1cbd a0e7 263e 93e6 cd3a
000001e0: 25a4 103d 6cdc 1dbe 7802 f3ba 3ffe ab3d
000001f0: cc54 d63e c318 15be 3d66 c03e 8f9d ffbd
00000200: e7c1 7e3e e27a 1e3d 0afa afbe 82c8 50bd
00000210: 091b 2dbd a66c 393e 4f5b b8bd c416 08be
00000220: 4187 37bd 0deb 2cbd a98f 273d 147b fcbb
00000230: 9d98 033d 0d80 d7bb 0120 e0bc aae5 fdbd
00000240: be17 583e ac37 89be 7bd6 e83d b857 a03d
00000250: efd1 3dbe ce09 7ebd 4c5c f13d c72c 0c3d
00000260: 7d1b 8bbc 9be8 10bd 8d77 193d effa b73d
00000270: 19f7 bb3a 7f68 8b3d d069 febc dc4d 10bb
00000280: 0437 1cba f025 963c 156a 923e d5dc 9e3e
00000290: 279f 683d 1c8e 4c3d 446b 993a 0624 493c
000002a0: 50c6 583e 6bdf 3cbd bc8e 123e 00e5 d43d
000002b0: 932c f83d 66a1 abbd 1269 453d d032 283d
000002c0: ae5c 95bd 60dc 25be a23b 86bd dded 853d
000002d0: 748d 4cbd 1444 4b3e efc1 b53d 2df2 1d3e
000002e0: 84b8 f2bd 68a7 16bd 63d7 95be a38d 0f3e
000002f0: 77d7 3d3d f5db 08be 576d 5b3d 2976 93bd
00000300: 07af de3c 29ce a33d a5a0 7c3d 999c 99bc
00000310: df56 47bd 990b 4d3c 6fa7 da3d 74b1 97bb
00000320: cd64 3a3e 3e37 9dbe 94ba 433e 5bee 06be
00000330: be4e 423e 8933 babd eb3c 72bd d29e 43bb
00000340: 458c 5cbd 2205 c2bc eaad de3c a8a1 73bb
00000350: a254 2ebd fb9f 23be 9dbd 25be 1cfb f73d
00000360: 1c1b b83d 7c85 eebb 5177 af3c d71f 243d
00000370: 2ccb d63e f6c8 8e3e 8b6d 9ebe 5b28 963c
00000380: d594 69be 6821 473a 0b15 d73d 6edd 69bd
00000390: 837a dbbd 46cd 713e dc6c 693c 7f81 2cbe
000003a0: 5085 acbd cf8d 31bd 9a67 fa3d 236e 813d
000003b0: b979 9abd 9f9b 293d 2f43 333e 0447 6cbd
000003c0: ab1b ee3e 240f 06bf bf3c 33be 30e4 b83d
000003d0: f35c 163c b94d 2c3e a63c 48bc f6a8 9abc
000003e0: bfe3 22bd 5dfa 4b3d e65a 063e 65bd b1bd
000003f0: a89f a03d 4b44 57bc 0911 c4bd 7e94 333d

default.encoder.to_hidden.bias f4 [128]
-0.1552747 -0.09256509 0.111884 0.16492397 0.1774192 0.057140004 -0.13728501 -0.33887404
-0.03008654 -0.11836794 0.1435981 0.16753647 -0.2598879 -0.24745539 0.3220491 0.2717834
0.27615514 -0.0470195 -0.16403127 0.25860807 0.28933582 -0.024220338 -0.1699826 -0.081908286
0.07354746 -0.07711983 -0.35052028 0.1957892 0.23938172 -0.05649228 0.095142595 -0.17605229
0.2608439 -0.17110614 -0.13737921 0.03645308 -0.12852225 -0.018388929 -0.32355535 0.22893412
0.11182761 -0.3458185 -0.13424626 -0.020884214 -0.19293924 -0.09691143 -0.35901374 0.3040382
-0.06790686 -0.050538953 -0.03642815 -0.20508096 0.014528839 0.0824806 0.10612133 0.065185346
-0.115429506 0.14608954 0.13582745 -0.37283283 0.25026104 0.35255548 0.33216465 -0.108661816
-0.25846577 -0.10168631 0.24201149 0.2868299 0.15526673 0.27768773 -0.25731805 -0.21263178
-0.21703336 0.23848371 -0.16795783 -0.24712518 0.22794913 -0.057503883 -0.17793426 -0.11322547
-0.34752157 -0.09470105 0.12614945 -0.35962933 -0.3054918 -0.011821537 -0.1741525 0.27176297
-0.1533386 -0.13732326 -0.30061132 -0.41127253 0.15134712 -0.25916412 -0.32709774 0.36726454
0.1817997 0.21599387 0.1386221 -0.17433347 0.050303183 -0.30496177 0.053056885 -0.38876012
-0.36026827 0.086810574 0.41128874 -0.16580659 -0.010706424 0.123564854 0.15525517 -0.09320856
0.08297192 0.156592 -0.23313665 0.012817255 0.17932478 -0.23841159 0.23394734 -0.15146177
0.220015 -0.045862813 -0.07173433 -0.18704802 -0.18884942 0.38060027 0.13663225 -0.13173477
00000000: 5500 1fbe c492 bdbd 7023 e53d d4e1 283e
00000010: 61ad 353e a30b 6a3d 7194 0cbe e680 adbe
00000020: 0c78 f6bc e46a f2bd 610b 133e ae8e 2b3e
00000030: 0710 85be f264 7dbe 9fe3 a43e 3227 8b3e
00000040: 3564 8d3e 8597 40bd d0f7 27be 4768 843e
00000050: d323 943e bb69 c6bc eb0f 2ebe 88bf a7bd
00000060: 0da0 963d 00f1 9dbd 6577 b3be f77c 483e
00000070: 7b20 753e 7364 67bd 1fda c23d 0d47 34be
00000080: 558d 853e 7336 2fbe 23ad 0cbe d34f 153d
00000090: 569b 03be 61a4 96bc 0ca9 a5be b56d 6a3e
000000a0: e005 e53d 1f0f b1be da77 09be 5f15 abbc
000000b0: dd91 45be 8079 c6bd a6d0 b7be e5aa 9b3e
000000c0: c012 8bbd ef01 4fbd af35 15bd be00 52be
000000d0: 5e0a 6e3c 97eb a83d 2456 d93d e57f 853d
000000e0: 4e66 ecbd 7f98 153e 5a16 0b3e f2e3 bebe
000000f0: 3722 803e 2782 b43e 7c11 aa3e 168a debd
00000100: a055 84be e940 d0bd dcd1 773e 5edb 923e
00000110: 3efe 1e3e 162d 8e3e 31bf 83be 25bc 59be
00000120: fe3d 5ebe 1335 743e 23fd 2bbe 620e 7dbe
00000130: 7f6b 693e 3189 6bbd 6634 36be c1e2 e7bd
00000140: 59ee b1be a0f2 c1bd 522d 013e 5621 b8be
00000150: 6c69 9cbe 1faf 41bc 0855 32be 8424 8b3e
00000160: cb04 1dbe 789e 0cbe bae9 99be 5092 d2be
00000170: bdfa 1a3e 29b1 84be 5b79 a7be 190a bc3e
00000180: b329 3a3e 7f2d 5d3e f4f2 0d3e 7984 32be
00000190: b60a 4e3d f323 9cbe 2d52 593d 910b c7be
000001a0: 1575 b8be bec9 b13d 7094 d23e 34c9 29be
000001b0: ff69 2fbc 920f fd3d 36fb 1e3e 21e4 bebd
000001c0: 2fed a93d a759 203e 60bb 6ebe 77ff 513c
000001d0: eaa0 373e 2b22 74be e48f 6f3e cb18 1bbe
000001e0: 9d4b 613e a5da 3bbd 73e9 92bd 8489 3fbe
000001f0: be61 41be 0ade c23e 53e9 0b3e 7be5 06be

default.encoder.to_out.weight f4 [128, 128]
-0.020344855 0.07035745 0.0340561 0.077294126 -0.020607056 -0.03628036 -0.07360736 0.058928967
0.013556421 -0.0057851607 0.03097924 0.03924987 0.042369314 0.011534005 -0.07075751 -0.055931956
-0.0018577843 -0.009073986 0.0323447 -0.030385654 0.034270562 0.044371553 0.032894608 -0.055544943
-0.028393306 -0.017968386 0.014731206 -0.08688906 0.013242238 0.06466684 -0.061660565 -0.024466164
-0.039861836 0.025476838 -0.039733462 -0.035444185 -0.008489175 0.005093063 0.049272854 0.0009816806
0.038101558 0.00033703208 -0.012574262 0.05234658 -0.073327266 -0.041563485 -0.027255725 0.037110567
0.0287752 0.036724564 -0.058679055 -0.05877895 0.04904231 0.044099744 0.056756552 0.039214045
0.01354246 -0.06156089 0.049252402 -0.0064916248 0.06621311 -0.028041886 -0.071465045 -0.026134832
0.020490464 0.016198259 0.010038913 0.03715385 -0.05047063 -0.06180458 -0.0080235535 -0.009800145
-0.048356142 -0.00926738 0.026183637 -0.053945217 0.109919965 -0.01279458 0.022039881 -0.0789233
0.0455987 -0.004639859 -0.055410624 0.042540777 0.061090615 -0.0431236 0.016953688 -0.07017738
0.04980868 0.07773206 -0.0035600013 -0.014420476 0.025960708 -0.06964 -0.021304304 -0.04119265
-0.03693294 -0.0082317535 -0.053975113 0.00742466 0.01713293 -0.08754738 -0.010141442 0.045890704
-0.005001615 -0.026882129 -0.0020196713 -0.006464658 0.040104274 -0.01196567 0.033520255 -0.10190987
-0.027062936 0.046355937 0.039565172 -0.049385518 0.0350696 0.011629603 0.031389717 0.06582428
0.041380364 0.003889261 -0.02941963 -0.054738156 -0.07241571 0.04948355 -0.062404297 0.009709946
-0.08139148 0.027008599 -0.012843836 -0.075203605 0.07681623 0.05922359 0.017652093 0.059230912
-0.048124366 -0.048497643 0.05816628 -0.05061829 0.062851995 0.042198967 0.05721577 0.041465953
-0.038523965 -0.07426519 0.0054208846 0.044348963 0.012637717 -0.03248037 -0.06740127 -0.0047983876
-0.013336111 0.07347993 0.07653848 0.03946984 -0.055369463 0.088125296 0.06120814 -0.017623693
0.0025493375 -0.03330668 0.0010124651 -0.109107666 -0.014366568 0.052411918 -0.03409728 0.0024193102
-0.023672532 0.023177046 0.07967228 -0.076898895 0.0964319 -0.06291117 0.01061019 0.04661099
0.021104276 0.003834691 -0.05012336 0.056612976 0.03258394 0.053746764 -0.050818294 0.02900383
0.06021451 -0.03384704 0.058717728 0.09559767 -0.037478957 -0.032050285 -0.03132339 0.018908348
0.019313982 -0.04290264 -0.022528198 0.031390257 0.049267165 0.020559939 0.008381049 -0.028742144
0.046080496 -0.07216949 0.06424811 0.056773603 -0.06745898 0.07723979 0.04898913 0.039556257
0.07502492 -0.05914256 0.05562136 -0.0065326407 -0.04522021 0.021435363 -0.0030470598 0.003984854
-0.06269709 0.062087536 0.080221586 0.015571092 -0.005040629 0.13440526 -0.035007287 -0.07928768
0.07031035 0.018503197 -0.04199285 -0.057466194 0.072951965 0.0627264 0.021421913 0.056573596
-0.016493374 0.042763498 0.003724949 0.064228036 -0.009162977 -0.052142285 0.03101874 -0.07537386
-0.07165228 -0.003944982 0.044590697 -0.09020827 0.08052727 -0.00016675962 -0.11508069 -0.015703125
-0.037420526 -0.02940924 -0.05207906 -0.0813777 0.030301712 -0.080648385 -0.025519531 -0.018229442
00000000: 41aa a6bc 9117 903d 697e 0b3d 624c 9e3d
00000010: 21d0 a8bc b79a 14bd 75bf 96bd 805f 713d
00000020: c01b 5e3c 7291 bdbb 2dc8 fd3c 79c4 203d
00000030: 728b 2d3d 20f9 3c3c 50e9 90bd e818 65bd
00000040: e680 f3ba 0eab 14bc e07b 043d 56eb f8bc
00000050: 4a5f 0c3d f2be 353d 7fbc 063d 1883 63bd
00000060: 1499 e8bc 7032 93bc 285b 713c e4f2 b1bd
00000070: f9f5 583c 0c70 843d ca8f 7cbd 446d c8bc
00000080: 2a46 23bd cdb4 d03c 8ebf 22bd ec2d 11bd
00000090: 2e16 0bbc b6e3 a63b 55d2 493d bcab 803a
000000a0: 6110 1c3d aeb3 b039 4704 4ebc 5e69 563d
000000b0: 9b2c 96bd 793e 2abd 6647 dfbc 4001 183d
000000c0: f8b9 eb3c 7f6c 163d 7359 70bd 32c2 70bd
000000d0: 97e0 483d efa1 343d 8f79 683d e89e 203d
000000e0: 32e1 5d3c 4627 7cbd e3bc 493d b2b7 d4bb
000000f0: bd9a 873d 19b8 e5bc 445c 92bd b718 d6bc
00000100: 9edb a73c 36b2 843c 417a 243c a32e 183d
00000110: 4bba 4ebd cd26 7dbd 3975 03bc ca90 20bc
00000120: 1711 46bd 36d6 17bc 117f d63c a9f5 5cbd
00000130: b81d e13d 5ca0 51bc fb8c b43c 8aa2 a1bd
00000140: b4c5 3a3d f509 98bb 40f6 62bd 3d3f 2e3d
00000150: 273a 7a3d 5fa2 30bd 76e2 8a3c 29b9 8fbd
00000160: 3004 4c3d fc31 9f3d e94e 69bb dc43 6cbc
00000170: 8dab d43c 6b9f 8ebd 5d86 aebc a0b9 28bd
00000180: ff46 17bd 7ade 06bc 0215 5dbd 904a f33b
00000190: 5c5a 8c3c 0a4c b3bd 4a28 26bc e4f7 3b3d
000001a0: 96e4 a3bb e937 dcbc 765c 04bb 7bd5 d3bb
000001b0: 6144 243d a80b 44bc 894c 093d 1fb6 d0bd
000001c0: 17b3 ddbc b9df 3d3d 170f 223d 7848 4abd
000001d0: 24a5 0f3d 178a 3e3c 8192 003d e1ce 863d
000001e0: 757e 293d f9e2 7e3b 7001 f1bc 1e35 60bd
000001f0: b04e 94bd 43af 4a3d a69b 7fbd 7716 1f3c
00000200: 94b0 a6bd 2341 dd3c f46e 52bc 5904 9abd
00000210: d451 9d3d 6f94 723d 1f9b 903c 1d9c 723d
00000220: 0e1e 45bd 77a5 46bd c43f 6e3d 2055 4fbd
00000230: 8cb8 803d d3d8 2c3d 155b 6a3d 34d8 293d
00000240: 4ecb 1dbd 5918 98bd ada1 b13b 42a7 353d
00000250: 6d0e 4f3c 230a 05bd ad09 8abd cb3b 9dbb
00000260: b47f 5abc a57c 963d 35c0 9c3d 20ab 213d
00000270: 17cb 62bd 097b b43d 63b5 7a3d 905f 90bc
00000280: c912 273b 966c 08bd b1b4 843a d773 dfbd
00000290: c161 6bbc e1ad 563d 97a9 0bbd 4a8d 1e3b
000002a0: e6ec c1bc cadd bd3c 382b a33d 2b7d 9dbd
000002b0: 177e c53d 92d7 80bd 5dd6 2d3c 2aeb 3e3d
000002c0: e0e2 ac3c 704f 7b3b 274e 4dbd 02e3 673d
000002d0: bd76 053d 9125 5c3d d826 50bd 7199 ed3c
000002e0: 7da3 763d 32a3 0abd 0082 703d b6c8 c33d
000002f0: 8983 19bd 2947 03bd f44c 00bd aee5 9a3c
00000300: 5b38 9e3c aeba 2fbd 0e8d b8bc 1293 003d
00000310: 5ecc 493d 516d a83c ab50 093c a574 ebbc
00000320: e7be 3c3d 99cd 93bd 8394 833d 708b 683d
00000330: ef27 8abd e52f 9e3d d3a8 483d be05 223d
00000340: aaa6 993d 783f 72bd 39d3 633d c30f d6bb
00000350: d438 39bd 3799 af3c 2eb1 47bb 6193 823b
00000360: 5567 80bd 804f 7e3d 374b a43d e51d 7f3c
00000370: dc2b a5bb 88a1 093e cd63 0fbd 9461 a2bd
00000380: dffe 8f3d 0494 973c b200 2cbd ac61 6bbd
00000390: d767 953d b376 803d 027d af3c b7b9 673d
000003a0: 1d1d 87bc c728 2f3d 461e 743b fd89 833d
000003b0: 5020 16bc 2693 55bd 031b fe3c 9c5d 9abd
000003c0: 6ebe 92bd e844 81bb bca4 363d 1dbf b8bd
000003d0: 7beb a43d 32dc 2eb9 6daf ebbd d7a3 80bc
000003e0: 4446 19bd a6eb f0bc da50 55bd 5aa9 a6bd
000003f0: 4c3b f83c fb2a a5bd 560e d1bc e955 95bc

default.encoder.to_out.bias f4 [128]
-0.048985004 -0.15346207 0.06454672 -0.051024213 -0.06597414 -0.20207956 -0.05941592 -0.042369183
-0.20817512 -0.10978206 0.19711705 0.13160512 -0.1737518 -0.18055329 0.01872944 0.11447093
0.011070846 0.20585768 0.018747618 -0.06095051 0.12892665 0.17022613 -0.0008052138 0.17719242
0.14267208 -0.03863916 0.1843013 0.0818786 -0.22628121 0.23149338 0.022927605 -0.107934184
0.012404121 0.0043228865 -0.09800563 0.21663831 -0.095744416 0.07491104 -0.04319689 -0.09311317
-0.09912797 -0.1335852 -0.13109502 0.13518439 0.036711805 0.022087576 0.1723949 0.010420819
-0.082869835 -0.07356694 -0.2622749 0.17830265 0.05026443 -0.10007725 -0.12062386 0.12038334
0.017976549 -0.19704214 -0.064287774 0.15425439 -0.13302068 -0.07194467 0.08633664 0.2006312
-0.19550867 0.16542454 0.01348686 0.14704123 -0.15166692 -0.120221324 0.04798302 -0.11874121
0.07678598 -0.13281539 -0.047356714 -0.11228709 -0.11670257 -0.10768663 0.03364874 0.02588642
-0.029990505 0.13794684 0.11365696 0.17778763 0.11404738 0.032333713 0.05702775 0.078176625
-0.05467706 -0.186927 -0.031613342 -0.0065928125 0.17974408 0.08748186 0.08054607 0.080338486
-0.21080303 0.14878584 -0.2262377 0.06363642 0.016980547 -0.10039227 -0.09444308 0.011051106
-0.11328941 -0.0154095115 0.0423897 0.076787956 -0.19312108 0.012333401 -0.036589954 0.048338905
0.12253815 0.022212302 -0.24634261 0.029689943 0.051878475 -0.07610218 0.12444057 0.1222375
-0.10106895 0.14445905 -0.055757392 -0.05021018 -0.19872868 -0.0049751606 -0.07299619 -0.02099001
00000000: 80a4 48bd 2925 1dbe 1231 843d c4fe 50bd
00000010: 731d 87bd f2ed 4ebe 1c5e 73bd 4f8b 2dbd
00000020: dc2b 55be 6bd5 e0bd 0dd9 493e 7ec3 063e
00000030: feeb 31be f6e2 38be 7c6e 993c bc6f ea3d
00000040: 7e62 353c 5bcc 523e 9b94 993c 3ea7 79bd
00000050: 5905 043e c24f 2e3e fc14 53ba ee71 353e
00000060: a118 123e 1944 1ebd 7bb9 3c3e f8af a73d
00000070: 43b6 67be 9a0c 6d3e acd2 bb3c 990c ddbd
00000080: a83a 4b3c 00a7 8d3b 2db7 c8bd 6fd6 5d3e
00000090: a615 c4bd f66a 993d 39ef 30bd 1eb2 bebd
000000a0: 9b03 cbbd 8fca 08be c63d 06be c76d 0a3e
000000b0: 1e5f 163d 01f1 b43c 4a88 303e 15bc 2a3c
000000c0: a9b7 a9bd 44aa 96bd e548 86be f894 363e
000000d0: 13e2 4d3d 4df5 ccbd a409 f7bd 8a8b f63d
000000e0: 8e43 933c 6ac5 49be 4fa9 83bd ddf4 1d3e
000000f0: 9336 08be ba57 93bd 44d1 b03d 4472 4d3e
00000100: 6d33 48be 0d65 293e fef7 5c3c fa91 163e
00000110: 934e 1bbe 9936 f6bd d889 443d 972e f3bd
00000120: f841 9d3d c200 08be 1df9 41bd c6f6 e5bd
00000130: c201 efbd cf8a dcbd 43d3 093d c20f d43c
00000140: a6ae f5bc f041 0d3e fbc4 e83d f60d 363e
00000150: ac91 e93d 5b70 043d ee95 693d 111b a03d
00000160: 0ef5 5fbd cb69 3fbe fe7c 01bd 8508 d8bb
00000170: d50e 383e b029 b33d 57f5 a43d 8188 a43d
00000180: c0dc 57be 515b 183e dbaa 67be d053 823d
00000190: ca1a 8b3c 769a cdbd 606b c1bd b30f 353c
000001a0: 4704 e8bd 2d78 7cbc d2a0 2d3d 0143 9d3d
000001b0: 88c1 45be 0812 4a3c 59df 15bd 04ff 453d
000001c0: 48f5 fa3d 93f6 b53c 3d41 7cbe 5338 f33c
000001d0: 867e 543d 76db 9bbd b3da fe3d a857 fa3d
000001e0: 3dfd cebd 13ed 133e dd61 64bd 31a9 4dbd
000001f0: 887f 4bbe ac06 a3bb 077f 95bd 3ef3 abbc

default.mean_encoder.weight f4 [10, 128]
0.016190883 -0.007987793 0.01189857 0.044385493 0.0046809097 -0.006553515 0.0006970911 0.020588556
0.00017990805 -0.011222994 0.012408806 0.0006941343 0.0038763322 -0.020815652 0.020903422 -0.011565939
0.062230535 -0.0116580445 0.018588556 0.004260101 0.05604419 -0.009312033 0.0050595924 -0.019844394
0.013871442 -0.016536435 0.0044465107 0.03522231 -0.00029131194 0.0047854665 -0.027933033 -0.028040601
0.00830545 0.011245643 -0.021031115 0.04070574 -0.03231796 0.032675575 -0.0431887 0.000634926
-0.03909201 0.017403342 0.05452032 0.04095389 0.01825742 0.021285035 -0.008876192 -0.0026554232
0.010839847 -0.018785642 0.0075475876 0.053203706 -0.028617537 -0.0074588493 -0.0024599573 0.022533266
-0.012805262 -0.02986607 -0.0077346633 -0.02038957 0.032372843 0.006736694 0.008002142 -0.01602081
-0.034831066 -0.002714054 -0.014476833 0.017910965 -0.021722065 -0.0002617551 -0.008875436 0.033665515
0.0025015587 0.00088141847 -0.0053741103 0.018800288 0.023192754 -0.027813613 -0.02022806 -0.0064078784
0.03723536 0.007667708 -0.017700614 0.01009759 -0.006767644 0.019580616 0.02377826 -0.0101447245
0.019288326 -0.028240407 0.004436653 0.068150915 -0.034502264 -0.030881645 0.003989528 0.0013077011
0.012958727 0.026155455 -0.03375545 0.046927944 -0.03910118 -0.019866537 -0.010876905 -0.014035499
0.030448683 -0.037321 -0.0005313396 0.049450446 -0.03640987 0.008804934 -0.018510127 -0.051586784
-0.023557428 0.005325774 -0.00012789168 -0.010629135 -0.007933756 -0.009786402 0.024307411 -0.00047082247
-0.034189727 -0.009331152 0.009850062 -0.0036283834 -0.00014194066 -0.0088057555 0.0138501655 -0.050067414
-0.0337757 -0.027246429 -0.0046339426 -0.008517568 -0.007892977 -0.013004834 -0.013276832 0.012637008
-0.0077318964 0.009376323 0.0009166645 -0.020565946 0.0022454574 -0.018657813 -0.007398511 -0.02229199
0.00040335098 -0.0010145784 0.01135799 -0.023860801 -0.019946236 0.0024257926 -0.007969032 -0.011788553
0.001018652 -0.009841532 -0.0072033834 -0.02872335 0.00045852028 -0.022038154 7.722981e-05 -0.023595396
0.012181661 -0.0024178457 0.002621712 0.010596004 -0.008485673 0.015770117 -0.007495869 0.006456512
0.024631832 0.010330724 0.0057593826 0.008602111 -0.0131036565 0.016102972 -0.009216725 -0.00202846
-0.013884747 -0.006133066 0.020178922 0.011911069 -0.015560511 -0.008408619 -0.012042312 -0.014617923
-0.005139301 0.021210387 0.029490419 -0.017736083 0.011674921 -0.004190318 -0.0036453782 0.0015634678
0.0114375055 0.0011216775 -0.01916587 0.0070150546 -0.022380613 0.014617974 -0.029263804 0.027146148
0.0044893483 -0.000980928 0.0027005496 0.00048663528 0.023930011 0.011218304 0.0021249668 0.016047316
-0.0028195842 -0.0021980375 0.017819306 0.005790028 0.0037314368 -0.0075617805 -0.002830251 0.010891252
0.02165058 0.0145944515 -0.006542853 -0.030224951 -0.0063881087 0.02186475 0.0023629614 0.00078359793
0.009958811 0.018572953 -0.027335394 0.016098289 0.0021143355 0.015319624 0.00064860086 -0.007252683
-0.022293668 0.0013209904 0.010891255 -0.015795408 0.008135418 -0.0074704676 0.0084674675 0.012095138
0.002725987 -0.022487504 -0.007277429 0.014728819 0.0087247165 -0.014215417 0.0122069055 0.016021142
-0.014383091 0.0008696032 0.00049663533 -0.0071711466 -0.0026797287 0.018622385 0.0069178087 0.0044177207
00000000: bea2 843c 3bdf 02bc 38f2 423c 90cd 353d
00000010: 5162 993b debe d6bb febc 363a 55a9 a83c
00000020: b3a5 3c39 a6e0 37bc 4e4e 4b3c 90f6 353a
00000030: 100a 7e3b 9685 aabc a73d ab3c 107f 3dbc
00000040: 72e5 7e3d 6201 3fbc 0747 983c 5198 8b3b
00000050: 988e 653d 7f91 18bc f0ca a53b b690 a2bc
00000060: 0b45 633c 6b77 87bc 09b4 913b 4545 103d
00000070: 3abb 98b9 67cf 9c3b d1d3 e4bc 67b5 e5bc
00000080: 9513 083c a53f 383c 7249 acbc 10bb 263d
00000090: d65f 04bd d3d6 053d a2e6 30bd 2a71 263a
000000a0: f21e 20bd 7491 8e3c b350 5f3d 44bf 273d
000000b0: 9690 953c f45d ae3c 736d 11bc 9c06 2ebb
000000c0: 9d99 313c 59e4 99bc c151 f73b 21ec 593d
000000d0: 536f eabc 5d69 f4bb 3c37 21bb af97 b83c
000000e0: 29cd 51bc b0a9 f4bc 0f73 fdbb 0708 a7bc
000000f0: 6399 043d 7cbf dc3b 6b1b 033c 133e 83bc
00000100: 05ab 0ebd 45de 31bb 3d30 6dbc 04ba 923c
00000110: 79f2 b1bc 2d3c 89b9 476a 11bc dae4 093d
00000120: 31f1 233b fe0e 673a 4e19 b0bb 1003 9a3c
00000130: bbfe bd3c 60d9 e3bc 51b5 a5bc 2ef9 d1bb
00000140: 1b84 183d 6641 fb3b e100 91bc 5d70 253c
00000150: 1dc3 ddbb 8767 a03c a0ca c23c 0f36 26bc
00000160: 8d02 9e3c 6d58 e7bc 5861 913b b592 8b3d
00000170: 3f52 0dbd 81fb fcbc 96ba 823b 2b67 ab3a
00000180: d750 543c f743 d63c 2843 0abd 8437 403d
00000190: 8f28 20bd 26bf a2bc 0c35 32bc 26f5 65bc
000001a0: 846f f93c e8dd 18bd 9949 0bba 8d8c 4a3d
000001b0: 8422 15bd 9242 103c 8da2 97bc aa4c 53bd
000001c0: 82fb c0bc d583 ae3b a91a 06b9 d325 2ebc
000001d0: 96fc 01bc 2557 20bc 5620 c73c b9d8 f6b9
000001e0: 870a 0cbd b0e1 18bc 2862 213c 2cca 6dbb
000001f0: e8d5 14b9 0446 10bc ceeb 623c 7d13 4dbd
00000200: 6358 0abd e733 dfbc 54d8 97bb 458d 0bbc
00000210: 8c51 01bc 3a12 55bc 1287 59bc 740b 4f3c
00000220: d95b fdbb 269f 193c 504c 703a ea79 a8bc
00000230: 8628 133b 45d8 98bc 356f f2bb b19d b6bc
00000240: da78 d339 9afb 84ba dd16 3a3c ba77 c3bc
00000250: 4a66 a3bc 0cfa 1e3b 8b90 02bc c624 41bc
00000260: 4a84 853a 613e 21bc 5c0a ecbb 3b4d ebbc
00000270: 8d65 f039 5c89 b4bc 70f6 a138 224b c1bc
00000280: 9795 473c b874 1ebb 07d1 2b3b dd9a 2d3c
00000290: 7e07 0bbc 5530 813c e89f f5bb 2691 d33b
000002a0: b2c8 c93c 3242 293c 34b9 bc3b deef 0c3c
000002b0: b8b0 56bc 61ea 833c bf01 17bc e9ef 04bb
000002c0: da7c 63bc e3f7 c8bb 444e a53c a526 433c
000002d0: 83f1 7ebc 4ec4 09bc 1e4d 45bc 0380 6fbc
000002e0: 9567 a8bb 68c1 ad3c e495 f13c 434b 91bc
000002f0: 2b48 3f3c ef4e 89bb 4ce7 6ebb 46ed cc3a
00000300: 6064 3b3c 4005 933a be01 9dbc 8bde e53b
00000310: 8c57 b7bc 3a80 6f3c a5ba efbc 9961 de3c
00000320: 621b 933b 7b92 80ba b4fb 303b 1523 ff39
00000330: df08 c43c facc 373c 0743 0b3b a975 833c
00000340: c6c8 38bb f30c 10bb cbf9 913c 46ba bd3b
00000350: 1f8b 743b d0c8 f7bb bb7b 39bb 3971 323c
00000360: 8f5c b13c 911d 6f3c 6e65 d6bb 519a f7bc
00000370: 5753 d1bb b41d b33c eadb 1a3b 5e6a 4d3a
00000380: 482a 233c 4e26 983c 7aee dfbc 8fe0 833c
00000390: aa90 0a3b 29ff 7a3c de06 2a3a eaa7 edbb
000003a0: 36a1 b6bc 1525 ad3a 3c71 323c 5f65 81bc
000003b0: 6b4a 053c d3ca f4bb 22bb 0a3c b02a 463c
000003c0: 79a6 323b b737 b8bc 8077 eebb 2551 713c
000003d0: 1df2 0e3c c8e7 68bc 79ff 473c c53e 833c
000003e0: 0ea7 6bbc 15f6 633a a230 023a f0fb eabb
000003f0: 639e 2fbb f98d 983c c9ae e23b 87c2 903b

default.mean_encoder.bias f4 [10]
0.012534016 0.0039270595 -0.048952248 0.06266545 -0.03978065 -0.03640951 0.0060555707 -0.041853607
0.010902803 0.065011
00000000: 795b 4d3c 90ae 803b 2782 48bd be56 803d
00000010: 09f1 22bd 2322 15bd cf6d c63b b06e 2bbd
00000020: aca1 323c 7d24 853d

default.var_encoder.weight f4 [10, 128]
0.02102427 0.029728925 -0.0065831193 0.020378327 0.024656216 0.0135031985 0.009401562 0.039116837
0.032563295 0.025614465 -0.041050248 -0.006944569 0.048237264 0.012946612 -0.023806127 -0.021667803
-0.008399158 -0.05760756 0.0202673 0.002840808 -0.036494415 -0.013873206 0.012447241 -0.02038425
-0.017938556 -0.007868204 -0.003097519 -0.022706712 0.031380042 -0.03834799 -0.0188448 0.04783664
-0.001992453 0.0038915107 0.0038827527 -0.023278173 0.045340803 0.0020776505 -0.028302696 -0.0039771274
-0.025829908 -0.02106512 0.04479856 0.006322222 -0.0070751905 -0.010521617 -0.016329173 0.0106119225
0.013155006 0.031680327 0.06944113 -0.04395955 -0.032619968 0.043700486 0.014644798 -0.030373879
-0.019079488 0.0427652 0.022345787 -0.033817127 0.028079314 -0.0074823475 0.0064360206 -0.055953544
0.039362166 -0.009236709 0.044739585 -0.025815682 0.012861023 0.014425039 0.0026402073 0.05350769
-0.018978091 0.02348655 -0.0007506353 -0.018807884 0.05193569 0.0045717154 0.016437903 0.0053137075
-0.011479589 -0.015544606 -0.021840971 -0.025110755 -0.011684869 -0.029224498 0.014595337 -0.035332695
0.001386292 0.04564996 0.0050221584 -0.040347956 -0.029900085 -0.03915704 -0.043939613 -0.008284974
0.020329848 -0.0068610557 0.021450298 0.021036902 -0.035739183 0.0024248424 0.012769599 -0.048641324
0.014027291 -0.00999996 -0.017068971 0.02945041 0.045385614 0.0057388693 0.059448473 0.023733094
-0.034017306 -0.022605212 0.04180481 0.008031323 -0.0124099525 0.010325051 -0.065838724 0.00022146909
0.02524372 -0.06332973 0.023621745 0.0061787223 0.023194237 -0.009031302 -0.015005955 -0.029874938
-0.04204916 -0.0044507803 -0.01923907 -0.008775567 0.02779279 -0.008033346 0.007421538 0.00591051
0.015574038 0.006320172 0.021228323 -0.0140079325 0.008055537 -0.010254898 0.023554822 0.0135051375
0.037617665 -0.0062727756 0.014249385 0.02309501 -0.01347926 -0.01315829 -0.026420241 0.0017549675
0.010482694 0.033795144 0.0007652386 0.0024500228 -0.014491732 0.022138942 0.012966603 0.0388473
-0.017024115 0.0026528977 -0.026432851 -0.0034075219 0.030960392 0.02644781 -0.02765865 -0.011602986
0.03244556 -0.0073465463 0.02647786 -0.028016474 0.017162226 0.03478613 0.013618722 -0.021846907
0.0037375055 0.007915431 -0.04354059 -0.027618758 0.01328046 -0.005717416 0.026203461 -0.0071028387
-0.014627425 -0.019579472 0.0023945887 0.026503688 0.012853589 0.00019284767 0.0020059554 0.010964954
0.0020246098 0.010172043 0.024596933 0.020082606 0.008673767 -0.008242158 -0.0030063698 -0.021290082
-0.0081878025 -0.0026879518 -0.01864973 0.008333171 -0.018034834 0.031536654 -0.043858286 -0.013152176
0.006080354 0.013783838 -0.012114141 0.0018986054 -0.02694504 -0.027077617 -0.022891179 0.030498384
-0.012434932 0.0024401003 0.007489767 0.0031095599 0.005552254 0.028075835 0.010046494 0.006654457
-0.008833909 -0.020701941 -0.012418807 0.03892845 -0.026396211 -0.007934357 0.002552962 0.028228203
0.023870952 0.014810721 -0.0027246592 -0.0060129636 0.002665095 0.020777505 -0.021303432 0.0100503685
-0.018945403 -0.007833196 0.021491054 -0.015430548 -0.019673407 0.0022939225 -0.0007040623 -0.018148724
0.0142740635 0.02391579 0.00085428305 0.033211693 -0.011809292 0.021177405 0.03890718 -0.011310209
00000000: 173b ac3c 138a f33c 35b7 d7bb 73f0 a63c
00000010: d5fb c93c 853c 5d3c 0209 1a3c fa38 203d
00000020: 1761 053d 6dd5 d13c 4e24 28bd 448f e3bb
00000030: 7094 453d 071e 543c 1105 c3bc ad80 b1bc
00000040: 9f9c 09bc e8f5 6bbd 9c07 a63c d92c 3a3b
00000050: 2b7b 15bd 724c 63bc 83ef 4b3c dffc a6bc
00000060: e1f3 92bc a4e9 00bc bfff 4abb 6d03 babc
00000070: 5c88 003d c812 1dbd 6960 9abc 5af0 433d
00000080: d093 02bb b708 7f3b c875 7e3b deb1 bebc
00000090: 47b7 393d 3129 083b 0edb e7bc 9052 82bb
000000a0: 3e99 d3bc c290 acbc b27e 373d a42a cf3b
000000b0: 00d7 e7bb dc62 2cbc c2c4 85bc a1dd 2d3c
000000c0: 1888 573c 3bc3 013d 2737 8e3d ee0e 34bd
000000d0: 849c 05bd 48ff 323d bcf0 6f3c a4d2 f8bc
000000e0: 964c 9cbc 902a 2f3d 830e b73c d483 0abd
000000f0: 9706 e63c 7b2e f5bb 41e5 d23b 8b2f 65bd
00000100: 393a 213d 9155 17bc db40 373d 697b d3bc
00000110: 0ab7 523c 0057 6c3c 5407 2d3b e12a 5b3d
00000120: f177 9bbc de66 c03c 48c6 44ba fe12 9abc
00000130: 85ba 543d 54ce 953b c8a8 863c 9c1e ae3b
00000140: e314 3cbc ceae 7ebc d6eb b2bc 12b5 cdbc
00000150: e571 3fbc 3768 efbc 4821 6f3c 04b9 10bd
00000160: 3eb4 b53a 74fb 3a3d eb90 a43b e643 25bd
00000170: 06f1 f4bc 2263 20bd 06fa 33bd b3bd 07bc
00000180: c88a a63c b5d2 e0bb 89b8 af3c 9555 ac3c
00000190: 4063 12bd 1bea 1e3b 9537 513c 203c 47bd
000001a0: b9d2 653c dfd6 23bc 3ad4 8bbc fc41 f13c
000001b0: 44e6 393d 200d bc3b 3e80 733d e86b c23c
000001c0: bb55 0bbd 912e b9bc 853b 2b3d cf95 033c
000001d0: 1d53 4bbc 672a 293c 74d6 86bd 283a 6839
000001e0: ebcb ce3c 04b3 81bd 6482 c13c e176 ca3b
000001f0: d701 be3c 07f8 13bc 89db 75bc 49bc f4bc
00000200: bd3b 2cbd dad7 91bb 419b 9dbc 65c7 0fbc
00000210: b5ad e33c 4c9e 03bc 5f30 f33b f4ac c13b
00000220: 402a 7f3c 7219 cf3b 05e7 ad3c 8781 65bc
00000230: 5ffb 033c 2904 28bc 0bf6 c03c a744 5d3c
00000240: fb14 1a3d db8b cdbb 4176 693c bf31 bd3c
00000250: 1dd8 5cbc de95 57bc 436f d8bc f006 e63a
00000260: 9bbf 2b3c c76c 0a3d 4b9a 483a 9090 203b
00000270: bb6e 6dbc ba5c b53c e071 543c 591e 1f3d
00000280: 2876 8bbc 3ddc 2d3b b589 d8bc bb50 5fbb
00000290: a6a0 fd3c 14a9 d83c 6594 e2bc 731a 3ebc
000002a0: a3e5 043d 4cbb f0bb 19e8 d83c ce82 e5bc
000002b0: cc97 8c3c e77b 0e3d 0f21 5f3c 49f8 b2bc
000002c0: f0f0 743b b9af 013c 9e57 32bd bc40 e2bc
000002d0: 4996 593c 2959 bbbb a4a8 d63c eebe e8bb
000002e0: dea7 6fbc 2165 a0bc 88ee 1c3b 431e d93c
000002f0: dc97 523c 2737 4a39 5976 033b 5aa6 333c
00000300: 51af 043b a4a8 263c 827f c93c 4784 a43c
00000310: 6a1c 0e3c 1e0a 07bc 8406 45bb 8a68 aebc
00000320: 2226 06bc 5928 30bb 52c7 98bc da87 083c
00000330: cabd 93bc 942c 013d bfa4 33bd 397c 57bc
00000340: b53d c73b 9bd5 613c 647a 46bc a0da f83a
00000350: d8bb dcbc e1d1 ddbc 4886 bbbc bfd7 f93c
00000360: e3bb 4bbc 17ea 1f3b b86c f53b c2c9 4b3b
00000370: afef b53b 4bff e53c 0d9a 243c a20d da3b
00000380: 1abc 10bc 1e97 a9bc 4078 4bbc 7073 1f3d
00000390: de3c d8bc 1bff 01bc 984f 273b d53e e73c
000003a0: 048d c33c aba8 723c 3290 32bb 6508 c5bb
000003b0: e0a8 2e3b 9635 aa3c 8984 aebc 4daa 243c
000003c0: 6433 9bbc ce56 00bc 020e b03c 69d0 7cbc
000003d0: 202a a1bc a255 163b d290 38ba a2ac 94bc
000003e0: c3dd 693c 0ceb c33c f7f1 5f3a fc08 083d
000003f0: c37b 41bc 3d7c ad3c 235d 1f3d 744e 39bc

default.var_encoder.bias f4 [10]
-0.13692342 -0.082339935 -0.012687163 -0.077183254 0.034007397 0.0056693344 -0.034095734 0.025032515
-0.035644416 -0.1711211
00000000: a735 0cbe d7a1 a8bd d2dd 4fbc 4112 9ebd
00000010: 574b 0b3d d3c5 b93b f8a7 0bbd fd10 cd3c
00000020: e1ff 11bd 5f3a 2fbe
