models/mnist-relaxed1E/encoder_z2_z1_-2028092783849733043.pt (torch_old, 88270 bytes, 8 tensors)

default.encoder.to_hidden.weight f4 [128, 19]
000000 62 77 de bc 2c 18 cf bd 40 73 2b 3e cf 5a 9e bd
       -0.027156536 -0.10112032 0.16743183 -0.07732164
000010 a8 56 69 bd 8e d5 02 be 8b 24 e1 3d 53 af 93 bd
       -0.056967407 -0.12776777 0.10993298 -0.07211175
000020 96 78 75 bd 65 f9 6b 3d 38 3b 87 be 91 e8 53 3e
       -0.059929453 0.057610888 -0.26412368 0.20694186
000030 07 89 87 bd 20 97 2a be 8d 8d 40 3e fc f0 b4 3d
       -0.06617933 -0.16659212 0.18803997 0.088350266
000040 8c ad 3f be 9b 8d e3 3d 9a 28 f7 3d a0 1c 2d 3e
       -0.18718547 0.111109935 0.12068291 0.16905451
000050 c0 36 66 bd 69 5a 20 bd 25 9a 1e bc aa 13 b9 3d
       -0.056204557 -0.03914872 -0.009680306 0.09036954
000060 04 c5 80 3d e5 d9 f2 bd 1c d6 66 bd 00 22 2d 3b
       0.06287578 -0.11857966 -0.056356534 0.002641797
000070 6e 12 91 3d 8a ae a8 3e a2 e3 ce be 4d e5 84 3e
       0.07083593 0.32945663 -0.40408045 0.25956193
000080 3a ed 25 3e 9d c2 42 be d6 6b 93 3d c9 af fa bc
       0.16203776 -0.19019552 0.071983024 -0.030601399
000090 62 1d fa 3d 37 c0 89 3d a3 78 77 bc 50 82 70 3d
       0.122126356 0.06726115 -0.015104446 0.058718026
0000a0 63 e2 91 bc d4 f1 06 bc 06 2f 0b bd 1b cc 64 3d
       -0.017808145 -0.008236367 -0.033980392 0.055858713
0000b0 a1 2e bc 3d a5 78 95 3c ae 4b 1e bd f7 59 80 bd
       0.09188581 0.018246004 -0.038646393 -0.062671594
0000c0 39 70 db bc f0 80 57 bd 15 2e 01 3e fe 5a c8 3c
       -0.02678691 -0.0526132 0.12615235 0.024457451
0000d0 52 fe a0 bd 7c 16 8f bd 0e fe 02 3e 59 f2 b8 bc
       -0.07861008 -0.069867104 0.12792227 -0.022576498
0000e0 d0 9d 43 3c b3 3d 16 3e ae d1 24 be 3b 86 31 be
       0.011939481 0.14671974 -0.16095611 -0.17336361
0000f0 7f c8 9b bd 42 71 28 bc 3c fc ae 3d ec 71 ca 3d
       -0.07606601 -0.010280909 0.08544204 0.0988501
000100 26 5b f0 ba 28 15 16 be b9 5d 15 be 26 c3 04 be
       -0.0018337711 -0.14656508 -0.14586534 -0.12965068
000110 39 ce 2b bd a1 7a 5b be f3 39 11 3d d5 03 80 bd
       -0.041944716 -0.21433498 0.035455655 -0.06250731
000120 0c 36 35 3e 39 46 65 3e bf da 80 be a8 cc 46 bd
       0.17696398 0.22390069 -0.2516689 -0.04853502
000130 c8 e7 21 3d 05 0e ac bc ac 41 d2 3d 00 ca cc bd
       0.039527684 -0.021002779 0.10266432 -0.09999466
000140 c1 39 06 3e d8 5c f3 3d f7 21 32 bd 52 e5 19 bd
       0.13107969 0.11882943 -0.043489423 -0.037572213
000150 d8 a8 69 3c 24 fa 86 bc 16 6f 1e be 14 a4 d0 3e
       0.014261447 -0.016476698 -0.15472063 0.40750182
000160 e7 7d 8d 3d 02 58 92 be ec e4 83 be 67 b3 96 bd
       0.069087796 -0.2858277 -0.2576059 -0.07358437
000170 54 e0 b5 be 3a c5 63 3d 8f b1 ce 3d 24 ca 52 3e
       -0.3552271 0.05560801 0.1009246 0.20584923
000180 65 56 bc 3d a7 3e c0 3d 53 30 57 be 67 23 1f be
       0.09196166 0.0938695 -0.21014528 -0.15540849
000190 b0 99 df 3d 43 36 7a 3c e7 c7 b4 bd e6 4e e8 3d
       0.109179854 0.015271726 -0.08827191 0.11343174
0001a0 d0 86 ff bd c8 8e a3 be e9 a1 fc 3e 60 63 51 3b
       -0.12476885 -0.3194487 0.49342278 0.0031950101
0001b0 3a 2e 78 be ca b1 44 be ce a4 6d be 18 aa ee be
       -0.24236384 -0.19208446 -0.23207399 -0.46614146
0001c0 c3 9f 57 bd c1 70 56 bd fe e4 19 3d f7 29 23 3e
       -0.052642595 -0.052353624 0.0375719 0.15933977
0001d0 a1 3c 46 bc 05 1f 36 bc 28 9e d7 bd 14 50 98 bd
       -0.012099416 -0.011115794 -0.10528213 -0.07437149
0001e0 7a f7 14 3c e1 75 90 bd c7 8b a1 bc cd fd 15 bd
       0.009092206 -0.070537336 -0.019719971 -0.036618996
0001f0 a5 9f fc 3d 18 4a fd be 29 a0 be 3d 96 4c 09 3c
       0.12335137 -0.49470592 0.09307892 0.008380076
000200 59 86 47 bd 55 a7 19 be 9e 5f 93 bd f3 e7 b1 3d
       -0.04871211 -0.15005238 -0.07195972 0.08686819
000210 7a c9 92 bc d6 8f 50 bd 27 35 9b bd f1 68 b2 3c
       -0.017918337 -0.050918423 -0.075784974 0.021778556
000220 62 04 e4 bd 77 42 9c bc 4a 21 3a be 90 c3 4f bd
       -0.111336485 -0.019074662 -0.18176761 -0.050723612
000230 e6 e1 8a 3d b1 97 65 3d e8 25 6e bd d1 6b b0 3e
       0.06781368 0.056052867 -0.05814162 0.34457257
000240 87 00 c0 be 72 c4 70 3d 22 f6 5b 3e e1 cc 87 bd
       -0.37500402 0.058781095 0.21480611 -0.066308744
000250 bc 58 66 bd e3 0b 4f 3e c4 bc 44 3d 84 f7 26 be
       -0.056236967 0.20219378 0.048031583 -0.16305357
000260 45 8c bd 3d bc 8a 6d 3d 02 96 71 bd 91 f1 84 bd
       0.0925527 0.057993636 -0.05898095 -0.06491388
000270 03 86 f8 bc eb 2a 19 3d 8f 5f ac bd 84 33 c9 3c
       -0.03033734 0.037394445 -0.08416664 0.024560697
000280 21 30 00 3e cf 4a 9b 3d bd ec d6 be ce 94 2d 3f
       0.1251836 0.07582628 -0.41977492 0.6780518
000290 87 95 9a be 52 4c fe bd 9e bf 72 be dc 10 80 3d
       -0.30192205 -0.12416901 -0.23705909 0.06253216
0002a0 d0 f8 51 be d3 c5 be 3e df 5e 2e 3d ee 69 35 3d
       -0.2050507 0.37260303 0.042570945 0.044290476
0002b0 71 98 92 bd 53 60 cd bd 89 7e 83 3d 78 5e 69 3d
       -0.07157982 -0.10028138 0.06420619 0.056974858
0002c0 0f 41 9a 3d 3f 3d 7d bd 8b 61 2b 3d f6 fa bb bc
       0.0753194 -0.061825987 0.04184107 -0.022946816
0002d0 2b fd 47 3d 96 78 30 3e 06 b8 6a bd 38 3a a9 be
       0.048825424 0.172335 -0.057304405 -0.3305223
0002e0 93 d1 19 3e c5 66 47 be 68 ea c5 bc 5b 4f 8c 3e
       0.15021352 -0.19472797 -0.024159625 0.27404293
0002f0 90 35 92 bd 8b 67 1d be 04 56 cf bd ee 75 0f 3c
       -0.071391225 -0.1537153 -0.10123828 0.008756144
000300 90 b1 7d 3d ba 5d 22 be 7d 37 67 3e a2 af da 3d
       0.061936915 -0.15856066 0.22579761 0.106780306
000310 f3 7e 1a be 0c c9 03 bd 42 19 1d 3e b9 8b 1d bd
       -0.1508749 -0.032174155 0.15341666 -0.038463328
000320 a6 9b a1 3d 48 b1 1c 3d ec d3 b9 3d 12 4c c6 bd
       0.07891016 0.038255006 0.09073624 -0.09682478
000330 49 6c 95 bc e8 8d a1 3d ad be 6b bc ab 66 9b 3b
       -0.018240111 0.078883946 -0.014388722 0.0047424636
000340 10 fd 22 3e dd ae 56 3d 5c ec 71 ba bd 5f ca 3a
       0.15916848 0.052412856 -0.00092286407 0.0015439909
000350 33 36 c0 3d 26 5f 3f bd 6c b3 fb bd 79 d8 53 3d
       0.09385338 -0.0467216 -0.122900814 0.051720116
000360 01 d0 79 bd 43 b2 44 3d 6b 08 2b 3d 5a b4 05 3f
       -0.060989384 0.048021566 0.041756075 0.5222832
000370 05 08 28 bf b3 55 c4 3e 8d a6 a9 be 99 79 62 be
       -0.65637237 0.38346633 -0.3313488 -0.22116698
000380 ca 94 17 be 2c da 7b be e7 98 f0 bd 25 8c 7c be
       -0.14802852 -0.24594945 -0.11747914 -0.24662836
000390 f7 da c8 bd 87 94 1e 3d cf 81 c9 3d b1 7b 8d 3d
       -0.09807389 0.038715865 0.09839212 0.06908358
0003a0 bd 67 1b be cc 20 a3 3d 3d 3a a8 3d c8 b4 a1 bd
       -0.15176292 0.0796524 0.08214233 -0.078958094
0003b0 28 3a ce 3d b4 6e 0a be b9 36 3a be 8d 0e 93 3e
       0.10069686 -0.13518792 -0.18184938 0.2872204
0003c0 03 fa 9b 3d 6f 42 8f be b7 76 df bd 97 3f b5 3d
       0.07616045 -0.27980372 -0.10911315 0.088500194
0003d0 c6 2f 73 bd 87 b6 79 3e 9c 55 d4 bd ef f6 00 3e
       -0.059371732 0.24386035 -0.10367891 0.12594198
0003e0 31 f0 02 bd 6f 59 ba bd b7 1a 1b be d2 0e 6a 3d
       -0.031967346 -0.09099089 -0.1514691 0.05714304
0003f0 c4 1e 7f 3d 81 8d d0 bc 75 39 47 bd 0c a5 f9 bd
       0.0622852 -0.0254581 -0.04863878 -0.12189683

default.encoder.to_hidden.bias f4 [128]
000000 92 5b 03 3c e5 d4 63 be 62 39 6a be a9 36 f9 bd
       0.0080174375 -0.22249182 -0.22873452 -0.12168629
000010 f6 31 93 bd 6b 0f 59 bc 94 a9 41 be 0c ca 0a 3e
       -0.07187264 -0.013248305 -0.18912345 0.13553637
000020 97 fb 0c 3e 1f 0b 75 3d e8 90 35 3d 24 fc 8f be
       0.13767849 0.05982506 0.044327646 -0.28122056
000030 22 c9 42 3e 57 ff 0e be fa 6c a7 bd 85 ed 59 3e
       0.19022039 -0.13964592 -0.081750825 0.21282013
000040 57 38 50 3e 2b 6e d1 3d 73 65 5e 3e f5 3b f3 bd
       0.20333992 0.10226091 0.21718387 -0.1187667
000050 b0 4d 00 be 82 4c dc bc 88 cf bb 3d df dd a8 bc
       -0.12529635 -0.02689195 0.09170443 -0.020613609
000060 0b a5 ed bd 81 33 f6 3c fc ca 1a be b0 82 8a be
       -0.11603745 0.030053856 -0.15116495 -0.27052832
000070 b8 8e f6 3a e8 c8 15 be 03 5e 09 be d5 2c 8e be
       0.0018810844 -0.14627421 -0.13414769 -0.2776858
000080 9d d5 7d bc 04 34 94 be 0b 5e 22 be eb 42 59 be
       -0.015492824 -0.28945935 -0.15856187 -0.21216933
000090 7f 42 a4 be c0 e2 04 3e 3e d9 3e be b8 43 2e be
       -0.32081982 0.12977123 -0.18637559 -0.1701802
0000a0 8c c3 91 bd 2b 92 f2 bd b7 b5 37 3e e0 73 ad bb
       -0.07117376 -0.118442856 0.17940412 -0.0052933544
0000b0 c0 72 42 be 7e 4b e5 3d 05 73 82 3d 40 6c 30 be
       -0.18989086 0.111960396 0.063695945 -0.17228794
0000c0 81 54 bc bd 51 86 aa bd 06 b8 6b be bf 0f 29 3e
       -0.09195805 -0.083264 -0.23019418 0.16509913
0000d0 c6 80 a9 3b ee db f5 bd 2a 27 81 3d 54 ee 09 3e
       0.0051728217 -0.12004839 0.06306298 0.13469821
0000e0 d2 78 27 3e 08 a3 6c be 47 0a 8a bd d3 07 1f be
       0.16354683 -0.23109066 -0.067402415 -0.15530328
0000f0 98 e6 a3 3d fb 38 35 3d 55 e9 1f be 3a 3b c8 bd
       0.08002967 0.044243794 -0.15616353 -0.097769216
000100 73 d1 55 3d 34 7b 3e 3d a2 de 8c be bf 56 7c be
       0.0522017 0.046504214 -0.27513605 -0.24642466
000110 0b 91 f9 bb f1 0a 3e bd fe 2b 47 be 0f 58 00 be
       -0.0076161674 -0.046397153 -0.19450375 -0.12533592
000120 7a 8b b2 be e1 b9 89 be d9 8b 4c be 45 6b ec bc
       -0.34872037 -0.26899627 -0.19975223 -0.028859744
000130 4a 99 04 be ae 79 b9 bc e9 ed 2d 3d a2 a6 17 be
       -0.129491 -0.02264103 0.042463217 -0.14809659
000140 08 98 3a bd 08 b0 3c 3e 45 f6 85 be 2c 1b 4e be
       -0.045555145 0.18426526 -0.2616445 -0.20127553
000150 13 b9 5d bd 2e 7c 13 3e 85 e8 ca 3e 1f a7 18 3d
       -0.05413158 0.1440284 0.39630523 0.037268754
000160 01 82 5b 3e c4 cf 56 3e 64 d7 5f be e9 45 ce 3c
       0.21436311 0.20977694 -0.21859509 0.02517982
000170 8d 28 31 be 33 3f 10 be e8 af 22 3d 80 cf bd be
       -0.17300625 -0.14086609 0.03971854 -0.37072372
000180 41 b4 9f bd 28 d6 51 bd 77 eb ca 3d 7f 27 74 be
       -0.077980526 -0.051229626 0.099081926 -0.23843192
000190 8c 97 58 3e 32 8e 61 be 5e 66 f7 3c 4e 9e 9b bd
       0.2115156 -0.220269 0.03020018 -0.075985536
0001a0 c9 be 7d 3d d8 e6 99 3b 2a c3 08 3d 3d 9c 78 3e
       0.061949525 0.004696708 0.033389248 0.2427835
0001b0 0d d5 0d 3d 11 02 80 be 51 60 46 be d1 aa 89 be
       0.03462701 -0.25001577 -0.1937268 -0.26888135
0001c0 c2 bd 8a 3e 55 fb 95 bd 7f 50 5c 3e 2a 0b cc 3d
       0.270979 -0.073233284 0.21515082 0.09963067
0001d0 a7 cb 32 be ee 02 b7 3d 4d 6a 3b be bc e9 24 3e
       -0.174605 0.08936106 -0.1830227 0.16104788
0001e0 d4 a6 77 be 86 7d 31 be d7 98 04 3e fc 70 8d bd
       -0.24184734 -0.1733304 0.12948929 -0.06906316
0001f0 ca ee 4b 3e ad 4c 3a 3e b2 61 a1 3e be 1a 12 be
       0.1991531 0.18193312 0.31519848 -0.14268014

default.encoder.to_out.weight f4 [128, 128]
000000 ef 99 2c bd e9 fd f4 3b e8 83 9a bd 88 77 51 3c
       -0.04213899 0.0074765575 -0.0754469 0.012784846
000010 01 76 31 bd 84 d2 1b 3a 0c f9 a8 bd 6c ae 28 3d
       -0.043325428 0.000594415 -0.08250627 0.041181967
000020 94 b4 0b 3d b5 7c dd bc f1 1f 4b bd d1 9c 08 3d
       0.03410776 -0.027037004 -0.04959101 0.033352677
000030 3e 58 ed 3c f8 ae 03 bd 73 3e e4 3c 7d 5c ab bc
       0.028972741 -0.032149285 0.02786181 -0.020918125
000040 88 48 80 3d 05 69 85 bd 99 12 ae bc ad 02 38 bd
       0.06263834 -0.065141715 -0.021249102 -0.044924427
000050 27 cd 39 3d 10 e1 0f 3d 42 1a 17 bc c1 a4 bf bc
       0.045361664 0.035126746 -0.009222569 -0.02339399
000060 dc c0 fb 3c 0a a3 54 3d d4 40 ff bc f5 20 07 bd
       0.030731611 0.0519133 -0.031158842 -0.032990415
000070 33 ee 95 3c 1d 0a f1 3a 61 ba ab 3b d1 4e 50 bd
       0.018302059 0.0018389855 0.005240724 -0.050856415
000080 8d fe ba 3c bb 26 fd bc 9e 0d b1 3c 32 76 06 bd
       0.022826457 -0.030902257 0.021612938 -0.032827564
000090 f6 bd 83 3d 88 9d c4 bd bd fb 89 bd 58 2a a7 3c
       0.064327165 -0.09600359 -0.067374684 0.020405933
0000a0 de ac 7a 3d 58 6d c8 bb 38 46 45 bd 5d 35 63 3d
       0.061200015 -0.0061165504 -0.04816267 0.055470813
0000b0 f6 ab 88 bd 70 93 03 3d ff d4 dc bb 94 14 47 3d
       -0.06673424 0.03212303 -0.0067392583 0.04860361
0000c0 63 e7 42 bd 63 f7 b1 bc c9 1b e7 3c 68 64 50 3d
       -0.04758395 -0.021724408 0.028211491 0.050877005
0000d0 09 ab a3 3d eb 05 05 3d 1d 2e 53 bd b3 24 f7 bb
       0.07991607 0.032476347 -0.05155765 -0.0075422167
0000e0 7d 41 70 bc c9 a5 dd bb 80 74 b0 3c 6e 6b c0 3d
       -0.014664051 -0.006764148 0.021539927 0.093954906
0000f0 24 82 c6 bc 1a 09 98 3d 6b da 01 3d 47 ef 87 bb
       -0.024231978 0.07423611 0.03170244 -0.004148397
000100 31 23 d2 3c d4 f5 6e bd a5 41 8d 3d f0 3b 7a 3a
       0.025651546 -0.05833991 0.06897286 0.00095456745
000110 1a 39 54 3c 35 73 7c 3d 2f 5b 5d bd 1b 97 8c 3d
       0.012953067 0.061633307 -0.054042038 0.068647586
000120 dc 85 84 bc 38 2a 10 bc 3a 51 14 bd 00 c6 86 3d
       -0.01617711 -0.008799128 -0.036210276 0.06580734
000130 24 21 30 bd eb 2b 8f bd 03 a3 a7 3c 37 dd 05 bd
       -0.043000355 -0.069907986 0.020463472 -0.03268167
000140 81 e4 02 3c c3 5a 58 bd 2f 93 36 3d fe 29 53 bd
       0.00798905 -0.052820932 0.04457396 -0.05155372
000150 42 6f fc bb d3 69 af 3c 49 69 55 bc 05 7a 3f bd
       -0.0077036927 0.021412766 -0.01302559 -0.046747226
000160 0f a2 25 3d 58 e8 33 3d d5 71 ac bd 7b fd 27 bd
       0.040437754 0.043922752 -0.08420149 -0.041013222
000170 54 a9 cf 3d 77 c8 3b 3d 70 69 ff 3b f0 29 a4 3d
       0.10139719 0.045845475 0.0077945516 0.080158114
000180 87 83 3f ba 7d 5a 4c bd 27 8f 2c 3b 11 a9 0f 3c
       -0.0007305671 -0.049890984 0.0026330443 0.008768336
000190 60 44 ef bb cf d5 2f 3d 72 39 31 bc f2 ea 7a 3d
       -0.007301852 0.042928513 -0.010816919 0.061259218
0001a0 c8 68 9d 3d e4 f3 b0 3d 15 34 29 bd ad 3b e6 bc
       0.07686001 0.086402684 -0.041309435 -0.028104628
0001b0 3c 51 31 bd a8 97 93 bd 0b c8 7e bc 9a dd e9 bc
       -0.04329036 -0.072066605 -0.015550624 -0.02854805
0001c0 f8 4d 6c bd 1a 04 7a 3d e8 c3 1f 3d 1a cb 63 3d
       -0.057691544 0.061039068 0.03900519 0.055613615
0001d0 ab 02 9b bd 56 17 87 3c b5 ec 32 bd 85 28 a2 bd
       -0.07568868 0.01649062 -0.043682773 -0.07917885
0001e0 be 9b ba bd 4f 95 b2 3d 62 02 75 3c 9c aa 80 bd
       -0.09111737 0.087198846 0.014954181 -0.06282541
0001f0 8a 15 d4 bc d7 12 ab 3d 10 15 03 bc bf 19 14 3d
       -0.025889177 0.08353203 -0.008000627 0.036157366
000200 eb 3a 53 3c 5d f4 bc bd 11 dd 8b 3a fb cd 25 bd
       0.012892465 -0.09226296 0.0010670741 -0.04047964
000210 ea 9d ff 3c 60 69 b4 bd 73 27 6e 3c ad ed 61 bd
       0.031203229 -0.08809161 0.014535773 -0.055158306
000220 95 48 5d 3d 3d 89 5f bd e1 4b 8a 3d c5 ed 90 3d
       0.054024298 -0.05457424 0.06752754 0.07076601
000230 d1 6a 40 3d f6 59 90 3d 87 bd 56 3c 10 b4 26 bd
       0.046976868 0.07048409 0.01310671 -0.040699065
000240 94 da 71 3d b4 ab 4d 3d 01 1c ab bc f5 81 39 3d
       0.059046343 0.050212577 -0.020887377 0.045289952
000250 86 75 37 bc 1e bb a6 bb 86 07 bd bb fd db 8e bd
       -0.011197453 -0.005088224 -0.005768719 -0.06975553
000260 80 c6 9f bd 13 35 91 3d 65 a2 b4 bb fd 40 14 bd
       -0.07801533 0.07090201 -0.005512523 -0.03619479
000270 6c 3a 96 bc 72 bc ce 3c 5c fa d1 bd 10 e5 c9 bc
       -0.018338405 0.025236342 -0.102528304 -0.024645358
000280 65 de 62 3b 95 36 05 3c 15 0c 0e bd 27 68 03 bd
       0.003461742 0.008130689 -0.03467949 -0.03208175
000290 f3 bc 44 3d e1 28 84 bd b7 0c 59 3d b3 30 86 3d
       0.04803176 -0.064531095 0.05299064 0.065522574
0002a0 25 25 d8 3c 73 e3 a8 bb 38 cf 33 bd 87 c5 8c 3d
       0.0263849 -0.005154067 -0.04389879 0.06873613
0002b0 a3 61 07 bd 37 69 6c bd c4 c2 6a bd 6c 8c 15 bd
       -0.033052098 -0.05771753 -0.05731465 -0.03651087
0002c0 da fe 92 bd 6d 14 41 bd 5c e0 68 3d 9e 04 91 3c
       -0.07177515 -0.04713862 0.05685459 0.017702397
0002d0 7d 10 00 3d 85 fe bf bb 8c f0 88 3d 31 9d 32 3c
       0.031265724 -0.0058591985 0.06686506 0.010901735
0002e0 84 4b 6f 3d 41 81 0b bd 71 aa 0f 3d c9 02 58 bc
       0.058421627 -0.034058813 0.035074655 -0.013184258
0002f0 85 99 50 3d ef ff 4c 3d 1c c9 44 bd df 7e d0 3d
       0.050927658 0.050048765 -0.048043355 0.10180449
000300 66 cb f7 b8 e2 bf 08 bd 06 ec 2a 3d 03 8f 19 bd
       -0.00011815764 -0.03338612 0.041728996 -0.037489902
000310 47 e2 a3 bc bf f5 cb 3c 01 12 37 3d b9 c6 33 bd
       -0.020005358 0.024897454 0.044694904 -0.04389069
000320 77 8c f0 bc ee 50 b4 3d ad 99 99 3d 05 3f d0 bd
       -0.029363854 0.088044986 0.075000145 -0.1016827
000330 2c bd 48 bd 12 ef db bc 13 88 ba bd f5 ec 06 3d
       -0.049008533 -0.026847396 -0.09107985 0.032940824
000340 ed e9 fe 3c b9 5d fb 3c df 44 89 3d 5a 3a c0 3d
       0.031117404 0.030684339 0.06702589 0.0938613
000350 06 f7 dc 3d 79 66 25 bd 71 08 33 3d d2 31 9a bd
       0.107893035 -0.04038093 0.043709222 -0.07529034
000360 5f 53 16 3d 44 5f 86 3d c0 2c 1f bd 56 d5 30 3c
       0.036700603 0.06561139 -0.038861036 0.010793051
000370 66 67 a6 3c 45 8d b1 bc 16 62 56 bc fc 89 39 bd
       0.020312976 -0.021673808 -0.013084909 -0.045297608
000380 a0 f4 95 bb 24 db 9e 3d 2e 29 59 3d 2e cf 5b 3d
       -0.0045762807 0.077566415 0.053017788 0.05366438
000390 02 91 cc 3c 25 54 a2 bd 35 a8 35 3c 64 cb f3 bc
       0.024971489 -0.079262055 0.011087467 -0.02976007
0003a0 22 61 95 3d 1a c9 ed 3c 01 d8 2c bd 3b 84 12 be
       0.07293917 0.029026557 -0.042198185 -0.14308254
0003b0 bf b3 0d 3b c1 de bd 3c e8 38 9f 3d 93 89 5c 3d
       0.002162203 0.023177506 0.07774526 0.05384214
0003c0 34 76 91 bc 0e 02 7b bd 28 33 b7 3c d1 62 bb bc
       -0.017756559 -0.061281256 0.02236326 -0.022874268
0003d0 ad a8 77 bd 7d 78 22 3d bc 4e eb 3c 0b e9 72 bc
       -0.060463596 0.039665688 0.028724067 -0.01482607
0003e0 68 34 83 bc f7 d5 bf bd e7 83 fe bc ea ba eb 3b
       -0.0160162 -0.093669824 -0.031068755 0.0071939128
0003f0 90 d0 28 bc ad 1e 0a 3d 87 7c 41 bc 32 18 b5 bd
       -0.010303631 0.03372066 -0.011809475 -0.088425055

default.encoder.to_out.bias f4 [128]
000000 47 30 2e 3e fc 07 e0 bd 7f 8e 07 3e 8c f1 c3 3d
       0.17010604 -0.10939023 0.13237952 0.09567556
000010 52 e7 d5 3c e9 07 d7 3d 91 d1 00 3e b7 6e 22 be
       0.026111279 0.104995556 0.12579943 -0.15862547
000020 0b 22 ac 3d 05 40 12 be b6 5c 27 bd ed b2 c6 3d
       0.08404931 -0.14282234 -0.0408599 0.09702096
000030 44 ca f7 bb 08 f2 1b 3c a5 9d 24 3e 33 7a de bd
       -0.0075619537 0.009518154 0.16075762 -0.108631514
000040 06 d5 ba bc 4f 89 85 bd a9 10 3b bd ec 62 95 bd
       -0.022806656 -0.0652033 -0.045670185 -0.072942585
000050 ca 53 aa bc dd 46 ae bd b0 ff 31 be 8b 4b 90 bd
       -0.020791907 -0.0850961 -0.17382693 -0.07045659
000060 00 b7 1b 3d ef 56 c9 bb 83 a2 36 3e 5a 64 3c be
       0.03801632 -0.0061443965 0.17835431 -0.18397656
000070 3e fa 3a 3e 44 0b b5 39 2a f1 9d bc 93 35 ed bd
       0.18259522 0.00034531404 -0.019280035 -0.11582484
000080 ae 39 8c bc 29 f3 16 3d eb 87 8b 3d be 6d 91 3b
       -0.017117348 0.03685299 0.06813034 0.004438131
000090 d0 72 95 bd b2 f7 92 3c 9f d2 44 3d 40 b8 d8 bd
       -0.07297289 0.017940376 0.048052426 -0.10582018
0000a0 70 28 a5 3d d1 88 de 3c 0b be 61 bd 40 c3 b2 3c
       0.080643535 0.027164849 -0.05511288 0.021821618
0000b0 a9 48 0b be 4e 42 d3 bd 92 5a 2f be 29 25 eb bc
       -0.13601936 -0.10315381 -0.17124394 -0.028704243
0000c0 0f 9c c8 bd 8d 88 31 bd ea 0e 5e 3d c2 5f f0 bd
       -0.09795391 -0.043343116 0.054213442 -0.11737014
0000d0 1c fe 59 3c 54 38 f7 3c e7 1b 12 bd e4 73 5d 3e
       0.013305213 0.030178227 -0.03567114 0.2162624
0000e0 21 b7 1e 3b 63 4d 5a bc 8f 56 1c be 0a eb ab 3d
       0.002421804 -0.0133241145 -0.15267394 0.083944395
0000f0 52 71 21 3e 77 48 d1 bd 04 16 21 3e 67 ab f4 bb
       0.15765885 -0.102189 0.15731055 -0.007466722
000100 e4 0d 49 bd 7d ce f3 3d 90 8a 0c bd d1 85 5e be
       -0.049085513 0.11904619 -0.03431183 -0.21730734
000110 8b f9 ea bd 36 b3 0e bb 9f cb e3 bd 86 24 0c bd
       -0.11473378 -0.0021774299 -0.11122822 -0.03421452
000120 c6 86 3b be 8b 3b c6 3d 47 74 f3 3c 33 95 7a 3d
       -0.1831313 0.09679326 0.029718531 0.061177444
000130 a2 c3 00 be 31 d8 cb bd fa 8d 6f 3d 7b 7a 99 3d
       -0.12574628 -0.099533446 0.05848501 0.074940644
000140 ac 1b 09 bd 17 26 49 3d 2b 06 1e 3d 02 8e 3d 3e
       -0.033473656 0.04910859 0.0385801 0.18511203
000150 6b d8 32 bd ce 21 8f bd b7 2a e3 bd 7c 4c 7e 3c
       -0.043663424 -0.069888696 -0.110921316 0.015521165
000160 0c cd 09 be 36 b2 60 3c fd ab 14 be af 6b 09 3d
       -0.13457125 0.013714364 -0.14518733 0.03354996
000170 13 fe 49 bd b9 bf a3 3d 14 f8 20 3e e4 cb 09 bc
       -0.04931457 0.079955526 0.15719634 -0.008410428
000180 bf f3 ca bd 81 f5 b5 3d 58 92 98 bd b1 d5 f6 3d
       -0.09909772 0.08884717 -0.07449788 0.12052477
000190 28 67 54 bc aa 71 ca 3d 86 bd bb bb a3 76 42 bd
       -0.0129640475 0.09884961 -0.00572938 -0.047476422
0001a0 42 a8 c4 bc a6 68 98 3d cf 94 28 3d 96 c5 8d bd
       -0.024006013 0.07441835 0.04115754 -0.06922452
0001b0 d2 55 2e bd 1a 12 3e 3e 8b 43 bf 3c 69 77 14 be
       -0.042562313 0.18561593 0.023347637 -0.14498676
0001c0 e9 da c0 3d 3d 59 b3 bd 67 59 95 3d e8 8b 9c 3d
       0.09416754 -0.08757255 0.07292443 0.076438725
0001d0 47 3e 97 3c 88 7f 01 be 6b d9 26 3c aa 19 d5 bd
       0.018462313 -0.12646306 0.010183672 -0.10405286
0001e0 14 e9 1c 3d d9 26 be 3d 20 3d e1 bd 77 ab 6b bc
       0.038308218 0.09284753 -0.10997987 -0.014384142
0001f0 4a 1c 0f be 43 95 35 3c 98 8a f6 3c ae df eb bc
       -0.13975635 0.01108295 0.030095384 -0.028793182

default.mean_encoder.weight f4 [10, 128]
000000 8d e8 c9 3c 91 09 2d 3c 62 2e 64 bc b6 ba 0f bd
       0.024647022 0.010561363 -0.013927074 -0.03509017
000010 c0 73 54 3a 54 94 e5 bb b7 68 a4 bb 40 f6 08 bd
       0.00081044063 -0.0070062075 -0.005017366 -0.033437967
000020 3d 1e 3d bd 34 dc c8 bb ff 99 fe 3c 9f 3b 12 3d
       -0.046171416 -0.006129766 0.03107929 0.03570139
000030 fa a2 59 3c 39 b4 17 3d 53 66 d5 3c 90 fd 31 bb
       0.013283486 0.037037108 0.026049769 -0.0027159192
000040 a0 b2 36 3d 7e 94 73 3b 3c 9a 4d bc 41 c0 92 bc
       0.044603944 0.0037167366 -0.012548979 -0.01791394
000050 5a 05 a1 bb 0e 75 df bc 4b e3 b7 3b d5 cb 8a 3c
       -0.004913968 -0.027277496 0.005611812 0.016942898
000060 bd 7c 8f 3b 57 e3 81 3d b0 24 82 3d 69 10 bd 3a
       0.0043788836 0.0634219 0.06354654 0.0014424446
000070 fe 0a 84 bc 14 95 52 3c 6a 54 bd bb 41 a1 32 3b
       -0.016118523 0.012852926 -0.005777885 0.002725676
000080 0f 29 cf 3b ca f3 96 3d d3 a2 af 3c 9e 53 9a 3a
       0.0063220332 0.07370718 0.021439945 0.0011774187
000090 09 83 b5 3c 40 8b b4 3c 30 80 11 3b 68 e4 ca bc
       0.022157209 0.022039056 0.002220165 -0.024767116
0000a0 a3 25 89 bc 6f 85 9f bb 3c fb 79 ba 36 d8 4a 3b
       -0.01674158 -0.0048682014 -0.0009536033 0.0030951626
0000b0 e2 c6 01 bc ff 45 53 3c be 8b ad bc 90 ae d3 3b
       -0.0079209525 0.012895106 -0.021184798 0.0064600185
0000c0 df f3 59 bc 4f e4 96 3b af 38 b9 3c 7a 3e d4 bb
       -0.013302772 0.004604853 0.022610037 -0.0064771743
0000d0 7a cf b7 3c 05 3b 03 bc 12 88 fe 3a d3 c0 79 3c
       0.0224378 -0.008009677 0.0019419214 0.015243727
0000e0 bd 55 7b 3c 0c 4f 0b 3d c4 73 ea 3c 1b 77 81 3d
       0.015340266 0.03401093 0.028619654 0.06321546
0000f0 1c 81 8f 3c f6 d4 24 bd 01 fa 05 bd 48 72 5e 3b
       0.017517619 -0.040242158 -0.032709125 0.0033942629
000100 b9 03 0e 3a e4 b3 c5 3c 47 d3 e3 bb a8 a8 ac bc
       0.0005417425 0.02413363 -0.0069526765 -0.021076515
000110 5b 30 4b bb 0d f3 69 3c 4a 49 5f 3c 11 59 87 ba
       -0.0031004164 0.014279139 0.013628313 -0.0010326226
000120 cc 8c bb bc 51 09 94 3c d3 b3 93 3d c1 82 ac 3c
       -0.022894286 0.018070849 0.07212033 0.021058442
000130 6c ae 95 bd a4 81 06 bd 6d 9b 1f 3b 48 ca 04 3d
       -0.07308659 -0.03283848 0.0024354116 0.032419473
000140 e6 52 3b bb fe 98 a0 3b 32 88 5a bc 28 38 b2 bb
       -0.0028583347 0.0049010506 -0.013338136 -0.0054388233
000150 79 9c 0a bd 1b 92 1c bd bc ae c5 3b 61 4a 05 3d
       -0.03384063 -0.038225275 0.006032793 0.032541636
000160 71 fe 56 bb 95 df 92 bd 2d c9 1a 3d dd 5c 70 3d
       -0.0032805467 -0.07171551 0.037789512 0.05868231
000170 c1 d9 9a bc c3 9b 64 ba 98 fb 38 3d ab c0 1a 3c
       -0.018902661 -0.000872072 0.045161813 0.00944535
000180 47 e8 09 bd 63 a4 25 3c 6b 43 28 bc 56 0c cb bb
       -0.033668783 0.010109994 -0.01026998 -0.006196539
000190 2d 30 32 3c ef b0 73 bd 20 72 06 3c 11 0b 8a 3c
       0.010875744 -0.05949491 0.00820592 0.01685098
0001a0 07 aa a4 bb c4 b0 b5 3b 1f 51 30 3c 9a d4 92 bc
       -0.0050251517 0.0055447537 0.010761528 -0.017923642
0001b0 18 60 c2 bc fa 5c 4f 3c 6d 22 26 bb 68 e1 32 bd
       -0.023727462 0.012656445 -0.002535011 -0.043671995
0001c0 96 d5 ad 39 3d 5d 14 bc c7 75 10 3b 2d 2b f9 3a
       0.00033156265 -0.009055433 0.0022042857 0.001901006
0001d0 26 0b a0 3c 09 b0 0a bd 87 f0 dc bb 51 e7 1a bd
       0.019536566 -0.033859286 -0.0067425403 -0.037818257
0001e0 18 91 93 3b 5b f8 fa bb 78 ab 8b ba ee e6 42 3d
       0.0045033805 -0.007659001 -0.001065596 0.047583513
0001f0 ae f1 a4 bc 02 76 b2 bb 6b 5c 86 bd 9d f1 80 3d
       -0.020134773 -0.0054461965 -0.06560596 0.06296084
000200 21 38 b7 bc ea 84 cc 3c b8 bc 96 bc 22 3a 3a bc
       -0.022365632 0.024965722 -0.018400535 -0.011366399
000210 d8 d4 9a 3b 86 4e e6 39 7a 7f 01 bc 7a a1 e9 bb
       0.00472508 0.00043927523 -0.007903928 -0.007129845
000220 cd 50 58 ba 22 2a 22 bc b8 05 cc 3c f0 57 03 3c
       -0.00082517863 -0.009897741 0.02490507 0.008016571
000230 fb 43 42 3c 85 0d 06 3c 87 f7 9e bc 9e 6a fb 3b
       0.011857028 0.008181934 -0.01940514 0.007672622
000240 db 00 0d bc 9f 56 08 bc a6 8e 1b 3c 16 2c d1 bc
       -0.008606161 -0.008321433 0.009494459 -0.025533717
000250 84 4c 2b 3b 93 21 24 3c eb de 0d 3c 09 86 04 bb
       0.0026138136 0.01001777 0.008659105 -0.0020221493
000260 e3 70 84 bc 8e 64 e2 3a 4a 03 0b bc d0 17 b1 bb
       -0.01616711 0.0017272399 -0.008484671 -0.00540445
000270 dd 56 8f 3b 96 d4 97 bc 92 55 16 bc aa a8 40 3c
       0.0043743686 -0.018533986 -0.009175675 0.011758963
000280 1d a0 e1 3b 96 17 44 bc 76 29 ac 3c 05 74 3d 3b
       0.006885542 -0.011968514 0.021015864 0.0028908264
000290 15 66 54 bc 1b 3f 3e 3a 6e ab ed 3b 9c ca a4 b8
       -0.012963791 0.0007257328 0.007253102 -7.857868e-05
0002a0 ac ec 90 bb cf 8a db 38 3e e0 8c bc f8 b9 6b 3b
       -0.0044227447 0.00010468589 -0.01719677 0.0035969
0002b0 31 77 b6 3b 99 04 64 bc 3f 71 8b 3c 45 00 ba 3c
       0.005568408 -0.013917112 0.017021773 0.022705207
0002c0 27 51 fb 3a a4 9c ba 3b 4c 00 12 3c 69 cf 8a 3a
       0.0019173966 0.0056949425 0.008911204 0.0010590377
0002d0 f1 6d 27 3c de f6 76 bc 3f 53 a5 bb 0e 82 40 bc
       0.010219083 -0.015073506 -0.005045324 -0.011749757
0002e0 42 49 d4 bb 6c 9c 02 3c bd d4 fd bb af fe ce bb
       -0.0064784596 0.007971864 -0.0077463076 -0.0063169817
0002f0 ef 92 c5 bb 8a d3 0c 3b 71 00 46 bc 1d f7 f7 ba
       -0.0060294787 0.0021488392 -0.012085066 -0.001891825
000300 1c 9b d3 3a 35 b9 82 bb fe f0 d4 bb 44 08 b3 b9
       0.0016144249 -0.0039893636 -0.006498455 -0.000341477
000310 32 b9 1d 3c ea 04 46 3c 91 53 9c 3a 6b 36 e0 3b
       0.009626674 0.012086133 0.001192676 0.0068424246
000320 17 67 9b bb cf 02 c5 bb 04 ba c2 3c 7f d9 d4 bb
       -0.004742514 -0.0060122977 0.02377034 -0.006495654
000330 8a ea 97 ba 36 f1 89 3c ab c1 05 3b 4e 6c a3 3b
       -0.0011590284 0.016838651 0.0020409625 0.004987276
000340 bb cb 8c 3b d1 e5 08 bc 1a 54 82 bc bb b7 89 bc
       0.0042967475 -0.008355574 -0.015909243 -0.016811242
000350 6b f7 d1 bc a2 3e 2d 3c 8f 74 82 bb 68 fb 61 b9
       -0.025630673 0.010574015 -0.00398118 -0.00021551328
000360 55 33 b6 bb 71 83 0a bc 02 55 02 bc bd 5e f8 bb
       -0.0055603185 -0.00845419 -0.007954838 -0.007579653
000370 12 d5 05 bc 19 f5 6a 3c 9f 32 f7 bb 1e fb ca bb
       -0.008168476 0.014340662 -0.0075438763 -0.0061944863
000380 91 64 28 bb ab 40 d1 ba 05 3b b7 39 49 28 db bb
       -0.0025694708 -0.0015964707 0.00034948453 -0.006688152
000390 90 a8 52 bc d9 80 85 bc 4a 18 86 3b a4 fb c6 bc
       -0.012857571 -0.01629679 0.004092251 -0.024289913
0003a0 d3 6e ea 3a a0 85 61 ba ba 2d 04 bc f0 12 15 bc
       0.0017885811 -0.00086029805 -0.008067543 -0.009098753
0003b0 cd c7 3c 3b bf db 29 bc a8 6f 50 b9 e5 dd 7b 3c
       0.0028805614 -0.010367333 -0.00019878021 0.015372728
0003c0 46 f3 65 3b 00 66 c3 3c 80 8f 10 bc 8d d4 e6 bb
       0.003508763 0.023852348 -0.008823276 -0.007044381
0003d0 fa 25 67 ba 92 ef b1 bb 59 d7 d5 3a 06 4f 36 3c
       -0.00088176096 -0.0054301703 0.0016314789 0.011127239
0003e0 e5 98 2b bc a9 64 93 3a 75 59 01 3c fc 90 ef 3c
       -0.010473465 0.0011245209 0.007894863 0.029243939
0003f0 71 ea 48 3c ce 41 93 bc a4 0c 81 bb 8e 5e 8f bb
       0.012262926 -0.017975714 -0.0039382745 -0.0043752855

default.mean_encoder.bias f4 [10]
000000 a7 bf e2 3c a6 18 c3 3c f8 cd 2d bd a6 58 14 bd
       0.027679278 0.023815464 -0.042432755 -0.036217354
000010 64 e1 86 bc 73 67 1f bc 48 ea 11 3d 9b f1 0e 3d
       -0.016464897 -0.009729254 0.03562382 0.03489838
000020 63 f5 09 3d 7d 67 b6 3d
       0.033681285 0.089064576

default.var_encoder.weight f4 [10, 128]
000000 35 fa b1 bc fb bc d4 3c 31 ca 45 bd fb 0d 73 bd
       -0.021725753 0.02596902 -0.048288528 -0.059339505
000010 ff a0 b7 ba 79 c0 95 bc 43 12 54 bb 3b 75 27 3c
       -0.0014009773 -0.018280255 -0.0032359518 0.010220821
000020 5f e9 84 bd 78 b7 0d 3d 9d ec b1 3a 9f 2b 43 bc
       -0.064898245 0.034598798 0.0013574545 -0.011912256
000030 cb 8f 09 3c 3b ba 73 bc 65 9b ba bd 63 5d 98 3b
       0.008396099 -0.014875944 -0.091116704 0.0046498044
000040 f1 d5 d8 3c 18 c5 68 3c 46 cf 10 bc 34 69 28 3d
       0.026469203 0.014207147 -0.00883848 0.041115955
000050 0d 55 e5 3b c0 2e be 3c cf f0 03 3c 97 5f 00 3d
       0.0069986642 0.023215652 0.008053019 0.03134116
000060 da d0 98 3b 73 59 9f 3c c5 13 04 bd 32 bd f2 3c
       0.004663569 0.019451832 -0.032245416 0.029631231
000070 86 02 78 bd 25 ad de 3b bb a6 9b bc 17 0b 8a 3c
       -0.06054928 0.006795543 -0.019000402 0.016850991
000080 d6 19 ce bb e7 41 50 bd 5a b1 9a bd 0a 90 02 3b
       -0.006289701 -0.0508441 -0.075533584 0.001992228
000090 41 24 f9 3b f4 5c 7f 3c 05 aa 53 bb a7 91 16 3d
       0.0076031988 0.015586127 -0.0032297384 0.03676
0000a0 16 da 2d bd ed 72 c9 bc bb 78 8f 3b 5e 2f 55 3b
       -0.04244431 -0.024590934 0.004378406 0.0032529454
0000b0 cd 6b fe 3c 20 c3 e3 bb 2b fe 1a 3d cb 3e 90 3b
       0.031057263 -0.006950751 0.03784005 0.0044020168
0000c0 5b fd c7 3b fc 86 83 3c 33 23 fd ba c2 f7 1e bc
       0.0061032004 0.016055577 -0.0019312858 -0.009702625
0000d0 79 1c 5b 3b 06 4d 88 3c 4e 17 f4 3c 36 7e 28 bd
       0.003343372 0.01663829 0.029796269 -0.04113599
0000e0 15 7f 89 3c fc fd 99 3c 2f 3d 77 3d 98 56 1b bd
       0.01678423 0.018797867 0.060361084 -0.03792438
0000f0 e7 83 17 bd 1e db 88 3d ad 91 60 bd 77 9e ce bb
       -0.036991026 0.06682418 -0.054826427 -0.0063055116
000100 8e 35 b8 bb b4 6c 13 bd 37 11 18 3d ad 58 4c 3d
       -0.0056216186 -0.03599234 0.037125792 0.049889255
000110 ae 46 89 3c da 2c 60 ba e5 55 0d 3d d1 d4 71 3c
       0.016757336 -0.0008551605 0.034505744 0.014760212
000120 20 6f 51 3d 35 0e 92 bc be be 60 3d c8 27 b7 bc
       0.051131368 -0.01782904 0.054869406 -0.022357836
000130 19 32 6e 3d 11 f7 5e 3d f4 ac a6 3b 3f e1 44 bd
       0.058153246 0.05443484 0.0050865356 -0.048066374
000140 ff 51 14 3c c9 48 ff 3b 5d 80 4d bc 6b 72 52 bd
       0.0090527525 0.007790659 -0.012542811 -0.05137865
000150 f2 e3 a3 3c 7e e0 eb 3c 92 6e f3 3c 5a 4d c5 bc
       0.020006154 0.02879357 0.02971581 -0.024084736
000160 35 54 13 3d 2a 95 0f bd 8c 30 e0 3c b0 e9 83 3c
       0.035968978 -0.035054363 0.027366899 0.016102642
000170 2f e2 4c 3c 16 67 9c 3b 19 28 81 3a 41 1b 1d 3c
       0.012505098 0.004773031 0.0009853869 0.009589017
000180 ea ca 05 3d 78 25 50 bc f8 74 0e 3c 17 bd 37 bd
       0.032664217 -0.012704246 0.00869488 -0.044858065
000190 8b f8 93 3d df 46 87 bd cd f9 39 bc 8c ef 8d bb
       0.0722514 -0.066053145 -0.011351061 -0.0043315347
0001a0 73 6d 03 3c e8 b8 8d bc 44 09 75 bc 6e b5 9e 3b
       0.0080217 -0.017300084 -0.014955822 0.0048434054
0001b0 be a1 a7 ba d1 ba 73 bc 11 ac 81 bb 6b 64 2c 3c
       -0.0012789292 -0.0148760835 -0.0039572795 0.010521988
0001c0 12 b8 20 bd da 6f aa 3c 8c 67 5e bc 73 4f 55 bd
       -0.039238043 0.020805288 -0.013574492 -0.05207772
0001d0 f6 2d b7 bc ca b2 11 3d d6 59 4f bc e7 c5 3f 3d
       -0.022360783 0.035570897 -0.012655696 0.046819594
0001e0 2a f0 8e bb 48 47 44 bd 34 8a 98 bb 93 d4 44 3d
       -0.004362126 -0.04791954 -0.004655147 0.04805429
0001f0 96 4e d2 3c 66 86 ad bc ef b7 cb 3c 54 cd 15 3c
       0.025672238 -0.02118225 0.02486798 0.009143192
000200 76 f1 18 3c e2 77 f3 bb 04 08 1c bc 70 33 8c bc
       0.0093349125 -0.0074300626 -0.009523395 -0.017114371
000210 83 8c 74 3c 15 33 3f 3c fb 17 d4 3b f5 14 08 3c
       0.014926079 0.011669894 0.0064725853 0.008305778
000220 2b 98 1f 3c ad 91 b5 3c e2 3a 5e bc 5e 7f 96 ba
       0.0097408695 0.02216419 -0.013563843 -0.001148205
000230 ff 89 76 3b b2 42 9e bc 1f c4 65 bc 0c 02 ab 3b
       0.0037618873 -0.019318912 -0.01402381 0.00521875
000240 c3 85 36 3c 4d b9 ca bb b2 ee 1f bc 7f 81 9f 3b
       0.01114029 -0.0061866404 -0.009761499 0.004867732
000250 a5 b1 c5 3b c3 5d 62 3b 0b ae d9 3b b9 a9 40 bc
       0.00603314 0.003454075 0.006643062 -0.011759215
000260 2c 3a 1a b9 d2 89 c7 3c f6 f6 44 3c 0a d8 42 39
       -0.00014708255 0.02435771 0.012021771 0.00018581763
000270 f2 23 9f 3b 71 6a ad 3c ea d0 a1 bb ed f7 d7 3c
       0.00485658 0.02116892 -0.0049382346 0.026363337
000280 af 0b a2 bc 84 24 e2 bb 74 bc 92 3c a6 16 ee 3a
       -0.019780962 -0.0069013257 0.017912127 0.0018164709
000290 15 93 c4 3c 80 b5 23 36 9a 2f 2d bb c0 72 96 bb
       0.023995915 2.439454e-06 -0.0026426078 -0.004591316
0002a0 58 82 a9 3b 20 e0 d0 3b 66 ff 1e 3c b2 c6 48 bb
       0.005173009 0.006374374 0.009704446 -0.003063601
0002b0 d9 9e 24 3b 80 22 27 bb 44 50 a9 3b d6 27 13 bc
       0.0025119095 -0.0025502741 0.005167039 -0.008981666
0002c0 1a af 11 3b 18 2a 82 3c 45 f5 fb bb a4 44 f0 bb
       0.0022229613 0.015889212 -0.0076891505 -0.0073324014
0002d0 96 43 12 bc 23 1d aa ba ee 4b 97 bc bb 4b 8e 3b
       -0.008927247 -0.0012978654 -0.018468823 0.004342524
0002e0 6a a1 9f 3b 31 53 e6 bc 0f f0 6e 3c bd 56 82 3b
       0.004871537 -0.02811584 0.014583602 0.003977625
0002f0 19 89 01 3b 74 b3 c9 3c 63 c3 aa 3c f4 73 09 3c
       0.0019765554 0.024621703 0.02084512 0.008389462
000300 2c 70 1c bc 96 18 a7 3c f8 c7 f0 3c a9 e8 01 3a
       -0.009548228 0.020397466 0.029392228 0.00049556285
000310 bd 90 67 bc 4c cb ca 3b 6f 35 a9 3b 8c 12 92 3a
       -0.014133629 0.0061887857 0.0051638405 0.0011144443
000320 df cf 15 3c f1 95 12 bc e1 a7 5b 3c ee d0 8b bc
       0.009143799 -0.008946882 0.013406725 -0.017067399
000330 bd 67 80 bc 3f 14 6f 3c 71 1d be bc 23 f7 e0 bb
       -0.015674466 0.014592229 -0.023207398 -0.0068653985
000340 83 5d 87 3c 2c 4b 3b 3c 29 8c e4 bc 53 cf 88 3c
       0.016524082 0.011431497 -0.027898865 0.016700422
000350 28 7e 86 3c 6a 1b 5a bc 80 3e 6e bb 79 6a 83 bb
       0.016417578 -0.0133122 -0.003635317 -0.0040104953
000360 00 d7 01 bc f7 87 2f 3c 68 73 b0 3c 2a 5f 9c 3c
       -0.007924795 0.010713569 0.021539405 0.019088347
000370 49 d7 a7 3b c6 00 3e bc bf d0 05 bc b9 25 68 3c
       0.0051220995 -0.011596864 -0.008167445 0.01416915
000380 84 0d 1e bd a3 0f 90 3c 88 3f 43 3c 32 f3 32 bb
       -0.03858711 0.017585581 0.0119170025 -0.00273056
000390 49 25 78 3c 87 ba 9c bc c2 18 e7 3b e5 4c 3a bc
       0.015145608 -0.019131912 0.007052512 -0.011370872
0003a0 e6 fa 55 3b 07 a3 d3 bc 8e ba 71 3b 5c 75 91 ba
       0.0032650768 -0.025834573 0.0036884877 -0.0011097598
0003b0 7e 14 14 3b d2 7d 97 b9 c7 01 a9 bc 00 22 4a bc
       0.0022595222 -0.00028894708 -0.02063073 -0.012337208
0003c0 44 fb f5 3a 7d 64 a2 bb 68 0f 9e bc 14 00 47 b8
       0.00187669 -0.004955827 -0.019294456 -4.744537e-05
0003d0 3f fd d0 3a c4 43 1f bc 6c d7 12 bc 0c 91 6b bc
       0.0015944614 -0.009720746 -0.008962493 -0.014377844
0003e0 3f c1 92 38 24 80 2c bc 54 1b 92 bc 01 4e 02 bb
       6.9978174e-05 -0.010528598 -0.017835297 -0.001988292
0003f0 a7 68 d9 3b 2f 0e 1d 3b c4 40 f5 3c 44 8f e6 bc
       0.00663479 0.0023964753 0.02993811 -0.028144486

default.var_encoder.bias f4 [10]
000000 66 73 9d be 7c de 22 bd 9d ca 86 bb ec 4c 48 bd
       -0.30752105 -0.03976296 -0.004113509 -0.048901483
000010 3c 42 3f 3d 04 5b bb bb ce 1b d9 b8 0a b1 86 3d
       0.046694025 -0.005717637 -0.00010352545 0.06576736
000020 ad 6c 7f 3c fe 88 93 be
       0.015589875 -0.28815454
