models/mnist-relaxed1E/encoder_z2_z1_-6713969356749851805.pt (torch_old, 88270 bytes, 8 tensors)

default.encoder.to_hidden.weight f4 [128, 19]
000000 66 81 37 bc 1b 28 7c 3d 8f 18 a3 bc 63 50 00 3e
       -0.011200285 0.061561685 -0.019909171 0.12530665
000010 29 53 35 bd a9 78 0f 3d c3 ab 9a bd 4f a0 d2 3c
       -0.04426876 0.03502718 -0.07552292 0.025711207
000020 0d 4a 6c bd 28 fb cb 3c e1 93 7c bd 99 93 46 bd
       -0.057687808 0.024900034 -0.061664466 -0.048480604
000030 d9 e1 4f 3c 4f a0 3c be 1c 57 81 3d f1 92 4f 3e
       0.012688124 -0.18420528 0.06315443 0.20270897
000040 ad ed cb 3c 6c c8 56 be 1b da 16 3e 4a 32 ac 3d
       0.024893606 -0.20974892 0.14731638 0.084080294
000050 9f ce 37 bc 2d 24 73 3c 44 22 98 bd e9 8a 90 3d
       -0.011218696 0.014840168 -0.07428411 0.07057745
000060 cd 4c d5 bc 0c 9d 7d bc af 60 49 bd bd 06 eb bc
       -0.026037598 -0.015479337 -0.04916447 -0.028689737
000070 a3 7a fe bc 60 f2 ba be a5 57 18 3f 6a 1f ec be
       -0.031064337 -0.36513042 0.59508735 -0.46117717
000080 cf ba b8 bd 1a f6 c9 bd 8d 62 be bd b7 8b 1b 3e
       -0.09020006 -0.09861393 -0.09296141 0.15190016
000090 ab e6 7f bc c2 1b 1e be 6c 73 8d 3d 5b 8b 86 3c
       -0.01561896 -0.15440276 0.069067806 0.016423872
0000a0 48 e8 1d 3d 4c 97 a7 bd 4b 30 a6 3c 57 01 90 3d
       0.0385516 -0.081831545 0.0202867 0.070315056
0000b0 f2 db 5e 3d b4 12 02 bd 6a e2 b1 bd 02 c4 8a 3d
       0.054408975 -0.031756118 -0.08685763 0.06775667
0000c0 45 67 dd be f7 bd fd 3d 4d 50 19 bd 44 dc dd 3e
       -0.4324285 0.123897485 -0.037430096 0.43332112
0000d0 cd fe 85 3e 02 24 4d be 28 9d 61 3e d3 b3 9e 3e
       0.2617096 -0.20033267 0.22032607 0.3099657
0000e0 09 aa 5b be 64 10 b5 bc fa b0 b1 3d 4e 56 04 3d
       -0.21451582 -0.022102542 0.08676334 0.03230887
0000f0 20 2a 24 bd 13 99 8b bc 37 87 2f 3d 1d 04 42 bd
       -0.040079236 -0.017040765 0.04285356 -0.047367204
000100 fc 79 76 3d a3 d2 e1 bc 5d 1a c8 bc 01 45 1d bf
       0.060174927 -0.02756626 -0.024426633 -0.61433417
000110 62 b5 27 3f 32 e0 c1 be 7c 08 70 3d 8c e4 95 3d
       0.65511143 -0.3786636 0.05860184 0.073189825
000120 5f 6b e2 bd fc 3b 67 3e 5d 8c 5e 3e a3 4f 03 be
       -0.11055636 0.22581476 0.21733232 -0.12823348
000130 f5 bc 9c 3c 05 5d 90 bd a3 9a f3 bc 0c ba 5f bd
       0.01913307 -0.07048992 -0.029736822 -0.054620788
000140 1a 6c 88 bd 91 e1 0f 3e 1e d9 6f 3d 2f 7a 5a 3b
       -0.06661244 0.1405089 0.05855667 0.0033336987
000150 61 fa be 3d 58 12 be 3b d7 9f b5 3e 30 1d 05 bf
       0.093251 0.0058005266 0.3547351 -0.5199766
000160 e4 b8 52 3a 99 bc c3 3e f0 19 b5 3e 6d 77 e8 bd
       0.0008038415 0.38229826 0.3537135 -0.11350904
000170 af 38 50 3d a6 e9 6b 3e de 0d 36 be ed 06 14 3e
       0.050835308 0.23038349 -0.17778727 0.14455767
000180 ab 36 78 be b6 5d cf 3d 64 ff bb 3d e4 14 14 3d
       -0.24239604 0.10125296 0.09179571 0.036152735
000190 79 58 1a 3e aa 08 c0 3d cd 5c 1a bd 58 37 75 3d
       0.15072812 0.093766525 -0.037686158 0.059867233
0001a0 10 4c 08 bd f0 4f 1d be 7a 17 b1 3e d5 b5 4b be
       -0.033275664 -0.15362525 0.34588224 -0.19893582
0001b0 8f c4 13 bd da cc db 3b 4e 39 d5 bd af 9b 1f be
       -0.036076125 0.00670777 -0.104113206 -0.15586732
0001c0 b3 b6 03 3e c8 9f e9 3d 4c c0 66 3d b4 a8 d4 bd
       0.12862663 0.11407429 0.056335732 -0.1038374
0001d0 b6 83 81 bd 40 55 75 3d 26 06 22 bd 42 ee 22 3d
       -0.0632395 0.059895754 -0.039556645 0.039778
0001e0 d2 86 3d bd a2 2a 0a be 40 f3 de 3d 81 81 c5 bd
       -0.046271153 -0.13492826 0.1088624 -0.096438415
0001f0 08 c9 ed be 2d 7c 2e 3f fa 9f 9f bd 0e ae fc be
       -0.46442437 0.6815823 -0.07794185 -0.49351543
000200 ce 93 af 3c 4c a1 0c 3e f1 8a 04 be eb 6b 84 bd
       0.021432783 0.13733405 -0.12943627 -0.06465896
000210 67 cf 6b 3d dc 0d 76 bc f0 4a 9a bd 1b 87 ca bc
       0.05757084 -0.015017953 -0.075338244 -0.024722626
000220 2c dc d5 3d 76 ec 93 bd b1 49 95 3d db 94 d0 3d
       0.10442385 -0.07222836 0.07289446 0.10184642
000230 0d 1b d1 bd 0f f9 2b be 19 94 2c 3e 3a 45 80 be
       -0.10210238 -0.16794227 0.1685337 -0.25052816
000240 e5 d2 99 bc 28 2b 0c bd 50 9d 10 bd b0 a9 26 3e
       -0.01877732 -0.034220845 -0.035306275 0.16275668
000250 a6 d8 94 bd f4 66 ce 3d b1 73 8a 3d 81 78 8a 3d
       -0.07267885 0.100782305 0.06760348 0.067612655
000260 21 21 ac bc c5 e0 91 3d 08 7b ee bb 68 05 cb 3d
       -0.02101189 0.071229495 -0.00727785 0.099131405
000270 38 61 36 3d f3 af 5a 3d e8 4a cc 3a 8e 82 4b 3d
       0.04452631 0.053390455 0.0015586289 0.049685054
000280 67 dd d8 bc 2f d6 6d bd 2f 61 2e 3b f6 40 fc 3e
       -0.02647276 -0.05806559 0.002660822 0.4926831
000290 3f 5a c3 3d fd 5b 99 be af cd e8 3d 1a 74 71 bb
       0.095386975 -0.29952994 0.11367356 -0.0036842884
0002a0 11 16 3b 3e e0 4e 1e be 0b 0c 70 3e 58 a5 df bc
       0.18270136 -0.15459776 0.23442094 -0.027300522
0002b0 0b 3e 6a bd 7e 5b b6 bc b1 07 c6 bd 94 f5 c3 3d
       -0.057188075 -0.022260424 -0.09669436 0.09568325
0002c0 92 d8 fe bd 41 ba 53 3d 8c 63 a9 3d c2 ad bd bd
       -0.12443651 0.051691297 0.0827094 -0.09261657
0002d0 fc 46 58 bd 0a 68 c1 bd 4e 41 2f be 3a 16 67 bd
       -0.05280207 -0.09443672 -0.17114756 -0.05641768
0002e0 d1 99 55 bc 24 1a f7 3d 18 eb c4 3d ae 1d b5 3d
       -0.013037161 0.12065533 0.09615153 0.088435516
0002f0 c1 f6 0d 3e e5 36 2a 3e bd 7e 50 bd 85 db 3c be
       0.1386366 0.16622503 -0.050902117 -0.18443115
000300 4f d6 e5 3d fc 19 c9 3d a3 71 07 3c c0 75 73 3d
       0.11222517 0.09819409 0.008266839 0.059438467
000310 49 09 c5 bd c7 1c bc bd c7 3a c1 bd 2d f7 81 bd
       -0.09620912 -0.09185176 -0.09435039 -0.06345973
000320 53 46 86 bd 10 06 56 be 5f 7d 90 bd 6e 55 b1 3c
       -0.06556382 -0.2090075 -0.07055163 0.021647181
000330 f1 32 68 3e 85 2a 36 3e 8b 4f 20 be 58 77 06 3e
       0.22675683 0.17789657 -0.15655343 0.13131464
000340 e7 84 59 3d 63 e7 ed 3c 31 6f e0 bd 8e aa 65 3d
       0.05310526 0.029040998 -0.10958708 0.056070857
000350 0a 37 29 be 6c 1d f4 bc 14 48 ab bd fb 22 0e be
       -0.16524902 -0.029799186 -0.08363357 -0.13880531
000360 37 f5 eb bc 04 1f a6 bc c0 18 ea bd ff 09 d2 bd
       -0.028803451 -0.020278461 -0.11430502 -0.10255813
000370 fb 65 ac 3e c2 30 d8 be 0d fe 90 be 64 1b 12 3d
       0.33671555 -0.422247 -0.28318825 0.035670653
000380 5b 9d 21 3e 80 81 3a 3e f6 79 ba bd a3 4e 78 be
       0.15782683 0.18213463 -0.091052935 -0.24248748
000390 e5 c6 82 bd 08 39 0c be d2 8a 1b bd 11 aa e8 bd
       -0.06385592 -0.1369363 -0.037974186 -0.113605626
0003a0 f8 bf 8b bb 36 70 e9 3d c1 10 b2 3d 9c 7e c1 3d
       -0.004264828 0.11398356 0.08694602 0.09447977
0003b0 85 cd 70 bd 21 ac ad bd ec 9d 86 3d 40 51 85 3e
       -0.05878975 -0.084800966 0.0657309 0.2603855
0003c0 fa 98 f1 3d 9f f3 0a be 64 d2 e3 3d 83 c4 f6 3d
       0.11796756 -0.13569497 0.11124113 0.120492004
0003d0 56 8c 87 3e bc 23 ba bd 4b 59 51 3d b4 07 5f 3d
       0.26474255 -0.09088847 0.051110547 0.054450706
0003e0 0f 37 76 bc 0b 13 22 3c 06 ef 0a ba 8c 1d 1c 3d
       -0.015027775 0.0098922355 -0.00052998995 0.038114116
0003f0 e5 89 01 3e 83 fa 03 3e c5 38 d5 3b 17 92 4a bd
       0.12650259 0.12888531 0.0065070116 -0.04945573

default.encoder.to_hidden.bias f4 [128]
000000 fd 86 ec bb 06 cd 2e 3e 6e 21 50 bc bd ad 70 3e
       -0.0072182403 0.17070398 -0.012703283 0.23503776
000010 64 de 33 3e 1e af 02 3e db 27 11 ba d0 b6 fc 3b
       0.17565304 0.12762114 -0.000553725 0.0077122226
000020 44 a3 25 be 32 0d 4d 3d bc b3 20 3e cc 1d cf 39
       -0.16175562 0.050061412 0.15693563 0.00039504317
000030 1f 5d 4d be 88 7a 33 be af bd b5 bd de 66 82 be
       -0.20055054 -0.1752721 -0.0887407 -0.25469106
000040 94 d0 28 3e 06 41 5b 3d 2a dc 6a bc 99 ff a1 bb
       0.16485816 0.053528808 -0.014334718 -0.0049437997
000050 60 43 dc bc 46 b3 55 be 1b 11 e8 3d 7f da e4 bd
       -0.026887596 -0.20869169 0.113313876 -0.11174487
000060 73 e1 85 be dd b1 64 bc 5c b2 50 3e 1a ec da bc
       -0.26148567 -0.013958422 0.20380539 -0.02672391
000070 d6 5b 37 bc b4 0e 24 be da 8c c3 be 76 ca 2c 3d
       -0.011191329 -0.16021234 -0.381934 0.04218527
000080 1a f4 71 be 44 48 1e 3d f1 b9 87 bc 3f c3 e1 bd
       -0.23628274 0.038643137 -0.016568156 -0.11023568
000090 1c 75 ea 3d 16 c5 53 be e1 a7 9c be c5 c1 84 3d
       0.11448118 -0.20680651 -0.3059683 0.06482271
0000a0 aa e0 82 3c 5d 4a 34 3e e0 65 11 be 14 08 4a be
       0.015976269 0.17606492 -0.14199018 -0.19729644
0000b0 2d 0d ce 3c 17 9c 7f be 23 12 25 3e 28 e0 a6 bc
       0.025152767 -0.24961887 0.161202 -0.020370558
0000c0 01 7b 91 be 4f b6 a5 3d 76 3f 49 be 7c 89 23 3e
       -0.28414157 0.08091413 -0.19653115 0.15970415
0000d0 44 e0 1a bd 02 45 89 be 3c a6 71 be 3f b9 21 3e
       -0.037811533 -0.2681046 -0.2359857 0.15793322
0000e0 ae c7 d8 3c a1 f7 87 be 25 f7 5b be 5a ec 8d bc
       0.026462402 -0.26556113 -0.21480997 -0.017324615
0000f0 79 5c 94 be 41 da 4f be db bf 4b be ee 3e 82 be
       -0.289768 -0.20298101 -0.19897406 -0.25438637
000100 93 6f 2a 3e a2 a3 35 3e 20 ff de bd 6f 20 40 3e
       0.16644125 0.17738202 -0.10888505 0.18762372
000110 1a 4b 84 be c9 7e 33 be 0d f5 f3 3d 0b e5 df 3d
       -0.25838548 -0.17528833 0.11911974 0.10932358
000120 ac 41 cd ba d3 48 16 bd d8 78 41 3e cc 1f c9 bd
       -0.001565983 -0.036690544 0.18893754 -0.09820518
000130 b7 15 7a be 07 59 eb bb fb 4b 06 3e a4 d2 04 be
       -0.24422346 -0.0071822437 0.13114922 -0.12970978
000140 72 60 00 3e e0 b4 4f be ef ab 77 3e 85 2e 5e bd
       0.12536791 -0.20283842 0.24186681 -0.054243583
000150 b9 7d b2 3c ea 56 81 3e 4f 5e 3e be aa e9 c6 be
       0.021788465 0.25261623 -0.18590663 -0.38850147
000160 42 e1 c7 3c 4b 9d 6d bd 36 be 91 be c1 53 82 bd
       0.024399403 -0.058011334 -0.28465432 -0.06363631
000170 e1 79 23 be 8d f3 ad 3d 37 1b 61 3d 0d cb ef 3d
       -0.15964462 0.08493719 0.054957595 0.11708651
000180 ef 7c 4d 3d 39 77 0a bd 7e 37 18 be b1 a5 e2 3d
       0.050167974 -0.033805106 -0.14864919 0.110667594
000190 ea 37 ac 3c 54 9f 7a be 2c be 69 be a7 56 13 be
       0.021022756 -0.24474841 -0.22826451 -0.14388524
0001a0 d7 b4 57 3e 9c 3b cb 3d 83 6f 54 be 00 c6 28 3e
       0.21065079 0.09923479 -0.20745663 0.16481781
0001b0 fc 2f ed bd 12 83 92 be 5d 53 1a 3e df 36 42 be
       -0.11581418 -0.28615624 0.15070863 -0.18966244
0001c0 fc 1d 20 be 53 d5 c3 bd 68 02 7d be bf 1d 7e be
       -0.15636438 -0.09562173 -0.24707949 -0.24816035
0001d0 0d df 65 3e d9 21 0c be 89 f8 3a 3d be 43 e2 3c
       0.22448368 -0.13684787 0.045647178 0.027620193
0001e0 b0 d9 74 3d 10 95 28 3e 16 66 8c be 83 85 c0 bd
       0.059777915 0.16463113 -0.27421635 -0.09400465
0001f0 bb cb 78 bd 6a e5 ab bc c7 94 ce bd 68 f8 d0 bd
       -0.060741168 -0.020983417 -0.10086971 -0.1020363

default.encoder.to_out.weight f4 [128, 128]
000000 a1 4f 00 3a 64 92 93 bc 93 a1 49 bd 6a 06 a3 3c
       0.0004894678 -0.01801414 -0.049226355 0.01990052
000010 c3 2b ad bc ee 80 4c 3d b7 88 02 3c 1a e4 f8 bc
       -0.021139031 0.049927644 0.007967166 -0.030382205
000020 04 d5 e2 bb 4e db 92 3c 36 fe 71 3c e9 16 39 3c
       -0.006922366 0.017926838 0.014770081 0.011296966
000030 bb b9 8f bd d3 1b 6c 3d 09 cf 3b 3c 1c 3c a3 3c
       -0.07017847 0.057643723 0.011462935 0.019926123
000040 d7 c8 7d 3d 02 f4 c2 3c 64 5a 8d 3d 99 53 6c ba
       0.061959114 0.023797993 0.06902006 -0.00090151426
000050 5d 6e a9 3d 16 0e 4a bc b5 c0 81 bd 9e 77 7d bd
       0.08273003 -0.01233246 -0.06335584 -0.061881654
000060 49 b5 26 3d 51 2e 71 bd 4f dd e3 bb 0a a1 e4 bc
       0.04070023 -0.05888206 -0.0069538723 -0.02790882
000070 46 51 da ba bf 4e 82 3d 58 16 a5 bd 2e 0a 54 3d
       -0.0016656301 0.06362676 -0.08060902 0.05176752
000080 c1 c1 6b bd fe 1c 76 bd 99 cd e6 3b e0 fd 01 bd
       -0.057557825 -0.060086243 0.007043552 -0.031736255
000090 3e a2 7c 3d 4b 73 ab 3d 6d f4 bc bb 72 27 5e 3d
       0.061678164 0.083716 -0.0057664425 0.054236837
0000a0 5d 94 b1 bd ed b5 94 3d ee 1c 86 bd 78 7b 7b 3d
       -0.08670876 0.07261262 -0.06548487 0.061397046
0000b0 bc 9d 9b bb f3 b7 d7 bc fc 01 86 bb b4 ab 27 bc
       -0.004749028 -0.026332831 -0.004089592 -0.010233808
0000c0 20 ca 8c ba 62 4b 0a bc e2 dd 31 3d c2 a2 41 3d
       -0.001074139 -0.008440824 0.043424495 0.04727436
0000d0 d3 52 64 3c 32 fc a5 3c 68 eb 42 bd 30 b0 74 3d
       0.013935762 0.020261858 -0.047587782 0.059738338
0000e0 da f0 4c 3d 42 c7 36 bd 91 de 77 3d f4 6a 04 ba
       0.05003438 -0.04462362 0.06051499 -0.00050513376
0000f0 60 72 09 3d f0 ab 56 3d fe e4 82 bc da bb 7d b8
       0.033556342 0.052410066 -0.015978333 -6.049485e-05
000100 4f 45 a5 3c 05 d5 dd 3c 5e 1d 37 3d 06 95 c2 bc
       0.02017465 0.027079115 0.04470574 -0.0237527
000110 df cc 45 bd a0 d2 51 3d 55 34 63 bd b3 b0 98 bd
       -0.048291083 0.05122626 -0.05546983 -0.07455578
000120 2e 28 df bc 47 68 87 bd e3 2f 62 bd 27 af 11 bc
       -0.027240839 -0.06611686 -0.05522145 -0.008891857
000130 15 04 1e bd 8a c0 81 3d 04 a2 aa 3d 50 1f de 3c
       -0.03857811 0.06335552 0.08331683 0.02711454
000140 3c 1c 58 3d 1c 7e 9a bd b7 94 58 bc 28 f3 ed 3c
       0.0527613 -0.07543585 -0.01321905 0.02904661
000150 50 88 3c bd 8d 6e 0a bd 26 d4 52 b9 01 67 b6 bd
       -0.046028435 -0.033796836 -0.00020106192 -0.08906365
000160 5a bc a6 3b 0e 97 4a bd a5 76 f5 3c e2 44 72 bd
       0.005088371 -0.049460463 0.0299638 -0.059147723
000170 d6 9a a6 bc ac 68 52 3d 8c 8e 0e bc 49 50 ee 3c
       -0.020337503 0.051369354 -0.008700978 0.029091017
000180 3b d8 1b bd 4d e8 3c bd 5c d1 fe bc 41 de 4f 3d
       -0.03804801 -0.046119977 -0.03110569 0.050749067
000190 97 cf a8 ba ab 0e 2d bd 54 c4 fe 3c 27 17 9e 3b
       -0.0012879249 -0.042250317 0.031099476 0.0048245373
0001a0 46 83 2a 3c 14 92 56 3d e9 4c 88 3c c4 09 55 3d
       0.010407275 0.052385405 0.016638236 0.052011266
0001b0 18 7f 65 3d ba 0c 70 3c f5 fa 2f bd 77 a6 3c bd
       0.05602941 0.014651472 -0.04296394 -0.04605719
0001c0 e1 92 6b 3c 66 0c 36 bc ad 8d 78 3d c6 c5 74 bd
       0.01437828 -0.011111354 0.060681988 -0.059758924
0001d0 1c bb ac bc b5 47 8e bc 34 dc 81 3c 61 1b 09 3d
       -0.021085314 -0.017368177 0.015852071 0.033473376
0001e0 21 5d 72 3d d5 95 84 bc 13 34 80 3c e0 0e cb 3c
       0.059170846 -0.016184727 0.01564983 0.024787366
0001f0 da 32 06 bc e2 37 04 3d dc 4b 84 3d 4b 4b b7 3d
       -0.008190835 0.032279857 0.064597815 0.08949908
000200 d5 e1 23 3d 77 22 ba bb ac f7 25 bd 17 c6 5e bc
       0.040010292 -0.005680378 -0.0405194 -0.013597033
000210 85 2a 24 3d fd 06 be 3c a7 82 f9 bc ae 19 a4 bd
       0.040079612 0.023196692 -0.030457808 -0.080127105
000220 ef 58 4e 3d 6e 9e f4 bb e8 d3 a4 bc 14 09 49 3d
       0.050377782 -0.0074651754 -0.020120576 0.049080923
000230 38 b8 aa bc fb eb 0e bd 36 5d 26 3d 0c 06 0b bd
       -0.020839795 -0.034893017 0.040616237 -0.033941314
000240 e3 f0 d8 39 20 13 12 3d ee b1 ee 3c 0d 9d 65 3b
       0.00041378205 0.03566277 0.029137578 0.0035036237
000250 5c 00 23 bd 69 fb b3 3c 96 90 13 bd 51 0e b5 bd
       -0.039795265 0.021970468 -0.03602656 -0.08840621
000260 ce 2e 8f 3b ed d6 29 3d 25 90 6b 3d ae 03 44 3d
       0.004369593 0.041464735 0.057510514 0.04785507
000270 a3 c9 58 bd c4 27 a1 bd 52 00 54 3c 48 46 7d 3c
       -0.05292667 -0.07868913 0.0129395295 0.015458651
000280 82 92 d7 bb ca 0e 3f bc c1 7e a2 3c 3f cc 95 bd
       -0.0065787444 -0.011661241 0.019835832 -0.073143475
000290 25 55 b0 3c 78 64 e5 bc a7 e7 38 bd c7 3c 35 3d
       0.021524975 -0.028002009 -0.045142796 0.044247415
0002a0 15 78 d8 bb ba 76 16 bd 4d 2e 98 3d 45 21 88 bd
       -0.006606112 -0.03673432 0.07430706 -0.06646971
0002b0 3b aa 04 bd 84 7f 9a 3d d5 6c 92 3c b2 28 88 bd
       -0.032388907 0.07543853 0.01787416 -0.06648387
0002c0 40 15 a4 bd 3f a1 12 3d 4e b1 2b bb 5c 97 11 3d
       -0.080118656 0.035798308 -0.002619821 0.03554474
0002d0 cd b5 bf 3d e7 5f 22 bc 4a 7f 7a bd 43 48 6f 3c
       0.093608476 -0.00991056 -0.06115655 0.014604631
0002e0 93 77 82 bd 22 09 d3 3c 00 ad 21 3d a1 26 dd 3c
       -0.06370463 0.02576119 0.039471626 0.026995959
0002f0 57 17 06 bd 31 e2 e6 bc 18 b5 b2 3c fd 12 52 bd
       -0.032737102 -0.028184028 0.021814868 -0.05128764
000300 83 5e 1d bd 05 c8 af 3c c0 4d 03 3d ef 0e 96 bc
       -0.03842021 0.021457681 0.03205657 -0.018317668
000310 23 3d 2f 3c 0a f2 35 3d 7e 41 0f bd 89 ec 22 bd
       0.0106957285 0.04442028 -0.034974568 -0.03977636
000320 59 4b 83 3d 42 bd 31 bd b9 6f 3d 3d ae 0b 20 bb
       0.06410856 -0.04339338 0.046249125 -0.0024421024
000330 d6 72 6d 3d f1 ee a7 bd d6 87 3c bd 99 bb 52 bd
       0.057970844 -0.08199871 -0.04602798 -0.05144844
000340 11 e4 7e bd b8 84 5d 3d a5 34 8e 3d e3 48 4b 3d
       -0.06222922 0.05408165 0.06943635 0.049630057
000350 9f fb cd bc 5d 1f 66 bd 7c 29 04 bd 66 88 e8 3c
       -0.025144396 -0.056182254 -0.032266125 0.028385352
000360 2c a0 94 bd 57 84 9e bc 08 2a 7a 3c a5 06 77 bd
       -0.07257113 -0.019350214 0.01526881 -0.06030907
000370 90 bb 0e bc 3a 38 42 3d aa 13 c7 bc 18 90 22 bd
       -0.008711711 0.047416903 -0.024301369 -0.0396882
000380 a1 55 56 bd 44 98 08 bd d1 38 8e bd a8 5c e0 b7
       -0.052327756 -0.033348337 -0.069444306 -2.6746027e-05
000390 c4 47 90 3d 66 04 38 bc d7 47 58 3c 68 59 61 3d
       0.07044938 -0.011231517 0.013200722 0.055016905
0003a0 ff 8f 02 3d 2d 9f 5b 3d 42 3b d6 3c 84 69 8b 3d
       0.031875607 0.0536186 0.026151303 0.06807235
0003b0 75 1f 5f bc ab e9 6d 3c 2b fd 4d bd 36 cf 35 bc
       -0.01361834 0.014521043 -0.050290268 -0.011096766
0003c0 e9 11 a6 bc c5 23 15 3d b4 1b 76 bc 1e 6e 52 3d
       -0.020272212 0.036411066 -0.015021253 0.051374547
0003d0 36 1f 9a 3c 2b d5 da bc 64 b6 84 bd 81 f9 3c bd
       0.01881371 -0.026712975 -0.06480101 -0.046136383
0003e0 38 c7 ce bc 9e 33 55 3d 2a 3c 91 bd 33 8a fa bc
       -0.02524148 0.05205118 -0.070915535 -0.030583477
0003f0 14 45 63 3d 49 e9 99 3a eb 3c 57 bd 16 86 76 3d
       0.0554858 0.0011742498 -0.05254833 0.060186468

default.encoder.to_out.bias f4 [128]
000000 3f 93 97 3c f4 74 62 bc 60 d2 fe 3d 36 7c 01 bd
       0.01850283 -0.013821829 0.124424696 -0.031612597
000010 d0 25 79 bc ae 99 7a bd 86 a9 29 3e d1 17 c0 bb
       -0.015206769 -0.061181717 0.16568574 -0.005862214
000020 98 e5 d9 3d bc 65 41 3d bd c4 bd bd 9c ec 70 3d
       0.10639495 0.047216162 -0.092660405 0.0588194
000030 28 47 92 3d 20 3e 3e bd 36 df 13 bd ae c6 49 bd
       0.07142478 -0.046445966 -0.036101542 -0.04926174
000040 e7 b3 81 3c ce b7 05 3d ea 2b 02 be 07 b2 8a 3d
       0.015832854 0.032645993 -0.12712064 0.06772237
000050 44 fc 58 be a9 4e 41 3d 3b 42 2f be 25 2b c6 3d
       -0.21189982 0.047194157 -0.17115109 0.09676198
000060 ea e2 f7 bd da 4f 02 bd 13 40 a1 bc c2 0a 96 3d
       -0.12103827 -0.031814434 -0.019683873 0.07326271
000070 f9 89 3b 3d 84 06 cc 3d 55 3c 02 be f1 02 04 bd
       0.045785878 0.0996218 -0.12718327 -0.032229368
000080 0d 35 a2 bb 98 e7 23 3c 36 24 de 3d 02 c5 be 3d
       -0.004950172 0.010003947 0.108467504 0.0931492
000090 46 5e 2f be ff cd 17 be 28 9a 08 3e ea 34 ce bb
       -0.17125806 -0.14824675 0.13340056 -0.006292929
0000a0 84 91 86 bd 90 42 9b 3d 5a 16 05 3e 77 0a e0 bd
       -0.06570724 0.07581055 0.12996808 -0.10939496
0000b0 0e 3c 99 3d 34 27 ad 3d ee cc 72 3d 04 9d 83 bd
       0.07482158 0.08454743 0.059277467 -0.06426433
0000c0 6f 81 0a 3e 86 d8 a1 3d 74 a2 24 bd d9 e9 10 bd
       0.13525937 0.07902627 -0.04019399 -0.035379265
0000d0 bd 9b 93 ba 87 12 93 bc 1c da 00 be e2 cd c6 bd
       -0.0011261624 -0.01795317 -0.12583202 -0.09707238
0000e0 77 6f 29 be 77 bd 78 3d c3 df af 3d ad 95 9c 3d
       -0.16546427 0.060727563 0.08587601 0.07645736
0000f0 51 57 93 bd 0b 51 0b 3e c6 c5 b2 bd 5c b3 0c bd
       -0.07194389 0.13605134 -0.087291285 -0.034350738
000100 c6 c6 14 3e 76 02 b1 3d 78 de a6 bd 66 b2 81 bd
       0.14528951 0.086430475 -0.08147901 -0.06332855
000110 02 1a 44 be 17 a5 52 3c 45 17 ce bd 9b 53 d5 3d
       -0.19150546 0.012856743 -0.10063032 0.10416337
000120 69 3d d6 3d 60 a0 e1 bc 4f 1e 78 3e 33 83 0a 3d
       0.10460932 -0.027542293 0.24230312 0.033816528
000130 be bd 99 3d 6c 0d 06 be 8c f9 62 3b 2e c2 94 bd
       0.075068936 -0.13091058 0.0034633605 -0.07263599
000140 41 d8 e0 bc f6 14 fe 3c d4 fb 2a 3c c4 17 c3 bd
       -0.027446868 0.031015854 0.010436017 -0.09526017
000150 34 e6 4a 3d 67 db db bd df cf 32 3d b9 be 3e 3d
       0.049535945 -0.10735207 0.043655273 0.046568606
000160 c3 51 80 3d 50 ce 7f 3b aa 63 b2 3c 0e aa 03 be
       0.06265595 0.0039032884 0.02177604 -0.1285784
000170 9e 84 98 3b 91 93 c5 3d 04 4a 5a 3d d0 bf 39 bd
       0.004654481 0.09647287 0.053293243 -0.045348942
000180 04 a6 d8 ba eb 8c 35 3e fe 5a 8b 3d 99 10 18 bb
       -0.0016528969 0.17729537 0.06804465 -0.0023203252
000190 62 34 01 be 87 40 0f 3d fd 99 25 bc 8f eb 9e bd
       -0.12617639 0.034973647 -0.010107514 -0.07759773
0001a0 b8 50 0b 3d bc 01 49 bd 81 c6 00 bc ca f5 2d be
       0.034012526 -0.04907392 -0.007859827 -0.16988292
0001b0 e9 00 c4 3d ff 8d a0 3c eb bb 1d bd 92 57 1e be
       0.09570486 0.019598959 -0.03850929 -0.15463093
0001c0 01 8d f4 bd 9c 25 ae 3d 26 06 2f 3e ab 0a 4f 3d
       -0.11940957 0.08503267 0.17092189 0.050547283
0001d0 a2 b0 d8 bd 9a cd bd bd b5 ba 24 3e 8c 46 a1 bd
       -0.10580565 -0.09267731 0.16086848 -0.07874784
0001e0 b1 b2 d5 bd 74 91 4b bb be 9b e5 3d 1b a7 d5 bb
       -0.10434473 -0.0031062039 0.11211346 -0.0065201647
0001f0 7c 72 27 bd 4c 7a 51 3d 4f f0 27 3c 4e f6 6c bd
       -0.040880665 0.051142022 0.010250165 -0.057852082

default.mean_encoder.weight f4 [10, 128]
000000 fc 8e 86 3b 31 76 2a bb ad 48 01 3c 57 b7 87 3b
       0.0041064005 -0.002601039 0.007890862 0.004141729
000010 5f 11 05 3c 22 e1 aa bc 13 60 60 bb a0 62 60 bc
       0.008121817 -0.020859305 -0.0034236952 -0.013695389
000020 de 67 f9 ba fa 0e 25 bc 05 76 ef 3b 78 18 3c bc
       -0.0019028147 -0.0100743715 0.00730777 -0.011480443
000030 1f 57 07 3b 68 1d 08 3c b6 23 0d 3c d6 bf 64 3a
       0.0020651293 0.008307792 0.008614471 0.00087260955
000040 5a 88 9d 39 be 52 0f 3c ed ae 19 3b 51 93 e3 bc
       0.00030046963 0.008747755 0.002345021 -0.027780207
000050 b3 ba 13 bc 84 20 74 3c 1b a8 a8 3b e6 cf 19 bc
       -0.0090166805 0.01490033 0.005146993 -0.009387946
000060 ad 66 11 3c d6 40 a8 3b de 28 c9 bb 8a bc 12 3c
       0.0088745775 0.005134682 -0.006138905 0.008956084
000070 f6 b9 4a bb 72 04 1a bc f7 0d 14 3c 15 3e 87 3c
       -0.0030933595 -0.009400474 0.009036533 0.016509095
000080 b4 d2 97 ba 25 51 20 3c f6 b0 1e b9 4b 2a f7 3b
       -0.001158318 0.009784971 -0.00015133977 0.0075428835
000090 8b 2a 1d 3c 7b 18 ed ba fb 04 1d 3c ae da 0b bb
       0.009592663 -0.0018088961 0.009583707 -0.002134006
0000a0 0e 75 75 bb 8a 5d ee 3b e2 57 bd 3b 85 49 e2 3b
       -0.0037453803 0.0072743343 0.0057782987 0.006905737
0000b0 cd 7c fd bb f3 c0 5a bc 70 25 60 3c d0 3f df bb
       -0.0077358247 -0.013351667 0.013680801 -0.006813027
0000c0 33 4e 00 3b 59 02 66 bc 91 b8 e2 bb 7a d0 6b 3c
       0.001957786 -0.014038646 -0.0069189747 0.014392966
0000d0 6f 93 c2 3b be 77 18 3b 1e 4e 01 3b c0 87 97 bc
       0.0059379856 0.0023264731 0.00197304 -0.018497348
0000e0 bd ac 8b 3b 21 8f 35 3c 58 1f 0e bc 9f 5d 9a 3b
       0.0042625354 0.011081488 -0.008674465 0.0047108675
0000f0 6d 9f f5 3b 0d 98 d7 ba c0 21 6f 3b 26 ae c2 bb
       0.0074958117 -0.0016448513 0.0036488622 -0.0059411703
000100 6a 21 27 bc 1d 8e 25 3c a4 a8 98 3b 79 0a 87 3c
       -0.010200838 0.010104683 0.0046587754 0.016484486
000110 1b d8 6a 3c f6 20 26 bb d0 98 21 bc 3a 13 c5 bb
       0.01433375 -0.0025349236 -0.0098630935 -0.006014255
000120 e4 23 11 3a 96 45 4a bb 2e a2 40 3b 87 0b 5d bc
       0.0005536659 -0.003086423 0.0029393542 -0.013491518
000130 7f 19 39 3c 2b 01 30 3c f4 bb ba 3b f4 5b f4 3b
       0.011297583 0.010742466 0.0056986753 0.0074572507
000140 ce 88 df 3b 70 2e 4b 3c 73 9e 00 bc 61 fd 26 bc
       0.0068217283 0.012401208 -0.007850277 -0.010192246
000150 41 4d fd bc 0b 44 a1 3a 64 d1 53 ba f8 71 b0 3b
       -0.030920627 0.0012303604 -0.0008080213 0.00538468
000160 c9 f8 05 bc 9a 9d ac 3c 14 60 4d 3b b0 17 8a 3b
       -0.008176991 0.021071244 0.0031337785 0.0042142496
000170 5d 53 99 bb df 98 08 bc 8f bd 1e bc 14 b6 26 3c
       -0.004679127 -0.008337229 -0.009688749 0.010175247
000180 6d 6d 45 bc d5 bb cf 3b 33 2b 73 bc dc a8 92 bc
       -0.012050015 0.00633953 -0.014841842 -0.017902784
000190 27 ca b3 3c 94 f3 93 bc 14 c2 f4 bb 42 bf 67 bb
       0.02194698 -0.018060483 -0.007469425 -0.0035361801
0001a0 0b b3 c8 ba ea dd 4e bc 6e 2a 96 bb 03 04 e8 3b
       -0.0015312148 -0.012626151 -0.0045826947 0.0070805564
0001b0 49 5d da bc c2 0b 1c bc 7b 86 ce bb 33 56 e6 3b
       -0.02665581 -0.009524288 -0.0063026524 0.0070293187
0001c0 9e e7 f1 3b 89 66 a0 3c 0a 99 44 bc c4 54 ed bb
       0.0073823472 0.019580143 -0.011999378 -0.007242771
0001d0 0b 2a 53 3b a9 12 7c 3c 01 68 61 3b 88 b1 b4 3b
       0.0032221104 0.015385308 0.0034394267 0.0055143274
0001e0 88 43 90 ba d1 d1 97 bc 63 5b 3c bb 70 35 d2 37
       -0.0011006454 -0.018532665 -0.0028740994 2.5058835e-05
0001f0 06 1b f0 bb 88 70 48 3c 44 99 b0 3b a1 82 e6 3b
       -0.00732744 0.012233861 0.0053893644 0.007034615
000200 3b 10 3a 3b 9d cc 00 bb fe 6b 18 3c a6 8d 8a bc
       0.0028391022 -0.001965321 0.009303091 -0.016913246
000210 fb 7c a7 3c 90 d0 01 3c c3 35 d6 3c be 78 f8 3b
       0.020445338 0.00792326 0.026148682 0.007582753
000220 fa fd 52 bc b9 86 8d 3c 61 47 86 bc 43 6d e7 bc
       -0.012877936 0.017276155 -0.016391458 -0.028250342
000230 98 84 d3 3a 76 c1 47 bc 62 e0 5e 3b d4 01 4f bc
       0.0016137538 -0.012192121 0.0034008254 -0.012634713
000240 2c 04 87 3c 90 c3 15 3c bd 18 18 bb da 24 84 3b
       0.016481481 0.009140864 -0.0023208105 0.0040327134
000250 ed 57 ab bb fe 31 81 3c 4c ef 9b 3c ee e7 38 bc
       -0.0052289874 0.015770908 0.019035004 -0.011285765
000260 e9 bf ff ba df 89 04 3c 33 a1 ac bb 44 58 e9 3b
       -0.001951215 0.008089512 -0.00526824 0.007121118
000270 0d c3 75 bb 81 ad 58 bc fe a0 58 bc a4 aa fd 3b
       -0.0037500293 -0.01322496 -0.013221977 0.007741289
000280 0f a1 ce bb 78 d2 8b 3b 3f fd a3 3c 0d 12 0f 3c
       -0.006305821 0.004267033 0.020018218 0.008732331
000290 c0 b5 12 3b 63 30 d3 ba a4 14 c4 bb ff dc 2b 3b
       0.0022386163 -0.0016112443 -0.005983906 0.0026224253
0002a0 6d ef 03 bb 32 bc 1c 3c 9e 08 13 3c 10 00 f4 bb
       -0.0020131723 0.009566354 0.0089742225 -0.0074462965
0002b0 4c 14 b9 ba 2c cf 7b 3b 4e 2a 11 ba 8d 7a ba 3b
       -0.0014120429 0.0038423045 -0.0005537615 0.0056908787
0002c0 11 55 47 3c 1c d8 03 bc 94 a2 b0 b8 f5 df f9 3b
       0.0121662775 -0.00804713 -8.4226165e-05 0.0076255747
0002d0 4e 56 09 3c f2 15 09 bb 09 94 f0 bb cc ac 65 bc
       0.008382393 -0.0020917621 -0.007341866 -0.014018249
0002e0 72 05 3a bc 7f 17 19 bc a6 9d 94 3a 7e b0 1a bc
       -0.011353837 -0.009343981 0.0011338487 -0.009441493
0002f0 cf a8 f0 3a 04 6b 41 3b 5d d4 4f bc 88 e8 f4 39
       0.0018360856 0.002951325 -0.012684909 0.00046712556
000300 4e f9 23 3b 2b 4d 8a 3c 8c b0 52 bc c8 8d 21 3c
       0.0025020423 0.0168825 -0.012859475 0.009860463
000310 14 1c 51 bb 64 95 5f 3c 3d 3e 74 3c e4 fc fa 3b
       -0.0031907605 0.013646457 0.014907417 0.0076595414
000320 39 eb b2 bc f8 69 fe ba 0d 41 f3 bb e0 68 fa 38
       -0.021840679 -0.0019410243 -0.007423526 0.000119404634
000330 36 3a ce bb 9a 92 17 3c 93 03 29 3c ab d7 86 bb
       -0.0062935604 0.009251261 0.010315794 -0.004115065
000340 92 08 c0 3a e7 48 02 bc 15 9f da bc 08 81 43 bc
       0.0014650992 -0.007951952 -0.026687184 -0.011932619
000350 78 47 78 ba a4 63 0a bc a8 89 29 bb a3 4f 07 3c
       -0.0009471099 -0.008446608 -0.0025869403 0.008258733
000360 60 19 de 3b 77 7d b6 bb 34 70 84 bb 18 0c a2 38
       0.0067779273 -0.005569156 -0.004041696 7.7270146e-05
000370 01 a0 71 bb 25 d4 ce ba 24 48 4e 3c fa 6b b2 3b
       -0.0036869051 -0.0015779777 0.012590442 0.0054450007
000380 db d0 1b 3c 54 1a 1f 3c 21 2f b0 3b e0 db bf bb
       0.009510244 0.009710867 0.005376712 -0.0058550686
000390 b0 f3 b3 bb 61 4d 63 bc c9 e9 20 3a e5 b3 c1 bb
       -0.0054916963 -0.013873429 0.00061383523 -0.0059113377
0003a0 75 eb 68 3b c5 0b c4 3b 4d 6f 8b bc 0d 71 5c bc
       0.0035540734 0.0059828483 -0.017020846 -0.013454688
0003b0 c6 cf 91 bb 6a 24 fd ba 56 0c b8 bb 88 70 81 bb
       -0.0044498174 -0.001931322 -0.005616705 -0.0039501823
0003c0 04 f5 0c 3c 5c d7 b2 3c 75 07 17 bb c5 d3 1d bc
       0.008603338 0.021831207 -0.0023045216 -0.009633009
0003d0 b3 cf cb bb a8 83 88 3c 66 a3 4b bc 4e e9 8b bc
       -0.006219828 0.016664341 -0.012429094 -0.017079022
0003e0 14 a6 34 3c b2 f5 f4 39 69 1f 45 bb 3a 80 a3 3c
       0.011025924 0.00046722364 -0.0030078536 0.019958604
0003f0 c4 ac 3c 3c bb 61 02 3b 72 6b 33 3c 24 05 c5 bb
       0.0115158 0.0019894678 0.01095091 -0.0060125757

default.mean_encoder.bias f4 [10]
000000 d8 c2 ef bb 47 e5 46 bd 7d 3e d1 bc 98 58 fc 3c
       -0.0073169284 -0.0485585 -0.025542492 0.030803964
000010 73 02 82 3c 4e 3d 0f bc 46 ea 81 3a dd 51 00 bd
       0.015870309 -0.0087426435 0.0009911738 -0.03132807
000020 d2 2b fc bc 64 a5 c7 bb
       -0.030782614 -0.006092714

default.var_encoder.weight f4 [10, 128]
000000 c7 1b 82 bc 09 a7 cd ba fd c3 7b 3b 42 bc 96 3b
       -0.015882386 -0.0015690039 0.0038416379 0.004600079
000010 2f 92 1c bc 58 a8 0c bc 82 ac 9b 3c eb ad 0c bc
       -0.009556337 -0.008585058 0.019003157 -0.008586387
000020 6d f1 ce bc fc 0a 80 bc 42 40 c5 bc 24 f0 9d bc
       -0.025261605 -0.015630238 -0.024078492 -0.019279547
000030 75 d0 ef 3a 79 02 f7 bb 9e fb a8 3b 4f 10 e4 3b
       0.0018296378 -0.0075381366 0.005156948 0.006959952
000040 5a c5 cb bb fb 72 9e bc c3 00 ad 3b d2 fd 97 bc
       -0.0062185945 -0.019341936 0.005279632 -0.018553648
000050 b8 a0 8f 3b 3d c4 51 bc 76 d3 99 3c c5 12 bb 3c
       0.004383173 -0.0128031345 0.01877759 0.022836098
000060 cd 4a 68 3b 51 22 bc bb 2d 44 8e 3b e0 33 12 bc
       0.0035444975 -0.0057413955 0.0043416233 -0.008923501
000070 5d de f8 bb 23 fc 6e 3b 12 8d 10 bc 99 be b1 bb
       -0.007594867 0.0036466203 -0.008822696 -0.0054243323
000080 74 c3 c4 bc 36 05 3d 3a 30 89 13 ba 01 af d1 3c
       -0.02401898 0.00072105543 -0.00056280475 0.025596144
000090 fe bf 86 bb 46 1d 5e bb 27 43 61 3b e5 c6 5e 3c
       -0.0041122427 -0.003389196 0.0034372301 0.013597225
0000a0 be 8f 48 3c 7f 7d c3 bc 2f 1a f0 3c 6f ec 82 3b
       0.012241302 -0.023863552 0.02930936 0.0039954702
0000b0 b2 59 92 3b 4e 7c 4a ba cf da 96 3b 30 1a 55 ba
       0.004466259 -0.00077242113 0.0046037207 -0.00081292074
0000c0 60 03 9c 3b ae 63 8e 3b 5e c3 5d 3c 9d 33 47 bb
       0.0047611445 0.004345379 0.013535349 -0.0030395754
0000d0 8f 66 46 3c 19 c4 6b ba a6 8c 1f bc e7 b0 19 bb
       0.012109413 -0.00089937594 -0.009738123 -0.002345139
0000e0 27 f9 72 3c 2a 29 9a 3b d9 01 c9 bb 45 fd 10 bb
       0.01482991 0.004704614 -0.0061342535 -0.0022123617
0000f0 97 83 90 3c aa 1e d3 bb 47 08 04 3c 61 54 46 bc
       0.017640872 -0.0064428644 0.008058614 -0.012105078
000100 82 d1 cb 3b 58 00 62 3b dc f5 08 3c 5d b9 28 3a
       0.0062200436 0.0034485068 0.008359399 0.00064363127
000110 93 05 96 3c 2b 17 bd bb 71 34 59 3b 4f 76 68 3c
       0.018313205 -0.005770584 0.003314283 0.014188363
000120 0e 01 42 3c e6 77 38 bc e8 30 d2 bc 06 f4 88 3b
       0.011841072 -0.011259055 -0.025658086 0.0041794805
000130 9e 80 19 3c f9 be 0b b9 88 31 34 bc 10 5f 1f bc
       0.009369044 -0.00013327216 -0.010998137 -0.0097272545
000140 d7 03 35 3c 01 62 0b bd 23 e0 01 bc d9 4c f4 3c
       0.011048279 -0.03402901 -0.0079269735 0.0298218
000150 c9 83 bb 3c 13 f6 e4 3b d0 fa 5e 3c c6 82 05 3c
       0.022889988 0.006987342 0.013609603 0.008148855
000160 fd 7e 3b 3c 65 8b ee 3c 25 22 e7 3b 56 b8 cb 3b
       0.011443851 0.029119203 0.007053631 0.006217043
000170 39 05 81 3c 12 5a f4 bb cc 41 58 3c d6 00 bc bb
       0.01574956 -0.0074570263 0.013199281 -0.0057374043
000180 f9 d9 2c 3b 58 e8 f4 bc 4e 64 ac 3b fe dd f9 bb
       0.002637504 -0.029895946 0.0052609807 -0.0076253405
000190 99 8c a8 39 8f ef 80 bc 29 80 82 3c c3 56 24 3c
       0.0003214821 -0.01573923 0.015930252 0.010030451
0001a0 d3 13 31 3c 79 47 9e bb 20 80 a9 bb ee 04 16 bc
       0.010807949 -0.0048302975 -0.0051727444 -0.009156449
0001b0 bf 94 bd 3c 9c 74 e1 bc 6b ce 50 3c 1c ef 8b bb
       0.023142217 -0.027521424 0.012744526 -0.0042704474
0001c0 76 51 3e 3a 8c 51 f1 ba 74 25 51 3a 6a 51 d3 3b
       0.00072600634 -0.0018411144 0.0007978298 0.0064489143
0001d0 e6 1d ad 3c eb ee 17 bc 0b de c1 ba 71 cc ad 3c
       0.02113242 -0.009273271 -0.0014790905 0.02121565
0001e0 06 e4 83 bc 55 a7 c0 3a 71 9d 7e bc 83 b0 23 bc
       -0.016099941 0.0014698306 -0.015540467 -0.009990814
0001f0 66 b6 12 ba b1 48 8b 3c 1a 76 5b 3c 83 2b cf bb
       -0.00055966375 0.017002435 0.013394857 -0.0063223257
000200 49 f1 86 3b bb 6e 38 3c 71 0a 98 3c c9 fa 00 bc
       0.004118119 0.011256869 0.018559666 -0.007872292
000210 1b 1f 82 bc 77 24 87 3c f0 9c 20 3c ec f3 26 3a
       -0.015883973 0.01649688 0.009803042 0.00063687447
000220 b3 b1 ec bb d5 76 4c bc c3 b3 c5 bb 0e a4 da 3b
       -0.007223332 -0.012479504 -0.006033392 0.006672389
000230 53 36 4d 3c a1 ed 66 3c bb 81 cf 3b ff 75 6e bb
       0.012525159 0.014094741 0.0063326037 -0.003638625
000240 93 40 b0 3b b1 3e 02 bd 25 cc c4 bb b0 90 87 ba
       0.0053787916 -0.03179807 -0.0060057812 -0.0010342803
000250 31 26 66 bc 38 88 1e bc 14 40 c4 3c fd 91 13 bc
       -0.0140471915 -0.009676032 0.023956336 -0.009006974
000260 20 4c b5 b7 2d de 56 3c 23 6a 44 3c ef 70 b9 3c
       -2.161233e-05 0.013114494 0.011988196 0.022636859
000270 bc 73 e0 bc 9d f5 9a 3b 8e 9e ae ba c5 2f c9 3c
       -0.027398936 0.0047289864 -0.00133224 0.024558911
000280 98 a3 f7 3b e8 5b 91 3c e6 27 04 bc e8 dd 81 bb
       0.0075573437 0.01774402 -0.008066153 -0.003963221
000290 d2 67 d8 bb 00 ea 8d bc 27 3c 03 bb 33 9e 87 bc
       -0.006604173 -0.017323494 -0.0020024867 -0.016554927
0002a0 89 55 4f bc 32 57 fd b8 15 80 cc ba d5 a1 5a bc
       -0.0126546705 -0.000120802215 -0.0015602136 -0.013344248
0002b0 2a 5e 12 3c 16 7d 16 bc 98 0a 34 bc 92 6d 35 bc
       0.008933583 -0.009185096 -0.010988854 -0.011073487
0002c0 97 7b 54 3c 80 3a 24 3c 46 7f 4b 3c 7f b3 4b bc
       0.012968919 0.010023713 0.012420481 -0.012432932
0002d0 bd a3 15 3c f3 c2 b5 3c 62 e0 0c ba 9d b6 5f 3c
       0.0091332765 0.022187686 -0.0005374012 0.013654378
0002e0 d2 7d 32 3c e1 4c 02 3c e0 ce 3b 3c c5 41 82 3c
       0.010894256 0.0079529 0.011462897 0.015900502
0002f0 09 bc 1f 3c 3a 09 14 3c e8 b5 9c bc d9 ba 32 bc
       0.009749421 0.009035403 -0.019129708 -0.010908806
000300 de 4a 09 3c 19 ae 31 bc f5 30 a1 bc f4 70 94 bb
       0.008379666 -0.010844731 -0.019676665 -0.0045300666
000310 f5 f7 bb 3b e0 23 79 bb f6 8d c3 bc e3 31 9f 3b
       0.005736346 -0.0038015768 -0.023871403 0.004858242
000320 ea e2 27 3a f6 b5 cf 3c 9d 0f da 3b c9 ab 17 3b
       0.0006404357 0.02535532 0.0066546933 0.0023143163
000330 59 2c 59 3c 40 3b 89 bc 6e a7 e2 bb 05 6b d5 bb
       0.013255202 -0.016751885 -0.006916932 -0.006513002
000340 79 a5 bf 3b dd 80 53 bb 0d 6a a4 bc f7 cb a2 bb
       0.0058485833 -0.0032272853 -0.0200701 -0.004968162
000350 d1 9b be bc bb c9 28 b9 3f 11 b0 3c d8 a8 87 bb
       -0.023267658 -0.00016096879 0.021492599 -0.004140001
000360 aa f4 11 3c 3f cf 95 ba df 70 87 3a b7 a6 81 3c
       0.00890843 -0.0011429562 0.0010333321 0.015826566
000370 cb 35 3d bc 89 a4 04 3c 5b 57 ad bb 66 6d 16 bc
       -0.01154847 0.008095869 -0.0052899546 -0.009181356
000380 31 96 f9 bb ba 1a db bb 93 0c 18 bc e2 cb 77 3c
       -0.007616781 -0.0066865357 -0.009280342 0.015124293
000390 ef f4 a6 3a 72 51 b0 bc c6 1f 4d 3c 8d 16 c9 39
       0.0012737791 -0.021523211 0.012519782 0.0003835451
0003a0 5d cf 74 3b d2 e7 2c bc e5 53 4f 3c d2 91 06 3c
       0.0037355043 -0.010553317 0.012654279 0.008213477
0003b0 c6 a5 b7 3b 3f 49 48 bc 24 22 41 bc 4c b7 1e 3b
       0.0056044785 -0.0122244945 -0.011787925 0.002421814
0003c0 24 5b 12 bc 66 70 24 3c 7f 51 f4 3b 49 8e d0 bb
       -0.008932862 0.0100365635 0.007456004 -0.006364618
0003d0 30 02 ac 3b 0b 7a f4 bb f8 9b c4 bc 5e 06 62 ba
       0.005249284 -0.0074608377 -0.024000153 -0.00086221646
0003e0 b0 4f 26 3b b0 79 85 bb 8a 00 1d 3c dd a2 70 3c
       0.0025377087 -0.004073344 0.009582648 0.014687267
0003f0 d0 6c 6e 3b bd cc 1c 3c 0b 59 e2 bb 1a 10 9b ba
       0.0036380775 0.009570298 -0.0069075874 -0.001183036

default.var_encoder.bias f4 [10]
000000 f4 d1 be bb 5f ef 41 bd fb 40 40 be 5e cc d7 3c
       -0.005823368 -0.047347423 -0.18774788 0.026342567
000010 6c 13 c7 bc 01 65 bd be b1 da 38 bc 5e 59 e3 3b
       -0.024301253 -0.36991122 -0.011282609 0.0069381436
000020 30 38 91 bc de 3f 67 bd
       -0.017726988 -0.056457393
