models/mnist-relaxed1E/encoder_z1_-2028092783849733043.pt (torch_old, 516075 bytes, 14 tensors)

default.encoder_cv.0.weight f4 [32, 1, 3, 3]
0	0xbd891a1a	-0.066944316
1	0xbe3b520b	-0.18293016
2	0xbe53a631	-0.20668866
3	0xbe7b134d	-0.24519081
4	0xbe4802a6	-0.1953226
5	0xbe27d666	-0.1639038
6	0xbd841f60	-0.06451297
7	0x3eca613d	0.39527312
8	0x3eb2d949	0.349314
9	0x3df31857	0.11869877
10	0x3e20ff8e	0.15722486
11	0xbe2aca81	-0.16678812
12	0x3e7e7595	0.24849541
13	0xbeb63cf2	-0.35593373
14	0x3e42d98e	0.19028303
15	0x3ea9d544	0.3317052
16	0xbe953d6d	-0.29148427
17	0x3e9d9a17	0.30781624
18	0xbcb148c7	-0.021641148
19	0xbd66ab46	-0.056315683
20	0xbe049455	-0.12947209
21	0x3e1dc5d6	0.154075
22	0x3d7be073	0.06149335
23	0x3ea82e00	0.32847595
24	0xbe3c5d49	-0.1839496
25	0xbe98668f	-0.29765746
26	0x3e9ba96c	0.30402696
27	0x3c1b36e5	0.009473537
28	0xbea3179c	-0.3185395
29	0xbed09787	-0.40740606
30	0xbe6036c2	-0.21895888
31	0x3e98a270	0.2981143
32	0xbe37bc13	-0.17942838
33	0x3e9541e4	0.29151833
34	0xbd6f0983	-0.05835868
35	0x3eabccff	0.33554837
36	0x3dfb078a	0.12257297
37	0x3e3959db	0.18100683
38	0xbe9b97ef	-0.30389354
39	0xbcf5f1e9	-0.030022578
40	0x3c8ec871	0.017429562
41	0x3ced3421	0.028955521
42	0x3dda9e28	0.10674697
43	0xbdac3339	-0.084082074
44	0xbec60716	-0.3867728
45	0xbe578179	-0.21045484
46	0x3e6711e7	0.22565423
47	0x3e93c7ac	0.28863275
48	0x3e0a4f1b	0.13506739
49	0xbd565c86	-0.05233433
50	0xbd3a732b	-0.04551999
51	0x3dec0448	0.11524254
52	0xbdbbbdaf	-0.09167039
53	0xbe2586ec	-0.1616475
54	0xbdb99123	-0.09060886
55	0x3e10d13b	0.14142315
56	0x3eaf27b9	0.34209993
57	0xbdc47247	-0.09592109
58	0xbe5d3d20	-0.21605349
59	0xbe4df13d	-0.20111556
60	0xbe6f7d89	-0.23387732
61	0xbe7e5ae7	-0.24839364
62	0xbed0ccb2	-0.4078117
63	0xbe08a03f	-0.13342379
64	0xbe9a5494	-0.30142653
65	0x3e96d3ac	0.29458368
66	0x3e86d464	0.26333916
67	0x3dcabcd2	0.09899296
68	0xbd398e10	-0.045301497
69	0xbe6281b3	-0.22119789
70	0xbe5f30fb	-0.21796028
71	0xbe6bb3c6	-0.23017797
72	0x3e7d272e	0.24721977
73	0x3e8c202d	0.27368298
74	0xbeac9609	-0.33708218
75	0x3e8ba7d1	0.2727647
76	0xbebd092f	-0.3692107
77	0xbec0d341	-0.37661174
78	0xbebf0468	-0.3730805
79	0xbedb9e1b	-0.42894062
80	0x3e7f4b48	0.24931061
81	0xbe280ece	-0.16411898
82	0x3e6a1944	0.228612
83	0xbe0fea57	-0.14054237
84	0xbe905555	-0.28190103
85	0x3ca010be	0.019539233
86	0x3e9ecc74	0.3101536
87	0x3d840304	0.06445888
88	0x3df1a7b9	0.11799569
89	0xbd9cd868	-0.07658464
90	0xbe409cf2	-0.1880987
91	0x3e14e154	0.14539081
92	0x3e94fb12	0.290978
93	0xbec36dcb	-0.38169703
94	0x3e88023d	0.26564208
95	0xbe96645c	-0.29373443
96	0xbe4939df	-0.19650982
97	0x3e857d5c	0.26072204
98	0xbe80852c	-0.25101602
99	0x3cbd5791	0.023113044
100	0xbccd43c0	-0.02505672
101	0x3e51c08c	0.20483607
102	0x3df34b34	0.11879578
103	0x3e4a34a2	0.1974664
104	0x3e8f44fc	0.27982318
105	0xbe319618	-0.17342412
106	0xbd966fc3	-0.073455356
107	0x3e1c3a7a	0.15256682
108	0xbe5ec641	-0.21755315
109	0xbcb72913	-0.022358453
110	0xbe29bf8e	-0.16576979
111	0x3e388028	0.18017638
112	0xbd5af11b	-0.053452592
113	0xbe3e409f	-0.18579338
114	0x3e88aed6	0.2669589
115	0x3ed430f7	0.41443607
116	0xbe537653	-0.20650606
117	0xbe96c5ad	-0.2944769
118	0xbdd18237	-0.10229915
119	0x3d802704	0.06257442
120	0x3d8f831a	0.070074275
121	0xbed16694	-0.40898573
122	0x3dcfeddd	0.10152791
123	0x3da7f1ff	0.08200454
124	0xb99dc980	-0.00030095503
125	0xbea456fb	-0.3209761
126	0xbe09c4b6	-0.13453946
127	0x3e891406	0.2677309
128	0xbe9de38a	-0.3083766
129	0x3dd10c85	0.10207466
130	0xbcecd09f	-0.028908072
131	0xbd9c5610	-0.076336026
132	0x3987c318	0.00025894563
133	0xbe3017e3	-0.17196612
134	0xbe469430	-0.19392467
135	0x3e31dd62	0.17369607
136	0xbec6b7ae	-0.3881201
137	0xbe4fef7b	-0.20306198
138	0x3e935d5d	0.28782168
139	0xbd6128c4	-0.054970518
140	0xbdc31d02	-0.09527017
141	0xbebabf8a	-0.36474258
142	0x3e8731ba	0.26405126
143	0x3e67b304	0.22626883
144	0x3e906cb7	0.28207943
145	0x3c3458fa	0.011007542
146	0xbe8aa0f8	-0.27075934
147	0xbec9b4b6	-0.39395684
148	0x3ce5b10c	0.028038524
149	0x3d910a85	0.070820846
150	0xbed2fc43	-0.41208085
151	0x3e2a05b9	0.16603746
152	0x3dd11505	0.10209087
153	0x3e85ce6d	0.26134053
154	0x3d696586	0.056981586
155	0x3e9e6897	0.3093917
156	0xbcf7b11d	-0.030235821
157	0x3cf1c242	0.029511575
158	0x3dd70ee3	0.10500886
159	0x3e0e7fde	0.13915965
160	0xbd86c34b	-0.06580218
161	0xbe810034	-0.25195467
162	0xbe8be27b	-0.27321228
163	0xbe60ff3a	-0.21972361
164	0x3ede18c8	0.43378282
165	0x3dc9cd24	0.098535806
166	0xbd9fba88	-0.0779925
167	0x3e40bd97	0.18822323
168	0xbda99f0d	-0.0828229
169	0x3d94b16e	0.072604045
170	0x3cbdb8fd	0.023159498
171	0xbe7087c1	-0.23489286
172	0x3e699486	0.22810563
173	0xbda873dd	-0.08225224
174	0x3c4f594f	0.01265557
175	0x3ec2fb7c	0.38082492
176	0x3cd5daf2	0.026105378
177	0xbe47a772	-0.19497469
178	0x3eb2796a	0.34858257
179	0xbdbe2d9a	-0.092860416
180	0x3d86cf3e	0.06582497
181	0x3e144d61	0.14482643
182	0x3e4f852f	0.2026565
183	0x3e276f7a	0.16351119
184	0x3da1147b	0.078652345
185	0x3daa5bb7	0.083182745
186	0x3e82336d	0.2542986
187	0xbd4a39d6	-0.049371563
188	0x3dec591a	0.11540432
189	0x3da009e8	0.078143895
190	0x3e44f02b	0.19232242
191	0xbeaa0d4b	-0.33213267
192	0xbdcf3e38	-0.10119289
193	0x3e2a9d9a	0.16661683
194	0x3e8d808d	0.2763714
195	0x3cccf2ea	0.025018174
196	0x3e28c3b6	0.16480908
197	0x3e29b7c2	0.16574004
198	0x3e1d1347	0.15339385
199	0xbdb43705	-0.08799557
200	0x3eed8243	0.46388444
201	0xbc270b95	-0.010195632
202	0xbe7cb5de	-0.24678752
203	0x3e4ba937	0.19888769
204	0xbe3b862f	-0.18312906
205	0xbec9cd56	-0.3941447
206	0x3d873c3c	0.06603286
207	0xbddffd6e	-0.1093701
208	0x3b919ffb	0.00444412
209	0x3e03956e	0.12849972
210	0x3cb03e51	0.02151409
211	0xbd237b02	-0.03991223
212	0x3e13bcc4	0.14427477
213	0xbc154067	-0.009109593
214	0x3ea46cd2	0.32114273
215	0x3d76bc78	0.06023833
216	0x3e2e1f93	0.17004232
217	0x3dfd18c2	0.12358238
218	0xbd9c4b86	-0.076315925
219	0x3ed45380	0.41469955
220	0xbe2a8eb4	-0.16656
221	0x3ebf6d91	0.3738828
222	0xbe98f47e	-0.29874033
223	0xbeb2dc93	-0.3493391
224	0xbe6eda4c	-0.23325461
225	0x3d460f5b	0.048354488
226	0x3e94c0ed	0.2905344
227	0x3e8d4c05	0.2759706
228	0x3d7083cc	0.05871944
229	0xbdbbf6ed	-0.09177957
230	0xbd899022	-0.06716944
231	0xbe2ccd09	-0.1687509
232	0xbe8b4a25	-0.27205005
233	0xbd6ab945	-0.057305593
234	0x3d6c252d	0.05765264
235	0x3cfde3cc	0.030992411
236	0xbe02eb5d	-0.12785096
237	0x3e3c1883	0.18368725
238	0x3e570815	0.20999177
239	0x3ea31bc0	0.3185711
240	0xbea8193b	-0.3283175
241	0xbdc80137	-0.09765857
242	0x3d087810	0.033317626
243	0x3e1ecc59	0.1550764
244	0xbe43a5a4	-0.19106156
245	0xbea4b73f	-0.32171056
246	0x3ddd9aca	0.10820539
247	0x3eac3fd7	0.33642456
248	0xbebd34a1	-0.36954215
249	0xbe884f81	-0.26623157
250	0xbd876893	-0.06611743
251	0xbba53aa0	-0.005042389
252	0x3d93c0c3	0.07214501
253	0x3e8056d2	0.2506624
254	0x3ea293f4	0.31753504
255	0xbe6ae82c	-0.22940129

default.encoder_cv.0.bias f4 [32]
0	0xbcf8b3bd	-0.030359143
1	0xbe407a74	-0.18796712
2	0x3d8d667a	0.069043115
3	0x3e2d0546	0.16896543
4	0x3e4ecbaf	0.20194887
5	0xbd192aaf	-0.037394222
6	0x3d3166a9	0.043310795
7	0x3e794b53	0.2434514
8	0x3cc78224	0.024354048
9	0x3e0bd28c	0.13654536
10	0x3d9a5266	0.075352475
11	0xbddb034b	-0.106939875
12	0xbe1306c6	-0.14358053
13	0x3e2482ec	0.16065568
14	0xbd2c1804	-0.04201509
15	0x3d0d8579	0.034551118
16	0x3e0ee313	0.1395381
17	0xbe46fcdd	-0.19432397
18	0xbe38ef2b	-0.18059985
19	0xbe94745e	-0.2899503
20	0xbeb15391	-0.3463407
21	0xbe1046f5	-0.14089568
22	0xbda5178a	-0.0806113
23	0xbe4ab2d2	-0.19794777
24	0xbde28ff6	-0.110626146
25	0xbe4fbf3d	-0.20287795
26	0x3cb06ff2	0.021537755
27	0x3dcb3a26	0.099232
28	0xbe898ba2	-0.26864344
29	0x3b245bec	0.0025079204
30	0xbdf43fcc	-0.11926231
31	0x3e7dd53f	0.24788378

default.encoder_cv.4.weight f4 [64, 32, 3, 3]
0	0xbd9e7ee7	-0.077390485
1	0xbdbaa2a2	-0.09113051
2	0x3d8a8e75	0.06765453
3	0x3914d3d4	0.00014193292
4	0x3da62d8a	0.08114155
5	0x3d3aad62	0.045575507
6	0x3d162440	0.036655664
7	0x3cd8bbfc	0.026456825
8	0x3d147ffa	0.03625486
9	0x3d81d7ec	0.06340012
10	0x3cf98d0f	0.03046277
11	0x3dbb911c	0.09158537
12	0x3d7f5392	0.06233556
13	0xbb621d8d	-0.0034502477
14	0x3c97d3e9	0.018533664
15	0x3ce065bd	0.027392263
16	0xbd73a806	-0.05948641
17	0xbcb8eeb0	-0.022574753
18	0x3cdb3638	0.026759252
19	0xbcd40e8a	-0.025885839
20	0x3b67ecd0	0.0035388954
21	0x3ca9b649	0.020716803
22	0xbacf5d7d	-0.0015820708
23	0xbc002350	-0.007820919
24	0xbd740e1c	-0.05958377
25	0xbbaa31d8	-0.00519393
26	0xbd014def	-0.031568464
27	0xbd3087f9	-0.043098424
28	0xbd79a90d	-0.060952235
29	0xbd3d87ba	-0.046272017
30	0xbd4114ca	-0.047138967
31	0x3c92352b	0.017847618
32	0xbc0c6c0d	-0.008570683
33	0x3d9a0f0a	0.075224
34	0xbd343fa5	-0.04400601
35	0xbb8854e0	-0.0041605085
36	0xbc6670d7	-0.014064989
37	0xbcab05c0	-0.020876765
38	0xbd2a3898	-0.04155788
39	0x3b933bdc	0.00449322
40	0xbccc6173	-0.024948811
41	0x3d71b3a8	0.059009224
42	0x3d5e1136	0.054215632
43	0xbb08b078	-0.0020857137
44	0xbcd3eceb	-0.025869807
45	0x3cd84343	0.02639926
46	0x3d8a68c6	0.06758265
47	0x3db00a02	0.08595659
48	0x3cfbcde9	0.030737834
49	0x3d0d9a10	0.034570754
50	0x3aa564bd	0.0012618523
51	0xbc99af71	-0.018760415
52	0x3d47119e	0.048600785
53	0x3daf5c70	0.08562553
54	0xbc1aca34	-0.009447623
55	0x3dc49b18	0.09599894
56	0xbd2d2820	-0.042274594
57	0x3db60162	0.088869825
58	0xbc82693e	-0.015919324
59	0x3d4176a8	0.0472323
60	0x3ce01fcc	0.027358912
61	0x3ddac121	0.10681368
62	0x3cc8eb21	0.02452618
63	0x3d8d7de8	0.0690878
64	0x3c96f2bc	0.018426292
65	0x3b2aa9b1	0.0026041085
66	0x3d2831d4	0.041063145
67	0x3d1fa60f	0.038976725
68	0x3d057f8a	0.032592334
69	0x3cc7db3b	0.02439653
70	0x3d499e85	0.04922344
71	0x3d7e9427	0.062153008
72	0x3cb66d6e	0.022268977
73	0x3d7ae428	0.061252743
74	0x3c77866e	0.015107734
75	0x3e11f2b8	0.14252746
76	0xbbb9fbc6	-0.0056757657
77	0x3d275af3	0.04085822
78	0xbd9be7e5	-0.0761259
79	0xbc37b956	-0.011213621
80	0x3e82349e	0.2543077
81	0x3d071f1c	0.032988653
82	0x3d54c1de	0.0519427
83	0x3d759fbe	0.059966795
84	0x3c89b721	0.016810955
85	0xbd78d677	-0.060751405
86	0x3b873330	0.004125975
87	0x3d424e12	0.047437735
88	0x3b797f86	0.0038070395
89	0xbcf69ce6	-0.030104112
90	0x3c872905	0.016499052
91	0x3cfb6f4e	0.030692723
92	0xba9ed6dd	-0.0012118478
93	0x3ccd7016	0.02507786
94	0xbd126925	-0.035744805
95	0xbd54b24b	-0.051927846
96	0xbd523733	-0.051322173
97	0x3d26d780	0.04073286
98	0x3d65b99c	0.056085214
99	0x3bc220cc	0.00592432
100	0x3d21724d	0.039415646
101	0x3d95b476	0.07309811
102	0xbd775486	-0.060383342
103	0xbc1c222d	-0.0095296325
104	0xbd2c5e80	-0.04208231
105	0xbc859dc1	-0.016310574
106	0xbd4b0abd	-0.049570788
107	0x3c4e85e4	0.012605164
108	0x3ca2d80f	0.019878415
109	0xbad9cc99	-0.0016616761
110	0xbd49e07f	-0.04928636
111	0x3ca3b1e5	0.019982288
112	0xbdc1fef3	-0.09472456
113	0x3cd3e289	0.025864856
114	0x3e239102	0.15973285
115	0x3bfba76f	0.0076798717
116	0xbcea881c	-0.028629355
117	0xbd88f47c	-0.06687257
118	0x3dc06e6d	0.09396062
119	0x3a331f16	0.000683294
120	0x3da8f334	0.08249512
121	0x3d63ba37	0.05559751
122	0x3b81e11b	0.0039636022
123	0xbc9eb9ee	-0.019375768
124	0x3cb5160e	0.022105243
125	0x3c88bfda	0.016693044
126	0xbc4090eb	-0.011753301
127	0x3c2b9d80	0.010474563
128	0xbd60415a	-0.054749824
129	0x3d4ad5bf	0.04952025
130	0xb9071fca	-0.00012886446
131	0x3d0cbaf0	0.034357965
132	0xbd1d7c97	-0.038448896
133	0x3cc899cd	0.0244874
134	0x3d1f481d	0.038887132
135	0xbdc73626	-0.09727125
136	0xbcec9b09	-0.02888252
137	0xbccfe38b	-0.025377056
138	0x3cf6013a	0.030029882
139	0x3c9c07c5	0.019046674
140	0xbc9c50ed	-0.019081557
141	0x3bbe7225	0.005811947
142	0x3d4ee01d	0.0505067
143	0x3c2c9eaa	0.010535875
144	0xbc728c9e	-0.014804034
145	0xbbd77c80	-0.006576121
146	0x3d6fdf93	0.058562826
147	0x3c9a0ade	0.01880401
148	0x3d81fa20	0.06346536
149	0x3cb3bf9f	0.021941958
150	0xbd9f1866	-0.077683255
151	0xbc20daf2	-0.009817826
152	0xbc03cee1	-0.008044929
153	0x3db39437	0.08768504
154	0x3d168406	0.036747
155	0x3d462414	0.04837425
156	0xbd1016ca	-0.035177983
157	0x3bf439e8	0.007453192
158	0x3c0e567d	0.008687613
159	0x3d2604cd	0.040531922
160	0xbd265eda	-0.0406178
161	0x3c1f5df5	0.009726991
162	0x3bb24e30	0.0054414496
163	0x3d9b2639	0.0757565
164	0x3e296aa0	0.1654458
165	0xbc7f0f00	-0.015567541
166	0x3d650ea5	0.05592217
167	0x3d81d168	0.06338769
168	0xbca3f5ba	-0.020014632
169	0xbd0eaff0	-0.034835756
170	0xbbee6432	-0.007275128
171	0x3ccd6881	0.025074245
172	0x3d8fe1fb	0.07025524
173	0x3d7f8318	0.06238088
174	0x3a2ff3d9	0.00067120563
175	0xbc0e803e	-0.0086975675
176	0x3d099c34	0.033596233
177	0x3cd1ed97	0.025625987
178	0x3c1e397e	0.009657262
179	0xbc69daab	-0.014273326
180	0x3d84c864	0.06483534
181	0x3d35066e	0.044195585
182	0x3d182dfc	0.03715323
183	0x3ca7cac7	0.020482434
184	0xbda08a98	-0.07838935
185	0xbca31b60	-0.019910514
186	0xbc990273	-0.018677926
187	0xbd127227	-0.035753395
188	0x3cdf7094	0.027275361
189	0x3db30640	0.087414265
190	0x3d2d00dd	0.04223715
191	0x3d41417e	0.0471816
192	0x3d4a282d	0.04935472
193	0x3abaf72c	0.0014264337
194	0x3d55756c	0.052113935
195	0xbc6cfb49	-0.014464208
196	0x3b80f7fa	0.003935811
197	0xbd6cb053	-0.057785343
198	0x3cefaa1d	0.029255921
199	0x3e067523	0.13130622
200	0x3de45944	0.111498386
201	0x3d6f814f	0.058472928
202	0x3cb58fe3	0.022163337
203	0x3b5aa8f6	0.0033364869
204	0xbd5c23e5	-0.05374517
205	0x3c7bf00e	0.015377058
206	0xbc01dd03	-0.007926228
207	0x3b50ce79	0.0031861349
208	0xbba6853e	-0.0050818017
209	0x3d9f4bc5	0.07778124
210	0xbcbb1df6	-0.022841435
211	0xbd1ee4a7	-0.03879228
212	0x3d60af27	0.05485454
213	0x3c143c0e	0.009047521
214	0x3c81e51a	0.015856314
215	0xbc8bc4a1	-0.017061533
216	0x3c8eee75	0.01744769
217	0x3cdde90f	0.02708867
218	0x3d83acc4	0.06429437
219	0x3dd24867	0.10267716
220	0x3cb02083	0.021499878
221	0x3d77fedd	0.06054579
222	0x3d6fd45a	0.058552124
223	0x3ce47d5c	0.027891807
224	0x3dcbbcb9	0.09948105
225	0x3cb5210c	0.022110485
226	0xbc9163a2	-0.017747704
227	0x3dc67f3d	0.096922375
228	0xbbcd2419	-0.0062604067
229	0xbcfe6df9	-0.031058298
230	0x3dc70286	0.09717278
231	0xbced8b54	-0.0289971
232	0x3d991f57	0.07476681
233	0x3c77d793	0.0151270805
234	0x3ccd12ac	0.025033318
235	0x3db644df	0.08899855
236	0x3d50e8ff	0.051003452
237	0x3ca0b0d6	0.019615572
238	0x3d83273e	0.06403969
239	0x3d0eedca	0.034894742
240	0x3cfbd982	0.030743364
241	0xbd56a22a	-0.052400745
242	0x3b4399d0	0.0029846318
243	0x3d1999de	0.037500255
244	0x3c6d0865	0.014467333
245	0xbdc08abf	-0.09401464
246	0x3d87b275	0.06625835
247	0x3c33085a	0.010927284
248	0xbc83f7a2	-0.016109291
249	0x3cf34289	0.029694812
250	0x3dba20c5	0.090882815
251	0x3e10f31c	0.14155239
252	0x3d5a70ae	0.053330116
253	0x3d8fc9e5	0.0702093
254	0x3e02c3d1	0.1277001
255	0x3ca3af76	0.019981127

default.encoder_cv.4.bias f4 [64]
0	0x3bf77e02	0.007552863
1	0xbd258328	-0.040408283
2	0xbcdcf0e6	-0.026970338
3	0xbd355f28	-0.0442802
4	0x3d466f19	0.048445795
5	0xbd60ace6	-0.05485239
6	0xbceb1485	-0.028696308
7	0x3d12728b	0.035753768
8	0xbd92d76f	-0.07169997
9	0xbdcf1d41	-0.101130016
10	0xbccd437c	-0.025056593
11	0xbcbc2fd2	-0.022972021
12	0xbd44840f	-0.047977503
13	0xbc92c4ea	-0.017916162
14	0xbcadf5f7	-0.02123545
15	0xbd014ee8	-0.03156939
16	0xbbf3ad9c	-0.0074364673
17	0xbba72f2c	-0.005102059
18	0xbd007916	-0.031365477
19	0xbd5ad44e	-0.053425126
20	0xbda89a6a	-0.08232577
21	0x3d02512c	0.031815693
22	0xbd375f02	-0.04476834
23	0xbd4d20fd	-0.05008029
24	0x3b9c0119	0.004760873
25	0xbdb695b6	-0.08915274
26	0x3d5075cd	0.050893594
27	0x3d71c477	0.059025254
28	0xbd9316ba	-0.07182069
29	0xbd6fcc85	-0.058544654
30	0xbd2cb6ec	-0.042166635
31	0x3d1b6392	0.037936755
32	0xbb9c4597	-0.004769038
33	0xbd1b9c72	-0.037990995
34	0xbdab3a9e	-0.0836079
35	0xbc1c11c4	-0.00952572
36	0xbd0e18d0	-0.03469163
37	0xbd407bf9	-0.04699323
38	0x3a1ca59a	0.0005975604
39	0xbceb06b7	-0.028689725
40	0xbcd2753f	-0.025690673
41	0xbcbc6854	-0.022998966
42	0xbd96d266	-0.07364349
43	0xbdbb5084	-0.091462165
44	0xbd827445	-0.06369833
45	0x3c8abad1	0.016934784
46	0xbb025c25	-0.0019891348
47	0x3cb3796c	0.021908484
48	0x3cb3cb82	0.021947626
49	0xbd936b4c	-0.071982
50	0xba99397f	-0.0011690109
51	0xbdab9f53	-0.08379998
52	0xbdb2e834	-0.087356955
53	0x3d0fa809	0.03507236
54	0xbdb8ca0d	-0.09022913
55	0x3be2d8e0	0.006922826
56	0xbb7428fc	-0.0037255874
57	0xbd44b112	-0.04802043
58	0xbd249a2f	-0.040186103
59	0x3b66b934	0.0035205605
60	0xbda2fae1	-0.079580076
61	0xbdaaebda	-0.08345766
62	0xbc8f424f	-0.017487673
63	0xbdb20e5e	-0.086941466

default.encoder_cv.8.weight f4 [128, 64, 3, 3]
0	0x3d96a378	0.07355398
1	0x3cca42c4	0.02469004
2	0x3bead4f3	0.007166499
3	0x3d9e81de	0.07739614
4	0xbc587bcb	-0.013213108
5	0x3cdb8e01	0.026801111
6	0xbd5ef460	-0.054432273
7	0x3d0faa44	0.035074487
8	0xbdbc6a97	-0.09200018
9	0x3d051c52	0.03249771
10	0x3d8543e3	0.06507089
11	0x3c573448	0.013135023
12	0x3c4762fd	0.012169597
13	0x3cf18c5c	0.029485874
14	0xbd1652d2	-0.036700077
15	0x3dbc1039	0.09182782
16	0xbd00ba70	-0.0314278
17	0xbcb8c93f	-0.0225569
18	0xbc39a1ea	-0.011330107
19	0x3b8178d0	0.0039511696
20	0x3d2e9f65	0.04263248
21	0xbc855cd9	-0.016279625
22	0x3c744e1a	0.014911199
23	0xba93da6c	-0.0011280305
24	0x3d9a3550	0.075297
25	0x3d2891e0	0.041154742
26	0xbdbcd533	-0.09220352
27	0x3cb994cf	0.022653965
28	0x3d82d5fc	0.063884705
29	0x3c9f8143	0.019470816
30	0x3c6fad11	0.014628665
31	0xbbba8058	-0.0056915693
32	0xbc269e5f	-0.010169595
33	0x3d2bb702	0.041922577
34	0xbc27a63c	-0.010232504
35	0xbc929b36	-0.017896276
36	0x3af8d966	0.0018985688
37	0x3be5dde3	0.0070149763
38	0xbc05403b	-0.0081329895
39	0x3c5a700a	0.013332376
40	0x3bd8ec05	0.0066199326
41	0x3d1ad884	0.03780414
42	0xbc14f40e	-0.00909139
43	0xbd450583	-0.04810096
44	0xbcd22d39	-0.02565633
45	0x3cbe7804	0.023250587
46	0x3c7b6a91	0.015345232
47	0x3d85f0be	0.065400586
48	0x3aea4222	0.0017872492
49	0x3cedd761	0.029033365
50	0x3d909a3e	0.07060669
51	0x3cfa4e59	0.030554937
52	0x3debc1b8	0.11511558
53	0xbc1c62e8	-0.009545065
54	0xbbdb1542	-0.0066858837
55	0x3d5f38f4	0.054497674
56	0x3d517912	0.051140852
57	0xbc823475	-0.015894154
58	0x3d0092c7	0.031389978
59	0xbb02f717	-0.0019983703
60	0x3baa1913	0.0051909774
61	0x3d3d55e2	0.046224482
62	0xbd74e738	-0.05979082
63	0xbdb9a2c8	-0.09064251
64	0xbdd4dbd0	-0.103934884
65	0xbda6ed2d	-0.081507064
66	0x3b5b9eb4	0.0033511342
67	0xbbf6e2e6	-0.0075343726
68	0x3d914041	0.070923336
69	0xbb963bbe	-0.0045847585
70	0x3c8a81f0	0.016907662
71	0x3e2081f8	0.15674579
72	0x3d97e265	0.07416228
73	0x3de61576	0.11234562
74	0xbd0c556a	-0.034261145
75	0xbcc7b292	-0.024377141
76	0x3deb3cfd	0.11486242
77	0xbdb8024c	-0.08984813
78	0xbc255841	-0.010091842
79	0xbdb2dba5	-0.087333
80	0xbd22d926	-0.03975787
81	0x3d76d6cb	0.060263436
82	0x3d86c91b	0.065813266
83	0x3c30cf14	0.010791559
84	0xbd93a5dc	-0.072093695
85	0x3da852f3	0.08218946
86	0xbd1b5652	-0.03792412
87	0xbc863681	-0.016383411
88	0xbb9a6ca7	-0.0047126594
89	0x3d45330b	0.04814438
90	0x3d7f9f33	0.062407684
91	0xbc9a864e	-0.01886287
92	0xbc54b5bc	-0.012982782
93	0xbc6b7739	-0.014371687
94	0xbc576468	-0.013146497
95	0xbd913c6f	-0.07091605
96	0x3d65d5b9	0.056112025
97	0x3d90e78b	0.07075413
98	0x3d28183d	0.04103874
99	0xbd13313f	-0.035935637
100	0xbc854eae	-0.016272869
101	0xbd13514c	-0.035966203
102	0xbd1645cd	-0.03668766
103	0x3cc873fd	0.02446937
104	0xbcdbad6b	-0.02681609
105	0x3d6c2cf9	0.057660077
106	0x3d8f5792	0.069991246
107	0xbcbd238b	-0.023088237
108	0x3d352e37	0.044233527
109	0x3cd4f8d8	0.025997564
110	0x3d2f4396	0.042789064
111	0x3d098e7a	0.033583142
112	0x3d9d128e	0.07669555
113	0x3dc25e94	0.094906956
114	0x3d99c550	0.075083375
115	0x3dcde4d5	0.10053412
116	0x3ca19719	0.01972537
117	0xbcc4e7e9	-0.024036365
118	0x3cb8560a	0.022501964
119	0x3d4b0d55	0.04957326
120	0xbcd8bb55	-0.026456514
121	0x3d5d7fea	0.054077066
122	0x3d185b1d	0.037196267
123	0xbe3c9852	-0.1841748
124	0x3d0a0fbe	0.03370642
125	0xbde7ce1b	-0.113186084
126	0xbacccdaf	-0.0015625263
127	0xbcad246f	-0.021135537
128	0xbd75bb60	-0.059993148
129	0x3d885606	0.06657033
130	0xbd3f87fd	-0.046760548
131	0x3cf916f5	0.030406455
132	0xbe043e1f	-0.12914322
133	0xbda62ab6	-0.08113615
134	0x3c3bdd74	0.011466373
135	0xbdbc3fa1	-0.09191824
136	0xbc96aca8	-0.018392876
137	0xbcc1648f	-0.02360752
138	0x3d65da29	0.056116257
139	0xbc401e0e	-0.011725916
140	0x3c28900a	0.010288248
141	0xbcee1dde	-0.029066976
142	0xbc2c3f30	-0.010513112
143	0x3d28fa56	0.041254364
144	0x3d9c5516	0.07633416
145	0x3aedb415	0.0018135334
146	0x3c4834d4	0.012219626
147	0xbc021ee4	-0.007941935
148	0x39edabd9	0.000453322
149	0xbb07691b	-0.0020662013
150	0x3c7ec7fe	0.015550612
151	0xbbf822ff	-0.0075725312
152	0xbcf42763	-0.029803937
153	0x3a7d3cd5	0.0009660249
154	0x3d938ba8	0.07204372
155	0x3d1474fb	0.036244374
156	0xbd1176ed	-0.035513807
157	0xbcd6d0fc	-0.026222698
158	0x3ae581e0	0.0017510019
159	0x3c45de2a	0.012076894
160	0x3ca92831	0.020649048
161	0x3d9a304d	0.07528744
162	0x3bc920d1	0.006137945
163	0xbd7e4f10	-0.06208712
164	0x3d5e7955	0.05431493
165	0xba9f7083	-0.0012164268
166	0x3d538c11	0.05164725
167	0x3cb061ee	0.021531072
168	0xbb787996	-0.0037914268
169	0x3bd40073	0.00646978
170	0xbc1f5b94	-0.009726424
171	0x3d7e32b2	0.062060066
172	0x3beb51d8	0.0071813874
173	0x3cf10f62	0.02942628
174	0xbbb00d2a	-0.005372663
175	0x3c3e1ee6	0.011604046
176	0xbc904197	-0.0176094
177	0xbc3f0614	-0.011659164
178	0x3cdae8e5	0.02672238
179	0xbd2e58dd	-0.042565215
180	0xbaf38d54	-0.0018581548
181	0xbd85086f	-0.06495749
182	0xbd897836	-0.067123815
183	0xbd02d3d2	-0.03194029
184	0x3d57b8f2	0.052666612
185	0x3cce63f3	0.025194144
186	0x3d7a7304	0.061144844
187	0x3dde1fb6	0.10845892
188	0x3e060a01	0.13089754
189	0x3d8ff745	0.07029585
190	0x3d1b430c	0.037905738
191	0xbcba4426	-0.022737574
192	0x3d390824	0.04517378
193	0x3d17bb7f	0.037044045
194	0xbceed8a2	-0.029156033
195	0xbd151592	-0.036397524
196	0xbcddc825	-0.027072975
197	0xbb9de378	-0.004818376
198	0x3d9469c5	0.072467364
199	0x3cd3f321	0.025872769
200	0x3b24d3fd	0.002515077
201	0x3d38100a	0.04493717
202	0xbcfaca01	-0.030613901
203	0x3cf6f739	0.030147182
204	0x3d4058f0	0.046959817
205	0x3c25252b	0.010079662
206	0xbd84dc37	-0.06487315
207	0xbcb0de20	-0.021590292
208	0x3d857abf	0.065175526
209	0xbcaefb3e	-0.021360036
210	0x3cdece66	0.027198028
211	0xbb31618e	-0.0027066204
212	0xbba2ab5c	-0.0049642753
213	0x3dd7c9c2	0.10536529
214	0x3a48be7e	0.000765778
215	0xbcf081be	-0.02935874
216	0xbc9a0a18	-0.018803641
217	0xbd521b34	-0.051295474
218	0xbd2678c5	-0.04064252
219	0xbd75ee1f	-0.060041543
220	0x3cc67a78	0.02422832
221	0x3cb142df	0.021638332
222	0xbbb1047c	-0.005402146
223	0x3cd9bdff	0.026579855
224	0x3c0363bc	0.008019384
225	0xbd05dd76	-0.032681905
226	0x3c76ec7d	0.015071032
227	0xbd83d32a	-0.06436761
228	0x3c9a1b81	0.018811943
229	0x3c20e372	0.009819852
230	0xbd2610eb	-0.040543478
231	0x3e2ad7f6	0.16683945
232	0xbc83788a	-0.016048688
233	0xbde4922c	-0.111606926
234	0xbd563de9	-0.052305136
235	0xbd7faad5	-0.062418777
236	0xbd478fe6	-0.048721217
237	0xbc45c9ec	-0.012072068
238	0xbd188b31	-0.03724212
239	0xbcb39f7c	-0.021926634
240	0xbd4b03e1	-0.049564246
241	0xbdbaa952	-0.091143265
242	0x3c23c8c5	0.009996598
243	0xbd150565	-0.036382098
244	0x3c2339d7	0.009962521
245	0xbce9e4cc	-0.028551482
246	0x3d21fede	0.0395497
247	0x3c9fd238	0.01950942
248	0x3c47479e	0.012163071
249	0x3d565f9f	0.052337285
250	0xbd55833d	-0.05212711
251	0xbc487708	-0.0122354105
252	0x3d7772ae	0.0604121
253	0xbcc4ef45	-0.024039874
254	0x3c01f492	0.007931845
255	0x3c19c58d	0.009385479

default.encoder_cv.8.bias f4 [128]
0	0xbd80afa2	-0.06283499
1	0xbc7a801b	-0.015289332
2	0x3d85d1b4	0.06534138
3	0xbc9fc6f7	-0.019504054
4	0xbd545038	-0.051834315
5	0xbd5ab59c	-0.053395852
6	0xbd961a31	-0.07329214
7	0xbb24cef7	-0.0025147775
8	0xbd015da2	-0.031583436
9	0x3d2865dc	0.041112766
10	0xbd1cfd09	-0.03832725
11	0xbd452571	-0.04813141
12	0xbd80789e	-0.06273006
13	0xbd0540ff	-0.03253269
14	0xbbf3d0a0	-0.0074406415
15	0x3c1c5c3f	0.009543478
16	0x3ce5645a	0.028001953
17	0xbdbb16ce	-0.09135209
18	0xbd58a9b2	-0.05289621
19	0xbd306e8a	-0.04307417
20	0xbd7fa11d	-0.06240951
21	0xbd038f74	-0.03211923
22	0xbdd8b221	-0.105808504
23	0xbb940902	-0.0045176754
24	0xbd40161f	-0.046896096
25	0xbcfc70a2	-0.030815426
26	0x3d2e4252	0.042543717
27	0xbc80eabe	-0.015736934
28	0xbd3addaf	-0.04562157
29	0xbdf36920	-0.118852854
30	0xbcc9de1c	-0.024642043
31	0xbd269bf9	-0.04067609
32	0xbda0b03e	-0.078461155
33	0xbd1c9bee	-0.038234644
34	0xbd886299	-0.06659431
35	0x3c2f926a	0.01071606
36	0xbc865ceb	-0.016401729
37	0x3c964009	0.018341081
38	0x3d136aa6	0.03599038
39	0xbdc2bc05	-0.09508518
40	0xbda82219	-0.082096286
41	0x3c9f9cbc	0.019483916
42	0xbd4efd1b	-0.05053435
43	0xbdb9a1e6	-0.09064083
44	0xbc568cdb	-0.013095106
45	0xbcdc9ef0	-0.026931256
46	0xbd02a888	-0.031899005
47	0xbc89cfcb	-0.016822716
48	0xbb6d5144	-0.0036211768
49	0xbc2889f5	-0.010286798
50	0xbc42cb7f	-0.011889338
51	0xbd48a08d	-0.04898124
52	0xbbdd765d	-0.006758495
53	0xbd043cc3	-0.03228451
54	0xbc8adeb5	-0.016951898
55	0xbc246c9d	-0.010035661
56	0x3ca72a92	0.020406041
57	0xbd21fd5b	-0.03954826
58	0xbb394101	-0.0028267505
59	0xbd05dc3f	-0.032680746
60	0xbb8d75c4	-0.0043170173
61	0xbca0e998	-0.019642636
62	0x3d0f9057	0.035049763
63	0x3beb6461	0.007183597
64	0xbd8e1434	-0.06937447
65	0xbdb1b778	-0.08677572
66	0xbdb70ad3	-0.089376114
67	0xbce179a9	-0.027523832
68	0xbdb41b59	-0.08794279
69	0xbbff65a7	-0.0077941003
70	0xbd92b39e	-0.071631655
71	0xbd6f9da1	-0.058499936
72	0xbd8d1bd4	-0.068900734
73	0xbd2d6600	-0.042333603
74	0xbc64ab7f	-0.0139569035
75	0xbd722c17	-0.05912408
76	0xbd0f7cd9	-0.035031173
77	0xbdb0b7f8	-0.08628839
78	0xbc06d0e4	-0.008228514
79	0xbd881860	-0.06645274
80	0x3c27746d	0.010220629
81	0x3d5ef7a4	0.054435387
82	0xbdc196bc	-0.094525784
83	0x3aeb6fbd	0.0017962378
84	0xbda419cf	-0.08012735
85	0xbce6a039	-0.028152572
86	0x3d121367	0.035663035
87	0x3a8b752c	0.0010639778
88	0x3ca09e0b	0.01960661
89	0xbc8187db	-0.015811851
90	0xbd08c150	-0.033387482
91	0x3cce3808	0.025173202
92	0xbcc34ab7	-0.023839338
93	0xbc9cfc45	-0.01916326
94	0xbca813b7	-0.020517213
95	0xbd625b04	-0.05526258
96	0x3cf9dc63	0.030500596
97	0xbd5ced8c	-0.05393748
98	0xbd0f8046	-0.03503444
99	0xbba4ee38	-0.0050332807
100	0xbd691eda	-0.056914188
101	0xbd85593e	-0.06511162
102	0xbd6b57b3	-0.057456683
103	0xbc7d0dd0	-0.015445188
104	0xbd1c66e2	-0.038184054
105	0xbd5a5698	-0.05330524
106	0xbc5e3383	-0.013562086
107	0xbd323664	-0.043508902
108	0xbd7fd33f	-0.06245732
109	0xbd11fafc	-0.035639748
110	0xbe0e0d3e	-0.13872239
111	0xbd433ee5	-0.047667403
112	0xbdfb555a	-0.12272139
113	0xbd931435	-0.071815886
114	0xbd22d4fe	-0.039753906
115	0xbd3a9172	-0.045548864
116	0xbd4ab6e0	-0.04949081
117	0xbb5e287f	-0.003389865
118	0x3ca9accd	0.02071228
119	0x3d43664e	0.047704987
120	0xbd22595b	-0.039635997
121	0xbd56f716	-0.052481733
122	0xbd0c3161	-0.03422678
123	0xbd29d268	-0.041460425
124	0xbd82b458	-0.06382054
125	0xbd19fcaf	-0.037594493
126	0xbe015dbe	-0.12633416
127	0xbd1ea493	-0.03873117

default.encoder_fc.0.weight f4 [128, 128]
0	0xbbcf7f20	-0.006332293
1	0xbd5483f2	-0.051883645
2	0x3d9e5413	0.0773088
3	0x3d1b0502	0.037846573
4	0xbd93ca55	-0.07216326
5	0x3d24511a	0.040116407
6	0xbd893296	-0.066991016
7	0xbd6249ab	-0.055246036
8	0xbd5e1dd0	-0.05422765
9	0x3ca199cc	0.019726656
10	0x3d1bf986	0.03807976
11	0x3da828fd	0.08210943
12	0x3d7de70a	0.061987914
13	0x3d92493f	0.07142877
14	0xbd31fe12	-0.04345519
15	0x3d790022	0.060791142
16	0xbc8cde40	-0.01719582
17	0x3d4f008e	0.05053764
18	0x3d0bf574	0.03416963
19	0x3d782df2	0.060590692
20	0x3c22dcf8	0.009940378
21	0x3c95ba08	0.018277183
22	0xbd9f88e5	-0.077897824
23	0xbbdd3b60	-0.006751463
24	0xbd2c8f34	-0.042128757
25	0xbc32a6d0	-0.010904029
26	0x3cc03948	0.023464814
27	0xbd6d0130	-0.05786246
28	0xbd79cb5e	-0.06098496
29	0x3d1c56fe	0.0381689
30	0x3d31030e	0.043215804
31	0x3d658e4a	0.0560439
32	0xbd400005	-0.04687502
33	0xbc9d6874	-0.019214846
34	0xbdaa2bb4	-0.08309117
35	0xbdaf6d43	-0.08565762
36	0x3d855d79	0.06511969
37	0x3da921fd	0.08258436
38	0x3d1b065e	0.03784787
39	0xbd0b58f1	-0.034020368
40	0xbd33977f	-0.04384565
41	0xbd29b498	-0.041431993
42	0xbd9136cc	-0.0709053
43	0xbc8990a8	-0.01679261
44	0xbd0d501d	-0.03450023
45	0x3caef648	0.02135767
46	0xbcac2cb4	-0.02101741
47	0xbd0985b0	-0.03357476
48	0x3d1b6d96	0.037946306
49	0xbd9e4f80	-0.07730007
50	0xbda1fbbe	-0.07909344
51	0x3c94d268	0.018166736
52	0x3bef68d0	0.007306196
53	0x3bfcc5d0	0.007714011
54	0x3d235f92	0.039886065
55	0x3c843ef4	0.0161433
56	0xbd870b35	-0.065939344
57	0xbd5c4232	-0.053774066
58	0xbc8126b8	-0.015765533
59	0x3c8c17c0	0.017101169
60	0xbcb5dddc	-0.022200517
61	0x3dadfdf9	0.08495707
62	0x3c081d10	0.00830771
63	0xbd010613	-0.031499933
64	0xbc962138	-0.018326387
65	0x3c602440	0.013680518
66	0x3cdf83c0	0.027284503
67	0x3ca81044	0.020515569
68	0xbd7fec37	-0.06248113
69	0x3a6fc280	0.0009146109
70	0xbcda31f8	-0.026635155
71	0x3da379df	0.079822294
72	0x3c2b8a28	0.010469951
73	0x3d81e053	0.063416146
74	0xbd9ad59b	-0.07560273
75	0x3d859535	0.065225996
76	0x3d709fc6	0.05874612
77	0xbd1b3a8d	-0.037897635
78	0x3bc18180	0.00590533
79	0xbd818366	-0.063238904
80	0x3daf26f1	0.08552349
81	0x3cfe497c	0.0310409
82	0xbc92af1c	-0.017905764
83	0x3d9b3053	0.075775765
84	0xbcbba158	-0.022904083
85	0xbdb31a69	-0.08745272
86	0xbd43343e	-0.047657244
87	0xbbca1a00	-0.00616765
88	0x3dad3ce5	0.0845888
89	0xbce5a886	-0.02803446
90	0x3dadbec1	0.08483649
91	0x3d5365d6	0.05161079
92	0x3d15bcfc	0.036557183
93	0x3d9ce45f	0.07660746
94	0x3d264cb2	0.040600486
95	0xbd746dfa	-0.059675194
96	0x3d8622f5	0.06549636
97	0x3cf7e0f0	0.030258626
98	0x3d8c37e9	0.068466015
99	0xbd45827d	-0.048220146
100	0x3d829741	0.06376506
101	0x3d86128d	0.06546507
102	0xbda0ea3c	-0.07857177
103	0xbda56530	-0.080759406
104	0xbd740dbc	-0.05958341
105	0x3da9e307	0.08295255
106	0x3d0d9090	0.034561694
107	0xbd818f46	-0.06326155
108	0x3d918817	0.07106035
109	0x3d2ca0b2	0.04214544
110	0xbda14634	-0.07874718
111	0x3d6806ea	0.05664722
112	0x3d07e40e	0.033176474
113	0x3ccfbf70	0.02535984
114	0x3c1dcf08	0.00963188
115	0xbd9ad7cb	-0.075606905
116	0x3d211686	0.03932812
117	0x3c6b2ab8	0.014353447
118	0xbd14064b	-0.036138814
119	0xbcf599fe	-0.029980656
120	0xbd1d689f	-0.038429853
121	0xbd96b226	-0.07358198
122	0x3d824545	0.06360868
123	0x3d22f43e	0.03978371
124	0xbc7e46a0	-0.015519768
125	0x3d27ae86	0.040937923
126	0x3c23a320	0.0099876225
127	0x3da378dd	0.07982037
128	0x3c578378	0.013153903
129	0xbb7749e0	-0.0037733242
130	0xbda0891d	-0.07838652
131	0x3d1dced2	0.038527317
132	0x3adae380	0.001669988
133	0x3d4656a6	0.04842248
134	0xbcaf27c4	-0.021381266
135	0x3cefae44	0.029257901
136	0xbc154638	-0.00911098
137	0x3da072cf	0.07834398
138	0x3da12b09	0.078695364
139	0xbceaff02	-0.02868605
140	0x3c71a3c8	0.014748521
141	0x3d85a5a1	0.06525732
142	0x3d86bebb	0.06579348
143	0x3d949017	0.072540455
144	0xbd386481	-0.045017723
145	0x3c911c24	0.017713614
146	0x3ce5eb90	0.028066427
147	0x3d36ba6a	0.044611372
148	0x3d903de7	0.07043057
149	0x3d40363e	0.04692673
150	0xbd854d55	-0.065088905
151	0xbc9b96a8	-0.018992737
152	0x3d3323ea	0.043735422
153	0x3dad6c1b	0.08467885
154	0xbdab0805	-0.08351139
155	0xbc733868	-0.014844991
156	0xbbafc080	-0.005363524
157	0x3d2b489a	0.041817285
158	0xbdb0cb16	-0.086324856
159	0x3d80d26b	0.06290134
160	0xbd933a52	-0.07188858
161	0xbc78d008	-0.015186317
162	0xbcc0344c	-0.023462437
163	0xbc386a48	-0.011255808
164	0x3d61c0de	0.055115573
165	0x3d733d2e	0.059384517
166	0xbd6921b1	-0.056916896
167	0xbda815ab	-0.08207258
168	0x3dad52df	0.08463072
169	0xbaba3b40	-0.0014208332
170	0xbd952dbb	-0.07284113
171	0x3cc17d44	0.023619302
172	0x3d199e16	0.037504278
173	0x3da08805	0.07838444
174	0x3d8cb049	0.06869561
175	0x3d8dc84d	0.0692297
176	0x3cf5c2d4	0.030000128
177	0x3d80088b	0.062516294
178	0x3d5ec182	0.054383762
179	0x3d73bce2	0.059506305
180	0x3cca3d34	0.024687387
181	0x3da92dd1	0.08260692
182	0x3c900ed8	0.017585203
183	0xbcce7b04	-0.025205143
184	0xbce9e83c	-0.02855312
185	0x3d5e79a6	0.05431523
186	0xbc200d18	-0.009768747
187	0xbd75607c	-0.059906468
188	0x3cdf1310	0.02723077
189	0x3d425dd2	0.047452755
190	0xbc5f1670	-0.013616189
191	0x3cd7bbc0	0.026334643
192	0xbd9805f5	-0.07423011
193	0x3daf02ed	0.0854548
194	0x3d04343a	0.03227637
195	0xbad57d00	-0.0016287863
196	0x3da7d025	0.08193997
197	0x3d461ca2	0.04836715
198	0x3a07b780	0.0005177185
199	0xbca2195c	-0.019787483
200	0x3d6a59fa	0.057214715
201	0x3d8cbd79	0.068720765
202	0xbd8a9986	-0.067675635
203	0x3b784ec0	0.0037888736
204	0xbd2474a7	-0.04015031
205	0xbcf7aa92	-0.030232701
206	0xbcb59628	-0.022166327
207	0xba224e80	-0.0006191507
208	0x3d1fa38a	0.038974322
209	0xbd3ca44f	-0.046055134
210	0x3db34151	0.087526925
211	0xbd9b2c8c	-0.07576856
212	0x3d1e865e	0.03870236
213	0xbca1a2d4	-0.019730963
214	0x3d9b21b7	0.0757479
215	0xbd0f789b	-0.035027128
216	0xbbafeac0	-0.0053685606
217	0xbd26399c	-0.040582284
218	0x3d971303	0.07376673
219	0xbd880e9b	-0.06643411
220	0xbbdaad20	-0.00667347
221	0x3d8d0cb5	0.06887189
222	0xbd08523d	-0.033281554
223	0xbdb2b0a2	-0.08725096
224	0x3d34fcee	0.044186525
225	0xbd0b3a83	-0.033991348
226	0xbd0e7d1f	-0.034787294
227	0x3ccbcdf0	0.024878472
228	0x3d996edf	0.0749185
229	0x3db042eb	0.086065136
230	0xba4c7700	-0.0007799715
231	0x3d9e890f	0.077409856
232	0xbd9cb06c	-0.07650837
233	0x3cd3c650	0.025851399
234	0xbd221c76	-0.039577924
235	0x3d8ae6f3	0.06782331
236	0xbcdacc6c	-0.026708804
237	0x3c4e9e08	0.01261092
238	0x3d754a2e	0.059885196
239	0xbd8985c2	-0.067149654
240	0xbd9e6a05	-0.07735065
241	0xbd24035c	-0.040042266
242	0xbd685953	-0.05672581
243	0xbda61bca	-0.08110769
244	0x3c2ac708	0.010423429
245	0xbb633120	-0.0034666732
246	0xbc8c1074	-0.01709769
247	0xbd7ca3cc	-0.061679646
248	0x3bb73c50	0.0055919066
249	0x3c9c3424	0.019067831
250	0x3cfd24b4	0.03090129
251	0xbd261646	-0.040548585
252	0x3aa701c0	0.001274161
253	0x3d485506	0.04890921
254	0xbc6e47d8	-0.014543496
255	0x3c23fa88	0.010008462

default.encoder_fc.0.bias f4 [128]
0	0xbda914fc	-0.082559556
1	0xbd7b42ce	-0.061343007
2	0xbcfbd128	-0.030739382
3	0xbd309756	-0.043113075
4	0xbd92d947	-0.071703486
5	0xbc9b2cdc	-0.018942289
6	0xbceda4d6	-0.029009264
7	0xbd5c980e	-0.05385595
8	0x3d1b961a	0.037984945
9	0x3d8c1d3b	0.06841513
10	0xbd208f17	-0.03919896
11	0xbd9ffb40	-0.07811594
12	0xbd98e73d	-0.0746598
13	0x3cb37b60	0.021909416
14	0xbd817a03	-0.063221
15	0x3c837d10	0.016050845
16	0x3d4a211e	0.04934799
17	0x3d33906e	0.04383891
18	0xbc059a10	-0.008154407
19	0xbda6ee9b	-0.08150979
20	0x3b40a640	0.0029395968
21	0x3d43108e	0.04762321
22	0x3d9b6cb7	0.07589095
23	0x3da2b2a3	0.079442285
24	0xbd515432	-0.051105686
25	0x3db49039	0.08816571
26	0xbd88c7ba	-0.0667872
27	0xbba826d0	-0.00513158
28	0x3cdf7d60	0.027281463
29	0xbd2b883f	-0.04187798
30	0xbd4da4f3	-0.050206136
31	0xbc8c33b4	-0.017114498
32	0xbb9f2cd0	-0.004857637
33	0xbdaf1a9f	-0.085499994
34	0x3d45d46e	0.04829829
35	0xbd434292	-0.04767091
36	0xbc8b19e0	-0.016980112
37	0x3c53ea58	0.01293429
38	0xbd656209	-0.056001697
39	0xbda3fba3	-0.0800698
40	0x3d3de72a	0.046363033
41	0xbd95c813	-0.07313552
42	0x3cfbf118	0.03075461
43	0x3d85214d	0.06500492
44	0x3d9ea97b	0.077471696
45	0x3cf33224	0.029686995
46	0xbce2239a	-0.027604867
47	0xbcabaa94	-0.020955361
48	0xbccaef88	-0.02477242
49	0x3d0e9638	0.03481123
50	0x3c5889e8	0.013216473
51	0x3d96e63b	0.07368132
52	0xbd31ee56	-0.043440185
53	0xbd5349d3	-0.051584076
54	0x3c988e84	0.018622644
55	0xbb2365a0	-0.00249324
56	0xbc46c348	-0.01213152
57	0x3d3f1e72	0.046659894
58	0xbd7cf610	-0.0617581
59	0xbd843b2e	-0.064566
60	0xbd409286	-0.047014736
61	0xbd8d8764	-0.06910589
62	0x3d47ebd6	0.048808895
63	0xbc78a4a8	-0.015175976
64	0xbdaceb5c	-0.08443329
65	0x3d1b3166	0.037888907
66	0xbd1fad64	-0.038983718
67	0x3c982720	0.018573344
68	0x3ccc1518	0.024912402
69	0x3d826a87	0.06367975
70	0xbd6b1164	-0.057389632
71	0x3d789ce2	0.06069649
72	0x3c7aa118	0.015297197
73	0xbd390961	-0.04517496
74	0x3cd527a8	0.026019886
75	0xbd23a63b	-0.03995345
76	0xbd53ce79	-0.05171058
77	0x3d9835d7	0.07432144
78	0x3d306fc2	0.04307533
79	0x3befb6a0	0.007315472
80	0x3d866e69	0.06564028
81	0x3d870bbf	0.06594037
82	0x3d503d8e	0.050839953
83	0xbd68301a	-0.0566865
84	0xbd934d5d	-0.0719249
85	0x3ca183cc	0.019716166
86	0xbd7a5b90	-0.061122477
87	0xbd2e05f0	-0.04248613
88	0x3db28b7b	0.0871801
89	0xbca21234	-0.01978407
90	0xbd5d82cb	-0.054079812
91	0xbc1cadb8	-0.009562902
92	0xbcf2ffb2	-0.02966294
93	0xbca08374	-0.019593932
94	0x3d6aa6de	0.057288043
95	0xbd75c764	-0.060004607
96	0xbd64c5aa	-0.05585257
97	0x3d9aaef3	0.075529
98	0x3d3f2c8a	0.046673335
99	0xbd4aa2e3	-0.049471747
100	0xbc72c8e0	-0.0148184
101	0x3c3658f0	0.011129603
102	0x3da02311	0.078191884
103	0xbceb4a8a	-0.028722066
104	0xbc40b1f8	-0.011761181
105	0xbd559c58	-0.052151054
106	0x3d85b413	0.06528487
107	0xbd144c77	-0.036205735
108	0xbd973c13	-0.07384505
109	0xbc01be38	-0.007918887
110	0xbb585280	-0.0033008158
111	0xbcba34e0	-0.02273029
112	0xbd3b67cd	-0.04575329
113	0xbd469330	-0.048480213
114	0x3d9b5b5f	0.07585787
115	0xbd2786ee	-0.040900163
116	0x3d444bfa	0.04792402
117	0x3ca5e360	0.020250022
118	0x3d64ed82	0.055890568
119	0xbd26e748	-0.04074791
120	0x3da36461	0.0797813
121	0xbd5878e3	-0.05284966
122	0xbda02485	-0.078194655
123	0x3d2a184a	0.04152707
124	0xbd1ae4bf	-0.037815806
125	0xbbada790	-0.005299516
126	0xba915900	-0.0011089146
127	0x3c7cb1c0	0.015423238

default.encoder_fc.3.weight f4 [128, 128]
0	0x3d03a35a	0.032138206
1	0x3b986e90	0.004651852
2	0x3d51db72	0.05123467
3	0xbda67d72	-0.081293955
4	0xbda37af7	-0.07982438
5	0xbcfbaa5a	-0.030720878
6	0xbd2b1dce	-0.04177647
7	0xbd8b2da7	-0.06795817
8	0xbd83573c	-0.06413123
9	0x3a49f700	0.00077043474
10	0xbd97ed00	-0.07418251
11	0xbd405181	-0.04695273
12	0x3cd43918	0.02590613
13	0xbd2cc0a8	-0.04217592
14	0xbd9e4840	-0.07728624
15	0x3d747e9e	0.059691064
16	0x3bd855c0	0.006602019
17	0x3d23e08a	0.04000906
18	0xbc3302a0	-0.010925919
19	0xbc5e1388	-0.013554461
20	0xba689080	-0.000887163
21	0xbd80b8db	-0.062852584
22	0x3d341e3a	0.04397414
23	0xbc0b6a48	-0.008509226
24	0xbd9d5b4c	-0.07683429
25	0x3d2eb59a	0.042653657
26	0x3cba7008	0.022758499
27	0x3d264c76	0.040600263
28	0x3cfe8af4	0.031072117
29	0xbd8f7b6e	-0.07005964
30	0xbd01ce92	-0.03169114
31	0xbd740b40	-0.05958104
32	0x3d50bbfe	0.050960533
33	0xbcabba70	-0.020962924
34	0x3d963245	0.07333807
35	0xbd6447ae	-0.05573242
36	0x3b08b880	0.0020861924
37	0x3cdd9674	0.02704928
38	0xbbba2c20	-0.0056815296
39	0xbc6055b8	-0.013692312
40	0xbd804f93	-0.062651776
41	0xbd62a559	-0.05533347
42	0x3cb02504	0.021502025
43	0xbc50fe38	-0.012755923
44	0xbd855fc3	-0.06512406
45	0xbd81de58	-0.06341237
46	0xbd94c191	-0.07263482
47	0xbd047228	-0.03233543
48	0xbd1f0127	-0.03881946
49	0x3d055948	0.03255585
50	0x3d84e3fb	0.06488796
51	0xbda5f83c	-0.081039876
52	0x3c3042c8	0.010758109
53	0x3cac246c	0.021013461
54	0x3d83f1d9	0.06442613
55	0x3cb8aff0	0.022544831
56	0x3c731b40	0.01483804
57	0xbd7097f0	-0.05873865
58	0x3c935b44	0.017987855
59	0xbd4baedc	-0.049727306
60	0x3d0acea2	0.033888467
61	0x3da84caf	0.08217751
62	0xbd54a65c	-0.051916465
63	0xbd06b396	-0.03288611
64	0xbce670fe	-0.02813005
65	0xbca95d78	-0.020674452
66	0xbdb4ea24	-0.08833721
67	0x3d992ed7	0.07479637
68	0x3cb5ed24	0.022207804
69	0xbda99b38	-0.08281559
70	0x3d2ce59e	0.042211168
71	0x3d986b15	0.07442299
72	0xbd776cf4	-0.06040664
73	0xbd65443a	-0.05597327
74	0xbbe007c0	-0.0068368614
75	0x3d64ffda	0.05590806
76	0x3d5fe902	0.054665573
77	0xbc87f974	-0.01659844
78	0x3c7d6e50	0.015468195
79	0xbcefb566	-0.029261302
80	0x3da0029b	0.07812997
81	0x3d937243	0.07199528
82	0xbc9b41ac	-0.018952213
83	0x3d71b74e	0.059012704
84	0xbcd5805a	-0.02606218
85	0x3d4652ca	0.048418798
86	0x3cf2da28	0.02964504
87	0xbd1efcc4	-0.038815275
88	0x3d49d666	0.049276732
89	0xbc627818	-0.013822578
90	0xbdaaeb8f	-0.083457105
91	0xbd4a02af	-0.049318966
92	0xbd973d44	-0.07384732
93	0xbda624dd	-0.081125
94	0x3d33b35e	0.04387223
95	0xbd9a7825	-0.07542447
96	0xbc9ad170	-0.018898696
97	0xbda7482c	-0.081680626
98	0xbd800af9	-0.06252093
99	0x3c85c004	0.016326912
100	0xbd08416f	-0.033265527
101	0xbd753c1f	-0.05987179
102	0xbd74eccb	-0.059796136
103	0x3d687476	0.05675169
104	0x3db422fb	0.087957345
105	0xbd58dcbe	-0.05294489
106	0x3db4b223	0.088230394
107	0xbadd5980	-0.0016887635
108	0x3c47e418	0.012200378
109	0x3c984c8c	0.018591188
110	0x3bf95b80	0.0076097846
111	0x3c85ba40	0.016324162
112	0x3c296a50	0.010340288
113	0x3d5f53ee	0.0545234
114	0xbd9e7f9c	-0.07739183
115	0xbd92d422	-0.071693674
116	0x3d713256	0.058885895
117	0x3c157468	0.009121992
118	0x3c5387d0	0.012910798
119	0x3d211d7e	0.039334767
120	0xbd236c9a	-0.039898492
121	0xbd83f4a1	-0.06443144
122	0x3d61aaea	0.055094637
123	0x3c2ded38	0.010615639
124	0xbab57900	-0.0013845265
125	0xbd5889de	-0.052865855
126	0x3d690232	0.05688686
127	0x3da56f3b	0.08077856
128	0xbd9c29d8	-0.076251686
129	0xb9bd4d00	-0.0003610626
130	0x3d8b4fa9	0.06802303
131	0x3b5f54a0	0.003407754
132	0xbd1168b5	-0.035500247
133	0x3d88bc6b	0.06676563
134	0x3d8dc233	0.06921806
135	0x3b61f460	0.0034477934
136	0x3d3a2262	0.045442946
137	0x3d8584ef	0.06519496
138	0xbd6631c5	-0.056199808
139	0xbd1fbd5e	-0.038998954
140	0x3d827571	0.063700564
141	0xbda9c5e9	-0.082897015
142	0x3cbcc3e0	0.02304262
143	0x3d46f0d2	0.048569508
144	0x3d857783	0.06516936
145	0xbc2de598	-0.010613821
146	0x3dab2759	0.08357114
147	0xbd6e3754	-0.058158234
148	0xbd3324ec	-0.043736383
149	0xbdb04ffd	-0.086090066
150	0xbd59baf9	-0.053156827
151	0x3d9fbdcb	0.07799872
152	0xbd81daf2	-0.06340589
153	0xbd967810	-0.07347119
154	0x3d83d73d	0.06437538
155	0x3d9d8b81	0.07692624
156	0xbd3dbd93	-0.04632337
157	0x3c13a4c0	0.009011447
158	0xbd61a100	-0.055085182
159	0x3dad9091	0.084748395
160	0xbd6b2d58	-0.05741629
161	0x3d9dd0eb	0.077058636
162	0xbd77816b	-0.060426157
163	0xbcc95a24	-0.024579115
164	0x3cc35f5c	0.023849182
165	0xbdb30564	-0.087412626
166	0x3b7c8840	0.003853336
167	0xbd0475bc	-0.032338843
168	0x3c565988	0.013082869
169	0xbc964e84	-0.018347986
170	0x3d1376b8	0.03600189
171	0xbda1b51d	-0.07895873
172	0x3d976875	0.073929705
173	0xbda11dfc	-0.07867047
174	0x3d624792	0.055244036
175	0x3cbb44b0	0.022859901
176	0xbd9323c8	-0.07184559
177	0x3d437daa	0.047727264
178	0x3d1beaaa	0.03806559
179	0xbd052c45	-0.03251292
180	0x3d076e1c	0.033063993
181	0xbd3cda48	-0.046106607
182	0xbd9faa39	-0.07796139
183	0x3cbbcbc4	0.022924311
184	0xbd990145	-0.07470945
185	0x3db4f6d9	0.08836145
186	0x3d3febae	0.04685562
187	0x3daea94b	0.08528384
188	0xbd5bf24e	-0.053697877
189	0x3c0d1620	0.008611232
190	0xbd548c74	-0.05189176
191	0xbcb9fee8	-0.022704557
192	0x3cd0dc10	0.025495559
193	0xbcf2e61c	-0.02965074
194	0x3d13e7ae	0.03610962
195	0x3990b000	0.0002759695
196	0x3d40bbce	0.047054105
197	0x3ccee198	0.025254056
198	0x3dacd771	0.0843953
199	0x3da3eb7b	0.08003899
200	0xbce4eb76	-0.027944308
201	0xbd81fc34	-0.06346932
202	0x3c8a7704	0.016902454
203	0xbcffbf10	-0.031219035
204	0x3db48289	0.0881396
205	0xbce5c990	-0.028050214
206	0xbd84e896	-0.06489675
207	0xbd733b67	-0.059382822
208	0x3d438d0e	0.047741942
209	0x3d90cc73	0.070702456
210	0xbc742840	-0.0149021745
211	0xbd9d64a9	-0.07685215
212	0xbd40ac88	-0.04703954
213	0x3d8cdd2f	0.06878125
214	0x3da9deb1	0.08294428
215	0x3d1db302	0.038500793
216	0x3d92d069	0.07168657
217	0x3d4e6306	0.050387405
218	0xbd9f3164	-0.077730924
219	0x3c529a80	0.0128542185
220	0xbb5ee400	-0.003401041
221	0xbdb49223	-0.08816936
222	0xbc266000	-0.010154724
223	0xbc669dd8	-0.014075719
224	0x3d4eb08a	0.05046133
225	0xbd5245f3	-0.05133624
226	0x3d76ddaa	0.06026999
227	0xbb809580	-0.003924072
228	0x3cbfd890	0.023418695
229	0xbda5d61e	-0.0809748
230	0xbc8b9d20	-0.017042696
231	0x3c95aa1c	0.018269591
232	0xbd925654	-0.07145372
233	0x3d1352e8	0.035967737
234	0xbda5ddbd	-0.08098934
235	0xbd931cd4	-0.07183233
236	0xbd8f02b4	-0.069829375
237	0x3bec3f00	0.0072096586
238	0xbc55ffe8	-0.013061501
239	0xbd35a7ba	-0.04434941
240	0xbb8dcdb0	-0.0043274984
241	0x3b5e5380	0.0033924282
242	0xbd8eb7b3	-0.069686316
243	0x3d4a006a	0.0493168
244	0xbd908787	-0.070571
245	0x3d878333	0.06616821
246	0xbdb2ed1e	-0.08736633
247	0x3d7cc892	0.061714716
248	0xbd81e18c	-0.06341848
249	0x3d8a3287	0.067479186
250	0xbce24f00	-0.02762556
251	0xbd12c71d	-0.03583442
252	0xbcf8d5ba	-0.03037535
253	0xbd0b5cb2	-0.034023948
254	0xbd927047	-0.071503215
255	0x3d1a1732	0.037619777

default.encoder_fc.3.bias f4 [128]
0	0x3d6585ba	0.056035735
1	0xbd835f06	-0.06414609
2	0x3c98eaac	0.018666588
3	0xbcdce026	-0.026962351
4	0xbda80609	-0.08204276
5	0xbd4727b1	-0.048621837
6	0xbcefdc56	-0.029279869
7	0xbd94d27e	-0.07266711
8	0xbd5b7087	-0.05357411
9	0x3d9c0b53	0.076193474
10	0xbd8f21fb	-0.06988903
11	0x3dac51d1	0.08414043
12	0xbd141adb	-0.036158424
13	0xbb308560	-0.0026934966
14	0xbc3ac150	-0.011398628
15	0x3d9a4875	0.07533351
16	0xbbe5c2a0	-0.0070117265
17	0x3d334752	0.04376919
18	0x3ce717fc	0.028209679
19	0xbbe81f60	-0.0070838183
20	0xbd91b8c2	-0.07115318
21	0xbd186e95	-0.037214834
22	0xbd99c66c	-0.07508549
23	0xbd3eece9	-0.046612654
24	0x3da1307f	0.07870578
25	0x3ca58144	0.02020324
26	0x3d97510d	0.07388506
27	0xbb505960	-0.0031791553
28	0xba1aa880	-0.0005899742
29	0xbd052fa9	-0.032516155
30	0xbd36557a	-0.04451511
31	0x3c8c7e30	0.017150015
32	0x3d7c035a	0.061526634
33	0x3d5003f2	0.050785013
34	0x3d0fddb4	0.035123542
35	0x3cfb7f5c	0.030700378
36	0xbdb06ac7	-0.08614116
37	0xbd83d6cc	-0.06437454
38	0xbca01ca4	-0.019544907
39	0x3bba2e70	0.0056818053
40	0x3cfd77d4	0.030940928
41	0xba6d8180	-0.00090601295
42	0xbd3ba204	-0.045808807
43	0xbc4797f8	-0.012182228
44	0xbd2ca38b	-0.042148154
45	0xbd08cafa	-0.0333967
46	0x3dae3e11	0.08507932
47	0xbd9c8c82	-0.07643987
48	0xbd178c22	-0.036998875
49	0x3da79349	0.08182389
50	0x3ca198bc	0.01972615
51	0xbd870844	-0.065933734
52	0xbb817970	-0.003951244
53	0xbd2648f7	-0.04059693
54	0x3d2fd196	0.042924486
55	0xbd5aa227	-0.053377297
56	0x3c94b264	0.01815147
57	0x3d5d99fe	0.054101937
58	0xbd68e9fe	-0.056863777
59	0x3d57cc82	0.05268527
60	0x3d473852	0.048637696
61	0xbd183ad2	-0.03716547
62	0x3b7672c0	0.0037605017
63	0xbc9235e8	-0.01784797
64	0xbd2e8000	-0.04260254
65	0x3d81e7f9	0.063430734
66	0x3bb9cc50	0.005670108
67	0xbcfff9a4	-0.031246968
68	0x3d1de1ae	0.038545303
69	0xbd13c29c	-0.036074266
70	0x3d9e834b	0.07739886
71	0x3c98783c	0.01861202
72	0xbd6d528f	-0.057940062
73	0x3cfed5c8	0.031107798
74	0x3d191876	0.037376843
75	0xbda97304	-0.082738906
76	0xbb96bbf0	-0.0046000406
77	0xbd28ee43	-0.04124285
78	0x3daa244d	0.08307705
79	0xbd4ba72b	-0.04971997
80	0xbd3610fd	-0.044449795
81	0xbd5a03c3	-0.053226244
82	0x3d902b37	0.070394926
83	0x3d48e70e	0.049048476
84	0x3d8e5127	0.06949072
85	0x3d91f1a3	0.07126167
86	0xbd6007e8	-0.05469504
87	0x3d548d36	0.05189248
88	0xbd9b39dd	-0.07579396
89	0xbd881b48	-0.066458285
90	0x3d50ad66	0.050946616
91	0x3d38729e	0.045031182
92	0xbc031308	-0.008000143
93	0xbc839818	-0.016063735
94	0x3c913b8c	0.01772859
95	0x3b4b4860	0.003101848
96	0xbd6cfcc7	-0.057858255
97	0x3da4c747	0.08045822
98	0x3d00dadc	0.03145872
99	0xbd41b7ee	-0.04729455
100	0xbd733280	-0.059374332
101	0xbc55a1d0	-0.013039067
102	0xbcb0f2d8	-0.021600172
103	0x3d20f3ea	0.039295115
104	0x3d7fc38a	0.06244234
105	0xbced4aae	-0.028966274
106	0xbd601398	-0.054706186
107	0x3d7becaa	0.061504997
108	0xbda57c2d	-0.08080325
109	0xb912ce00	-0.00014000386
110	0xbd5fbb3a	-0.054621913
111	0xbd1545f9	-0.036443684
112	0x3b978de0	0.004625067
113	0x3c1fce80	0.009753823
114	0x3d6fac6a	0.058514036
115	0xbc0443d0	-0.008072808
116	0xbd9ca472	-0.07648553
117	0x3c9a5b88	0.018842474
118	0x3dac6059	0.08416814
119	0xbd918520	-0.0710547
120	0xbc5f00e0	-0.013611048
121	0x3cc2ed64	0.023794837
122	0xbd97bfb6	-0.07409613
123	0xbd163546	-0.0366719
124	0x3ca3d34c	0.019998215
125	0x3d96a819	0.07356281
126	0x3cd9e7c8	0.02659978
127	0xbceb55a6	-0.028727364
