models/mnist-relaxed1E/encoder_z2_z1_8028302830736991772.pt (torch_old, 88270 bytes, 8 tensors)

default.encoder.to_hidden.weight f4 [128, 19]
00000000: df42 cabc 9cfa 9d3d 5c26 99bd 7f07 123e
00000010: 772f a7bb c847 c2bc 8d9d 1abd 2b3f 133e
00000020: 91de eebc 44c3 dd3d 85ca 233e 9640 05bd
00000030: f92e 173e edc6 40be 86dc 68bd 0931 bb3d
00000040: 501d 333e 3a48 26bd ee54 63bd 6e11 2d3d
00000050: 077c da3c 5452 2c3d 6310 d6bc b506 1e3c
00000060: abc1 73bc 0c65 e9bc 41b5 893c 1ece c9bc
00000070: 3ee1 013d edcd 95be aeea c63d 9b0f 98bb
00000080: be10 963e 469b c1bd 3a0c 693d 8199 d8bd
00000090: 073d 683c e8a7 03be b3ca 9abd 9b3d 1ebd
000000a0: 2fc5 62bd 5518 db3c d908 023b 7f74 5dbc
000000b0: 491f dabd 9fe8 afbd b646 0a3e 82c4 d03c
000000c0: 2d86 63bd 27c5 d2bd 14b9 8e3d 65f9 20be
000000d0: d78a 14be a501 bcbd ae57 50be b1cd 52be
000000e0: 6a47 38be e2db e63d 1c6c 65bd a53b 13bd
000000f0: 8667 56bd f54d 653d 1945 cfbd 444b 90bd
00000100: b054 bbbd bec5 b43d 1305 363d 5bae aebe
00000110: be74 c73e 38bc 0d3e b92d 4fbd e067 f83d
00000120: 998b 803e fa8d b9bd 2662 523e 73c4 1a3e
00000130: b77d 1a3d d333 44be bbbd f6bc 30ed afbc
00000140: 086c 57bd d53f 44bd bf08 d23d db45 13be
00000150: bd1a e5bd 3601 f7bd 75de 26bd b18f 81be
00000160: e5c9 733d c660 2c3d 56fe 573e 884e 84be
00000170: fd97 22be 6926 37be b8c7 8dbe 6322 8c3b
00000180: c024 63bd 7889 4bbc 7c4d 6d3d 939a 1dbd
00000190: af1a 9d3d cdf7 dcbd 459b 31be dd3f 1cbd
000001a0: 8cd0 e8bd 1548 41be d272 543d e0ae 463e
000001b0: 152b 7fbe bc4e 45be d116 773e 8ac8 93bd
000001c0: 6e32 093d 2ab5 043e ddb0 993d 1e9c 12be
000001d0: 2891 05be 8c1b a8bd 98dd fc3d 76af 2dbe
000001e0: 70b3 2d3c a6e2 243e abb2 17be 8054 3ebd
000001f0: a27f 9abe 215c bf3e a2cc b1bd 8174 97be
00000200: 4e44 3b3e 75d4 0dbe 8ed0 9e3d 96c7 96bd
00000210: b6de 49bd e493 1ebc 2d43 57be 97c1 61bc
00000220: f5d3 cbbd b57e 20be a17e 233e 68f2 43be
00000230: cdb9 34be 6f93 e43d 386b f7bd e472 443d
00000240: 76c2 143d 9827 56be 5e92 803c 978c 373e
00000250: aa60 8ebd a832 62be e0bf 503e 873a 403e
00000260: a0eb 70bd 607f ccbc a36b 863d ad84 80bc
00000270: 9676 95bd ed61 26be fe1c dabd b370 143e
00000280: 2a75 003e eaa9 4dbc 2253 a3bd 4cd9 b13e
00000290: 945f 87be 6a05 febd 5ee3 0ebe a066 f2bd
000002a0: 922a 61bd 44b0 1fbe 40cd 8d3d b1bc 173e
000002b0: ef4a 7ebd e105 a1bd e6fa f73c 8629 04be
000002c0: 0bdd 313e 1ceb d63d cbd4 c5bc 90a5 483e
000002d0: 9b20 7fbd a709 cabd 48f1 a23e f6ab 6fbc
000002e0: 667f 3e3d 0d5d 8abe b1ae 193e 2aaa 283e
000002f0: 6cf8 1ebd 2baa 26be 0677 9bbd ddf3 dbbd
00000300: 3b31 6e3d 8306 cdbc 4952 693d 9a04 053d
00000310: f3f2 37be f77c 55bd a196 0d3e ed17 b6bd
00000320: ac84 9ebd 1d6c 783e 79fd 52be 0b15 babe
00000330: 7650 833d ddb6 213e 9ca7 2e3e cd45 8ebe
00000340: eb2b d93c e3bf 353d c420 27bd 0869 a53d
00000350: f37f 933d 2b5d 83bd d2e4 81bd a445 0cbd
00000360: 16b6 e3bd 8d5a 2dbd 927d b1bd 2c51 40bd
00000370: 48ea 5e3e 39bf 40be 104b d7bd 0b78 68be
00000380: d6a9 d7bd fb3c a1be 79dd dfbc cd7b 763d
00000390: c008 90bc e257 75bb d90d 083e c0fd 9bbb
000003a0: a058 25bc acdf 9b3d d6bb 11be 9f3b 1bbe
000003b0: 253a ecbd 45b3 4a3d 77e6 663e a880 7d3d
000003c0: 0812 21be 0a60 4cbe 529f bb3d 3195 763e
000003d0: 1b48 cd3d f26c cabd 62e3 0c3d ff65 993d
000003e0: 0bda c0bc 2388 543d 7b8b 8abd 82b9 77bc
000003f0: 6ef8 dd3d a23b 3a3d 479b bb3d a5a7 693d
-0.02469009 0.077138156 -0.074780196 0.14260672 -0.005102094 -0.023715869 -0.03774791 0.14379565
-0.029158862 0.108282596 0.15995224 -0.032532297 0.14764012 -0.18825884 -0.056850933 0.09140212
0.1749165 -0.040596224 -0.055500917 0.04225295 0.026670469 0.0420707 -0.02613086 0.009645154
-0.014877717 -0.028490566 0.016810061 -0.024634417 0.03170895 -0.2925867 0.0971273 -0.004640532
0.29309648 -0.09453444 0.056896426 -0.105761535 0.014174706 -0.1285702 -0.07558193 -0.03863297
-0.05536383 0.026745 0.00198417 -0.013516544 -0.106504984 -0.08589291 0.13503537 0.025484327
-0.055547882 -0.1029151 0.069688946 -0.15720136 -0.14506088 -0.09180001 -0.20345947 -0.20586278
-0.17995992 0.11272408 -0.056011304 -0.035945553 -0.05234482 0.05598255 -0.10120601 -0.07045606
-0.09147012 0.08826779 0.044438433 -0.34117398 0.38956255 0.13841331 -0.050580714 0.121291876
0.25106505 -0.09060283 0.20545253 0.15114002 0.037717547 -0.19160394 -0.030119767 -0.021475405
-0.05259326 -0.047912437 0.102555744 -0.14382116 -0.111867405 -0.12060778 -0.040739495 -0.2530494
0.059518714 0.042084478 0.21093115 -0.25841165 -0.15878291 -0.17885746 -0.27691436 0.00427656
-0.05545497 -0.012422912 0.057935223 -0.03847749 0.07671105 -0.10789452 -0.17344387 -0.038146842
-0.11367902 -0.18875153 0.051867314 0.19402647 -0.24918778 -0.19268316 0.24129798 -0.07215984
0.03349536 0.12959734 0.07504437 -0.14317366 -0.13043654 -0.08208379 0.12346953 -0.16961464
0.010601863 0.16102085 -0.1481425 -0.046467304 -0.301755 0.37374976 -0.08681609 -0.29581073
0.18287775 -0.13850577 0.077546224 -0.07362287 -0.04928466 -0.009678815 -0.2102172 -0.013779066
-0.09952537 -0.15673335 0.15966274 -0.1913544 -0.17649002 0.11160933 -0.12080997 0.04796113
0.036318265 -0.20913541 0.015694793 0.17924725 -0.06952031 -0.22089636 0.20385695 0.18772326
-0.05881846 -0.02496308 0.06563499 -0.015688265 -0.07298009 -0.16248293 -0.10650061 0.14496116
0.12544695 -0.012552718 -0.07974841 0.34736097 -0.26440108 -0.124033764 -0.13953921 -0.118359804
-0.05497224 -0.15594584 0.06923914 0.14818074 -0.06208318 -0.078624494 0.030271005 -0.12906465
0.17369477 0.10494062 -0.02414932 0.19594407 -0.062286954 -0.09865122 0.31824708 -0.014628401
0.046508215 -0.27024117 0.15008046 0.16471162 -0.038811132 -0.16275851 -0.07591061 -0.107398726
0.05815242 -0.02502752 0.05696324 0.03247509 -0.17963772 -0.05212113 0.13826992 -0.08891282
-0.07740149 0.24259992 -0.20604505 -0.3634418 0.06411831 0.15792413 0.17056125 -0.2778763
0.0265102 0.04437245 -0.040802732 0.08076674 0.07202139 -0.06414255 -0.06342472 -0.034246102
-0.111187145 -0.042322684 -0.08666529 -0.04695241 0.21769059 -0.18822946 -0.10512364 -0.22702043
-0.105304405 -0.31491837 -0.027327286 0.06017666 -0.017582297 -0.0037436415 0.13286532 -0.004760474
-0.010091931 0.076110214 -0.1423181 -0.15159462 -0.11534528 0.04948737 0.22548853 0.061890274
-0.15729535 -0.19958511 0.09161247 0.2408035 0.10023519 -0.09884061 0.034396537 0.07490157
-0.023541471 0.051887643 -0.06764885 -0.015119912 0.108384 0.045467027 0.09160476 0.057044644

default.encoder.to_hidden.bias f4 [128]
00000000: 46d3 2d3e 485b a13e 88b1 55bd 1002 913e
00000010: ddc1 45be 06fe 90be feef 22be 494d 1a3d
00000020: 4068 eebd e342 bcbc 6d37 b7bd a5bc a1bd
00000030: fb9b 20be 5623 a13d 0514 8cbd b55c 053d
00000040: 4406 f5bc 0924 4cbe cc68 653d 734a c9bd
00000050: dc73 24bd 39e2 743d d34a 1a3d 9307 383e
00000060: 8666 5c3d 5eb9 4dbd eda8 60bd c800 5e3e
00000070: 0739 a03d 46f6 9a3c 5f8a 8abd c83d 61be
00000080: 709c 603d d171 5abe 728a 8abd 7077 1bbe
00000090: 3a38 703e 1370 813d 5277 49be 6b3a 1d3e
000000a0: 471b 0bbc 7ac0 083e 4239 ca3d 9825 1dbe
000000b0: 7b50 bf3b 2501 893e 7798 91be b60f bd3d
000000c0: 6e13 3bbe f840 d9bd 9684 e3bd 4e26 2e3e
000000d0: 4d57 3a3d f8ed 0f3e 0d96 87be f304 083e
000000e0: 6a02 563e fb4e 88be 2481 7e3e 90a9 26be
000000f0: 6969 85be e885 57bd a0f4 f53d 115f 55be
00000100: 488f dcbc 2b25 5d3e 41ab 90bd b99f ab3d
00000110: 8ea6 44be b326 98be 9a12 95bd 1b13 e43d
00000120: cdbe 41be 4c60 143e 5259 18be 228e d5bc
00000130: 7c18 43bd 9ddc df3d eccd 68be e741 3cbe
00000140: 8eb9 4e3e b809 10be fe3c 99bd ba4c 5fbe
00000150: 4fea 79bc be00 22be dd3e 74bd 1357 febd
00000160: 5244 34be 05c6 e4bd d0da a1bd 988a 0fbe
00000170: a8b0 d2bd 3f01 343e 2c28 71be d42f 133b
00000180: 2560 ab3d 43aa 0a3e 2ff8 ecbc 55a4 f23d
00000190: 6790 9f3a cbbf 48be b6fa 80bd 833a 0bbd
000001a0: 9ad0 aabd 7269 23be dff0 073e bfa0 6d3e
000001b0: e5b7 8bbc d2bc acbe d8d5 133e 84b7 30be
000001c0: 9bf2 a4bd 5068 97be 5570 26be 3c78 92be
000001d0: 61a8 58be c3e8 4cbe 74b0 9ebd 6585 983d
000001e0: e972 363c c3b8 013e 514e 0f3e 9a6c 133e
000001f0: 96df 323e 1f87 083e b9dd 3dbe 38bf d2bd
0.16975126 0.31514955 -0.05217126 0.28321886 -0.19312234 -0.28318805 -0.15911862 0.03767136
-0.11640978 -0.022981113 -0.089461185 -0.07897309 -0.15684502 0.07868068 -0.06839756 0.032559115
-0.029910214 -0.19935621 0.056008145 -0.09828653 -0.040149555 0.059786055 0.037669014 0.1797164
0.05380871 -0.050225608 -0.0548486 0.21679986 0.07823377 0.01891626 -0.067646734 -0.21996224
0.05483669 -0.2133248 -0.067646876 -0.1518228 0.23458949 0.063202046 -0.19674423 0.15354316
-0.00849039 0.13354674 0.09874202 -0.15346372 0.0058384514 0.26758686 -0.28436634 0.09231512
-0.1826913 -0.10608095 -0.11109273 0.170068 0.045493413 0.14055622 -0.26481667 0.13283138
0.20899358 -0.26622757 0.2485395 -0.1627562 -0.26056984 -0.052617937 0.12009549 -0.20837046
-0.02692379 0.2159621 -0.07063914 0.08380074 -0.1920416 -0.29717025 -0.072789386 0.111364566
-0.18920441 0.1448986 -0.14877823 -0.02606875 -0.047630772 0.109307505 -0.22734803 -0.18384515
0.20187971 -0.14066207 -0.074823365 -0.21806613 -0.015253617 -0.15820596 -0.059630264 -0.12418952
-0.17604187 -0.11170582 -0.07903063 -0.14017713 -0.10287601 0.175786 -0.2355048 0.0022458928
0.083679475 0.13541512 -0.028926937 0.1184775 0.0012173773 -0.19604413 -0.06297819 -0.033991348
-0.08340569 -0.15958193 0.13275479 0.23205851 -0.017055461 -0.33737808 0.14437044 -0.17257506
-0.08054086 -0.29571772 -0.16253789 -0.28607357 -0.21157981 -0.20010667 -0.077484995 0.07447318
0.011135795 0.12668137 0.13994719 0.14396897 0.17468104 0.13332795 -0.18541612 -0.10290378

default.encoder.to_out.weight f4 [128, 128]
00000000: 65a1 4abc 3b3c 773d a965 dbbc 0edf 15bd
00000010: 4742 123c 1865 6dbc 115d 213d b371 ee3c
00000020: 6611 a0bc 8b95 143c d853 8fbd a899 f73c
00000030: c9da 54bd cb17 103d 8f73 7bbd a0a9 29bd
00000040: 49b2 97bd d143 913d f7d8 98bc c89d 4e3d
00000050: be47 7e3c 734d 333d c9e5 033d d416 553d
00000060: c530 aabc 7d4c 933a 4281 65bd 6512 2f3c
00000070: cba7 1a3d 31c0 2a3d 453e 713d 28e3 42bd
00000080: 6d24 f7bc 22b7 283d 8b9f 383d 7dc2 4f3d
00000090: 70c0 303c 34ed 84bd 4808 da3b 4f14 14bd
000000a0: 4ac2 6ebd 72ac 8dbd 05fc 9ebc 1025 92bd
000000b0: 92b8 c23c 39c0 12bd 54d8 2a3c b6c8 25bd
000000c0: 5687 fc3c 0d9a 07bd 403d 77bd 5b38 aabd
000000d0: 7d0a d13b 2c6e 093d c680 783d 9718 69bd
000000e0: 111b f53b 4970 75bc f040 74bd 0b87 69bd
000000f0: 24f0 953d 5c37 86bd 90e8 38bd 3c65 943d
00000100: e161 9dbc 7ca3 2bbd 4d57 d8bc c164 233c
00000110: 4342 75bd 57a8 873d e4c5 c03b 8c8a 523d
00000120: 7beb f7bc 60b1 56bd ac35 293a 081b 7f3d
00000130: e8d8 19bd 2ff9 76bd 2582 aebd b949 d8bc
00000140: 218c 33bd 73cd c53c a7ab 21bd b4af 1dbd
00000150: 23cc 8a3d 6527 56bd feb4 ccbd df86 a1bc
00000160: 1214 2f3d afd9 bbbd 6113 aabc 2375 36bd
00000170: 0251 71bd a54c 933d a787 803c 9339 473d
00000180: d1c0 1c3d 3051 7d3d ee1e ad3c f350 463b
00000190: 48c9 2a3d b01c 84bc 06b6 713c 3faa d23c
000001a0: a878 a03c ed3d c23a bbe0 e3bb f94d 59bd
000001b0: 8c85 8b3d dd89 9fbc c544 a3bc d7fc 563c
000001c0: 37d8 493d 4600 f2bc 2eb9 a5bc ffd7 e8bc
000001d0: a10b 6fbd 0f7e 323c 87fa 793d dc8d d93c
000001e0: 5419 22bc cdc4 3dbd 9ff9 dfbb da36 35bd
000001f0: 44a6 af3d 5e60 693d 57d9 26bd c710 a43d
00000200: 5c24 5abc 5a4e 2939 3e1a a13d 8a36 3ebd
00000210: 96f2 283d 4d04 273d 179a 963d 00ae 54bd
00000220: 37ff 953d 524e de3c c289 84bd 3ab8 933d
00000230: 8a5e 7a3d 12f2 923c e7e1 ebbc c4da 9c3c
00000240: b6e6 0e3d c7d8 3abc 63b0 623c 4441 a43d
00000250: 7e93 ccbc df72 d03b 5bb3 acbb 3fb9 9ebc
00000260: 1cb9 2dbd cf44 1dbc 492a 853d f00c 1b3d
00000270: 7850 fdbc 9d2f f8bb 6662 183d 362e d1bb
00000280: 20af f43c d1a3 ac3c 7276 563c f37b e23c
00000290: 020f a0bd 5a8b 4abd 33a8 183d 2c76 e8ba
000002a0: f487 45bc c004 1e3d 2e09 c63d 6c09 093c
000002b0: aefb 37bd 6a6e 683d 25c2 d53d fb88 6fbd
000002c0: 3cfb fabc d705 89bd e95b 77bc 389c 8d3d
000002d0: 2429 393d 6c39 07bd a762 813d 855f 29bd
000002e0: dc9f 333d c7c6 91bc e39d 32bd 9174 1b3c
000002f0: b0f9 253d 3ea3 c13d 8828 8abc 5c1c f5bc
00000300: 2142 7bbc f625 7fbd e12b 26bd 8ef9 903c
00000310: ddb5 3dbd 229e 8d3d 154d 80bc ccbd cdbd
00000320: f01f 113d 6066 493d d021 c5bc d006 2d3c
00000330: 3971 a73d 3c51 173d 05fc 62bc e562 963d
00000340: 0e1e febc 3de6 a1bc 34d5 e3bc 0364 35bd
00000350: 6ca3 593d 411e 833d 8576 863d 4c7a 473d
00000360: 56c4 7bbc 3e2e bd3c 2354 14bb 0044 47bd
00000370: 2f5e 943c e0ce 1e3a b507 75bd 7d9a 75bd
00000380: 2d6d 803c 83c1 16bd 9e6a 8b3d 6ed4 d3bb
00000390: a6aa 6abd 5627 fd3c 04c1 ad3d be37 943d
000003a0: c5a6 2cbd de87 2c3d a097 ba3c c07a dc3c
000003b0: a3a2 a03d f31b 6d3c 6cf5 b0bc 864e 303c
000003c0: 7a18 b1bd e77b 34bd a303 45bd 2354 2ebd
000003d0: 7872 dabc 52a4 133d b05c 0f3c a4f9 303d
000003e0: b93b 8abd 30fb acbd 48ba 813d 19ea 31bb
000003f0: 86b9 d3bb d305 acbd 1972 77bc 0c26 013c
-0.012367581 0.060360175 -0.026781874 -0.036589675 0.008926935 -0.014489435 0.039395396 0.02910695
-0.019539546 0.009068857 -0.06998414 0.030224636 -0.051966462 0.03517894 -0.061389502 -0.041421533
-0.07407052 0.07093013 -0.018658144 0.05044344 0.015520034 0.043775033 0.032201562 0.052023724
-0.020775208 0.0011238005 -0.056031473 0.010685538 0.037757676 0.041687194 0.058897275 -0.047579914
-0.030168736 0.041190274 0.045074027 0.050722588 0.010788068 -0.064905554 0.0066538192 -0.03615218
-0.058290757 -0.06917657 -0.019407282 -0.07135975 0.02376965 -0.03582785 0.010427553 -0.040474616
0.030826252 -0.0331059 -0.060361147 -0.0831153 0.006379424 0.033552334 0.060669683 -0.056908216
0.007480033 -0.014980384 -0.05963224 -0.057013553 0.07321194 -0.06553528 -0.045143664 0.072458714
-0.019211711 -0.041903958 -0.026408816 0.009972752 -0.059877645 0.06623905 0.0058829654 0.05140166
-0.030263653 -0.05241525 0.0006454836 0.06228164 -0.037560374 -0.060296234 -0.08520917 -0.026402341
-0.04383481 0.024145817 -0.03947034 -0.03849764 0.06777217 -0.052283663 -0.09995459 -0.019717632
0.04274375 -0.09172379 -0.020761194 -0.044545304 -0.058915146 0.07192353 0.015689684 0.04863889
0.03826982 0.061845005 0.021132912 0.0030260652 0.041695863 -0.01612696 0.01475287 0.025715945
0.019588783 0.0014819481 -0.00695428 -0.053052876 0.068125814 -0.019474918 -0.019930253 0.013121805
0.049278464 -0.029541146 -0.020229902 -0.028423307 -0.0583607 0.0108943125 0.061029937 0.026556902
-0.009893734 -0.046330262 -0.006835177 -0.044241764 0.085766345 0.05697667 -0.040734615 0.080110125
-0.013314333 0.00016146284 0.078663334 -0.04643873 0.041246973 0.040775586 0.07353609 -0.05192375
0.07324069 0.027136955 -0.06471588 0.07212873 0.061125316 0.017937694 -0.028794242 0.019147284
0.03488799 -0.011404223 0.013835999 0.08020261 -0.024972674 0.00636135 -0.0052704043 -0.019375442
-0.042412862 -0.009598925 0.06502206 0.037854135 -0.03092216 -0.0075740353 0.037203215 -0.0063836826
0.029868662 0.021074207 0.013089763 0.027646994 -0.078153625 -0.049449302 0.037269782 -0.0017735413
-0.0120563395 0.03857875 0.0966972 0.008364063 -0.044917755 0.056745924 0.10437421 -0.058480244
-0.030637376 -0.06690567 -0.015097597 0.06914562 0.04520525 -0.033013746 0.063176446 -0.04135086
0.043853626 -0.01779498 -0.043607604 0.009488241 0.040521324 0.09454964 -0.01686503 -0.02992075
-0.015335591 -0.06229206 -0.04056919 0.017697122 -0.046316016 0.06914927 -0.015661756 -0.100459665
0.03543085 0.049169898 -0.024063975 0.010560706 0.081758924 0.036942706 -0.013854031 0.073430814
-0.03102019 -0.019763106 -0.027811624 -0.04428483 0.053134367 0.06402255 0.065655746 0.048700616
-0.015366634 0.023093339 -0.0022633157 -0.048648834 0.018111316 0.00060580485 -0.059821803 -0.059961785
0.01567706 -0.03680564 0.06807445 -0.0064645326 -0.05729165 0.030902546 0.084840804 0.072371945
-0.04215123 0.04212176 0.022777379 0.026914 0.078435205 0.014471996 -0.021601401 0.010760909
-0.08647247 -0.044063475 -0.04809917 -0.042560708 -0.026665911 0.03604538 0.008750126 0.043206826
-0.067496724 -0.08446348 0.063343585 -0.002714759 -0.006461325 -0.083995484 -0.015102887 0.007882606

default.encoder.to_out.bias f4 [128]
00000000: ef2f 89bd 6a54 99bd e019 913d 1c52 a43d
00000010: b0c1 58bd 8c52 91bd 7ebd 5abd 5d6a 3dbd
00000020: c22d 0c3d 607e ce3c 4902 3a3d f28f f2bd
00000030: 2648 6b3d dc84 c1bd 1dba 3abe 692e 8d3d
00000040: c329 d63d 50a8 45be 8550 063e af8b 25bc
00000050: 7c9f 3ebd 4167 db3d 135e a13d 5227 2a3c
00000060: 1ad9 913d 8656 83bd 4df5 033d 3b5e 2abc
00000070: d29d fb3c f190 5bbd 5796 cebd 790a 6e3d
00000080: 52ff ce3c e7f5 6bbd 9e1a 4dbd 56b6 823d
00000090: b684 a73d f431 0d3d adf1 673c eea9 10bd
000000a0: 25fa d83d dff7 363d c0bc b23d 9f84 3abc
000000b0: 40ca 8abc 9c6d 12be f07d a63d 3f2d a0bd
000000c0: 08e1 e63d c953 d8bd 3ff1 cdbc 67a0 433d
000000d0: 3e8c 9dbd e8da 8d3d cb6d cf3d f4e7 233a
000000e0: 00c2 36be 363e abbd b598 033e f7b9 b9bd
000000f0: bb5e 923d 637a 2bbd da72 51bc 8d53 b8bc
00000100: 86c5 13bd 0c31 ab3c 83f1 9bbd c482 d33c
00000110: 3e08 0fbe b343 e13c a85f 873c 1727 703d
00000120: 370b c83d c845 f3bb 1857 1b3d 5997 013e
00000130: e474 3e3d 8240 e43c f04f 9e3d d94e 1dbd
00000140: 47db 8fbd 7b5f e83d 9576 0c3e 5ff4 7e3d
00000150: 42ab 3b3d c127 d43d 35c6 d33d 6b99 b2bc
00000160: d955 0cbe eb7e dfbd eb2c 21bd b683 2dbc
00000170: 2258 f93d b254 8e3d d9e8 bfbd b65f 28bd
00000180: 376b 0a3d 7808 16bd 888a 36bd 5806 4f3d
00000190: a3de f2bc 8060 f2bc 7b41 74bd 0d41 303e
000001a0: cd06 7a3c e47b 973c a6c1 9b3b 174f 593d
000001b0: 756d c83d ba82 ad3d 22f9 0bbd 5b28 24bd
000001c0: 969f 8b3d 91ad 0b3d a26b dfbd db20 fcbc
000001d0: 45e5 e33d 1316 093d 82b9 af3d d635 823d
000001e0: efdc 36bd f459 56bc 0649 583c d8a8 34bd
000001f0: 28b8 593c eb46 873c 85c9 74bd 1f51 883b
-0.06698596 -0.07486804 0.070850134 0.080234736 -0.05291909 -0.07095823 -0.05340337 -0.046244014
0.034223326 0.025206745 0.045412336 -0.11843862 0.057441853 -0.09449169 -0.18235059 0.06893618
0.10457184 -0.19302487 0.13116653 -0.010104104 -0.046538815 0.107130535 0.07879271 0.010385351
0.07121487 -0.064129874 0.03221636 -0.010398443 0.030714903 -0.053605024 -0.10087269 0.058115456
0.02526823 -0.057607558 -0.050074212 0.06382434 0.081796095 0.034471467 0.014156741 -0.035318308
0.10594586 0.044669982 0.087274075 -0.011384158 -0.016942143 -0.14299625 0.081294894 -0.0782113
0.1127339 -0.10562856 -0.02513945 0.047760393 -0.07692765 0.06926519 0.10128363 0.000625252
-0.17847443 -0.08361475 0.12851222 -0.09068673 0.07146975 -0.041864764 -0.01278373 -0.022500778
-0.036077045 0.02089741 -0.07614424 0.02581919 -0.13967988 0.027498102 0.016525105 0.05863103
0.09767764 -0.00742409 0.037924856 0.12655391 0.046498194 0.027862791 0.077300906 -0.038405273
-0.07024246 0.113463365 0.1371711 0.06224477 0.04581762 0.10359145 0.10340539 -0.021801671
-0.13704623 -0.109128796 -0.039349478 -0.010590484 0.12175013 0.06949748 -0.09370584 -0.041106902
0.033793654 -0.03662917 -0.044565707 0.05054316 -0.029647177 -0.02958703 -0.05963276 0.17212315
0.0152604105 0.018491693 0.0047533093 0.05305394 0.09786502 0.084722 -0.03417314 -0.04007755
0.06817548 0.034101073 -0.10909201 -0.030777385 0.11127714 0.033468317 0.08580305 0.06357925
-0.044644292 -0.01308297 0.013201004 -0.044106334 0.013288535 0.016513309 -0.059762497 0.004160061

default.mean_encoder.weight f4 [10, 128]
00000000: 098f 5bbb 4483 363c 010f 3abc 5ad8 a2bc
00000010: e609 01bb 8917 aa3b 9e3c 8fbb e44f 7b3a
00000020: 7d94 deba 24f7 e3bb e9ee c53b 7bb5 a43c
00000030: c582 36bc 89f1 1cbc 1c09 afbc 1004 233c
00000040: 63ff 7ebb 60ce b23c cad9 0bbc 05cd 133b
00000050: 046a f13b aa47 493b 5450 afb8 bb3d 943b
00000060: 9f59 0dbc c00e d83b 27a4 a43c 2e34 73bb
00000070: 536c 023c b7e3 093c 95fe 14bb aed3 933b
00000080: 41da 43bb 924d 583c f7c0 cabb 6d0c 3f3c
00000090: 49eb bb3b 25e6 37bc 5843 f43b b51a 3cbc
000000a0: 3494 a63b 8308 f33b 604b cebb ef59 1cbb
000000b0: 42fa 2a3c a5e8 503c f1d2 92bc 4583 6d3c
000000c0: ca63 cc39 cd50 c5bc 67c5 ebbb 1ea9 b0ba
000000d0: 0803 04bc 2d1c c53b 20e0 a6bb 6a16 93bc
000000e0: e78e 8c3b af1b 8b3b 4f4a 343b 3dec 7e3c
000000f0: 446f ad3b c2ca c1bb 95e8 48ba 09d0 3e3a
00000100: 187b 43bb 8e8f 813c d395 113c 6a60 49b9
00000110: 2aa1 4b3c 4d33 283b 0986 68bc e011 4c3c
00000120: 9775 a13b 68f6 8c3b 2272 7b3c 07fa afb9
00000130: eef4 723b f4f2 423a 177d 843c 090b 423b
00000140: 8b95 34bc bd2e 403c c2c8 32bc 06f6 c1bb
00000150: 6000 0ebb 5657 583c af8d d93a 93a9 d63b
00000160: ab33 273c c445 99bb f120 b6bb 3f6d 523a
00000170: fdac 84bc 95a6 313c 1934 453c 2629 adbb
00000180: 0c7f 41ba 3cf7 92bc 8783 8bbc bf41 053b
00000190: a843 013b c1a7 99bb 57a7 08bc 9eea fcbb
000001a0: cc9e 52bb f106 6cbc da9c 10bc 42a2 933b
000001b0: e185 4bbc 7d14 8fbb ceba b83c b80d a9bb
000001c0: f592 a0bc f572 26bb 684e d4bb 833b 823b
000001d0: c02d 383c 48e2 c13b 0d8c 4b3c 9a18 ed3b
000001e0: b48d f3ba 166c a73b f476 a1bb ea0b 273c
000001f0: dd6e 993b 3db7 d93a fb1e 9239 692d d5bb
00000200: 66bd 013c 8e8d cdbb e2ca e13b ac43 b23b
00000210: 6a34 973a 7f59 cbbc a8a5 34bc f65d 233c
00000220: 319d 6b3b 1c3a f73b fc0c 01bb 373c 62bb
00000230: f03f 47bb ee9d 22bc 99b1 32bc e1ca 75bc
00000240: 38d3 303c a543 a2bb cc5c 043c 8a1e fb3b
00000250: 4833 8fbb 04e4 d8bb 3a11 083d 0ae1 e8bb
00000260: 49a0 ba3c eb91 a63a 0c76 94bb 47c5 11bb
00000270: 3cb5 e83b 5c83 67ba e3fa 233c 1fae a73c
00000280: f82f 22bb 8972 e53b 709b 1cbc 1f8c 953b
00000290: 1705 1dbb b6f7 273c 4faf 873c 328d 403c
000002a0: c825 40bc c993 e0ba 7aa0 633c 57c9 473b
000002b0: df54 11bc d81c 873b 443a 963c 07b9 5f3c
000002c0: 6fd4 ae3a 75fd 153c deb1 233c f5a4 bfbb
000002d0: cd56 beb9 fe08 213c 35a9 cb3b 6ca1 8b3c
000002e0: a704 80bb 4c52 013c 7003 df3b 353b a3bc
000002f0: 91f0 55bc f9a3 29bc 785c e4b9 0731 963c
00000300: f831 e5b9 51fc 95bc cb52 7abc a681 673c
00000310: 61e8 acbc dedd 5c3c 632b a83b 70bd b63c
00000320: 9177 e5ba 9e53 073a cbf8 05bc 7b6b e03c
00000330: 3012 29bc 5718 96bb 3f38 cbbb dcc1 c2bb
00000340: 36a0 a3bc f8cc f1bb 6140 833b a855 1abc
00000350: 179d 19bb dde7 7d3a ce3e 21bc 9caf 5bbc
00000360: 9faa 28bc 9c3a e4bb d6f2 7c3c d422 0a3c
00000370: 5e6e 61ba cc13 9239 0c1b ce3b 17e1 333c
00000380: 87b4 883a 4557 bfbc 2b6d 36bc c475 cbbb
00000390: c104 703c 8cfc 25ba 672c 113b 4493 173b
000003a0: a151 893b 7693 003c 3629 8b3c 88bb a33c
000003b0: d657 583c 9919 e5bb 4b3a 8ebc f06d 583c
000003c0: 79df 143c 6dc6 c53b 16ce 31bc f2de 4f3b
000003d0: d310 d43c 7e53 e1ba f422 4fba 7fec 22bc
000003e0: 1c6b 1cbc a42c c33b 8415 8d3b 1982 683c
000003f0: 53cc b83c 52a2 f7bb e9c1 dfbb e6c6 09bc
-0.0033502004 0.011139695 -0.011356116 -0.019878555 -0.0019689738 0.005190794 -0.00437124 0.0009586795
-0.0016981509 -0.0069569517 0.006040443 0.020106068 -0.011139576 -0.009579071 -0.021366648 0.009949699
-0.0038909547 0.021826923 -0.008535812 0.002255262 0.0073673744 0.003071288 -8.3596125e-05 0.0045239604
-0.008627324 0.006593555 0.020097805 -0.003710996 0.007960397 0.008416108 -0.002273475 0.004511318
-0.0029884728 0.013202088 -0.006187554 0.011660677 0.0057348353 -0.011224304 0.007454317 -0.011480977
0.005083585 0.007416786 -0.0062956065 -0.0023857316 0.010435643 0.012750779 -0.01792285 0.014496629
0.0003898426 -0.02408638 -0.007195163 -0.0013478135 -0.008057363 0.0060153217 -0.0050926358 -0.017955024
0.004289496 0.0042452435 0.0027510112 0.015559253 0.005292805 -0.005914063 -0.0007664052 0.00072789245
-0.0029828008 0.015815523 0.0088858185 -0.00019204771 0.012428561 0.0025665343 -0.014192113 0.012455434
0.004927348 0.004301835 0.015347036 -0.00033564886 0.003707226 0.00074367155 0.016172929 0.0029608628
-0.011021982 0.011729893 -0.010912122 -0.005919221 -0.0021667704 0.013204416 0.0016598011 0.0065509765
0.01020519 -0.004677506 -0.005558126 0.0008027143 -0.016195768 0.010842939 0.012036347 -0.0052844463
-0.0007381297 -0.017940156 -0.01703049 0.0020333377 0.0019724164 -0.0046891873 -0.008340678 -0.0077183982
-0.0032138107 -0.014405952 -0.008826459 0.0045054266 -0.012422056 -0.004366456 0.022550013 -0.005159106
-0.019601325 -0.002539811 -0.0064790733 0.0039743795 0.011241376 0.0059168674 0.012423527 0.0072355988
-0.001858166 0.0051093204 -0.0049275104 0.010195712 0.0046824054 0.0016610395 0.00027870372 -0.0065056575
0.007918691 -0.006272978 0.0068906406 0.005440196 0.0011536006 -0.024822949 -0.011025824 0.0099711325
0.0035951848 0.007544769 -0.0019691577 -0.0034520754 -0.00304031 -0.009925349 -0.0109066 -0.015001983
0.010792546 -0.0049519115 0.008078765 0.0076635526 -0.004370127 -0.0066189785 0.033219554 -0.007106905
0.022781508 0.0012708282 -0.004530674 -0.002224283 0.007101683 -0.0008831525 0.0100085465 0.02046877
-0.002474783 0.007002179 -0.009558544 0.004563823 -0.0023959333 0.01025193 0.016563086 0.011752414
-0.011727758 -0.0017133887 0.013893241 0.0030484998 -0.0088703325 0.0041233115 0.01833833 0.013654954
0.0013338457 0.009154667 0.009991137 -0.005848522 -0.00036304296 0.009828804 0.0062152394 0.017044745
-0.0039068046 0.007893156 0.0068058297 -0.019925693 -0.013057844 -0.0103540355 -0.00043556443 0.018333925
-0.00043715513 -0.01830879 -0.015278528 0.014130032 -0.0211069 0.013480632 0.005132125 0.022307128
-0.0017506947 0.0005162301 -0.008176993 0.027395 -0.010319278 -0.0045805383 -0.0062017734 -0.00594352
-0.019973855 -0.0073791705 0.0040054773 -0.009419836 -0.002343958 0.00096857344 -0.009841634 -0.013408568
-0.0102945855 -0.0069649946 0.015438756 0.008431155 -0.0008599515 0.0002786204 0.0062898453 0.010978959
0.0010429778 -0.023357043 -0.011134426 -0.006209107 0.014649571 -0.0006331883 0.002215171 0.0023128549
0.004190639 0.007847657 0.016987424 0.019986883 0.0132045355 -0.006991577 -0.01736178 0.013209805
0.009086483 0.006035617 -0.010852357 0.003171858 0.025886929 -0.001719102 -0.0007901632 -0.00994408
-0.009547021 0.0059562493 0.0043055434 0.014191174 0.022558367 -0.007557192 -0.006828536 -0.0084092375

default.mean_encoder.bias f4 [10]
00000000: a463 e83c 2490 38bd be3a a9bd 58e2 85bd
00000010: f901 033b 0b26 7cbc 5870 0bbd bab4 0bbd
00000020: 46be d13c 4f41 b9bc
0.028367825 -0.04505934 -0.08263157 -0.06537312 0.001999019 -0.0153899295 -0.034042686 -0.0341079
0.025603425 -0.02261415

default.var_encoder.weight f4 [10, 128]
00000000: 8c1a 2abc fadf 063a 68b9 e43b 4758 493c
00000010: ab00 aa3c 9d9f 03bc fd5e 67bc 07bb 2d3b
00000020: b78f 21bc b29f 113c ac3f 4ebc 346d 94bc
00000030: 710c 8e3c 8d6f 04bc 50c6 c7bb 5eda c73b
00000040: 9b46 b6bb 4fe6 073d aa5e 013c 8ce9 d1bb
00000050: 1309 4d3b c9cd 10bc dce3 86bc c590 323c
00000060: 1f3f a93b 23b4 773c 58eb 62bc 915f 82b9
00000070: bc6c c0bc 359d 133c 129e af3b 3660 e4ba
00000080: 0a53 b2bc e909 81bc a375 1d3c 6331 a2bb
00000090: 0522 80bc 3b78 b73c 7ab5 703c f89f 29bc
000000a0: 6a3d 963b d921 0dbc 14fc 56bc cf38 debc
000000b0: 074a a7bb be5a e939 08f7 9cbc 78e2 9b3c
000000c0: 1c3c 33bb dda8 22bc fcc0 bbbb 25ae febb
000000d0: 54c9 963b 492c b13b 2b24 42bb ecdf 28bc
000000e0: 31d1 533b 690f 193c f810 e33c 2557 f7bb
000000f0: 5d2d 093c dd3f fb3b 8ee4 533c bd29 583a
00000100: 90c8 a3bb 1e55 05bb d752 2e3c 62ac 9cbc
00000110: ac0e ae3b 2f40 53bc c9c8 f6bb bac5 9abc
00000120: bb4f 9dbb 847a f53b c63a 3cbc 5fd9 433c
00000130: dbf7 a0ba c552 813c 0da7 e7bb 699a 21bb
00000140: bfa1 523c 3451 45bc 91e2 81bc f936 babb
00000150: 2efb 1d39 0a99 f63c de6d 73bc fc0e 43bc
00000160: 4889 223b 8e7c bdba dbab 8fbc be9b 0d3c
00000170: c4ab 37bb b62a ddbc 88ce 1e3c 84a9 cdba
00000180: 9fba 84bb a7a1 c6bc 6ff4 44bc 52af 13bc
00000190: e97f c13b 9f4e 38bc 6b92 98ba 9ac0 0b3b
000001a0: c79c 1b3c f3e6 733b 883c dc3b 0ac6 5f3c
000001b0: b2b5 863b ae6c 6ebb a43f aabb 761e ad3c
000001c0: d457 59b8 0833 253a e281 953c 64c0 c5bc
000001d0: 3c9c 4abb 28a6 cebc 2207 bc3b 7305 733b
000001e0: ca06 93bb 8b47 eabc 1b8d 93bc e866 073c
000001f0: 4a98 2d3b aa3b 33ba 0e3e 0a3c 67f2 573b
00000200: 0dd8 7d3c b18d f33b fa45 b8bb d1c0 a13b
00000210: 3e1d 143b 69dc f2bb 9605 9dbc 9071 ae3b
00000220: 6837 7dbb f13a 1fba f4ee aabc 47d0 ae3c
00000230: dbcb deb9 3739 92bc 315b 093c 5ba5 52bb
00000240: 0fc5 b83b cb74 f03a 6847 1bbd 1c60 7abc
00000250: 9a24 15bc c287 05bc d3f5 eabb d6ea 123c
00000260: 00aa c23b 09ef be3b eba3 c1bc 8e9d 2e3c
00000270: f19f bbba 1831 fc3b cf16 003c 8bbb 2b3d
00000280: f13c 0cbc 6e8c 0fbc 2a11 483c 4832 42bc
00000290: 41e9 19bc 19d5 263c 72e5 6539 fb1b 37bc
000002a0: a2ad 09bc 964a cf3b 5599 b83c 6a1d a1bb
000002b0: e78a 8fbb 7115 19bc 1a90 2e3c a078 853a
000002c0: eb41 123c 6240 bd3b 2a7f 09bc 4356 96bc
000002d0: 15f2 08bc 054d 07bc 3896 123c 0c69 febc
000002e0: abe7 2e3c 3db6 c7bb 5205 b63c f419 6abc
000002f0: 1a88 a23c c7d0 ccba b8f1 a03a 099c 83bc
00000300: e47d c13b f17e c03c 821b 40bc 6c6d d33b
00000310: 51aa b83b 9972 be3b 7f68 c1bb e480 ca3b
00000320: b2a1 8c3c dd7c bc3c 4c4f a83b 744d 54bb
00000330: ed78 843b 997a ef3b c417 02bc 9eeb 3c3c
00000340: a2fe 9e3c cd9d 493b e5ee dcbb 78f0 00bc
00000350: cf59 a43b c2e5 f5ba a66d ba3b e58c aa3b
00000360: edae 623b 11fb b83c fd9f d6bc f0bd c0bb
00000370: b9af 803c 8c0d d2bc 4a53 af3c 0656 67bc
00000380: 984d 9ebc 97a6 c4bb e45c 363c ad37 973c
00000390: 1d6e ce3c c6c2 3f3c 9184 513b f9a0 0abd
000003a0: 9e7a 62bb be5f 5e3b 2e1c 6dbb 1245 09bc
000003b0: afcd 5f3c 6d89 a6bc 79b6 90bc 08e5 5f3c
000003c0: d2ad 8f3b b365 d1bb d096 a93b 0f0f 98bc
000003d0: 9268 083b 4706 72bc 8728 c03a 611d 143c
000003e0: 1e6a 4d3c 3bb5 533c 5737 ecbb 6f60 4abb
000003f0: 6bcf 51bc b0ba a63b 44ff 2fbc 1115 39bc
-0.010382306 0.00051450694 0.00698011 0.012289113 0.020752272 -0.00803366 -0.014121768 0.0026509182
-0.009860924 0.008888172 -0.012588423 -0.018118478 0.017339917 -0.008083236 -0.0060966387 0.0060990294
-0.005562616 0.033178624 0.007896105 -0.006406015 0.0031285926 -0.0088381255 -0.016466074 0.010898774
0.0051649953 0.0151186315 -0.013850056 -0.00024866735 -0.023489349 0.009009649 0.0053594196 -0.0017423693
-0.021768112 -0.015751796 0.009610566 -0.004949735 -0.015641222 0.022396198 0.014691705 -0.010353081
0.004584958 -0.008614027 -0.013121624 -0.027126698 -0.0051052603 0.0004450883 -0.019160762 0.019028887
-0.002734906 -0.009927955 -0.0057297926 -0.0077722245 0.004601637 0.0054068905 -0.0029623609 -0.010307293
0.0032320733 0.009342053 0.027718052 -0.0075482302 0.008372632 0.007667525 0.01293291 0.00082459656
-0.004998274 -0.0020344923 0.010639868 -0.019125167 0.0053118076 -0.0128937205 -0.0075312597 -0.018893111
-0.0048007644 0.0074914116 -0.011488622 0.011953681 -0.0012280898 0.015786538 -0.0070694746 -0.0024658686
0.012855946 -0.012043286 -0.015855106 -0.005682823 0.00015066258 0.030102272 -0.014857737 -0.011905428
0.0024801064 -0.0014456676 -0.017538002 0.008643089 -0.0028025964 -0.026997905 0.009692796 -0.0015690778
-0.0040505673 -0.024247004 -0.012021168 -0.009013968 0.0059051407 -0.0112492135 -0.0011640316 0.0021324516
0.009497828 0.0037216514 0.006721083 0.013658056 0.0041110152 -0.0036380696 -0.005195575 0.021132689
-5.1818628e-05 0.0006301855 0.01825041 -0.02413959 -0.0030915877 -0.025225714 0.005738155 0.0037082105
-0.0044868933 -0.028598567 -0.01801162 0.008264281 0.0026488476 -0.0006837199 0.008437647 0.003295088
0.015493405 0.0074326624 -0.005623576 0.0049363156 0.0022600438 -0.007411529 -0.019167703 0.0053235963
-0.003863776 -0.00060741516 -0.020865895 0.021339549 -0.00042495024 -0.017849548 0.008383558 -0.0032142017
0.0056387256 0.0018345354 -0.037909895 -0.015281703 -0.009102965 -0.008150043 -0.007170418 0.008967122
0.0059406757 0.005826835 -0.023637732 0.010657681 -0.0014314634 0.007696282 0.007817938 0.0419269
-0.008559451 -0.008761508 0.0122111235 -0.011852808 -0.009393991 0.010182642 0.00021924617 -0.011176105
-0.008403214 0.00632603 0.022534052 -0.0049168365 -0.004380572 -0.009343491 0.010654474 0.0010183044
0.008926849 0.0057754973 -0.008392135 -0.01835168 -0.008358498 -0.008258109 0.008946948 -0.03105595
0.010675351 -0.0060947225 0.022219334 -0.014288414 0.019840289 -0.0015626185 0.0012279069 -0.016065614
0.0059049 0.02349803 -0.011725308 0.006452253 0.0056355377 0.005812001 -0.0059023495 0.0061799157
0.017166946 0.023008758 0.005136406 -0.0032394798 0.004042736 0.007308316 -0.0079402365 0.011530785
0.019408528 0.0030764223 -0.0067423456 -0.007869832 0.005015589 -0.001876049 0.0056893406 0.005204784
0.0034589127 0.022580655 -0.026199335 -0.0058820173 0.015708791 -0.025641225 0.02140202 -0.014119631
-0.019324109 -0.0060013044 0.011130545 0.018459165 0.02519899 0.011704152 0.0031969885 -0.03384492
-0.0034557949 0.0033931579 -0.0036180126 -0.008378284 0.013659879 -0.020329202 -0.017665135 0.013665445
0.0043847347 -0.0063902973 0.005175449 -0.018561868 0.0020814282 -0.014772004 0.0014660516 0.009040208
0.012537507 0.012921627 -0.0072087455 -0.0030880233 -0.0128058 0.005088173 -0.010742012 -0.0112965265

default.var_encoder.bias f4 [10]
00000000: 870c 44bc 9178 ae3c ceab 0abe 69ac a13b
00000010: bc94 f1ba 6f42 c5be 8f76 97bd 9979 313c
00000020: 0b5f 163d a300 6abd
-0.011965877 0.021297725 -0.13542101 0.004933883 -0.0018431167 -0.38527247 -0.0739566 0.010832214
0.036711734 -0.057129513
