models/mnist-relaxed1E/encoder_z1_-1634483658035301170.pt (torch_old, 516075 bytes, 14 tensors)

default.encoder_cv.0.weight f4 [32, 1, 3, 3]
0.16387779 -0.34765497 0.18872082 0.22609589 -0.015396612 0.21701702 0.1726334 -0.024613332
0.14532977 -0.34215423 -0.40932158 -0.2101751 -0.03302155 -0.033935092 0.20405692 -0.16896991
0.2835665 0.13718235 0.12462468 -0.16889137 -0.13096315 -0.2788171 -0.33185267 0.023834724
0.10616216 -0.28778744 0.36736163 -0.33328867 -0.114474095 0.29630747 0.16336544 0.1109429
0.11879755 -0.22306013 0.09135243 0.09471171 0.11521898 -0.1482645 0.2628662 -0.052680563
-0.25892046 0.19660978 0.14899781 0.22882867 -0.051060714 -0.030089017 -0.22835585 -0.16887966
-0.08692795 -0.25868458 0.27393153 0.3021979 0.16278355 0.27980912 -0.022572426 -0.13261616
-0.09244885 -0.1314517 0.13838358 -0.009821393 -0.0030508908 0.2378565 0.3994934 -0.059189815
0.23641312 -0.2682906 0.14594257 -0.19485533 -0.15795493 -0.33977607 -0.03778894 -0.049031008
0.19359864 -0.26037103 -0.3809501 0.36676368 -0.2157048 -0.06678674 0.13566692 0.03749821
-0.2883246 -0.33743036 -0.30895185 -0.35616398 0.19490156 -0.2138444 0.37310395 0.40720057
0.05018013 -0.17167862 0.018346537 -0.3144188 -0.15200698 0.29271147 -0.2348236 -0.24053493
0.12922996 0.49977311 -0.062210694 0.191761 0.063974604 -0.19655003 -0.24244754 -0.11204276
-0.07140759 0.2138055 -0.0425119 0.47178167 -0.34721375 0.33894825 0.16936906 -0.15558174
0.0077255624 -0.06264603 0.28922224 -0.071630515 -0.24433686 0.20361836 -0.3713329 0.26042533
0.042300858 -0.26811075 0.24532852 0.029090822 0.1630156 -0.18743946 0.25506082 0.102260135
0.24879311 0.054536946 -0.14802843 0.25588897 -0.43505242 0.08215232 -0.21161932 0.034385234
-0.09442187 0.08621056 -0.37162095 -0.16236652 0.3280703 -0.30813327 0.220102 0.30521432
0.26918536 -0.21382637 -0.08454658 -0.077339396 0.16395247 0.0023528163 0.14790192 0.33155248
0.37243715 -0.27281097 0.028839564 -0.24530746 -0.26737285 -0.36904827 -0.1140863 0.20277472
0.25725314 -0.14930929 -0.16696605 0.20907208 0.40824467 -0.31339124 -0.38751045 0.2593563
-0.09287022 -0.35513052 0.036523268 0.14630167 -0.10397287 -0.34880266 -0.15573929 -0.26327723
-0.24798198 -0.40705627 0.061693434 0.08947956 -0.26537788 0.30035168 0.2944126 -0.15644182
-0.070812404 -0.2806479 -0.34686556 0.094195746 -0.3000166 -0.2083352 -0.053455062 0.09822285
0.32882154 0.40645653 0.055568006 -0.061382215 0.16207094 -0.31075114 0.14553142 -0.31259993
0.12826252 -0.0027878082 -0.01773616 -0.11895366 -0.23233922 -0.28853846 0.40391573 -0.25587296
-0.065872766 -0.326723 0.1442479 -0.0070993234 -0.16632882 -0.16652703 -0.24916159 -0.22605745
-0.1770641 0.031953633 -0.11603168 -0.2729702 0.074949004 -0.303109 0.33198264 0.0782698
-0.28894794 0.21709499 -0.21037424 0.35631758 -0.16535181 0.27781507 -0.090108454 0.13278121
-0.4727952 -0.38910443 -0.23182686 -0.20890608 -0.05571975 -0.15507044 -0.29777876 -0.3387521
-0.14706382 0.34002125 0.42466104 -0.21655951 0.23270531 -0.122970596 -0.02711981 0.10752079
0.44384372 -0.25413895 0.04425746 0.2735917 0.023190249 -0.13600017 0.19565243 -0.1489091
00000000: 94cf 273e d5ff b1be 0840 413e ae85 673e
00000010: 1242 7cbc b639 5e3e cfc6 303e e6a1 c9bc
00000020: 54d1 143e d72e afbe 9992 d1be 2438 57be
00000030: 9b41 07bd 86ff 0abd 4cf4 503e 7306 2dbe
00000040: a12f 913e 8879 0c3e 393b ff3d dcf1 2cbe
00000050: 341b 06be 1dc1 8ebe 98e8 a9be 0a41 c33c
00000060: 8c6b d93d e058 93be d316 bc3e d0a4 aabe
00000070: 6571 eabd 9db5 973e 4549 273e 0836 e33d
00000080: 214c f33d e069 64be fc16 bb3d 37f8 c13d
00000090: eef7 eb3d a6d2 17be 6696 863e 93c7 57bd
000000a0: 3991 84be 1354 493e e292 183e 1052 6a3e
000000b0: 0a25 51bd 3e7d f6bc 1ed6 69be caee 2cbe
000000c0: 4807 b2bd 4e72 84be c140 8c3e afb9 9a3e
000000d0: bbb0 263e 2443 8f3e cfe9 b8bc 88cc 07be
000000e0: d355 bdbd 469b 06be 6db4 0d3e e8e9 20bc
000000f0: 74f1 47bb a890 733e 668a cc3e 0571 72bd
00000100: 4816 723e 635d 89be f871 153e 2888 47be
00000110: f0be 21be 21f7 adbe 93c8 1abd bdd4 48bd
00000120: b93e 463e 5a4f 85be e40b c3be 73c8 bb3e
00000130: b8e1 5cbe 7dc7 88bd 45ec 0a3e b997 193d
00000140: 489f 93be acc3 acbe f02e 9ebe 205b b6be
00000150: 4694 473e 07fa 5abe 7b07 bf3e 987c d03e
00000160: ae89 4d3d 85cc 2fbe 7a4b 963c 80fb a0be
00000170: b8a7 1bbe 47de 953e 9975 70be ca4e 76be
00000180: dc54 043e 43e2 ff3e a4d0 7ebd ff5c 443e
00000190: 1e05 833d 6944 49be 2b44 78be ad76 e5bd
000001a0: 243e 92bd d4ef 5a3e f520 2ebd 5e8d f13e
000001b0: 00c6 b1be a08a ad3e 156f 2d3e d250 1fbe
000001c0: b726 fd3b 904c 80bd f014 943e 05b3 92bd
000001d0: 7133 7abe 5581 503e 591f bebe 7856 853e
000001e0: aa43 2d3d d045 89be 6637 7b3e e04f ee3c
000001f0: 90ed 263e 21f0 3fbe 5597 823e c36d d13d
00000200: 9fc3 7e3e 2262 5f3d c494 17be e103 833e
00000210: 31bf debe 7a3f a83d bcb2 58be 88d7 0c3d
00000220: 4160 c1bd 298f b03d 1a45 bebe 6943 26be
00000230: d5f8 a73e a5c3 9dbe 6b62 613e 0d45 9c3e
00000240: aad2 893e 4df5 5abe c226 adbd 1e64 9ebd
00000250: 28e3 273e b531 1a3b 9a73 173e 3fc1 a93e
00000260: 15b0 be3e e1ad 8bbe f340 ec3c e131 7bbe
00000270: 18e5 88be e5f3 bcbe 14a6 e9bd 2da4 4f3e
00000280: afb6 833e 89e4 18be 26f9 2abe fe16 563e
00000290: 7205 d13e d174 a0be c567 c6be 59ca 843e
000002a0: be32 bebd abd3 b5be 6c99 153d 1bd0 153e
000002b0: baef d4bd 4396 b2be 1f7a 1fbe 46cc 86be
000002c0: fdee 7dbe ae69 d0be 41b2 7c3d 0f41 b73d
000002d0: 9cdf 87be b2c7 993e 40bd 963e 4932 20be
000002e0: 1806 91bd 15b1 8fbe 5d98 b1be b3e9 c03d
000002f0: c79b 99be d355 55be b2f3 5abd 1029 c93d
00000300: 4c5b a83e 121b d03e 479b 633d eb6b 7bbd
00000310: edf5 253e c61a 9fbe 3006 153e 190d a0be
00000320: 4057 033e a9b3 36bb 6c4b 91bc fa9d f3bd
00000330: 55ea 6dbe 50bb 93be 0bce ce3e c801 83be
00000340: 4de8 86bd 3d48 a7be b9b5 133e 71a1 e8bb
00000350: 1a52 2abe 1086 2abe 3724 7fbe 9b7b 67be
00000360: 4b50 35be d0e1 023d 04a2 edbd c0c2 8bbe
00000370: dd7e 993d 1a31 9bbe a1f9 a93e eb4b a03d
00000380: fcf0 93be 264e 5e3e 586c 57be 426f b63e
00000390: fc51 29be c73d 8e3e c88a b8bd ccf7 073e
000003a0: 3612 f2be b238 c7be 0564 6dbe 7aeb 55be
000003b0: 643a 64bd c9ca 1ebe 7576 98be ea70 adbe
000003c0: e697 16be 4417 ae3e 2c6d d93e c7c1 5dbe
000003d0: 4d4a 6e3e 02d8 fbbd 5d2a debc dc33 dc3d
000003e0: 7c3f e33e 801e 82be 4f47 353d 3614 8c3e
000003f0: 7af9 bd3c a143 0bbe 1c59 483e a17b 18be

default.encoder_cv.0.bias f4 [32]
-0.17061327 0.07445838 0.11744578 -0.16123164 -0.08835699 -0.026598856 -0.18381739 0.19106828
0.1981764 -0.05001557 -0.13960727 -0.2280937 0.032800626 0.06393832 0.11973473 0.05084221
-0.35765046 0.031467598 -0.10352774 0.07573363 -0.012653633 -0.11004931 -0.0939586 0.27635935
-0.051023643 -0.0519722 -0.030593893 -0.11135379 0.019858772 0.16351706 -0.26066852 0.18864956
00000000: 3fb5 2ebe a37d 983d 6a87 f03d e819 25be
00000010: 82f4 b4bd d8e5 d9bc a03a 3cbe 67a7 433e
00000020: c1ee 4a3e 20dd 4cbd 35f5 0ebe 6591 69be
00000030: f359 063d 18f2 823d 7b37 f53d ec3f 503d
00000040: f61d b7be 2be4 003d 5a06 d4bd 3c1a 9b3d
00000050: 2f51 4fbc 8861 e1bd 5e6d c0bd f97e 8d3e
00000060: 2bfe 50bd cde0 54bd 0ba0 fabc 750d e4bd
00000070: ddae a23c 0471 273e 5876 85be 5a2d 413e

default.encoder_cv.4.weight f4 [64, 32, 3, 3]
0.027419467 -0.008146472 0.0066391076 0.022261474 -0.05548555 -0.04554095 -0.052711315 0.046880003
-0.051540244 0.039259847 0.0790203 -0.06548867 -0.08485822 -0.1692455 0.07785602 -0.048862237
-0.13036913 0.060295697 0.08206196 0.0877933 0.044518266 0.044401538 -0.14347513 0.1643369
0.013319683 -0.1119092 0.14019628 0.10470863 -0.0075601987 0.02782876 0.08336925 -0.09015038
0.08982766 0.04756304 -0.14513291 0.08280199 -0.030336132 0.011982576 0.029292645 0.06498595
-0.0027324394 -0.040503126 0.04409836 -0.042422805 -0.021307979 0.008264453 -0.028422473 -0.054984167
-0.04268204 -0.052879207 -0.07479271 -0.012076007 -0.1124127 -0.023371268 0.07385547 -0.045718577
-0.07061408 0.042149704 -0.010125763 -0.022272548 0.015901452 -0.13347644 -0.06489078 0.0566669
-0.0008818748 0.14449129 -0.04547063 0.0020546422 0.07903336 -0.008078916 0.00846144 0.059685327
0.070476204 0.054838423 0.0036508727 -0.06697524 0.0048496514 0.05152723 0.0048806276 0.06768251
0.054132413 -0.014236137 0.050292786 0.017256735 -0.050141785 0.06621669 -0.021653222 0.02276811
-0.008399665 0.07109743 -0.03717802 0.016231656 -0.027450295 -0.02810389 0.126901 0.061431523
-0.07399283 0.07343057 0.058713894 -0.011095822 0.014740876 -0.05936252 0.01255143 0.031115742
-0.03856049 0.0059067006 -0.028824037 -0.009717078 -0.06377736 -0.01795788 -0.022134997 -0.05574382
-0.044683456 0.00047680124 0.010367403 -0.079928115 0.07488732 -0.06874744 0.0021637208 0.0075316112
0.01187151 0.012469292 0.021659495 0.028425433 -0.011286131 0.054470096 0.024790118 -0.03613324
0.007670531 -0.014719696 0.04450634 -0.011530218 -0.043195218 -0.0071928753 0.02753869 0.01108808
-0.0002815655 0.036940247 0.005697566 0.008855747 0.023556426 0.07355665 -0.0540107 0.036370445
-0.016217042 -0.0075770826 -0.09767252 0.010256435 0.07144084 -0.06087236 -0.007293076 -0.032582007
-0.068856485 0.0025091881 0.08207839 0.030337501 -0.064587 0.022328248 0.07607425 -0.032024316
-0.02854518 0.098980494 0.052621525 -0.04115035 0.16684958 0.08880545 -0.09261954 0.17008376
0.1152777 0.015298294 0.14055358 0.047679856 0.0224995 0.022559503 -0.03903397 -0.039029654
0.07841042 0.02611703 0.0070133046 0.0154679995 -0.018608438 -0.01639479 0.09655168 -0.0016431705
0.01996127 0.097246446 0.07677184 0.020514067 0.05074751 0.03188539 -0.038373243 -0.10583126
0.051155724 0.10070478 -0.104559235 -0.06341776 0.04744868 -0.01233574 -0.016059896 0.033529207
0.110546656 0.03978335 -0.049390916 0.14798295 0.026797583 0.06359584 0.046147056 0.0045448947
-0.025807148 0.1558208 -0.06706957 -0.071158394 0.11848514 -0.025227938 0.010909594 0.02476508
0.007027978 0.07504012 -0.036346626 -0.005934728 0.08093738 0.08528715 0.012240941 0.007402494
0.118060954 -0.07052494 0.03187236 0.022880556 -0.11605799 0.0691284 -0.008631534 0.0069572763
0.0035242494 -0.012936943 0.064138494 0.02774112 0.014981816 -0.060291108 -0.085285656 0.07215311
0.0013400237 -0.10393447 0.09218372 0.07911745 -0.032302555 0.04032951 0.0070631737 0.057643168
-0.04617632 0.04999831 -0.0084936805 -0.016298214 -0.028102264 -0.0009891115 0.20457064 0.10190592
00000000: ca9e e03c c878 05bc df8c d93b b25d b63c
00000010: d144 63bd 2689 3abd d2e7 57bd 3f05 403d
00000020: dd1b 53bd efce 203d 65d5 a13d ec1e 86bd
00000030: 25ca adbd b14e 2dbe fa72 9f3d c523 48bd
00000040: 7c7f 05be 9ff8 763d 1a10 a83d f9cc b33d
00000050: c958 363d 63de 353d 25eb 12be ef47 283e
00000060: cd3a 5a3c a730 e5bd 9d8f 0f3e 7a71 d63d
00000070: 8bbb f7bb 24f9 e33c 7fbd aa3d c3a0 b8bd
00000080: 90f7 b73d 76d1 423d b99d 14be 1794 a93d
00000090: 7b83 f8bc 9152 443c 21f7 ef3c 5b17 853d
000000a0: ba12 33bb 9be6 25bd 7ba0 343d 89c3 2dbd
000000b0: 128e aebc a167 073c 3fd6 e8bc 1437 61bd
000000c0: 5dd3 2ebd de97 58bd ec2c 99bd 72da 45bc
000000d0: a138 e6bd 1a75 bfbc 8941 973d 6743 3bbd
000000e0: 1d9e 90bd 2ba5 2c3d 87e6 25bc eb74 b6bc
000000f0: c343 823c 0cae 08be 75e5 84bd 8d1b 683d
00000100: 9e2d 67ba 86f5 133e 693f 3abd 2da7 063b
00000110: 3edc a13d 6e5d 04bc daa1 0a3c 9a78 743d
00000120: d455 903d 419e 603d 7b43 6f3b 512a 89bd
00000130: d3e9 9e3b 370e 533d aced 9f3b 219d 8a3d
00000140: f3b9 5d3d b03e 69bc cfff 4d3d ff5d 8d3c
00000150: 7961 4dbd 9e9c 873d 1962 b1bc 3084 ba3c
00000160: c09e 09bc 889b 913d fb47 18bd 40f8 843c
00000170: 71df e0bc 213a e6bc 56f2 013e 9f9f 7b3d
00000180: 8e89 97bd c462 963d fb7d 703d 40cb 35bc
00000190: b783 713c 1d26 73bd 83a4 4d3c 71e6 fe3c
000001a0: 9bf1 1dbd ff8c c13b 6320 ecbc 6134 1fbc
000001b0: b49d 82bd 671c 93bc 7454 b5bc a253 64bd
000001c0: 0006 37bd 2efb f939 0adc 293c 5ab1 a3bd
000001d0: 865e 993d 75cb 8cbd 36cd 0d3b bccb f63b
000001e0: b980 423c 004c 4c3c 416f b13c 74dc e83c
000001f0: 77e9 38bc 091c 5f3d a514 cb3c 7300 14bd
00000200: 1459 fb3b e12a 71bc 484c 363d 3de9 3cbc
00000210: 78ed 30bd 36b2 ebbb d298 e13c c7aa 353c
00000220: 159f 93b9 a84e 173d a6b2 ba3b b217 113c
00000230: 68f9 c03c dea4 963d 533a 5dbd 2df9 143d
00000240: 9ad9 84bc 2d49 f8bb 8808 c8bd 9b0a 283c
00000250: 934f 923d 4c55 79bd c1fa eebb b674 05bd
00000260: a104 8dbd 3171 243b b718 a83d 5a86 f83c
00000270: 3046 84bd bbe9 b63c d1cc 9b3d ee2b 03bd
00000280: 95d7 e9bc 49b6 ca3d ab89 573d 458d 28bd
00000290: 9eda 2a3e a2df b53d 50af bdbd 702a 2e3e
000002a0: b716 ec3d b2a5 7a3c 47ed 0f3e f44b 433d
000002b0: df50 b83c b5ce b83c 16e2 1fbd 8fdd 1fbd
000002c0: a495 a03d 62f3 d53c ddcf e53b 7e6d 7d3c
000002d0: b970 98bc 5e4e 86bc e3bc c53d a75f d7ba
000002e0: d185 a33c 2529 c73d 8e3a 9d3d 1e0d a83c
000002f0: 9fdc 4f3d 419a 023d 432d 1dbd 0fbe d8bd
00000300: aa88 513d 4f3e ce3d 2723 d6bd 2ce1 81bd
00000310: 8c59 423d d81b 4abc 0b90 83bc ec55 093d
00000320: 4966 e23d def3 223d 214e 4abd d888 173e
00000330: 9b86 db3c 893e 823d b204 3d3d 57ed 943b
00000340: 8369 d3bc 7d8f 1f3e c55b 89bd 7ebb 91bd
00000350: 56a8 f23d d2aa cebc 27be 323c 23e0 ca3c
00000360: f44a e63b a2ae 993d 33e0 14bd 1b78 c2bb
00000370: 7fc2 a53d 08ab ae3d 3a8e 483c 9f90 f23b
00000380: f1c9 f13d 616f 90bd 978c 023d 0170 bb3c
00000390: d0af edbd 3193 8d3d 476b 0dbc ddf9 e33b
000003a0: 18f7 663b 79f5 53bc 0b5b 833d 5841 e33c
000003b0: 4a76 753c cff3 76bd 3faa aebd 02c5 933d
000003c0: bca3 af3a 98db d4bd d1ca bc3d 5408 a23d
000003d0: af4f 04bd 8e30 253d 3272 e73b 3e1b 6c3d
000003e0: 6223 3dbd 07cb 4c3d 1429 0bbc d583 85bc
000003f0: b836 e6bc 13a5 81ba f77a 513e 0db4 d03d

default.encoder_cv.4.bias f4 [64]
-0.065775104 0.019198857 -0.014727538 -0.02968353 -0.013461945 -0.002117583 -0.04762538 -0.051926613
0.010562008 -0.027881905 -0.093569905 -0.12765253 -0.059945166 -0.028562635 0.019723196 -0.088963814
0.01382973 -0.07053022 0.048929423 -0.051967736 0.0111809885 -0.03681055 -0.0049563083 0.030141432
-0.020412207 -0.056296304 -0.008354567 -0.03010607 0.033650942 -0.047177438 -0.06893421 0.045860145
-0.074488014 -0.10587887 -0.07589761 0.0147181945 -0.061594456 -0.02227189 -0.087699026 0.006282806
-0.071494155 0.0013449503 -0.06668645 -0.060587704 -0.07016741 -0.01755995 -0.011403054 -0.098791
-0.015547212 -0.027207011 0.0016361342 -0.038796272 -0.055865128 -0.05777721 0.003907629 -0.027821098
-0.04514833 -0.0033589385 -0.07046812 -0.014888547 -0.024941716 0.017240766 0.011475584 -0.10998068
00000000: 19b5 86bd ec46 9d3c c64b 71bc e02a f3bc
00000010: 7d8f 5cbc 26c7 0abb d512 43bd 00b1 54bd
00000020: 460c 2d3c 9868 e4bc 94a1 bfbd 58b7 02be
00000030: 1089 75bd 30fc e9bc 8a92 a13c a932 b6bd
00000040: 1896 623c 2672 90bd 386a 483d 1fdc 54bd
00000050: 7730 373c a9c6 16bd 8768 a2bb 2aeb f63c
00000060: 8037 a7bc f496 66bd 98e1 08bc 01a1 f6bc
00000070: 92d5 093d 213d 41bd 612d 8dbd d9d7 3b3d
00000080: 2c8d 98bd 05d7 d8bd 3570 9bbd 9524 713c
00000090: 784a 7cbd 8a73 b6bc 8c9b b3bd ffdf cd3b
000000a0: 876b 92bd 0b49 b03a e892 88bd d02a 78bd
000000b0: eeb3 8fbd e2d9 8fbc e0d3 3abc f052 cabd
000000c0: bcb9 7ebc 3de1 debc 8e73 d63a d7e8 1ebd
000000d0: d5d2 64bd cca7 6cbd 910b 803b 12e9 e3bc
000000e0: 75ed 38bd a321 5cbb 9751 90bd 18ef 73bc
000000f0: 9252 ccbc 823c 8d3c 1604 3c3c 8d3d e1bd

default.encoder_cv.8.weight f4 [128, 64, 3, 3]
-0.049166773 -0.04940673 0.0049885195 0.010528733 -0.031377207 -0.009913913 -0.004138195 -0.046524253
0.023981895 -0.008556823 -0.0648326 0.07075439 -0.06693918 0.052710302 0.021331467 0.014852989
0.019201402 0.060285684 -0.058604173 0.007702396 -0.03756944 -0.012507658 0.021787107 0.059349563
0.042675003 -0.036812387 0.06013198 -0.044972334 -0.11838489 -0.04782151 0.060147002 0.009003828
-0.023160437 0.023079583 -0.051208973 -0.0086258305 -0.019483201 0.04237634 -0.08033895 0.018877082
0.0041282345 -0.093211845 -0.021141276 -0.015929561 -0.008237141 -0.07404759 -0.157752 -0.10563863
-0.010841117 -0.005356602 0.0050334684 -0.089965224 0.0065948917 0.018255878 -0.02685594 -0.03145899
2.8162765e-05 0.05786675 -4.347127e-05 0.01314481 0.039179042 -0.04017947 -0.11805608 -0.06362892
-0.03618709 -0.07745529 0.024579363 0.06545199 0.041851625 0.06083566 -0.03480587 -0.16531229
0.016921174 -0.08160209 -0.10499929 -0.011302887 0.024914462 -0.017110568 0.05653438 -0.007282867
0.009399968 0.062031183 0.037464086 -0.07488416 0.04509895 -0.010630691 0.10097863 0.0056896005
-0.016214492 -0.042970087 -0.04263206 -0.009709577 -0.034873154 0.014915691 -0.0231415 0.02584126
-0.032806855 -0.03274334 -0.030255308 0.010666356 -0.059129532 -0.023904761 0.1176415 0.013039877
0.0039051925 0.0059784497 -0.031309754 -0.05547885 0.0055204453 0.050216768 -0.040250063 -0.06539554
0.002953719 0.049297594 0.11446112 -0.026318934 -0.0015774764 -0.07131269 -0.094011806 -0.034866445
-0.034052517 0.07424934 -0.0121507915 -0.021027923 -0.077249214 -0.04894051 -0.050324913 0.003923497
-0.03331333 -0.060501847 0.012740577 -0.04654884 -0.05360427 0.00064140954 -0.021660104 -0.05787689
0.0065082363 -0.07240882 0.004081217 0.057768557 0.029264683 0.07574434 0.049210895 -0.029166829
-0.032858785 0.0030419184 0.048482366 0.06092916 0.048521128 -0.04205752 -0.0256564 0.04564048
0.048117716 -0.026209084 -0.060780488 -0.14816643 0.045510326 -0.01788352 -0.0021787668 -0.02221954
-0.04192804 -0.11193977 -0.057250243 -0.008270476 0.037117507 -0.011285311 -0.086274266 -0.016560504
-0.03774287 -0.06516687 0.010203642 0.012310844 -0.022905631 -0.0648064 -0.02053145 -0.0028725842
0.027444977 0.017587801 -0.018569887 -0.061069075 0.07411649 0.013185311 -0.065044865 -0.009728525
0.022849921 0.1453224 0.03416599 0.091882706 -0.014316601 -0.0800227 -0.06689281 -0.0997027
-0.0105993375 0.06304112 -0.011818252 -0.052198444 -0.04724086 -0.12586033 0.031964075 -0.047038727
-0.031024348 0.072401345 -0.11699917 -0.028592376 0.086253405 0.055198155 0.03381613 0.022284655
-0.051891185 0.08173512 0.014264912 -0.0016587701 -0.0539733 -0.0033603902 -0.001342281 0.21211639
-0.08910678 -0.054369293 -0.037349485 -0.026190259 0.023278164 0.073937364 -0.07046034 -0.03452403
-0.024634866 -0.08847812 -0.06454392 -0.06044656 -0.07182058 -0.0027219488 -0.015210302 0.035273515
-0.036443215 0.03889638 0.003323008 -0.04452306 -0.055484604 -0.033758525 0.0011375692 -0.0040263785
0.034560077 0.051774524 -0.045292415 0.020527944 -0.06247027 -0.090686776 -0.069890656 -0.018513622
0.03724006 0.066246584 -0.035890628 -0.115182534 -0.12149544 -0.03598029 -0.02777639 -0.023295544
00000000: 1963 49bd b65e 4abd bc76 a33b b580 2c3c
00000010: 6385 00bd f76d 22bc b299 87bb 3790 3ebd
00000020: ae75 c43c eb31 0cbc f4c6 84bd ade7 903d
00000030: 6917 89bd c2e6 573d 54bf ae3c f459 733c
00000040: 424c 9d3c 1fee 763d ee0a 70bd 6164 fc3b
00000050: 6ae2 19bd ecec 4cbc e07a b23c 8718 733d
00000060: fccb 2e3d 96c8 16bd f34c 763d e934 38bd
00000070: c773 f2bd 7de0 43bd b45c 763d cb84 133c
00000080: f5ba bdbc 6511 bd3c 80c0 51bd 5b53 0dbc
00000090: 3c9b 9fbc d092 2d3d bf88 a4bd 1ca4 9a3c
000000a0: 2446 873b dae5 bebd 7830 adbc b67e 82bc
000000b0: 13f5 06bc 43a6 97bd be89 21be 1159 d8bd
000000c0: f19e 31bc 6f86 afbb cbef a43b b03f b8bd
000000d0: f619 d83b 5a8d 953c fd00 dcbc 24db 00bd
000000e0: 143f ec37 af05 6d3d ec54 36b8 545d 573c
000000f0: 347a 203d 3a93 24bd 63c7 f1bd e14f 82bd
00000100: ea38 14bd e1a0 9ebd a95a c93c b10b 863d
00000110: 9c6c 2b3d d02e 793d 9a90 0ebd a047 29be
00000120: 469e 8a3c ff1e a7bd de09 d7bd bf2f 39bc
00000130: 6a19 cc3c 762b 8cbc 9890 673d 1ea5 eebb
00000140: 5302 1a3c 6914 7e3d f173 193d de5c 99bd
00000150: adb9 383d 5a2c 2ebc e2cd ce3d d46f ba3b
00000160: 41d4 84bc 6701 30bd f49e 2ebd eb14 1fbc
00000170: 27d7 0ebd f160 743c 3e93 bdbc 0db1 d33c
00000180: 7b60 06bd e11d 06bd fbd9 f7bc f1c1 2e3c
00000190: cf31 72bd ebd3 c3bc 07ee f03d 35a5 553c
000001a0: 42ee 7f3b dfe6 c33b a83e 00bd ca3d 63bd
000001b0: dae4 b43b 19b0 4d3d 40dd 24bd 19ee 85bd
000001c0: 2f93 413b 46ec 493d 976a ea3d ce9a d7bc
000001d0: 53c3 ceba 630c 92bd 4389 c0bd 1ed0 0ebd
000001e0: a77a 0bbd 0a10 983d 1d14 47bc c042 acbc
000001f0: d634 9ebd d875 48bd 7f21 4ebd ae90 803b
00000200: 8f73 08bd c9d0 77bd dabd 503c ffa9 3ebd
00000210: 2790 5bbd 4424 283a 8870 b1bc 5110 6dbd
00000220: 0b43 d53b 134b 94bd bbbb 853b b99e 6c3d
00000230: 7dbc ef3c d91f 9b3d 5d91 493d 46ef eebc
00000240: ef96 06bd ec5a 473b 7295 463d db90 793d
00000250: 17be 463d 8244 2cbd 5f2d d2bc 83f1 3a3d
00000260: 1517 453d 6fb4 d6bc f6f4 78bd f1b8 17be
00000270: 0969 3a3d 7680 92bc a4c9 0ebb c105 b6bc
00000280: bdbc 2bbd ae40 e5bd 3b7f 6abd e480 07bc
00000290: 8708 183d 06e6 38bc 90b0 b0bd e5a9 87bc
000002a0: 4598 1abd 3576 85bd 2d2d 273c 6cb3 493c
000002b0: 97a4 bbbc 38b9 84bd 9231 a8bc f741 3cbb
000002c0: 4ad4 e03c 4b14 903c e01f 98bc 9123 7abd
000002d0: 63ca 973d 3407 583c 3e36 85bd 6464 1fbc
000002e0: c22f bb3c 65cf 143e a3f1 0b3d 002d bc3d
000002f0: 2d90 6abc f1e2 a3bd 19ff 88bd ee30 ccbd
00000300: d8a8 2dbc b41b 813d 57a1 41bc 09ce 55bd
00000310: a27f 41bd 88e1 00be c3ec 023d aeab 40bd
00000320: c626 febc 2847 943d 439d efbd 8f3a eabc
00000330: a0a5 b03d 7617 623d c882 0a3d 4f8e b63c
00000340: da8b 54bd be64 a73d 61b7 693c 176b d9ba
00000350: 1b13 5dbd fe39 5cbb 7aef afba 0a35 593e
00000360: 9e7d b6bd 56b2 5ebd c6fb 18bd f48c d6bc
00000370: d9b1 be3c 796c 973d 834d 90bd 1269 0dbd
00000380: 0fcf c9bc 0434 b5bd 9a2f 84bd d096 77bd
00000390: ab16 93bd b962 32bb a134 79bc f67a 103d
000003a0: 7b45 15bd d051 1f3d d3c6 593b d05d 36bd
000003b0: d343 63bd 6146 0abd 7d1a 953a b6ef 83bb
000003c0: de8e 0d3d 8611 543d 8a84 39bd 382a a83c
000003d0: d3e0 7fbd fdb9 b9bd d522 8fbd e1a9 97bc
000003e0: 0889 183d 4aac 873d 0d02 13bd d2e4 ebbd
000003f0: 9ad2 f8bd 1260 13bd 508b e3bc 4cd6 bebc

default.encoder_cv.8.bias f4 [128]
-0.07716156 -0.024052393 -0.06251105 -0.025904404 -0.038064558 -0.055655435 -0.048712984 -0.05843796
-0.050000235 -0.032827694 0.005279334 -0.027621765 -0.057382572 -0.047907062 -0.10262969 -0.0025762857
-0.07868719 -0.06492636 -0.10876657 -0.037931785 -0.14658734 -0.035724018 -0.06464195 -0.09151597
-0.06930288 -0.07550903 -0.061665118 -0.03974145 -0.05510624 -0.08141505 -0.0650151 -0.008992478
-0.06585454 -0.06419742 -0.058975205 -0.055899367 -0.04867253 -0.016557615 -0.06251446 -0.06929962
-0.01928624 -0.08777715 -0.06344969 0.018665385 -0.05439534 -0.060741972 -0.106064215 0.019762233
-0.067689195 -0.030078655 -0.03624488 -0.048519287 -0.025327448 -0.11316075 -0.028815538 -0.0049441825
0.015736347 -0.044577833 -0.041725975 -0.093536094 -0.12106033 -0.056881666 -0.0930858 -0.08296295
-0.027524889 0.030458847 -0.033060275 -0.005053528 -0.055920016 -0.008067413 0.02305667 -0.04585388
-0.04736532 -0.0068358183 0.03779054 -0.039258815 -0.029861074 -0.052075174 -0.041901413 -0.05017145
-0.014672363 -0.065943934 -0.03707303 -0.023496173 0.0036663834 -0.092026316 -0.0433398 -0.05714577
-0.012982509 -0.11278085 0.0023655011 -0.08996957 -0.048308834 0.020630227 -0.05908752 -0.0019975859
-0.034693394 -0.06738305 0.006811826 -0.08005157 -0.07507447 -0.05490675 -0.09561732 -0.045218796
-0.046314985 -0.070750676 0.005935155 -0.068957664 -0.055570036 0.010477521 -0.017800115 -0.06909121
-0.033885855 -0.06421463 -0.074983016 -0.07704423 -0.14216815 -0.060604814 -0.035172172 0.026466502
-0.06746821 -0.06746235 -0.019934453 -0.013924469 0.012722771 0.04532712 -0.08386854 -0.009788484
00000000: e106 9ebd 8609 c5bc cb05 80bd 7935 d4bc
00000010: 95e9 1bbd f4f6 63bd 4487 47bd a45c 6fbd
00000020: 0ccd 4cbd 5576 06bd 43fe ac3b 0a47 e2bc
00000030: fd09 6bbd 323a 44bd 842f d2bd e7d6 28bb
00000040: c026 a1bd 1df8 84bd 02c1 debd 5c5e 1bbd
00000050: fe1a 16be 5953 12bd 0063 84bd ba6c bbbd
00000060: abee 8dbd 7aa4 9abd 9094 7cbd eec7 22bd
00000070: 15b7 61bd efbc a6bd a326 85bd 3055 13bc
00000080: bfde 86bd f079 83bd fc8f 71bd bcf6 64bd
00000090: d95c 47bd d6a3 87bc 9507 80bd f6ec 8dbd
000000a0: 2dfe 9dbc 82c4 b3bd e9f1 81bd 26e8 983c
000000b0: a6cd 5ebd 93cc 78bd 3238 d9bd 68e4 a13c
000000c0: a2a0 8abd 8367 f6bc 8375 14bd 29bc 46bd
000000d0: 827b cfbc d3c0 e7bd 900e ecbc cf02 a2bb
000000e0: 83e9 803c 3f97 36bd dbe8 2abd da8f bfbd
000000f0: 7aee f7bd c0fc 68bd c5a3 bebd 7be8 a9bd
00000100: e07b e1bc d584 f93c 366a 07bd 1198 a5bb
00000110: 630c 65bd 2f2d 04bc 57e1 bc3c 47d1 3bbd
00000120: 2302 42bd 00ff dfbb 41ca 1a3d dacd 20bd
00000130: 369f f4bc c74c 55bd d1a0 2bbd 9480 4dbd
00000140: 5a64 70bc 9d0d 87bd e4d9 17bd 0c7b c0bc
00000150: b547 703b 4b78 bcbd 1385 31bd af11 6abd
00000160: 97b4 54bc a5f9 e6bd 8606 1b3b f741 b8bd
00000170: 7cdf 45bd b900 a93c c105 72bd eee9 02bb
00000180: a91a 0ebd 2000 8abd bd35 df3b 14f2 a3bd
00000190: a5c0 99bd e6e5 60bd 03d3 c3bd 5837 39bd
000001a0: c8b4 3dbd bbe5 90bd b07b c23b ad39 8dbd
000001b0: 689d 63bd e9a9 2b3c 8cd1 91bc b17f 8dbd
000001c0: e5cb 0abd f682 83bd b290 99bd 5ec9 9dbd
000001d0: 8794 11be c13c 78bd b210 10bd 47d0 d83c
000001e0: c62c 8abd b329 8abd 944d a3bc 7523 64bc
000001f0: 2b73 503c eea8 393d 45c3 abbd e15f 20bc

default.encoder_fc.0.weight f4 [128, 128]
0.062625416 0.008725643 -0.046743024 0.07892323 -0.004821107 -0.0718796 0.027007192 -0.066744685
-0.022629745 0.03423152 -0.0229555 -0.07038179 0.085403614 -0.079246536 0.043169685 -0.019728564
-0.02908494 -0.044846743 0.027296409 -0.030288853 -0.039138794 -0.07556971 0.07973511 0.058833636
-0.07832289 -0.04559486 0.012342244 -0.08001991 -0.025710464 -0.03442725 0.08128982 0.05663704
-0.030449368 0.0040660203 -0.037579816 -0.029976375 -0.08136317 0.0408194 0.07990942 -0.027439464
-0.031299196 0.02568686 -0.017819837 0.05507108 -0.014083296 0.008344971 0.0063090324 0.010249913
0.029503986 -0.050305612 0.008972317 -0.07010538 -0.08450591 0.04974837 -0.07143655 -0.022903062
-0.03043896 -0.08239165 0.058801852 -0.058939256 -0.014254756 -0.018839598 -0.058942534 0.050636314
-0.073420696 -0.016605392 0.07950423 -0.061829455 -0.06843901 -0.068980925 -0.0513331 0.08495765
0.049441658 0.065958835 -0.049137957 -0.08644703 -0.058241256 -0.028213952 0.08825218 0.05592709
0.016909324 -0.08274119 -0.030045643 0.046340875 -0.068649925 0.05222588 -0.010098994 0.01600089
0.011173479 -0.05975789 -0.029601775 -0.009565726 0.04778152 -0.06197695 0.016724594 -0.017897964
0.039908506 -0.008168049 -0.08681209 0.055230536 0.00221356 0.08195565 -0.003329046 0.025352888
0.04672008 -0.04138952 0.0014211833 -0.00048656762 0.07606181 0.012061283 -0.03863939 0.0010340661
0.062375344 -0.030421741 0.037732966 -0.077872306 -0.0073872805 0.008981906 0.012830615 0.03992509
0.033355065 -0.06340213 -0.03814198 0.074235044 0.047557138 -0.024153002 -0.07618991 -0.053532273
-0.008032389 -0.022702023 0.020383932 0.07471866 0.015998743 -0.039919786 -0.05578306 0.006302774
0.06703923 -0.06554182 -0.04148825 0.07466114 0.0005050525 -0.037750006 -0.07145176 0.014910035
-0.00795842 0.052006833 -0.048612144 0.07002572 0.006821163 0.065591805 0.018602394 2.0176172e-05
-0.07898493 -0.015387572 -0.046822894 -0.05431378 -0.04452957 -0.07731132 0.085258 -0.019002095
-0.070574425 0.005924575 -0.048694897 0.011837281 -0.007398255 -0.0068638995 -0.018090807 -0.056816574
0.057969846 0.02144581 0.08499532 0.03599167 0.032141544 0.047608443 -0.08737698 -0.07654956
-0.06313352 -0.020832598 -0.026762772 -0.043861814 0.021522783 0.03182879 -0.05826299 0.047004722
-0.015932828 -0.065063335 -0.03551014 0.084767796 0.0069031194 -0.042720973 0.024257436 -0.017174706
0.04219734 -0.007201135 0.05284638 -0.04583512 0.053750448 0.023958072 0.010471404 0.0680035
-0.041624963 -0.065342955 0.08447348 -0.038924098 -0.00596869 0.03625124 -0.080674715 0.07227623
0.0018009171 -0.01835256 0.056170754 -0.042944636 -0.07189506 0.0667625 0.036579847 -0.010261662
-0.049105324 0.03980861 0.06282475 -0.07035098 0.008344054 0.04389792 0.030388623 0.058605857
-0.020311654 -0.08409813 0.07676763 0.07508617 0.08156345 -0.041393504 0.07099248 -0.07243183
0.08306561 0.03490048 -0.023342133 0.02568566 0.035168044 0.063915156 0.009222478 -0.028979793
-0.04284617 0.059883617 -0.0053090826 0.012489304 -0.051632293 -0.08173701 -0.021967947 0.005127974
-0.0018746182 -0.011610642 -0.023747638 -0.018183604 0.02429083 0.015025586 -0.031206273 -0.058001883
00000000: c141 803d 00f6 0e3c 9d75 3fbd 81a2 a13d
00000010: 60fa 9dbb 9d35 93bd 303e dd3c 70b1 88bd
00000020: 0462 b9bc 5a36 0c3d 2c0d bcbc 5424 90bd
00000030: 17e8 ae3d 024c a2bd b2d2 303d cc9d a1bc
00000040: 8a43 eebc 38b1 37bd b89c df3c 5420 f8bc
00000050: 0050 20bd 4bc4 9abd 294c a33d 8afb 703d
00000060: c067 a0bd adc1 3abd 2037 4a3c 7be1 a3bd
00000070: c09e d2bc 9703 0dbd 477b a63d 3efc 673d
00000080: f470 f9bc 403c 853b 4bed 19bd 0491 f5bc
00000090: bca1 a6bd 3e32 273d 8da7 a33d bac8 e0bc
000000a0: 9633 00bd 406d d23c e8fa 91bc 3692 613d
000000b0: a0bd 66bc 58b9 083c 00bc ce3b 40ef 273c
000000c0: 58b2 f13c 420d 4ebd a000 133c 6993 8fbd
000000d0: 6f11 adbd f2c4 4b3d 534d 92bd 349f bbbc
000000e0: 205b f9bc f4bc a8bd 36da 703d 4a6a 71bd
000000f0: c88c 69bc 8055 9abc ba6d 71bd 0668 4f3d
00000100: 975d 96bd 0808 88bc 1dd3 a23d e240 7dbd
00000110: c029 8cbd df45 8dbd a842 52bd 47fe ad3d
00000120: 5683 4a3d 6d15 873d e244 49bd 240b b1bd
00000130: 628e 6ebd f220 e7bc 8fbd b43d ce13 653d
00000140: 6c85 8a3c 3774 a9bd 4822 f6bc eecf 3d3d
00000150: 5598 8cbd ceea 553d 4076 25bc 4c14 833c
00000160: f810 373c b0c4 74bd 6c7f f2bc 90b9 1cbc
00000170: 8eb6 433d 8bdb 7dbd 0402 893c c09e 92bc
00000180: 1a77 233d 48d3 05bc 89ca b1bd 6a39 623d
00000190: 6011 113b 5dd8 a73d 202c 5abb dcb0 cf3c
000001a0: 8e5d 3f3d 0f88 29bd 0047 ba3a 001a ffb9
000001b0: 4bc6 9b3d b09c 453c 5644 1ebd 8089 873a
000001c0: 4a7d 7f3d 0437 f9bc e28d 1a3d 847b 9fbd
000001d0: 0011 f2bb d828 133c 8037 523c 7e88 233d
000001e0: 529f 083d fad8 81bd c43a 1cbd 8b08 983d
000001f0: 46cb 423d 84dc c5bc 7509 9cbd a844 5bbd
00000200: 489a 03bc 98f9 b9bc 34fc a63c 1906 993d
00000210: cc0f 833c ee82 23bd c77c 64bd 8087 ce3b
00000220: dd4b 893d ca3a 86bd 95ef 29bd f1e7 983d
00000230: 8065 043a c09f 1abd 4d55 92bd 3849 743c
00000240: 0864 02bc 1e05 553d 871d 47bd a569 8f3d
00000250: 1084 df3b ff54 863d 0c64 983c 0040 a937
00000260: dac2 a1bd 281c 7cbc 5dc9 3fbd 2078 5ebd
00000270: a364 36bd 6655 9ebd bf9b ae3d 48aa 9bbc
00000280: 5389 90bd f022 c23b 4d74 47bd 28f1 413c
00000290: 106d f2bb 90ea e0bb 2c33 94bc 7fb8 68bd
000002a0: ca71 6d3d 20af af3c 0712 ae3d 006c 133d
000002b0: daa6 033d 1201 433d b4f2 b2bd 04c6 9cbd
000002c0: 264c 81bd 20a9 aabc 9a3d dbbc 72a8 33bd
000002d0: 8c50 b03c e85e 023d 2ca5 6ebd 0688 403d
000002e0: 9085 82bc ed3f 85bd 1573 11bd bd9a ad3d
000002f0: 9033 e23b 30fc 2ebd 88b7 c63c f8b1 8cbc
00000300: 1ed7 2c3d 80f7 ebbb 7275 583d 9bbd 3bbd
00000310: 6e29 5c3d b843 c43c 4090 2b3c 6b45 8b3d
00000320: f07e 2abd 87d2 85bd 6f00 ad3d e06e 1fbd
00000330: 0095 c3bb 2e7c 143d c938 a5bd 8f05 943d
00000340: c00c ec3a 1c58 96bc 4e13 663d b7e6 2fbd
00000350: b83d 93bd c7ba 883d c0d4 153d 8820 28bc
00000360: aa22 49bd 5a0e 233d 43aa 803d 2d14 90bd
00000370: 80b5 083c 4ece 333d 90f1 f83c b20c 703d
00000380: a064 a6bc a43b acbd 5938 9d3d c7c6 993d
00000390: bd0a a73d 3c8c 29bd 8164 913d 2457 94bd
000003a0: 4d1e aa3d cef3 0e3d 0038 bfbc bc6a d23c
000003b0: 5e0c 103d f3e5 823d e019 173c 0867 edbc
000003c0: 777f 2fbd 8648 753d d0f7 adbb f09f 4c3c
000003d0: 627c 53bd bc65 a7bd 20f6 b3bc 9008 a83b
000003e0: c0b5 f5ba 903a 3ebc 688a c2bc c8f5 94bc
000003f0: 90fd c63c e02d 763c 4ca4 ffbc 6293 6dbd

default.encoder_fc.0.bias f4 [128]
0.058088638 -0.03464219 0.08058917 0.02501136 -0.049782183 -0.014456958 -0.062471975 -0.01117257
0.070455424 0.087037615 0.08606457 -0.021134928 -0.029111661 0.070098124 -0.043363996 -0.0044932514
0.07735475 0.07085829 -0.039008025 0.01615733 -0.045684528 0.060794033 -0.006523818 -0.046683535
0.049239628 -0.08783245 0.057871766 -0.08406627 0.031354755 -0.041781 0.07967097 -0.04274706
0.074983396 0.014914453 -0.07173708 -0.029415298 -0.030894976 -0.037751194 0.055638857 0.06831653
-0.0370108 0.023329861 -0.04729224 0.045047008 0.083754964 -0.079727605 -0.07773794 -0.009966932
0.07005752 -0.0741483 -0.07398084 0.007872365 0.07744678 -0.046068728 -0.06580786 -0.020048395
-0.06677014 0.02643954 0.07779192 0.0063424036 0.038837157 0.013579279 -0.067607276 -0.017599732
-0.033549514 0.008498415 0.0743567 0.04198522 -0.08336026 0.019850835 0.011504814 0.0514934
-0.011626735 0.0707837 0.07405556 0.035901383 -0.053845968 0.048356526 -0.07913387 -0.06577133
-0.04118457 -0.0460794 -0.06952583 -0.048683602 0.040367864 -0.043644156 -0.08399593 -0.06522599
0.012409799 0.08802316 -0.074989535 0.023271538 -0.07935358 0.0857063 -0.0494315 0.06748166
-0.042355906 -0.054423243 0.06694778 -0.07639187 0.0419574 -0.08799188 -0.008065388 0.06638873
0.08636094 -0.085055225 0.051585414 -0.062320016 0.018018685 0.06014911 0.0029039606 -0.003722474
-0.040936854 0.0059223473 -0.0042695105 0.01362849 0.053398483 0.012169816 -0.037084494 -0.07388201
-0.062793225 -0.076937184 0.06844018 -0.060350113 -0.0378599 0.028969437 0.054135986 -0.08428225
00000000: 5aee 6d3d f8e4 0dbd ef0b a53d a0e4 cc3c
00000010: 67e8 4bbd e0dc 6cbc 9de2 7fbd 280d 37bc
00000020: ef4a 903d c740 b23d 9f42 b03d 2823 adbc
00000030: 947b eebc 9b8f 8f3d 729e 31bd 203c 93bb
00000040: 2b6c 9e3d 271e 913d e1c6 1fbd 605c 843c
00000050: b31f 3bbd 2a03 793d c0c5 d5bb 3c37 3fbd
00000060: 7eaf 493d 80e1 b3bd f20a 6d3d f02a acbd
00000070: d86d 003d 8e22 2bbd 892a a33d 8b17 2fbd
00000080: e590 993d c05b 743c e4ea 92bd 5af8 f0bc
00000090: 7617 fdbc ffa0 1abd 92e5 633d 89e9 8b3d
000000a0: a398 17bd 441e bf3c 82b5 41bd 3683 383d
000000b0: b987 ab3d 3a48 a3bd 1235 9fbd 584c 23bc
000000c0: 517a 8f3d 10db 97bd 4483 97bd 18fb 003c
000000d0: 6b9c 9e3d 90b2 3cbd 45c6 86bd 883c a4bc
000000e0: c8be 88bd bc97 d83c 5f51 9f3d f0d3 cf3b
000000f0: b613 1f3d a07b 5e3c af75 8abd 502d 90bc
00000100: 376b 09bd f03c 0b3c 5348 983d b2f8 2b3d
00000110: c9b8 aabd 389e a23c b07e 3c3c beea 523d
00000120: 107e 3ebc 0bf7 903d 71aa 973d 540d 133d
00000130: 978d 5cbd 7e11 463d f010 a2bd 1eb3 86bd
00000140: 27b1 28bd c1bd 3cbd 8f63 8ebd 7568 47bd
00000150: c658 253d 37c4 32bd 0f06 acbd 3495 85bd
00000160: 7852 4b3c 7d45 b43d 1d94 99bd f4a3 be3c
00000170: 2184 a2bd c986 af3d af78 4abd d333 8a3d
00000180: 637d 2dbd e8ea 5ebd eb1b 893d 5773 9cbd
00000190: 86db 2b3d 1635 b4bd b024 04bc d1f6 873d
000001a0: 01de b03d 6f31 aebd 3a4b 533d 4643 7fbd
000001b0: ec9b 933c ea5e 763d 6050 3e3b c0f4 73bb
000001c0: 67ad 27bd 4010 c23b 40e7 8bbb 084a 5f3c
000001d0: 5eb8 5a3d e863 473c e9e5 17bd 744f 97bd
000001e0: bc99 80bd 3e91 9dbd 5d2a 8c3d ae31 77bd
000001f0: fc12 1bbd 5051 ed3c b2bd 5d3d 2c9c acbd

default.encoder_fc.3.weight f4 [128, 128]
0.010222226 0.007650651 -0.088090055 -0.081921585 0.058674835 0.059102155 0.0062225834 -0.0022012666
-0.00870771 -0.05698117 0.07148159 -0.03618703 0.059509225 0.026318833 0.013103351 0.03372576
-0.058360256 -0.040587056 0.04686836 0.054746516 -0.06781338 0.03417337 0.039309718 0.033185765
0.030893773 -0.009910367 0.069232024 0.081256114 0.063047044 -0.0034874901 -0.07637581 0.075669445
-0.034090657 0.045365267 0.07887561 0.029037692 -0.058621906 0.048293002 -0.079442106 -0.023321934
0.03946329 -0.00043536723 -0.076563194 -0.060619377 0.025983788 0.072131805 -0.08735459 0.051868044
0.063622184 -0.060968596 -0.035476834 -0.04197102 -0.08295563 0.042514436 0.034030363 0.011344381
-0.011751287 -0.074530326 -0.019112594 -0.023560308 0.07699435 0.037303306 -0.045667015 -0.07477245
-0.08500434 -0.052238815 0.079915635 -0.017892905 -0.06271295 -0.08346965 0.07552471 -0.0015265271
0.054154478 0.040025927 0.018121228 0.018639274 -0.032376103 -0.0662734 0.0036486536 -0.08568668
0.07492893 0.065483876 -0.072083 0.02531086 -0.02786307 -0.08419049 -0.07293507 -0.007016979
0.050752155 0.061925985 0.0566049 -0.025303215 -0.03958477 0.072576515 -0.058982998 0.0633916
0.04029631 -0.049177438 0.0027514324 0.065860175 0.013244383 -0.07568155 0.027162388 -0.03797314
0.045182444 0.025448918 0.04044079 0.030203871 0.019810304 0.07635207 0.035050906 -0.0025573522
-0.086699225 0.061502956 -0.08154653 0.028151415 0.00101275 0.028618015 -0.06451716 0.07995369
0.06757591 0.06366996 0.041021742 0.06569127 0.0025875643 -0.0398631 0.026946694 -0.014631107
-0.07315459 0.045063548 -0.087844975 0.039415516 0.039443217 0.06594332 0.07248113 -0.026079204
0.012859426 -0.07158421 0.051075347 0.011321388 0.03956207 -0.05655229 -0.063694 -0.010822348
-0.0610503 0.059056483 0.064456604 -0.02706736 0.07587158 0.0140888095 -0.0018325225 0.060970522
0.06427149 0.026132047 0.00086901337 0.014855087 -0.042600326 -0.0067473426 -0.015980788 0.06413897
0.014424972 0.060999446 -0.08484329 -0.038351968 0.06568647 -0.074259385 0.024109691 -0.07039936
0.004301667 -0.03159077 -0.048081283 -0.008292668 -0.06658767 0.000713408 0.07205046 0.03161572
0.024346165 -0.058766056 0.084751405 0.07092822 -0.08086408 -0.024282739 0.06356297 -0.08669555
-0.013071395 0.053468667 -0.030902997 0.0123654455 -0.08084258 0.03927178 -0.038048804 -0.01550892
0.06382912 -0.06521508 -0.030962486 0.080809005 -0.0616493 0.03394524 0.05292005 -0.048496492
0.086491816 0.028403133 0.07230719 -0.049449272 0.06698228 -0.025523119 -0.024065852 0.023506142
0.013108797 -0.02527079 -0.058065362 0.025060862 0.07123224 -0.075226456 -0.057472013 0.079897694
-0.085112885 0.05355186 0.085654624 -0.0033375472 0.05051265 -0.083463795 -0.018519327 0.063941054
-0.008979872 -0.045534022 -0.05954569 -0.020919986 0.0430435 -0.03723674 -0.031557612 -0.06279588
0.066137426 0.004641652 -0.030559827 -0.021331362 -0.04068903 -0.05837316 -0.049247548 -0.005733952
0.068208195 -0.063930735 -0.017496392 0.062222444 0.08162949 -0.035716757 -0.074767366 0.064148106
-0.039560422 0.030114911 0.01769863 -0.020827517 0.047515474 -0.0155628845 0.011674888 -0.0779996
00000000: 207b 273c 50b2 fa3b 8f68 b4bd 81c6 a7bd
00000010: 0655 703d 1a15 723d d0e6 cb3b 2043 10bb
00000020: c8aa 0ebc 1665 69bd f164 923d da38 14bd
00000030: f2bf 733d 989a d73c 70af 563c 0624 0a3d
00000040: 2a0b 6fbd 9d3e 26bd 0af9 3f3d e23d 603d
00000050: bee1 8abd 60f9 0b3d 3a03 213d cced 073d
00000060: f014 fd3c 185f 22bc 85c9 8d3d 9b69 a63d
00000070: cf1e 813d 608e 64bb ec6a 9cbd 95f8 9a3d
00000080: a5a2 0bbd eed0 393d 8989 a13d 74e0 ed3c
00000090: 861d 70bd e2ce 453d 8bb2 a2bd a40d bfbc
000000a0: 42a4 213d 0042 e4b9 2acd 9cbd 064c 78bd
000000b0: f4db d43c d7b9 933d f7e6 b2bd 9673 543d
000000c0: 594c 823d 35ba 79bd 2850 11bd cee9 2bbd
000000d0: a4e4 a9bd 9e23 2e3d 6c63 0b3d c8dd 393c
000000e0: 7888 40bc 5ba3 98bd 0492 9cbc 8c01 c1bc
000000f0: 37af 9d3d 5acb 183d 560d 3bbd 4c22 99bd
00000100: c116 aebd 5ef8 55bd cfaa a33d 2494 92bc
00000110: a66f 80bd 23f2 aabd b3ac 9a3d c015 c8ba
00000120: 16d1 5d3d 3af2 233d f872 943c 64b1 983c
00000130: ce9c 04bd 59ba 87bd 401e 6f3b 807c afbd
00000140: 5774 993d 691c 863d 40a0 93bd b858 cf3c
00000150: 1841 e4bc 106c acbd fb5e 95bd b0ee e5bb
00000160: 7ee1 4f3d 1aa6 7d3d 8ada 673d b048 cfbc
00000170: a423 22bd ffa2 943d 2898 71bd 75d3 813d
00000180: be0d 253d 486e 49bd 6051 343b b3e1 863d
00000190: f8fe 583c eefe 9abd a883 de3c b989 1bbd
000001a0: 3a11 393d 407a d03c 3ea5 253d 1c6e f73c
000001b0: 3849 a23c 795e 9c3d 8a91 0f3d 4099 27bb
000001c0: 5d8f b1bd 86ea 7b3d de01 a7bd cc9d e63c
000001d0: 40be 843a 5470 ea3c 9321 84bd c3be a33d
000001e0: 3d65 8a3d 6565 823d 6a06 283d 2589 863d
000001f0: 2094 293b 7d47 23bd 50bf dc3c 50b7 6fbc
00000200: 13d2 95bd 8e94 383d 11e8 b3bd 2a72 213d
00000210: 368f 213d 4b0d 873d fd70 943d 0ea4 d5bc
00000220: 58b0 523c be9a 92bd 6234 513d 587d 393c
00000230: d60b 223d 60a3 67bd 0072 82bd 3850 31bc
00000240: e10f 7abd 36e5 713d d301 843d 5ebc ddbc
00000250: 8f62 9b3d c0d4 663c 4031 f0ba 3abc 793d
00000260: c5a0 833d e012 d63c 80ce 633a c062 733c
00000270: ae7d 2ebd d018 ddbb 24ea 82bc 4b5b 833d
00000280: b856 6c3c 8eda 793d 52c2 adbd f416 1dbd
00000290: a186 863d 4e15 98bd b081 c53c 8a2d 90bd
000002a0: 00f5 8c3b 5365 01bd e1f0 44bd f8dd 07bc
000002b0: 1e5f 88bd 0004 3b3a 318f 933d 7c7f 013d
000002c0: 9c71 c73c adb4 70bd 2592 ad3d d142 913d
000002d0: 119c a5bd 98ec c6bc 4d2d 823d 708d b1bd
000002e0: 6829 56bc f601 5b3d 4828 fdbc 7098 4a3c
000002f0: cb90 a5bd 72db 203d 10d9 1bbd 2019 7ebc
00000300: d7b8 823d 7c8f 85bd 0aa5 fdbc 317f a53d
00000310: fa83 7cbd 2a0a 0b3d b2c2 583d 42a4 46bd
00000320: 9f22 b13d b0ad e83c cb15 943d 528b 4abd
00000330: 012e 893d dc15 d1bc c025 c5bc f48f c03c
00000340: 48c6 563c b004 cfbc f2d5 6dbd 704c cd3c
00000350: 35e2 913d 5410 9abd c667 6bbd 67a1 a33d
00000360: aa4f aebd 3259 5b3d b16b af3d c0ba 5abb
00000370: 5ae6 4e3d 11ef aabd d8b5 97bc 87f3 823d
00000380: 5020 13bc e281 3abd 2ee6 73bd 6460 abbc
00000390: 624e 303d 8d85 18bd 8e42 01bd 209b 80bd
000003a0: 0f73 873d 0019 983b 9a58 fabc 1cbf aebc
000003b0: 8aa9 26bd b218 6fbd ccb7 49bd e0e3 bbbb
000003c0: bdb0 8b3d 1eee 82bd 9854 8fbc f6dc 7e3d
000003d0: 5d2d a73d bc4b 12bd a21f 99bd 1560 833d
000003e0: 1c0a 22bd 8cb3 f63c b8fc 903c 789e aabc
000003f0: 969f 423d 78fb 7ebc 0848 3f3c 41be 9fbd

default.encoder_fc.3.bias f4 [128]
0.014343075 0.031386122 0.016217254 4.630536e-05 -0.050460555 0.021292157 -0.0827794 -0.070554584
-0.07343411 0.07313927 0.04375366 -0.033403326 -0.024207748 -0.077767804 0.046685897 0.014086172
-0.04943589 0.07046417 0.076911174 -0.07127206 0.0198289 0.064287625 0.08126926 -0.050581727
-0.06648202 -0.005719885 -0.08564036 0.017277554 -0.04437057 0.06866323 -0.0403571 -0.0637363
0.012474701 -0.047195736 0.046431683 -0.079152316 -0.04721857 -0.014540181 0.061749674 0.02450455
-0.059235845 0.01378341 0.02217368 -0.046760317 -0.05710938 -0.010392055 -0.009078428 0.024148919
0.081207626 -0.0061024725 0.076675124 -0.06495528 -0.0250068 0.0408813 0.04029625 -0.059589047
-0.019831471 0.06583051 -0.04614256 -0.016036905 -0.064888276 -0.005614288 -0.046200342 0.0031948164
0.05888524 0.08667927 0.04835961 0.04185445 -0.058379695 0.05949252 -0.039269734 -0.0020082965
-0.08791088 0.03742511 0.01987087 -0.058776908 0.058420606 0.0750433 0.030603878 0.033058807
-0.0718836 -0.07979153 0.025943637 0.05977533 -0.029255781 -0.010662317 0.0288345 0.047983848
0.080365814 -0.0044923574 -0.01900968 -0.01930765 -0.07147608 -0.00608021 0.06680896 -0.027169142
-0.057424396 -0.04742866 -0.07336512 0.07380328 -0.0050016195 0.08024857 -0.08218359 -0.060688972
-0.047958065 0.07522433 -0.031154677 -0.086670786 0.015554696 0.041019402 -0.0008343905 0.043878086
-0.048850704 0.011063635 0.053876884 -0.012342401 -0.05054836 0.06915449 0.009840101 -0.021514952
0.029636264 0.06694967 0.053252853 0.046591394 -0.00763724 -0.059413083 -0.014471509 -0.02999216
00000000: 38ff 6a3c bc8e 003d 0cda 843c 0038 4238
00000010: baaf 4ebd e46c ae3c 3f88 a9bd ec7e 90bd
00000020: 9f64 96bd 0bca 953d 0a37 333d edd1 08bd
00000030: 544f c6bc ba44 9fbd b639 3f3d b0c9 663c
00000040: 4a7d 4abd 854f 903d 9b83 9d3d 16f7 91bd
00000050: 3870 a23c 3ba9 833d 7f70 a63d c92e 4fbd
00000060: ba27 88bd e06d bbbb 3764 afbd a889 8d3c
00000070: eabd 35bd 4f9f 8c3d 7d4d 25bd 2d88 82bd
00000080: b062 4c3c 5150 41bd 262f 3e3d 9c1a a2bd
00000090: 4268 41bd f039 6ebc 3aed 7c3d c4bd c83c
000000a0: 49a1 72bd d0d3 613c 94a5 b53c bf87 3fbd
000000b0: 86eb 69bd 7043 2abc b0bd 14bc f4d3 c53c
000000c0: 2f50 a63d 40f7 c7bb d907 9d3d 4607 85bd
000000d0: 10db ccbc 2673 273d ae0d 253d a513 74bd
000000e0: 9c75 a2bc 25d2 863d fbff 3cbd d45f 83bc
000000f0: 25e4 84bd 10f8 b7bb 923c 3dbd 2060 513b
00000100: a631 713d e784 b13d ba14 463d 926f 2b3d
00000110: 8c1f 6fbd 6eae 733d 4dd9 20bd a09d 03bb
00000120: 9f0a b4bd 124b 193d 3cc8 a23c 0ec0 70bd
00000130: 724a 6f3d 4db0 993d fcb4 fa3c ac68 073d
00000140: b537 93bd be69 a3bd c087 d43c fad6 743d
00000150: d2a9 efbc 00b1 2ebc 5436 ec3c b68a 443d
00000160: d596 a43d a034 93bb 30ba 9bbc 142b 9ebc
00000170: 0d62 92bd 803c c7bb 23d3 883d d291 debc
00000180: d835 6bbd 8e44 42bd 7440 96bd 2d26 973d
00000190: a0e4 a3bb 5d59 a43d df4f a8bd 0095 78bd
000001a0: ad6f 44bd 370f 9a3d 1838 ffbc 7480 b1bd
000001b0: 20d9 7e3c f603 283d 00bb 5aba 82b9 333d
000001c0: ad17 48bd 4044 353c 02ae 5c3d c837 4abc
000001d0: cc0b 4fbd dfa0 8d3d 6038 213c 2040 b0bc
000001e0: c0c7 f23c e91c 893d aa1f 5a3d 9ed6 3e3d
000001f0: d041 fabb 225b 73bd e819 6dbc 1eb2 f5bc

default.mean_encoder.weight f4 [10, 128]
0.095872134 0.003347516 -0.047591694 0.035657678 0.0004243384 0.013273227 0.11783669 -0.057948515
-0.08055073 -0.059843693 -0.11434721 -0.001083999 0.04253647 0.018490663 0.051413972 0.03524419
0.07965064 0.013995639 0.11481641 0.029145924 -0.05035813 -0.053743906 -0.1213531 -0.14111567
0.06569712 0.01626596 -0.032579735 0.047557827 0.0503043 0.123994306 0.14192964 -0.04237779
-0.069655396 -0.0931493 0.044662453 0.031026494 -0.010660248 -0.0892072 0.109343596 0.17453887
-0.04568774 -0.13171314 0.037742972 0.02244852 -0.020605613 0.11156302 -0.11481577 0.059375342
0.047901116 0.006395417 -0.056248095 0.07007438 0.046266653 -0.04587437 0.008134803 0.1299322
-0.15464363 0.10642564 -0.22338878 0.023784934 0.17362021 0.10523498 -0.0694137 -0.123967625
-0.041428015 0.03953684 -0.019844184 0.002325623 -0.07398129 0.03268324 -0.033207275 -0.1299378
0.08433703 -0.053750712 -0.011751073 0.074265294 -0.034755856 -0.06861251 -0.12200934 0.025715852
0.079580754 -0.13070136 -0.0046800906 0.030009968 0.04905447 -0.11602674 -0.023844415 0.06802804
-0.004255609 -0.12831551 -0.051254567 -0.021357197 -0.028739799 -0.12801103 -0.05768139 0.019579232
-0.07724184 -0.0397882 -0.009902475 -0.024884565 -0.03952207 0.049692117 -0.012346413 0.059664
-0.042651042 -0.105501436 -0.025071172 -0.07686415 -0.050649468 -0.10703933 -0.047646794 -0.01382449
0.1396218 -0.054152805 -0.12940116 0.08323138 -0.17351574 0.075051755 0.08695533 -0.074821375
-0.030022934 0.1238157 0.12816484 -0.060079418 -0.12778872 -0.05674992 -0.014045497 -0.09721808
0.036923543 -0.072300844 -0.022854093 -0.09182318 0.14736256 0.15637355 0.027957374 0.08855006
-0.039130587 -0.03289408 0.054231975 0.03923252 -0.009775992 0.085553974 -0.1449822 0.115484096
-0.09354507 0.05095758 -0.07787544 -0.007525045 -0.08411106 0.03294556 -0.14995274 -0.003987967
-0.0012049713 0.1021727 -0.13311242 0.04820349 0.025628977 0.021353245 -0.010283854 -0.10981794
-0.034352884 -0.028632004 0.031114567 0.04397699 -0.039277814 0.052156966 0.10162959 -0.024918098
0.12474295 0.021384418 -0.038598962 0.044099588 0.066412844 0.099169485 0.046256423 -0.026483724
0.033727895 -0.08003051 0.031575546 0.134021 0.014608432 0.04203004 0.009863669 -0.15100104
0.06270884 0.07308554 -0.08626579 -0.023176106 -0.10124619 0.10469167 -0.024998339 -0.13579012
0.04718431 -0.017659757 -0.06800583 0.09062294 0.023654653 0.14583711 0.021931287 0.12020813
-0.045160342 -0.027041243 0.07965469 -0.08601772 0.089788064 -0.028093038 -0.057135243 -0.042456947
0.12928046 0.12249748 0.029454513 -0.011161559 0.1566501 0.08304828 -0.04744992 -0.12687084
0.029588398 0.100957945 -0.044657778 0.15181613 -0.09452178 -0.108780615 0.10518701 0.023300432
-0.05619252 -0.172119 0.15614061 0.12746796 0.032532442 0.06396062 -0.08160602 0.00073879317
0.08865568 0.0800675 0.116605096 0.059974425 -0.15414698 0.038777538 0.07445315 -0.03488772
0.05979906 -0.024904866 0.011687047 -0.0046171593 -0.20331636 0.18989365 -0.090683006 0.009749055
0.026835198 0.13101774 -0.030213384 0.004940934 0.09389177 0.13046402 0.050590582 0.06672204
00000000: 9c58 c43d 0062 5b3b 82ef 42bd c90d 123d
00000010: bc79 de39 f377 593c 5d54 f13d 6c5b 6dbd
00000020: c8f7 a4bd a91e 75bd df2e eabd f914 8eba
00000030: b93a 2e3d bb79 973c 7597 523d 365c 103d
00000040: e01f a33d f74d 653c de24 eb3d 6fc3 ee3c
00000050: 5444 4ebd 9222 5cbd f987 f8bd a080 10be
00000060: 368c 863d 3140 853c 5472 05bd ffcb 423d
00000070: e20b 4e3d baf0 fd3d 0156 113e 5594 2dbd
00000080: 7da7 8ebd 0fc5 bebd faef 363d 462b fe3c
00000090: 52a8 2ebc 44b2 b6bd 89ef df3d 51ba 323e
000000a0: 1123 3bbd cfdf 06be 6098 1a3d f5e5 b73c
000000b0: 1acd a8bc 277b e43d 8824 ebbd 8f33 733d
000000c0: f633 443d a590 d13b 6764 66bd 2883 8f3d
000000d0: 1a82 3d3d c3e6 3bbd d647 053c f20c 053e
000000e0: e65a 1ebe b0f5 d93d 07c0 64be 9fd8 c23c
000000f0: 7fc9 313e 7085 d73d c528 8ebd bde2 fdbd
00000100: 6cb0 29bd 62f1 213d 4590 a2bc 7b69 183b
00000110: 8183 97bd dcde 053d 5a04 08bd 6a0e 05be
00000120: e5b8 ac3d b529 5cbd 9387 40bc 6718 983d
00000130: 285c 0ebd b784 8cbd 08e0 f9bd 0daa d23c
00000140: 3cfb a23d 94d6 05be 725b 99bb 77d7 f53c
00000150: 57ed 483d 6d9f edbd 5d55 c3bc 4952 8b3d
00000160: a372 8bbb 2465 03be 4ff0 51bd 4af5 aebc
00000170: ba6f ebbc 5315 03be 5243 6cbd a064 a03c
00000180: f830 9ebd f4f8 22bd fe3d 22bc b7da cbbc
00000190: e5e1 21bd f689 4b3d 9c48 4abc 3d62 743d
000001a0: dcb2 2ebd 2311 d8bd 0f62 cdbc f46a 9dbd
000001b0: d175 4fbd 7037 dbbd 4929 43bd 1d80 62bc
000001c0: 04f9 0e3e 55cf 5dbd bd81 04be 3775 aa3d
000001d0: 1cae 31be bcb4 993d a315 b23d f33b 99bd
000001e0: a8f2 f5bc 1693 fd3d a53d 033e d615 76bd
000001f0: 0cdb 02be 9b72 68bd 161f 66bc 461a c7bd
00000200: 243d 173d 7712 94bd 8238 bbbc cb0d bcbd
00000210: 36e6 163e 6320 203e dd06 e53c bc59 b53d
00000220: 6547 20bd f1bb 06bd 5922 5e3d 47b2 203d
00000230: 7b2b 20bc ec36 af3d 3776 14be ed82 ec3d
00000240: 8f94 bfbd e5b8 503d 297d 9fbd a794 f6bb
00000250: 6b42 acbd ecf1 063d 368d 19be 7ead 82bb
00000260: 21f0 9dba ec3f d13d 9f4e 08be 0671 453d
00000270: dcf3 d13c 00ed ae3c 9c7d 28bc 3ae8 e0bd
00000280: 9cb5 0cbd aa8d eabc fae3 fe3c 3721 343d
00000290: c6e1 20bd 8ba2 553d 2d23 d03d 0a21 ccbc
000002a0: 3b79 ff3d 602e af3c f219 1ebd c5a1 343d
000002b0: 7503 883d 5f19 cb3d 6077 3d3d 65f4 d8bc
000002c0: 4326 0a3d 09e7 a3bd 5c55 013d cd3c 093e
000002d0: 3458 6f3c b127 2c3d 3a9b 213c 04a0 1abe
000002e0: 7e6d 803d dfad 953d 1eac b0bd d1db bdbc
000002f0: 2a5a cfbd 9668 d63d 51c9 ccbc 910c 0bbe
00000300: 5644 413d 32ab 90bc a446 8bbd 8598 b93d
00000310: 67c7 c13c 5356 153e 3ea9 b33c ae2f f63d
00000320: 0dfa 38bd 9985 ddbc 0022 a33d 0f2a b0bd
00000330: cee2 b73d 5f23 e6bc a506 6abd 56e7 2dbd
00000340: 1962 043e f5df fa3d 974a f13c f9de 36bc
00000350: e268 203e 3715 aa3d d95a 42bd 6eea 01be
00000360: 5e63 f23c 0ac3 ce3d 13eb 36bd b075 1b3e
00000370: a394 c1bd 5fc8 debd 496c d73d 8ce0 be3c
00000380: 212a 66bd f73f 30be 53e3 1f3e f686 023e
00000390: bd40 053d c9fd 823d 0f21 a7bd 92ab 413a
000003a0: 1c91 b53d 6efa a33d a7ce ee3d bea7 753d
000003b0: b5d8 1dbe 32d5 1e3d e57a 983d 6de6 0ebd
000003c0: dcef 743d 4a05 ccbc 077b 3f3c 8a4b 97bb
000003d0: 2a32 50be 7b73 423e 03b8 b9bd 80ba 1f3c
000003e0: 7dd5 db3c 8429 063e 0f82 f7bc 8fe7 a13b
000003f0: 544a c03d 5c98 053e 1238 4f3d 91a5 883d

default.mean_encoder.bias f4 [10]
-0.18208447 0.19647638 -0.031749055 0.042375956 0.13096407 -0.11216828 0.05786365 -0.12442018
0.15230152 -0.12250653
00000000: 5a74 3abe 1b31 493e 4c0b 02bd 6992 2d3d
00000010: 721b 063e 7cb8 e5bd 6f02 6d3d 02d0 febd
00000020: eef4 1b3e b4e4 fabd
